model/BA200_p0.4_m50_n50_diff_pool.pt (torch, 754689 bytes, 113 tensors)

gnn1_pool.conv1.lin_rel.weight f4 [64, 2]
0.29870394 0.55409074 0.13709722 0.592304 0.54621917 0.23354991 -0.29415518 0.6887984
0.430737 -0.5020073 0.13182448 0.21288463 0.5633253 -0.4299881 0.061876126 -0.6656729
-0.4382252 0.30464923 -0.7771475 0.08853827 -0.5224248 -0.036381647 -0.45038357 -0.14424767
-0.23855138 0.54069227 -0.25046456 0.2788573 0.3162532 0.32469735 0.62997663 -0.104213655
0.50034165 0.32601503 0.7745811 -0.41864976 0.05940497 -0.6632554 0.69828546 -0.4586449
-0.025735945 -0.42060497 -0.42498118 -0.18167424 0.019700076 -0.29220638 0.6587844 0.010001905
-0.2735072 0.13130458 -0.1537662 -0.6514919 -0.57999974 -0.49774423 0.04948927 0.7192812
-0.15427372 -0.19647567 -0.38027778 -0.16005903 0.36065343 0.68243444 -0.34254503 0.62216425
0.54083824 -0.6082463 -0.17992036 0.13274989 -0.2743415 0.6402253 -0.16683467 -0.55324614
0.4850758 -0.4954422 0.5019798 0.57107836 0.41912594 -0.34042493 -0.6564585 0.5147141
-0.5773113 -0.580634 0.6283119 -0.62648726 -0.12574543 0.44528204 0.5490509 0.5060602
0.24344043 0.09441153 0.35097393 0.5364939 0.45903274 0.1129777 -0.44294277 0.68036675
-0.23900938 -0.28652593 0.7952309 -0.6450544 0.4993771 -0.5769897 -0.43829367 0.1200424
-0.378891 0.12500502 -0.4962482 -0.099195644 -0.6534096 0.6996491 -0.7289265 -0.06104961
-0.56747353 0.18109989 0.2722723 0.41616005 -0.27322406 -0.1822355 0.29601428 0.09679629
-0.7460627 0.0038360076 -0.48378432 0.56995517 0.40828326 -0.6368864 -0.51503396 -0.6830871
00000000: b9ef 983e e4d8 0d3f 3763 0c3e 3ca1 173f
00000010: 05d5 0b3f b527 6f3e 829b 96be 1855 303f
00000020: 8f89 dc3e 8d83 00bf fffc 063e 6efe 593e
00000030: 1636 103f 6627 dcbe d271 7d3d 8a69 2abf
00000040: 0e5f e0be fcfa 9b3e 23f3 46bf 8d53 b53d
00000050: a2bd 05bf ec04 15bd ad98 e6be a9b5 13be
00000060: d046 74be cf6a 0a3f e43c 80be 62c6 8e3e
00000070: f0eb a13e bb3e a63e 2646 213f f86d d5bd
00000080: 6416 003f 71eb a63e f24a 463f 4359 d6be
00000090: a052 733d 1bcb 29bf d6c2 323f 81d3 eabe
000000a0: 30d4 d2bc 8959 d7be 2297 d9be d008 3abe
000000b0: 0e62 a13c 139c 95be 18a6 283f 08df 233c
000000c0: 2309 8cbe b574 063e e374 1dbe 2cc8 26bf
000000d0: dd7a 14bf 55d8 febe 43b5 4a3d d022 383f
000000e0: eef9 1dbe eb30 49be c5b3 c2be 84e6 23be
000000f0: 91a7 b83e 06b4 2e3f 1062 afbe 2846 1f3f
00000100: 6074 0a3f 08b6 1bbf 0b3d 38be 96ef 073e
00000110: 7d76 8cbe cee5 233f b5d6 2abe 8aa1 0dbf
00000120: db5b f83e 9aaa fdbe c081 003f 3132 123f
00000130: ad97 d63e 2d4c aebe aa0d 28bf 4ec4 033f
00000140: acca 13bf 6ea4 14bf 0cd9 203f 7861 20bf
00000150: 69c3 00be 02fc e33e 9a8e 0c3f 298d 013f
00000160: 7348 793e d55a c13d dbb2 b33e aa57 093f
00000170: 5706 eb3e da60 e73d 65c9 e2be 842c 2e3f
00000180: e0be 74be 87b3 92be 4194 4b3f 4922 25bf
00000190: 5bae ff3e 99b5 13bf 0768 e0be cad8 f53d
000001a0: 00fe c1be 5101 003e 3e14 febe 1627 cbbd
000001b0: da45 27bf 341c 333f ed9a 3abf 280f 7abd
000001c0: f245 11bf 4072 393e 4667 8b3e ee12 d53e
000001d0: 06e4 8bbe f19b 3abe 2f8f 973e 223d c63d
000001e0: f7fd 3ebf 8765 7b3b 94b2 f7be 95e8 113f
000001f0: 810a d13e fd0a 23bf 44d9 03bf ccde 2ebf

gnn1_pool.conv1.lin_root.weight f4 [64, 2]
-0.41328102 0.62532777 0.40576547 -0.5140437 0.08183516 -0.07385649 -0.6493262 0.05032706
-0.03313577 0.07886748 0.44550183 0.117363825 0.3085413 -0.11567616 -0.2407261 -0.049633224
0.6612292 0.3191949 0.21613945 -0.11333703 -0.511725 -0.5673714 -0.17070283 0.015884895
0.65092707 -0.20615476 -0.4188011 -0.28451684 0.6035214 -0.7551755 0.30858192 0.22958617
0.5415949 0.3303715 0.41301942 0.3441892 0.057783835 -0.5647202 -0.44135132 -0.6262232
0.20064615 -0.28014147 -0.66974926 -0.5950428 -0.088851005 0.5878193 0.16718572 -0.119956374
-0.3980941 0.45750472 -0.6432667 -0.4677791 -0.1624401 0.61933374 -0.027189739 -0.6877145
0.12406253 0.66744554 -0.6507633 0.7279703 -0.3520553 -0.543631 -0.14505327 0.51189196
-0.732248 -0.112214796 -0.17796004 0.4243727 -0.12732065 0.020229964 -0.23511249 -0.5375517
0.0776888 0.08740391 -0.08383486 0.60115325 0.48553562 -0.0147357015 0.28457382 -0.3216152
-0.46745607 0.070652366 -0.130906 -0.1493938 -0.4513402 -0.36525124 0.96837246 -0.09710339
0.7868619 -0.5759931 -0.35452312 0.50158423 0.62995225 0.32581842 -0.39996237 0.13018961
-0.27685136 0.5695635 -0.42033452 0.2362199 -0.00070172467 0.42630258 -0.25748444 -0.009984166
-0.46863872 0.17557803 -0.5416705 -0.26615548 -0.59437746 0.24420162 -0.40576974 0.11050623
-0.49825665 0.17850593 -0.3977447 -0.8210833 -0.6214326 0.9207255 0.098570846 -0.15116845
-0.4716303 0.22682486 0.21529338 -0.59409785 -0.27270147 -0.3832685 -0.16148388 0.28921452
00000000: 9299 d3be 7b15 203f 7ec0 cf3e 5e98 03bf
00000010: 3199 a73d 1242 97bd 3e3a 26bf bf23 4e3d
00000020: 60b9 07bd 4685 a13d d118 e43e 725c f03d
00000030: 20f9 9d3e 9fe7 ecbd e780 76be 354c 4bbd
00000040: 5146 293f 846d a33e a953 5d3e 3f1d e8bd
00000050: 6900 03bf 413f 11bf b9cc 2ebe 0a21 823c
00000060: 28a3 263f 3c1a 53be 196d d6be 31ac 91be
00000070: 6180 1a3f 2e53 41bf 73fe 9d3e a318 6b3e
00000080: f7a5 0a3f 7426 a93e 4877 d33e 9139 b03e
00000090: beae 6c3d 8191 10bf cdf8 e1be 2a50 20bf
000000a0: 2f76 4d3e b46e 8fbe b074 2bbf ba54 18bf
000000b0: 84f7 b5bd 537b 163f bc32 2b3e b0ab f5bd
000000c0: fdd2 cbbe 0f3e ea3e 20ad 24bf be80 efbe
000000d0: b356 26be a88c 1e3f 04bd debc 0f0e 30bf
000000e0: 7f14 fe3d b6dd 2a3f 6c98 26bf 435c 3a3f
000000f0: 9840 b4be 672b 0bbf d888 14be 5a0b 033f
00000100: 9b74 3bbf dfd0 e5bd 283b 36be 6147 d93e
00000110: 5860 02be 4fb9 a53c 54c1 70be fd9c 09bf
00000120: 4e1b 9f3d d200 b33d 9cb1 abbd 2ee5 193f
00000130: 2098 f83e 036e 71bc a9b3 913e bfaa a4be
00000140: 6756 efbe 30b2 903d 390c 06be b0fa 18be
00000150: 1016 e7be 3602 bbbe 42e7 773f 24de c6bd
00000160: c86f 493f 4974 13bf 0e84 b5be d367 003f
00000170: 8d44 213f acd1 a63e dec7 ccbe 6d50 053e
00000180: 76bf 8dbe eace 113f 1636 d7be a1e3 713e
00000190: f2f3 37ba 5544 da3e 00d5 83be a194 23bc
000001a0: 6af1 efbe baca 333e ebaa 0abf 8845 88be
000001b0: 1f29 18bf fd0f 7a3e 0dc1 cfbe 1751 e23d
000001c0: 7f1b ffbe 42ca 363e 31a5 cbbe 8432 52bf
000001d0: 3516 1fbf abb4 6b3f 83df c93d e7cb 1abe
000001e0: 8779 f1be c744 683e de75 5c3e cc16 18bf
000001f0: 879f 8bbe c53b c4be 085c 25be ed13 943e

gnn1_pool.conv1.lin_root.bias f4 [64]
-0.18577951 0.340912 0.35666808 0.5284731 -0.051849097 0.5882389 -0.21462047 -0.59874856
0.30456668 -0.23976687 0.4912286 -0.53469515 0.26322335 -0.20029624 0.4231008 0.1366486
-0.52335477 0.08460805 -0.61422193 0.51809347 0.72432274 0.109041564 0.17872953 0.37041622
0.1414423 0.5615429 -0.22560938 -0.062410336 -0.52018774 0.54125214 -0.607906 -0.6849851
0.13888 0.030038562 0.40394893 0.19173706 -0.3113368 -0.4882875 0.08931631 -0.30670208
-0.6787767 -0.6253713 0.5837608 0.30377808 0.3523707 0.25968218 -0.43454266 -0.13060732
0.34625608 0.5741663 -0.40108192 -0.31823745 0.26001748 0.3587823 0.34962082 0.43879184
0.19922842 0.56554383 0.21362336 0.620566 0.44440135 0.386679 -0.44059294 0.18363382
00000000: fc3c 3ebe 058c ae3e 339d b63e 034a 073f
00000010: b85f 54bd d396 163f 78c5 5bbe 9647 19bf
00000020: 2af0 9b3e 7285 75be 5182 fb3e c8e1 08bf
00000030: 36c5 863e 751a 4dbe aba0 d83e 9ced 0b3e
00000040: 94fa 05bf fc46 ad3d a63d 1dbf c6a1 043f
00000050: 376d 393f 2f51 df3d e004 373e 32a7 bd3e
00000060: 40d6 103e 47c1 0f3f 2506 67be fba1 7fbd
00000070: 062b 05bf 808f 0a3f ba9f 1bbf 2f5b 2fbf
00000080: 8f36 0e3e 6e13 f63c 65d2 ce3e b856 443e
00000090: 8967 9fbe d200 fabe 78eb b63d 0e08 9dbe
000000a0: 4fc4 2dbf 5518 20bf 5971 153f cd88 9b3e
000000b0: ef69 b43e 10f5 843e 607c debe edbd 05be
000000c0: 7a48 b13e 90fc 123f 9c5a cdbe 05f0 a2be
000000d0: 0321 853e 50b2 b73e 8001 b33e 53a9 e03e
000000e0: 8902 4c3e 7bc7 103f 15c0 5a3e 6add 1e3f
000000f0: 9388 e33e cafa c53e 6695 e1be 810a 3c3e

gnn1_pool.bn1.weight f4 [64]
0.84522593 0.55086094 0.6145445 0.8196976 1.3074448 0.68152404 1.3215045 1.0
0.8263335 1.1968875 1.0324376 1.0 0.80238587 1.0 0.9223416 0.8577994
0.53598356 0.7286193 1.0 1.392459 0.86380476 1.0 0.6326864 0.5654138
0.8585289 1.0 1.0 0.9918737 0.9953448 0.79956704 1.0 0.89994586
1.3251698 0.79349095 0.6924018 1.0 1.2420114 0.8174416 0.9353947 1.2948302
1.0 1.0 0.8111838 0.79479593 0.78008837 0.816645 0.6598879 0.7934033
0.8497094 0.7930343 1.3430333 1.0 0.8182433 1.0 0.910705 0.7847947
0.846792 0.7640557 0.7934364 0.78824323 0.8016325 0.85905343 1.0 1.0
00000000: ba60 583f 3905 0d3f ca52 1d3f b4d7 513f
00000010: 5a5a a73f 5c78 2e3f 0f27 a93f 0000 803f
00000020: 988a 533f 9c33 993f ea26 843f 0000 803f
00000030: 2969 4d3f 0000 803f 941e 6c3f be98 5b3f
00000040: 3836 093f cb86 3a3f 0000 803f 193c b23f
00000050: 4f22 5d3f 0000 803f bcf7 213f f5be 103f
00000060: 8dc8 5b3f 0000 803f 0000 803f 6feb 7d3f
00000070: ebce 7e3f 6db0 4c3f 0000 803f da62 663f
00000080: 2a9f a93f 3922 4b3f 3f41 313f 0000 803f
00000090: 3bfa 9e3f da43 513f 0776 6f3f ffbc a53f
000000a0: 0000 803f 0000 803f bea9 4f3f bf77 4b3f
000000b0: dfb3 473f a60f 513f 6aee 283f 7b1c 4b3f
000000c0: 8e86 593f 4c04 4b3f 84e8 ab3f 0000 803f
000000d0: 6578 513f 0000 803f f623 693f 4ee8 483f
000000e0: 5cc7 583f 2899 433f a61e 4b3f 4fca 493f
000000f0: ca37 4d3f edea 5b3f 0000 803f 0000 803f

gnn1_pool.bn1.bias f4 [64]
0.09553256 0.09196574 -0.106996566 0.13060296 0.031046214 -0.14960064 -0.0058450024 0.08003776
0.05729523 -0.02448413 -0.0007294726 -0.02194621 -0.029953731 -0.1527909 -0.039718717 -0.14476489
-0.084034696 0.026312554 0.12714636 0.006056545 -0.06314371 0.14871904 0.07158463 -0.09883149
0.023050863 -0.0046261256 -0.00029155065 -0.11942305 0.093661554 0.04922979 -0.100346334 0.15965112
-0.10536263 -0.10955381 0.080880895 -0.15609434 0.04518915 0.013985 -0.040021736 -0.021704236
0.08001579 -0.13582358 0.05983016 0.029466897 -0.05164687 0.05295528 -0.025442932 0.13409702
0.038459536 -0.025146678 -0.088500865 0.0025779607 0.0320114 -0.11892331 0.12263285 0.17219377
0.027637694 -0.03583467 0.07180574 -0.026504917 0.104893416 0.08583351 -0.15744825 -0.09883837
00000000: 93a6 c33d 8958 bc3d 0421 dbbd c8bc 053e
00000010: a154 fe3c e930 19be 6f87 bfbb d6ea a33d
00000020: 67ae 6a3d f192 c8bc 143a 3fba 8ac8 b3bc
00000030: 8761 f5bc 3875 1cbe 18b0 22bd 3f3d 14be
00000040: 621a acbd 6d8d d73c a832 023e fb75 c63b
00000050: 7d51 81bd ce49 183e f69a 923d 2a68 cabd
00000060: 2ad5 bc3c c196 97bb 44db 98b9 1294 f4bd
00000070: a1d1 bf3d 2da5 493d 6182 cdbd 957b 233e
00000080: 5dc8 d7bd bf5d e0bd e2a4 a53d 32d7 1fbe
00000090: 4218 393d 5721 653c d5ed 23bd 15cd b1bc
000000a0: 52df a33d 5615 0bbe 7810 753d 9064 f13c
000000b0: ab8b 53bd a3e7 583d b26d d0bc bb50 093e
000000c0: bf87 1d3d 6800 cebc f13f b5bd 01f3 283b
000000d0: 631e 033d 108e f3bd ef26 fb3d 9053 303e
000000e0: 7268 e23c 60c7 12bd e30e 933d d720 d9bc
000000f0: 5cd2 d63d 7bc9 af3d 1d3a 21be c56b cabd

gnn1_pool.bn1.running_mean f4 [64]
0.5746591 0.6541626 0.65892005 0.7446956 0.012622385 1.0225677 0.041990194 0.0
0.8637802 0.006040094 6e-45 0.0 0.72155225 0.0 0.5205784 0.49023065
0.2614553 0.35386115 0.0 0.05899956 0.3145946 0.0 0.333754 0.5447259
0.39430824 0.0 0.0 0.14936788 6e-45 0.6494858 0.0 0.16049461
0.0067528994 0.31881112 0.7642342 0.0 0.0025474208 0.40807414 0.21212257 0.0624808
0.0 0.0 0.4786085 1.1358821 0.49876627 0.916407 0.21426545 0.28663749
0.39353323 0.34758228 0.0068862033 0.0 0.27716342 0.0 0.6618309 0.21096928
0.24419601 0.28599006 0.5702798 0.71505684 0.31545615 0.41356263 0.0 0.0
00000000: dc1c 133f 3377 273f fcae 283f 5fa4 3e3f
00000010: 1fce 4e3c 80e3 823f e9fd 2b3d 0000 0000
00000020: b320 5d3f fbeb c53b 0400 0000 0000 0000
00000030: a6b7 383f 0000 0000 a044 053f 83ff fa3e
00000040: 78dd 853e 4a2d b53e 0000 0000 86a9 713d
00000050: 8b12 a13e 0000 0000 cee1 aa3e 2873 0b3f
00000060: c5e2 c93e 0000 0000 0000 0000 e5f3 183e
00000070: 0400 0000 b444 263f 0000 0000 b358 243e
00000080: 6d47 dd3b 363b a33e daa4 433f 0000 0000
00000090: a1f2 263b 18ef d03e a936 593e deeb 7f3d
000000a0: 0000 0000 0000 0000 2c0c f53e 9664 913f
000000b0: 4b5e ff3e a699 6a3f 6768 5b3e 26c2 923e
000000c0: 307d c93e 4ef6 b13e a9a5 e13b 0000 0000
000000d0: 5de8 8d3e 0000 0000 c06d 293f 5508 583e
000000e0: 850e 7a3e 4a6d 923e dbfd 113f f70d 373f
000000f0: 7883 a13e 7bbe d33e 0000 0000 0000 0000

gnn1_pool.bn1.running_var f4 [64]
0.20894234 0.18251263 0.014168753 0.19482727 0.0020810126 0.02363623 0.012561997 6e-45
0.03976549 0.00039667645 6e-45 6e-45 0.16079645 6e-45 0.42705268 0.03410001
0.014460875 0.08253691 6e-45 0.018502487 0.07565369 6e-45 0.070784725 0.054261282
0.10148472 6e-45 6e-45 0.046079364 6e-45 0.2661103 6e-45 0.03286393
0.0012466938 0.06611742 0.058814507 6e-45 0.0005089375 0.104730256 0.07093131 0.019852582
6e-45 6e-45 0.022417719 0.27131268 0.39235368 0.18529025 0.03557638 0.069566526
0.097440675 0.094150476 0.0011041678 6e-45 0.054250374 6e-45 0.24141875 0.038391914
0.05060727 0.039398782 0.20452863 0.020110926 0.07573253 0.13262917 6e-45 6e-45
00000000: fbf4 553e 97e4 3a3e 0f24 683c cd80 473e
00000010: 9961 083b c4a0 c13c d6d0 4d3c 0400 0000
00000020: 23e1 223d 03f9 cf39 0400 0000 0400 0000
00000030: d3a7 243e 0400 0000 a6a6 da3e 74ac 0b3d
00000040: 4eed 6c3c 1d09 a93d 0400 0000 8792 973c
00000050: 52f0 9a3d 0400 0000 95f7 903d 1441 5e3d
00000060: 39d7 cf3d 0400 0000 0400 0000 b7bd 3c3d
00000070: 0400 0000 9c3f 883e 0400 0000 549c 063d
00000080: 1a68 a33a 9268 873d 7be7 703d 0400 0000
00000090: 386a 053a d17c d63d 6f44 913d e2a1 a23c
000000a0: 0400 0000 0400 0000 5da5 b73c 7fe9 8a3e
000000b0: 95e2 c83e babc 3d3e 8ab8 113d e578 8e3d
000000c0: fa8e c73d f7d1 c03d b9b9 903a 0400 0000
000000d0: a435 5e3d 0400 0000 7a36 773e d740 1d3d
000000e0: 9249 4f3d 9e60 213d f46f 513e abbf a43c
000000f0: a819 9b3d f1cf 073e 0400 0000 0400 0000

gnn1_pool.conv2.lin_rel.weight f4 [64, 64]
-0.08170522 0.18887892 0.04464574 0.053005736 -0.47640872 0.15224984 0.24927308 -0.22021264
0.22756334 0.0005467493 -0.03583059 0.07895638 0.32858032 0.13215147 0.13441558 -0.1903677
0.07115389 -0.13285209 -0.23731492 0.108783394 0.13535558 -0.17654005 -0.41653657 -0.1096853
0.12952602 0.05805913 -0.005964438 0.026880523 0.011201362 -0.14076746 0.1888992 0.13519944
-0.19696307 0.04058221 0.020065106 0.0895142 -0.31971037 -0.17674163 0.06030294 -0.12252139
-0.0025892798 0.043866396 0.07515417 0.11820984 0.21666087 -0.13392043 0.027580962 0.32991266
-0.2699394 -0.17794551 -0.19128643 0.014907067 0.15144083 0.06261017 0.08340814 0.21135464
0.17744148 0.22226271 -0.1713222 -0.10324066 0.031387463 0.026637577 0.23301628 0.23224087
0.1311706 -0.045777876 0.026656443 -0.05292174 -0.2621784 -0.08738267 0.020447645 -0.28744325
-0.06354841 -0.22519727 -0.03672743 0.10593853 -0.0012053957 0.25363842 0.01981215 -0.03757061
0.006829174 0.0036602656 -0.16994795 -0.07285575 -0.013511284 -0.25868946 0.08967361 0.09812546
0.15773803 -0.013781137 0.22899763 -0.17039762 -0.26897147 0.15247545 0.1332881 -0.05739117
-0.18226248 0.050292112 0.017398873 0.22824709 0.0019823224 -0.0011822626 -0.12389711 -0.2067263
-0.23768918 0.08018612 0.07141533 -0.18875585 -0.022420619 0.017768772 0.045266867 -0.01131203
0.03545149 -0.05936372 -0.20183064 -0.087852724 0.017504178 0.18259442 0.08350305 -0.07895757
0.09278035 -0.11411464 0.10894339 -0.10909151 -0.02879088 -0.018190673 0.17663807 0.21757054
0.15341897 -0.07721128 0.05130184 0.005369653 0.15738279 -0.08442094 0.14454296 -0.055971365
-0.16372114 0.088670164 0.05612588 0.11754541 -0.2329665 0.14470649 -0.22412129 0.034763202
0.12929282 0.16043031 0.03646404 0.14769004 0.027284356 -0.13569406 0.25820947 0.14085616
-0.030774094 -0.0027346562 0.048505858 -0.021388585 -0.16262133 0.121456414 0.0029032207 -0.17597438
0.035979338 -0.089097284 -0.04674277 0.18860641 0.1044739 -0.00894744 -0.10396797 0.108714044
-0.025526239 0.19962017 -0.057686854 -0.056851547 -0.0743425 0.16656142 0.10904068 -0.044092637
0.13588466 0.11563179 0.0711293 -0.14818984 0.058486715 -0.007951242 -0.19512895 0.008552838
-0.07260906 -0.058333185 0.14313547 0.0074739563 -0.21665037 -0.093413845 0.2136285 0.052684184
0.00872868 -0.19520326 0.0785967 -0.002362902 -0.13468404 -0.15237223 0.27824122 -0.060582377
-0.043347217 -0.22540465 -0.08225076 0.14861004 -0.1810477 0.053631905 0.058052603 0.17529467
-0.020433394 0.17220761 -0.16330007 -0.033587877 -0.027718375 -0.16340636 0.17227651 0.12124675
0.014230377 0.02658683 -0.046496823 -0.29681167 -0.11831666 0.061274756 0.037364293 -0.09791635
0.00041567965 0.10505705 -0.101480275 0.117557324 -0.06407343 0.06459755 0.14984012 -0.23445313
-0.027288638 0.0704713 -0.12501903 -0.025224179 -0.13728589 0.032120876 0.042502943 -0.06769402
0.048127025 0.25263283 -0.20563683 -0.026235186 0.12983826 0.12871324 -0.07143077 -0.053543694
0.017020142 0.01920278 0.12077326 0.06402771 -0.038899068 -0.14512189 0.03844777 0.003712408
00000000: 1155 a7bd 7a69 413e 74de 363d 8b1c 593d
00000010: d8eb f3be 62e7 1b3e 7141 7f3e 6c7f 61be
00000020: 5d06 693e b953 0f3a 19c3 12bd e2b3 a13d
00000030: ae3b a83e b752 073e 3da4 093e c0ef 42be
00000040: 21b9 913d 610a 08be af02 73be d4c9 de3d
00000050: a79a 0a3e eac6 34be 4844 d5be b0a2 e0bd
00000060: 78a2 043e 69cf 6d3d 5571 c3bb 8b34 dc3c
00000070: eb85 373c 5825 10be cb6e 413e b971 0a3e
00000080: b0b0 49be 8839 263d 945f a43c 3953 b73d
00000090: 14b1 a3be c2fb 34be 3700 773d 7fec fabd
000000a0: e8b0 29bb 40ad 333d 6eea 993d 0018 f23d
000000b0: 59dc 5d3e 7022 09be 78f1 e13c 50ea a83e
000000c0: 7f35 8abe 5937 36be 97e0 43be c53c 743c
000000d0: 4e13 1b3e c339 803d e3d1 aa3d 5a6d 583e
000000e0: 38b3 353e d698 633e 166f 2fbe d76f d3bd
000000f0: 2490 003d 0c37 da3c d29b 6e3e 8dd0 6d3e
00000100: 9651 063e 9581 3bbd 9d5e da3c 77c4 58bd
00000110: 3f3c 86be aff5 b2bd d281 a73c c32b 93be
00000120: ab25 82bd 1d9a 66be 806f 16bd 4df6 d83d
00000130: 5efe 9dba e5dc 813e 174d a23c a4e3 19bd
00000140: 43c7 df3b 11e1 6f3b d606 2ebe 6535 95bd
00000150: 6f5e 5dbc f272 84be cca6 b73d 00f6 c83d
00000160: 1486 213e 47ca 61bc 5b7e 6a3e b77c 2ebe
00000170: a1b6 89be 8622 1c3e ad7c 083e 0113 6bbd
00000180: 04a3 3abe 1aff 4d3d 1588 8e3c 9bb9 693e
00000190: dae9 013b 26f6 9aba c5bd fdbd 0fb0 53be
000001a0: cb64 73be 9f38 a43d 3342 923d 3749 41be
000001b0: 72ab b7bc d18f 913c c069 393d 1856 39bc
000001c0: 9535 113d 5f27 73bd b1ac 4ebe 21ec b3bd
000001d0: ec64 8f3c 08fa 3a3e a603 ab3d 82b4 a1bd
000001e0: a003 be3d f0b4 e9bd b61d df3d 5f6b dfbd
000001f0: dada ebbc 9b04 95bc 9ce0 343e d0ca 5e3e
00000200: dd19 1d3e f320 9ebd e121 523d eaf3 af3b
00000210: f428 213e e3e4 acbd 1203 143e 3b42 65bd
00000220: 84a6 27be b498 b53d 40e4 653d a6bb f03d
00000230: c58e 6ebe f02d 143e 0d80 65be dc63 0e3d
00000240: 5665 043e d847 243e 515b 153d 0f3c 173e
00000250: 7183 df3c 62f3 0abe 0834 843e 993c 103e
00000260: f419 fcbc eb37 33bb 14ae 463d 1d37 afbc
00000270: 3586 26be 24be f83d f643 3e3b a132 34be
00000280: 125f 133d a378 b6bd 5975 3fbd 0a22 413e
00000290: 69f6 d53d 4998 12bc 29ed d4bd 78a5 de3d
000002a0: 671c d1bc 3b69 4c3e 0d49 6cbd 2bdd 68bd
000002b0: e140 98bd 148f 2a3e b850 df3d 7b9a 34bd
000002c0: 5925 0b3e 5cd0 ec3d 3dac 913d 14bf 17be
000002d0: c48f 6f3d ed45 02bc e2cf 47be 3421 0c3c
000002e0: 0fb4 94bd c7ee 6ebd 1b92 123e 17e8 f43b
000002f0: 98d9 5dbe c24f bfbd 6ec1 5a3e 5fcb 573d
00000300: bd02 0f3c 5de3 47be 4ff7 a03d ebda 1abb
00000310: 9dea 09be 7707 1cbe a275 8e3e 3a25 78bd
00000320: da8c 31bd 7ad0 66be 1673 a8bd 3b2d 183e
00000330: 9164 39be 21ad 5b3d 91c8 6d3d 7280 333e
00000340: ef63 a7bc 3157 303e 2238 27be 7193 09bd
00000350: a511 e3bc ff53 27be 4169 303e 3750 f83d
00000360: 8726 693c a0cc d93c 7473 3ebd b3f7 97be
00000370: 0150 f2bd 3dfb 7a3d 4d0b 193d 5e88 c8bd
00000380: 94ef d939 2728 d73d e4d4 cfbd e5c1 f03d
00000390: ee38 83bd b84b 843d b06f 193e 7b14 70be
000003a0: 6c8c dfbc 4253 903d fd04 00be f0a2 cebc
000003b0: ac94 0cbe 2e91 033d 9117 2e3d 2aa3 8abd
000003c0: d820 453d 1759 813e 7692 52be 2ceb d6bc
000003d0: 52f4 043e 67cd 033e 4c4a 92bd a250 5bbd
000003e0: d36d 8b3c 264f 9d3c f957 f73d f620 833d
000003f0: a154 1fbd d59a 14be 697b 1d3d df4b 733b

gnn1_pool.conv2.lin_root.weight f4 [64, 64]
-0.040084317 0.09489425 -0.0030531336 -0.14046079 0.069575 0.0824531 -0.12613977 -0.21928725
-0.117602944 0.09495754 -0.017486865 0.06838194 -0.107323766 0.13364443 -0.007813883 0.04966468
0.04624073 -0.116787955 -0.1827589 -0.059670903 -0.11247613 -0.09344316 0.014854003 0.12673847
-0.053857334 0.10734416 0.14332174 -0.025387926 -0.18998244 0.031110985 0.052195404 -0.08049676
0.18587138 0.0951405 0.0139607685 0.111107685 -0.19679251 -0.037599415 -0.06386784 0.103289425
-0.22390343 0.1268897 -0.07319548 0.04033766 0.07990616 0.08021889 -0.080793515 -0.19620988
-0.06459697 0.010463111 0.19051012 -0.0649017 0.020997811 0.12363018 -0.081564136 -0.12224782
-0.0067697302 -0.031519253 -0.021110252 -0.04224503 -0.13433261 -0.07370496 0.039798405 0.11651461
-0.034282744 -0.07248915 -0.16563003 0.12058957 0.041149344 -0.03528334 0.06155332 -0.29141057
0.020982627 0.14222589 0.14648016 0.21921188 0.119885325 0.2382362 -0.012651433 -0.2014773
-0.18332547 -0.3360208 -0.22419596 0.14523533 -0.06276431 -0.20159915 0.08279274 -0.13256836
-0.035406668 0.106513284 0.056961864 0.09806193 -0.07043519 -0.03661577 0.066716135 0.1006639
0.04393202 0.00086283707 0.27266032 0.25642437 0.1442347 0.08478394 0.07677494 -0.085525095
-0.22643891 0.23431192 0.26539785 0.05675929 0.031003898 0.0132085895 -0.11965876 0.09762445
0.10624467 -0.20415585 0.16072059 -0.10570249 0.086789966 0.0914159 0.11683097 0.1480521
0.07134367 -0.000616581 -0.035508156 -0.14456674 -0.057239912 0.12973148 0.25140917 0.11105515
0.083119266 -0.00863558 -0.23729017 0.24564867 0.059416097 -0.035810202 0.011021843 0.024211207
0.13769476 -0.03629115 -0.11294115 0.07047035 -0.059212252 0.1855539 -0.16823043 -0.19996691
-0.19587697 -0.1787982 -0.054435514 0.17186292 -0.15378866 -0.16862209 -0.061785437 -0.09818829
0.18344803 -0.06220898 -0.031309474 -0.1283354 -0.0995952 -0.0321545 0.031646285 0.10706601
0.046216004 0.2434395 0.019172326 0.17165878 -0.0026556957 0.0064208433 -0.21707976 -0.13992907
-0.08667396 0.20266554 0.18566546 0.06754069 -0.053032093 0.11993807 -0.04893757 0.40904197
-0.01601804 -0.08293326 0.06704429 -0.050798655 0.18088387 0.084045276 0.22880836 0.23657143
0.35568362 -0.051851254 0.07803195 -0.07057855 0.25995088 -0.01199385 -0.016826935 0.11948126
0.04841046 -0.0783048 -0.00014822588 0.16532242 0.04486212 -0.0369276 -0.09341577 -0.041199498
0.11222627 -0.18838972 0.061972663 -0.0140905185 -0.0796238 0.058657806 0.0096719675 -0.16582604
-0.026792401 -0.06811049 0.039568365 0.21246417 -0.15650584 -0.051126227 -0.0074699023 -0.14189516
0.109192714 -0.04441023 0.07372098 -0.0714798 -0.12777801 0.09521813 0.04449547 0.11445169
0.35507086 0.20982417 0.11396415 0.009205775 0.09558364 0.06251956 -0.18503815 -0.019574324
-0.101981424 0.018201351 0.08081639 -0.12148206 -0.16671354 0.10622427 -0.124846146 0.066051774
-0.0690128 -0.10040127 0.22800185 -0.024774328 0.021875616 0.15262055 0.005747185 0.021162197
0.16861464 -0.0015179883 -0.019212576 -0.0012801338 0.14420491 -0.108068824 0.0676189 0.00046850808
00000000: 742f 24bd eb57 c23d 1517 48bb f4d4 0fbe
00000010: 567d 8e3d 2cdd a83d c92a 01be d68c 60be
00000020: d0d9 f0bd 1979 c23d 9d40 8fbc d50b 8c3d
00000030: 90cc dbbd 16da 083e cd05 00bc 316d 4b3d
00000040: eb66 3d3d 862e efbd 2625 3bbe 7a69 74bd
00000050: e359 e6bd 215f bfbd 345e 733c bbc7 013e
00000060: 8299 5cbd 41d7 db3d efc2 123e 57fa cfbc
00000070: c28a 42be 77dc fe3c d9ca 553d 7cdb a4bd
00000080: 1155 3e3e 06d9 c23d b5bb 643c 6d8c e33d
00000090: fa83 49be d801 1abd 24cd 82bd 6889 d33d
000000a0: f146 65be 60ef 013e 83e7 95bd 1a39 253d
000000b0: d7a5 a33d cd49 a43d 1277 a5bd 3eeb 48be
000000c0: 6b4b 84bd 786d 2b3c 1615 433e 2feb 84bd
000000d0: 9a03 ac3c d231 fd3d 190b a7bd 115d fabd
000000e0: 9dd4 ddbb 551a 01bd 68ef acbc 2009 2dbd
000000f0: 7d8e 09be a0f2 96bd a703 233d 369f ee3d
00000100: 106c 0cbd 3175 94bd eb9a 29be aaf7 f63d
00000110: 378c 283d 4385 10bd 561f 7c3d c433 95be
00000120: c2e3 ab3c aaa3 113e e5fe 153e 1479 603e
00000130: 7086 f53d 31f4 733e f547 4fbc 1150 4ebe
00000140: acb9 3bbe eb0a acbe a093 65be 92b8 143e
00000150: 938a 80bd 0270 4ebe 3d8f a93d 00c0 07be
00000160: 9506 11bd a323 da3d d850 693d b1d4 c83d
00000170: 5340 90bd 6bfa 15bd 78a2 883d e028 ce3d
00000180: 10f2 333d 0430 623a 229a 8b3e 0e4a 833e
00000190: 43b2 133e 34a3 ad3d 2e3c 9d3d c827 afbd
000001a0: 9adf 67be 77ef 6f3e 3ae2 873e 6e7c 683d
000001b0: e3fb fd3c d768 583c a70f f5bd 54ef c73d
000001c0: ce96 d93d 3b0e 51be f093 243e 8c7a d8bd
000001d0: f0be b13d 4238 bb3d 1345 ef3d f89a 173e
000001e0: a11c 923d 0da2 21ba 0071 11bd 4e09 14be
000001f0: 6674 6abd 54d8 043e b4b8 803e e270 e33d
00000200: 6f3a aa3d 3f7c 0dbc 32fc 72be 538b 7b3e
00000210: 4b5e 733d b8ad 12bd f694 343c 9556 c63c
00000220: dbff 0c3e 07a6 14bd b14d e7bd c252 903d
00000230: 8c88 72bd d701 3e3e 9944 2cbe 20c4 4cbe
00000240: f993 48be e016 37be c6f7 5ebd d5fc 2f3e
00000250: c67a 1dbe 45ab 2cbe ba12 7dbd f116 c9bd
00000260: cdd9 3b3e d8ce 7ebd 5d3e 00bd 5b6a 03be
00000270: 91f8 cbbd 70b4 03bd 899f 013d 6d45 db3d
00000280: fe4c 3d3d 3448 793e 480f 9d3c 52c7 2f3e
00000290: 2e0b 2ebb f065 d23b 284a 5ebe 9149 0fbe
000002a0: 1e82 b1bd 8e87 4f3e 161f 3e3e c652 8a3d
000002b0: 2e38 59bd 17a2 f53d c372 48bd f36d d13e
000002c0: 4438 83bc ead8 a9bd 844e 893d 4012 50bd
000002d0: 9f39 393e ee1f ac3d bd4c 6a3e c83f 723e
000002e0: 2a1c b63e fb61 54bd 37cf 9f3d 7d8b 90bd
000002f0: 4818 853e da81 44bc a4d8 89bc 97b2 f43d
00000300: 0c4a 463d 445e a0bd 156d 1bb9 484a 293e
00000310: 58c1 373d 6541 17bd c450 bfbd cec0 28bd
00000320: e3d6 e53d 3ce9 40be 0cd7 7d3d ebdb 66bc
00000330: ce11 a3bd 2b43 703d 2c77 1e3c 4dce 29be
00000340: bd7b dbbc 837d 8bbd 7012 223d 3590 593e
00000350: 1143 20be bc69 51bd 15c6 f4bb f74c 11be
00000360: 6ea0 df3d 80e7 35bd 06fb 963d 0064 92bd
00000370: 3dd8 02be b901 c33d e240 363d a665 ea3d
00000380: d9cb b53e 26dc 563e 0966 e93d d2d3 163c
00000390: 5bc1 c33d 410a 803d a47a 3dbe 555a a0bc
000003a0: a3db d0bd 001b 953c 1083 a53d 96cb f8bd
000003b0: f4b6 2abe 1c8c d93d 56af ffbd 2746 873d
000003c0: 9556 8dbd 2e9f cdbd 5179 693e 88f3 cabc
000003d0: 7e34 b33c 9048 1c3e e252 bc3b 585c ad3c
000003e0: 51a9 2c3e 3cf7 c6ba b163 9dbc 2aca a7ba
000003f0: 74aa 133e 3053 ddbd c77b 8a3d 17a2 f539

gnn1_pool.conv2.lin_root.bias f4 [64]
-0.17796443 -0.035796933 -0.083284646 0.009052517 -0.29857567 0.1493383 -0.385366 -0.022967497
-0.05531779 -0.050833 -0.1439087 -0.06373903 -0.09644892 0.045383234 0.009602578 -0.07305353
-0.17343327 0.0846733 0.09157907 -0.18250324 -0.20830238 -0.06707245 0.04963768 0.05893314
-0.04915466 -0.12421419 -0.09021342 -0.04358115 -0.16426232 0.32706487 0.09728954 0.0059689623
-0.121353045 0.026345192 -0.1035797 -0.27386633 -0.12701985 -0.2501833 -0.17340772 -0.028845333
-0.250272 0.026584515 0.06327297 0.1261766 -0.20044595 -0.024444275 0.08484255 0.12981664
0.043210268 -0.063112155 -0.07642183 -0.30238628 -0.22867541 -0.0051168795 -0.08564619 -0.08243097
-0.18987066 -0.050903894 0.10348824 -0.16469076 -0.12423333 -0.122254424 -0.08347835 0.37863168
00000000: 4f3c 36be ce9f 12bd 2491 aabd 0251 143c
00000010: e9de 98be 24ec 183e b14e c5be 5526 bcbc
00000020: e894 62bd 4436 50bd cd5c 13be 9c89 82bd
00000030: 0387 c5bd c5e3 393d 2254 1d3c 179d 95bd
00000040: 7e98 31be 3269 ad3d cf8d bb3d 21e2 3abe
00000050: 384d 55be 485d 89bd e150 4b3d e063 713d
00000060: 6656 49bd 0264 febd d0c1 b8bd 2682 32bd
00000070: 6234 28be 0c75 a73e bd3f c73d 4997 c33b
00000080: f287 f8bd dfd1 d73c 9821 d4bd 3538 8cbe
00000090: 7e11 02be 0718 80be cb91 31be 0c4d ecbc
000000a0: a723 80be c5c7 d93c 4295 813d 7034 013e
000000b0: b441 4dbe 5c3f c8bc eec1 ad3d a7ee 043e
000000c0: 40fd 303d f240 81bd 0c83 9cbd 60d2 9abe
000000d0: e329 6abe 7fab a7bb 4567 afbd 92d1 a8bd
000000e0: 746d 42be 9a80 50bd a4f1 d33d b2a4 28be
000000f0: 0b6e febd 8760 fabd b2f6 aabd 03dc c13e

gnn1_pool.bn2.weight f4 [64]
0.91575325 0.35695547 0.82965785 0.84259516 0.9092531 0.7200629 0.9424881 0.7630525
0.7103345 0.9452625 0.86179215 0.6718183 0.83859247 0.63146406 0.58694845 0.85067034
0.75131124 1.2929723 0.9058841 0.99526733 1.1798186 0.7882442 0.7461965 0.59801567
0.658077 0.9291074 0.85856664 0.8114699 0.9522323 0.8352754 0.87943435 0.75302565
1.0419369 0.9123286 0.9288631 0.8000138 0.969941 0.82788014 0.99216866 0.98564243
0.8599173 0.67489004 0.99475306 1.3280187 1.0550646 1.1594405 0.86906046 0.726928
0.8173879 0.90126866 1.2248397 0.6258462 1.058391 0.93584603 0.71034956 0.7800038
0.719952 0.9166886 0.8792399 1.2516807 0.8652415 0.9610816 0.99407077 0.907932
00000000: ce6e 6a3f dec2 b63e 7564 543f 51b4 573f
00000010: d0c4 683f 0b56 383f e646 713f 6957 433f
00000020: 7bd8 353f b9fc 713f 699e 5c3f 49fc 2b3f
00000030: ffad 563f a1a7 213f 4142 163f 88c5 593f
00000040: ef55 403f 1e80 a53f 05e8 673f d7c9 7e3f
00000050: 4c04 973f 5fca 493f bc06 3f3f 8e17 193f
00000060: bc77 283f fcd9 6d3f 06cb 5b3f 7ebc 4f3f
00000070: 7fc5 733f 9cd4 553f 9c22 613f 4ac6 403f
00000080: 305e 853f 5e8e 693f f9c9 6d3f b4cd 4c3f
00000090: 0e4e 783f f4ef 533f c4fe 7d3f 1053 7c3f
000000a0: 8a23 5c3f 98c5 2c3f 23a8 7e3f 84fc a93f
000000b0: 5b0c 873f 8c68 943f bf7a 5e3f f417 3a3f
000000c0: 5540 513f 8bb9 663f 8cc7 9c3f 7537 203f
000000d0: 5b79 873f 9b93 6f3f 78d9 353f 54ae 473f
000000e0: c64e 383f 1bac 6a3f de15 613f 1337 a03f
000000f0: 7880 5d3f 7209 763f 6c7b 7e3f 3b6e 683f

gnn1_pool.bn2.bias f4 [64]
-0.020289382 -0.07516194 0.15169752 0.054821715 -0.0053080474 0.0065541877 0.3255459 0.02591951
0.1815363 -0.036276586 0.07076446 0.17083557 -0.07400679 0.1444434 0.17785715 -0.095187746
-0.0028953538 -0.0034154628 0.20849277 0.13231562 0.070343204 0.21419767 0.13439976 -0.113449894
0.28203866 0.07065253 -0.08751632 -0.01473899 -0.033626724 -0.061390217 -0.12919995 0.022279728
0.12863965 -0.20449418 0.14471228 0.0139341615 -0.046127923 0.16904464 0.13192867 0.14238074
0.1190038 0.07727469 0.17284116 0.016724924 -0.04501611 0.03529746 -0.10607711 0.26485974
0.14145875 0.05896862 0.04131717 0.340158 -0.08132119 -0.034510147 0.18503447 -0.021520728
0.02654204 0.004469722 -0.09647342 -0.17892267 0.20870729 -0.17450431 0.00479258 -0.11039994
00000000: eb35 a6bc 81ee 99bd 9856 1b3e bc8c 603d
00000010: 21ef adbb 83c4 d63b f4ad a63e 2755 d43c
00000020: a7e4 393e c296 14bd f5ec 903d 85ef 2e3e
00000030: df90 97bd f8e8 133e 2f20 363e cbf1 c2bd
00000040: fabf 3dbb f5d5 5fbb 217f 553e bf7d 073e
00000050: 1910 903d a256 5b3e 17a0 093e 6b58 e8bd
00000060: 5f67 903e 46b2 903d c23b b3bd ce7b 71bc
00000070: 2dbc 09bd 4f74 7bbd fe4c 04be fa83 b63c
00000080: 1dba 033e ec66 51be 752f 143e 1c4c 643c
00000090: a2f0 3cbd 0a1a 2d3e 4f18 073e 42cc 113e
000000a0: 44b8 f33d 3142 9e3d 46fd 303e b502 893c
000000b0: d062 38bd 1294 103d f53e d9bd b29b 873e
000000c0: 90da 103e 1489 713d 313c 293d 3029 ae3e
000000d0: b98b a6bd 835a 0dbd ad79 3d3e 3d4c b0bc
000000e0: b16e d93c bf76 923b db93 c5bd 8137 37be
000000f0: 5db7 553e 42b1 32be 130b 9d3b 5d19 e2bd

gnn1_pool.bn2.running_mean f4 [64]
0.15158401 0.98141766 1.4813263 1.0746161 0.17886676 1.1266344 0.06517401 0.9223795
1.3386866 0.293067 0.7508889 1.6080425 1.3420343 1.4351097 1.7016588 1.2507876
0.88350254 0.56207204 0.8721292 0.4125668 0.15678157 0.97438395 1.4585034 1.7675259
2.0418873 0.44911447 1.0825906 1.1521744 0.20306878 2.72473 2.8029745 1.2158633
1.0311824 0.43778676 1.4117768 0.18963441 0.19965003 0.36060733 0.17796831 0.8520101
0.2229137 1.0744939 1.3387247 0.54075885 0.24034387 0.37952408 1.5241199 1.5745709
1.6048367 1.4696779 0.36182415 0.09159516 0.17614351 1.5729913 0.974904 1.7401268
0.45950857 0.8533151 1.7371643 0.5276526 0.45195368 0.5236554 0.4356958 3.5205083
00000000: d738 1b3e 303e 7b3f 1a9c bd3f 058d 893f
00000010: d928 373e 8e35 903f f479 853d 1021 6c3f
00000020: 155a ab3f e10c 963e 413a 403f 56d4 cd3f
00000030: c8c7 ab3f adb1 b73f f5cf d93f cf19 a03f
00000040: 392d 623f f4e3 0f3f dc43 5f3f f53b d33e
00000050: 598b 203e 3a71 793f 3db0 ba3f 4a3e e23f
00000060: 48ae 0240 55f2 e53e 5492 8a3f 737a 933f
00000070: 43f1 4f3e fa61 2e40 ef63 3340 69a1 9b3f
00000080: c9fd 833f 9625 e03e 1ab5 b43f 862f 423e
00000090: 0f71 4c3e 86a1 b83e 533d 363e 551d 5a3f
000000a0: 7d43 643e 0489 893f 555b ab3f 2c6f 0a3f
000000b0: b41c 763e fb50 c23e 5c16 c33f 8a8b c93f
000000c0: 4a6b cd3f 681e bc3f 0441 b93e 3e96 bb3d
000000d0: f75e 343e c757 c93f 4f93 793f 7abc de3f
000000e0: b544 eb3e dc72 5a3f 665b de3f 3e14 073f
000000f0: 7966 e73e 480e 063f 8513 df3e 0250 6140

gnn1_pool.bn2.running_var f4 [64]
0.4747692 1.6365055 3.1958625 1.5766971 0.24507248 4.62681 0.06584384 1.3207812
1.7284865 0.5961377 1.6692423 3.5423257 3.3158562 2.335301 2.4118407 3.1385617
2.992774 1.0533186 0.85886353 0.71852875 0.29225078 3.510877 2.3238933 5.084953
5.3833966 1.610813 3.4055567 1.4159088 0.29412696 12.139206 7.289528 1.6301644
1.4901104 0.65061754 1.8686318 0.9109893 0.93847525 1.038147 0.92303425 0.8662156
0.4818252 2.2132227 1.9758437 1.0191689 0.7346804 0.68866503 3.9309056 2.564897
2.9581187 2.1069758 1.1941452 0.36224422 0.8018642 2.8167715 1.3184655 7.084014
1.4240725 2.1515272 5.1460624 0.8950878 0.6352845 0.8021565 1.2554197 19.816957
00000000: f314 f33e 0379 d13f 0389 4c40 36d1 c93f
00000010: 48f4 7a3e d40e 9440 23d9 863d 5c0f a93f
00000020: 0c3f dd3f 7b9c 183f bba9 d53f 77b5 6240
00000030: fd36 5440 9275 1540 995b 1a40 32de 4840
00000040: 9c89 3f40 25d3 863f 7bde 5b3f 80f1 373f
00000050: e5a1 953e 35b2 6040 abba 1440 efb7 a240
00000060: c944 ac40 1f2f ce3f a4f4 5940 803c b53f
00000070: cf97 963e 303a 4241 d043 e940 3aa9 d03f
00000080: f0bb be3f df8e 263f 542f ef3f 9836 693f
00000090: ea3f 703f 00e2 843f f94b 6c3f 4ec0 5d3f
000000a0: cbb1 f63e 71a5 0d40 72e8 fc3f 2074 823f
000000b0: 0414 3c3f 5a4c 303f f593 7b40 4627 2440
000000c0: d151 3d40 b1d8 0640 c0d9 983f 1378 b93e
000000d0: f946 4d3f fc45 3440 7ac3 a83f 3eb0 e240
000000e0: 0248 b63f 9fb2 0940 8bac a440 7924 653f
000000f0: 01a2 223f 215a 4d3f 98b1 a03f 2189 9e41

gnn1_pool.conv3.lin_rel.weight f4 [50, 64]
-0.016092014 0.028000584 -0.25906235 -0.034097675 0.009456379 -0.07600895 -0.35266456 -0.07331098
0.0760495 -0.08901182 -0.20912267 -0.052008532 -0.14657483 -0.115011774 -0.09172726 -0.14908938
-0.04978306 0.2453872 -0.30515212 -0.21935982 0.046526838 -0.065142736 0.03066986 0.029673727
0.10302908 -0.15555884 -0.15926683 -0.03565394 -0.062672086 0.0108180605 -0.06812527 -0.23887378
-0.09994178 0.13290158 -0.050784096 -0.09990939 -0.054327313 -0.0527057 0.15501721 -0.36645672
-0.31085604 -0.13655774 -0.34291202 0.0787869 -0.038487643 -0.4373496 -0.055868894 -0.1685006
0.040764768 -0.1691975 0.15740865 -0.1298942 -0.038085815 0.15793219 -0.12629661 -0.055453915
-0.32675448 -0.108630575 -0.03153121 0.22291976 0.09063214 0.27937236 -0.25437343 -0.04613566
0.065072015 0.20835777 0.11032646 -0.030851185 0.077744834 0.036446415 -0.014771879 0.029964836
-0.016207807 0.22735544 -0.029483002 -0.10458472 -0.03892557 -0.096805565 -0.15168895 0.04237045
-0.10865188 0.115352586 -0.17888372 -0.20508973 0.3464667 -0.040133964 0.11301433 0.12155816
-0.07654991 0.0028050886 0.09193889 0.11375192 0.2670693 0.09219745 0.21524343 -0.16222234
-0.07019365 0.43305042 0.035483908 -0.12791818 -0.18309358 0.1396208 -0.18699926 -0.24353607
0.20625488 -0.040864225 -0.36869872 0.42101762 0.06143828 -0.23718832 0.013585429 -0.23901041
0.01958093 -0.2915872 0.12506889 -0.11385383 -0.16022722 0.057816166 -0.17305143 0.0972279
0.21432947 0.0008827178 0.23145631 0.065903 -0.13105507 0.2662294 0.06939429 0.21120653
-0.1133716 -0.10177934 0.02416736 -0.056060717 -0.105449386 -0.01571863 0.05890328 -0.0065687476
-0.19388062 -0.037844818 -0.23970601 0.042639714 -0.1291434 0.10318563 -0.058934454 -0.064046204
-0.21540071 0.048661742 0.01947772 -0.12024348 -0.01650952 0.0076486263 -0.1722774 -0.012166083
-0.15149672 0.1880453 0.11944923 0.018048719 -0.0023425815 -0.1866473 0.099013485 -0.09768713
-0.25266847 -0.07065438 -0.08236938 -0.050413944 0.07900609 0.091568165 -0.109624796 0.19311738
0.015996471 -0.20551705 -0.10441431 -0.010011897 0.053996116 0.17886089 0.0033644917 -0.13511954
0.050397277 0.13949849 0.14462931 -0.12137562 -0.12776959 -0.090569444 -0.11233997 -0.10284863
-0.0044184034 -0.28966 -0.19453846 -0.009860454 -0.22998115 0.16701852 0.06357245 -0.20776916
0.047901113 0.17171632 -0.08244793 -0.07148285 -0.07859079 -0.08131061 -0.17791262 -0.12507029
0.26653263 -0.025763243 -0.1368577 0.05208361 -0.02695721 0.008921346 0.15482426 0.003333535
-0.043465793 0.13475898 0.12676479 -0.24615987 0.05789403 -0.15109831 0.03755053 -0.060999915
0.08202716 0.010175305 0.05601624 0.18770416 -0.1342518 -0.004734606 0.06376093 0.02182239
-0.022100637 -0.0049986355 0.25052083 0.0654174 -0.07360245 0.23910572 0.01661189 0.042326868
-0.12369371 -0.12818143 -0.05826466 0.35589266 0.37391675 -0.2659952 -0.033888604 0.0021192867
0.2463365 0.046956662 0.20480175 0.17492545 -0.10722859 0.16511373 0.0016692865 -0.13374284
0.041379154 -0.19587372 -0.0856482 0.40859234 0.01686977 -0.009030123 -0.046379432 0.02617122
00000000: 66d3 83bc 7b61 e53c d2a3 84be 01aa 0bbd
00000010: eeee 1a3c 95aa 9bbd 7390 b4be 1124 96bd
00000020: d7bf 9b3d d44b b6bd 4124 56be e606 55bd
00000030: b617 16be 4b8b ebbd 80db bbbd e3aa 18be
00000040: 52e9 4bbd c846 7b3e e63c 9cbe dc9f 60be
00000050: ed92 3e3d 8e69 85bd 5c3f fb3c 5116 f33c
00000060: e900 d33d d14a 1fbe d816 23be de09 12bd
00000070: 395a 80bd 3c3e 313c 4385 8bbd 549b 74be
00000080: 47ae ccbd 5a17 083e fc02 50bd 4b9d ccbd
00000090: 5186 5ebd efe1 57bd d5bc 1e3e 37a0 bbbe
000000a0: 8628 9fbe cbd5 0bbe 2a92 afbe 075b a13d
000000b0: 38a5 1dbd 49ec dfbe c8d6 64bd 6c8b 2cbe
000000c0: f5f8 263d 1c42 2dbe bc2f 213e fc02 05be
000000d0: dfff 1bbd fab8 213e e653 01be a523 63bd
000000e0: 5d4c a7be b579 debd df26 01bd 1445 643e
000000f0: 589d b93d e509 8f3e 3c3d 82be bff8 3cbd
00000100: 7a44 853d bd5b 553e d7f2 e13d a0bb fcbc
00000110: af38 9f3d d648 153d c005 72bc d178 f53c
00000120: 3cc6 84bc ddcf 683e 5686 f1bc 8430 d6bd
00000130: 6b70 1fbd ff41 c6bd 5954 1bbe a38c 2d3d
00000140: e084 debd fa3d ec3d 4b2d 37be 0b03 52be
00000150: 1564 b13e 8363 24bd 0f74 e73d 7cf3 f83d
00000160: 33c6 9cbd 94d5 373b 754a bc3d c4f6 e83d
00000170: 4fbd 883e 04d2 bc3d c668 5c3e 9d1d 26be
00000180: b0c1 8fbd c9b8 dd3e 9357 113d fcfc 02be
00000190: e27c 3bbe c1f8 0e3e bc7c 3fbe 8561 79be
000001a0: 7b34 533e 3f61 27bd 14c6 bcbe 9f8f d73e
000001b0: b5a6 7b3d 7fe1 72be 6b95 5e3c 25bf 74be
000001c0: 3068 a03c eb4a 95be 0f12 003e 322c e9bd
000001d0: 9b12 24be a5d0 6c3d 6534 31be 6c1f c73d
000001e0: 2f79 5b3e 3066 673a e202 6d3e 27f8 863d
000001f0: 4d33 06be 384f 883e 981e 8e3d 8646 583e
00000200: 5f2f e8bd b071 d0bd a1fa c53c ec9f 65bd
00000210: d9f5 d7bd 5bc4 80bc 9144 713d a63e d7bb
00000220: a488 46be 2b03 1bbd 7e75 75be fba6 2e3d
00000230: 2b3e 04be fd52 d33d 4165 71bd a82a 83bd
00000240: 0192 5cbe 8951 473d bd8f 9f3c 3742 f6bd
00000250: f93e 87bc 54a1 fa3b 7d69 30be 4054 47bc
00000260: f521 1bbe f28e 403e cca1 f43d e8da 933c
00000270: ff85 19bb 7820 3fbe 95c7 ca3d 3110 c8bd
00000280: c35d 81be 3eb3 90bd 47b1 a8bd da7e 4ebd
00000290: f2cd a13d 1788 bb3d f782 e0bd 90c0 453e
000002a0: 080b 833c 1073 52be 2bd7 d5bd f108 24bc
000002b0: 082b 5d3d 4f27 373e ce7e 5c3b c75c 0abe
000002c0: 606d 4e3d b1d8 0e3e b519 143e c893 f8bd
000002d0: 08d6 02be 797c b9bd 8012 e6bd 4da2 d2bd
000002e0: 41c8 90bb 514e 94be 1735 47be be8d 21bc
000002f0: 2e80 6bbe e706 2b3e 4632 823d 70c1 54be
00000300: f533 443d 67d6 2f3e 76da a8bd 9a65 92bd
00000310: 35f4 a0bd 2d86 a6bd ba2e 36be 6d12 00be
00000320: f776 883e 700d d3bc 6d24 0cbe a055 553d
00000330: 5ed5 dcbc d62a 123c 408a 1e3e 7077 5a3b
00000340: 3009 32bd 42fe 093e a1ce 013e 5511 7cbe
00000350: 4a22 6d3d 84b9 1abe 96ce 193d 0cdb 79bd
00000360: dbfd a73d 53b6 263c 4971 653d 8535 403e
00000370: 4e79 09be c124 9bbb 1795 823d dec4 b23c
00000380: 650c b5bc 98cb a3bb 4444 803e 8ff9 853d
00000390: e2bc 96bd 21d8 743e a915 883c f05e 2d3d
000003a0: 2153 fdbd fe41 03be eda6 6ebd 9037 b63e
000003b0: 0472 bf3e 8630 88be c7ce 0abd bbe3 0a3b
000003c0: a33f 7c3e a155 403d 8db7 513e a81f 333e
000003d0: aa9a dbbd 9313 293e f6cb da3a e2f3 08be
000003e0: 307d 293d 1f93 48be 5368 afbd 0433 d13e
000003f0: 7932 8a3c 15f3 13bc 5cf8 3dbd 0765 d63c

gnn1_pool.conv3.lin_root.weight f4 [50, 64]
-0.0133723905 0.02044546 -0.0698243 -0.110783935 0.06836308 0.103549354 -0.019829081 -0.02112675
-0.12513278 0.0067808894 -0.12046499 -0.1040241 0.10323256 0.069524914 -0.15242991 0.14242986
-0.01423949 0.3073004 0.0825076 -0.07890456 0.22811136 0.04369183 -0.045199566 -0.07055687
-0.115915135 0.055729575 -0.0858849 -0.1762671 0.016086925 0.0049550044 -0.17355117 0.13532366
-0.13658191 0.13544989 -0.20024478 0.25454384 0.22837445 0.0008965373 0.113644995 -0.09393031
-0.05281708 -0.056208614 0.073259585 0.023921609 0.052026156 0.0045919344 -0.06844194 0.11474448
-0.10734357 0.16959833 0.18369016 0.009520596 0.100378536 0.12250547 -0.058142353 0.016225355
0.07503156 0.012323961 -0.06473352 0.14478905 0.031736072 -0.008941152 -0.14000203 0.147787
0.05821263 -0.019194918 -0.086904444 0.05026255 -0.021667514 -0.03070106 -0.2899782 0.07577798
0.038539145 0.07548712 0.03789436 0.041123156 0.08481422 -0.04779177 0.036231384 0.0052124755
0.01753557 0.040286068 0.07677905 0.1602659 -0.017553566 0.011002998 0.010918412 -0.08440064
-0.030887233 -0.10990353 0.032303248 0.3037973 -0.08964285 -0.04072008 0.23155911 0.114969686
0.01692741 0.049421035 -0.034030534 -0.036164686 0.015274837 -0.16801059 0.001414426 -0.08903458
-0.16680612 0.09232121 0.0719014 -0.17571367 -0.05898071 -0.02468342 0.03514228 0.07351711
0.1729066 0.061453003 -0.27063814 -0.097792186 -0.028260559 0.14767908 -0.017582718 -0.032336086
-0.005261331 -0.022461118 -0.06629669 0.14720772 -0.11593383 0.00906592 0.006648808 -0.04952573
-0.32895923 0.052258138 0.16445988 0.2843617 0.13748275 -0.298552 0.13332622 0.21164843
0.14863993 0.027098136 -0.08046943 -0.008213163 -0.0064434004 0.3028285 0.08765109 0.011797355
-0.06558005 0.0022596337 0.20116962 0.09624101 -0.039365515 -0.43005437 0.07402157 -0.078612335
0.10052558 0.03094101 0.09531206 -0.02324888 0.005988678 0.010559784 -0.00792627 0.066909686
0.18638767 0.04669018 0.017072951 -0.017210308 -0.061159976 -0.08241138 -0.0023462772 0.20662172
-0.06613035 -0.0034820833 0.29981738 0.03817786 0.11162638 0.0058000493 0.11780168 0.1509685
-0.091086045 0.083579995 -0.032220814 0.08551714 -0.08496492 0.12564285 0.19316526 -0.094158486
0.016219929 -0.1523882 -0.08376828 0.14354658 0.020603616 -0.0061342297 0.055960655 0.07232547
0.24656329 -0.031140411 -0.13171892 -0.029970266 0.053436153 -0.04603414 -0.06076876 0.0021248532
-0.038981866 -0.15538648 0.050596617 -0.19409426 0.13501221 0.017331032 -0.009975553 -0.023112284
0.11825781 0.1961686 0.038217198 -0.02437661 0.04555718 -0.0679012 -0.026012752 0.024107847
-0.1882778 -0.11332345 -0.1148855 0.07632154 -0.2224026 0.1402601 0.01928822 0.05994447
-0.067675516 0.13449095 -0.016185565 0.0512537 -0.054045342 -0.1137007 -0.17720841 -0.06500802
-0.03846134 -0.026240343 0.09946757 0.30619445 0.07653353 0.16793454 0.01120707 -0.15026736
-0.2073368 0.07331492 0.019570775 -0.18824585 0.2115367 0.072995976 -0.15242091 -0.07379154
-0.07956423 0.12392847 0.0334803 0.005297155 0.008261195 -0.054957163 -0.30823722 0.039940402
00000000: df17 5bbc 3d7d a73c 0b00 8fbd b0e2 e2bd
00000010: f101 8c3d af11 d43d 9970 a2bc 0212 adbc
00000020: cf22 00be 3932 de3b 59b6 f6bd 960a d5bd
00000030: 986b d33d 1463 8e3d 9616 1cbe 22d9 113e
00000040: c04c 69bc 7a56 9d3e bff9 a83d b798 a1bd
00000050: 0696 693e 34f6 323d 2e23 39bd 1f80 90bd
00000060: ea64 edbd b244 643d 6ce4 afbd 5d7f 34be
00000070: bac8 833c 975d a23b 66b7 31be 4992 0a3e
00000080: 21dc 0bbe 60b3 0a3e f80c 4dbe 9253 823e
00000090: feda 693e 9a05 6b3a b5be e83d 895e c0bd
000000a0: b956 58bd 013b 66bd 1f09 963d 40f7 c33c
000000b0: 6119 553d f077 963b 4a2b 8cbd 27ff ea3d
000000c0: f2d6 dbbd 2fab 2d3e 4619 3c3e 46fc 1b3c
000000d0: 4393 cd3d 26e4 fa3d ad26 6ebd 09eb 843c
000000e0: 26aa 993d 70ea 493c 0293 84bd 9543 143e
000000f0: affd 013d e97d 12bc b15c 0fbe 7a55 173e
00000100: 5e70 6e3d a93e 9dbc f5fa b1bd 1be0 4d3d
00000110: 1280 b1bc ca80 fbbc 0678 94be 7c31 9b3d
00000120: 39db 1d3d fe98 9a3d 1e37 1b3d c170 283d
00000130: 14b3 ad3d 4ec1 43bd 5c67 143d 6acd aa3b
00000140: c1a6 8f3c 0103 253d 563e 9d3d be1c 243e
00000150: 7fcc 8fbc eb45 343c 24e3 323c 3eda acbd
00000160: 3907 fdbc 1a15 e1bd 6950 043d 528b 9b3e
00000170: ac96 b7bd 19ca 26bd d51d 6d3e 3a75 eb3d
00000180: 5aab 8a3c b66d 4a3d 9a63 0bbd 6c21 14bd
00000190: 4f43 7a3c f80a 2cbe 4364 b93a c357 b6bd
000001a0: 39cf 2abe e712 bd3d 0b41 933d 49ee 33be
000001b0: c295 71bd e234 cabc 5af1 0f3d 2390 963d
000001c0: 6e0e 313e 25b6 7b3d 1591 8abe 4547 c8bd
000001d0: b082 e7bc 2f39 173e a209 90bc d872 04bd
000001e0: 3e67 acbb 6100 b8bc 8fc6 87bd 9fbd 163e
000001f0: b76e edbd 3989 143c 3ede d93b 7edb 4abd
00000200: 586d a8be a10c 563d 2c68 283e db97 913e
00000210: 47c8 0c3e cfdb 98be ab86 083e 5eba 583e
00000220: 1135 183e e9fc dd3c 28cd a4bd 8190 06bc
00000230: 2923 d3bb 560c 9b3e 6a82 b33d b149 413c
00000240: d54e 86bd 5d16 143b 69ff 4d3e 021a c53d
00000250: bc3d 21bd 1630 dcbe 9f98 973d 81ff a0bd
00000260: 5be0 cd3d 0078 fd3c f832 c33d 6f74 bebc
00000270: ac3c c43b f202 2d3c 30dd 01bc f207 893d
00000280: 69dc 3e3e 343e 3f3d 93dc 8b3c a2fc 8cbc
00000290: e282 7abd 4cc7 a8bd 00c4 19bb a594 533e
000002a0: 596f 87bd aa33 64bb aa81 993e 6360 1c3d
000002b0: 5f9c e43d 570e be3b 0242 f13d 7d97 1a3e
000002c0: 528b babd fd2b ab3d f9f9 03bd 9c23 af3d
000002d0: 1702 aebd 85a8 003e 1dcd 453e 2ad6 c0bd
000002e0: a8df 843c a70b 1cbe b48e abbd e0fd 123e
000002f0: eac8 a83c a601 c9bb 0037 653d 601f 943d
00000300: 167b 7c3e 2d1a ffbc 53e1 06be 3484 f5bc
00000310: dedf 5a3d 4b8e 3cbd aae8 78bd 1f41 0b3b
00000320: 73ab 1fbd a21d 1fbe 663e 4f3d a5c0 46be
00000330: a440 0a3e cff9 8d3c 8070 23bc f955 bdbc
00000340: 2731 f23d 6ce0 483e a389 1c3d 75b1 c7bc
00000350: 2a9a 3a3d c90f 8bbd b218 d5bc d27d c53c
00000360: e5cb 40be 2016 e8bd 1749 ebbd 784e 9c3d
00000370: 82bd 63be 58a0 0f3e 5402 9e3c 5588 753d
00000380: 7699 8abd ffb7 093e 9797 84bc 66ef 513d
00000390: a65e 5dbd eadb e8bd 1f76 35be ed22 85bd
000003a0: a389 1dbd fdf5 d6bc a7b5 cb3d 85c5 9c3e
000003b0: 9dbd 9c3d 08f7 2b3e dc9d 373c b0df 19be
000003c0: 1950 54be 2226 963d e452 a03c 85c3 40be
000003d0: 149d 583e ea7e 953d 3a14 1cbe 0520 97bd
000003e0: 92f2 a2bd 36ce fd3d a422 093d c293 ad3b
000003f0: f759 073c c31a 61bd 45d1 9dbe 8c98 233d

gnn1_pool.conv3.lin_root.bias f4 [50]
-0.1545952 -0.38067043 -0.11547056 -0.22984356 -0.30789953 -0.055211186 -0.2545757 0.049687188
-0.20244049 -0.17107561 -0.05783818 -0.116725236 -0.18160452 -0.2952046 0.10707612 0.025849162
-0.00086713285 0.052050613 0.0073665995 -0.08694006 -0.1603268 -0.15690449 -0.050240345 0.030136231
-0.0063834824 0.06300825 -0.21514507 -0.22164677 -0.46807235 -0.081782095 0.17078324 0.026236394
-0.08680599 0.11178725 -0.089806594 0.12063058 -0.34727907 -0.40699494 -0.058475874 -0.119208485
-0.5360143 -0.09436778 -0.14675201 -0.18982978 -0.30007982 -0.5353538 0.14259368 -0.26186642
-0.10874268 -0.34462354
00000000: 344e 1ebe 3ce7 c2be d47b ecbd 1c5c 6bbe
00000010: 02a5 9dbe 2025 62bd bf57 82be cb84 4b3d
00000020: 8f4c 4fbe 722e 2fbe bae7 6cbd a40d efbd
00000030: 89f6 39be 0f25 97be ba4a db3d 9fc1 d33c
00000040: 4d50 63ba 0633 553d 8463 f13b a10d b2bd
00000050: b52c 24be 92ab 20be d2c8 4dbd 42e0 f63c
00000060: 882c d1bb 780a 813d fd4e 5cbe 5ff7 62be
00000070: 2ea7 efbe 5f7d a7bd cde1 2e3e b5ed d63c
00000080: 57c7 b1bd b7f0 e43d 85ec b7bd 2a0d f73d
00000090: 90ce b1be a461 d0be 6684 6fbd 9423 f4bd
000000a0: 3c38 09bf e543 c1bd 2946 16be bd62 42be
000000b0: 10a4 99be f20c 09bf 1404 123e 5b13 86be
000000c0: 7bb4 debd 7f72 b0be

gnn1_pool.bn3.weight f4 [50]
1.0363395 1.1303338 0.9289558 0.9949258 1.1003613 0.8443898 0.9366797 0.9050326
1.0339286 1.0361727 1.2219965 1.0524169 0.6815718 0.8632369 0.7324675 0.71838135
0.9818212 0.90336615 0.87993604 1.0547271 0.8018996 1.061746 1.1062872 1.0706254
0.90561366 0.905438 1.0854691 0.99007493 1.0422999 0.8343857 0.77093273 0.8993678
0.923672 0.8764772 1.0770057 1.0422143 1.0124594 1.0043957 1.0391262 0.93966234
1.0065132 0.8300994 0.8380832 0.9581338 0.9945241 0.91297024 0.9548166 1.2488078
1.0263804 0.9397753
00000000: c6a6 843f c7ae 903f 0cd0 6d3f 75b3 7e3f
00000010: a4d8 8c3f ee29 583f 3eca 6f3f 37b0 673f
00000020: c657 843f 4fa1 843f 626a 9c3f 99b5 863f
00000030: 7d7b 2e3f 18fd 5c3f fd82 3b3f d7e7 373f
00000040: a258 7b3f 0143 673f 7d43 613f 4c01 873f
00000050: 4b49 4d3f 4be7 873f d29a 8d3f 410a 893f
00000060: 4cd6 673f c9ca 673f a7f0 8a3f 8d75 7d3f
00000070: 156a 853f 4d9a 553f d95b 453f f83c 663f
00000080: c575 6c3f cf60 603f 53db 893f 4767 853f
00000090: 4598 813f 0a90 803f 1602 853f b68d 703f
000000a0: 6dd5 803f 6581 543f 9f8c 563f 4248 753f
000000b0: 2299 7e3f 6bb8 693f dc6e 743f efd8 9f3f
000000c0: 6f60 833f 1d95 703f

gnn1_pool.bn3.bias f4 [50]
-0.05362789 0.044137917 0.08232004 0.12896991 -0.08674537 -0.035378385 0.033178512 0.06888102
-0.017843755 -0.007406527 0.10323038 -0.07516038 0.17626421 0.14060047 0.10176015 -0.005396538
0.07692606 -0.1386481 -0.018549735 -0.023320284 -0.0033417838 0.15096281 0.0970328 -0.076413065
0.113766976 0.12354278 -0.07577857 0.04923417 0.03608628 0.0072037405 0.027480943 0.16252719
0.05682401 0.049204424 -0.04085547 -0.004389963 0.100404665 0.11529544 -0.04653004 0.11503297
-0.009725388 0.19986436 0.15981762 -0.06058872 0.0019901479 0.06623026 -0.015831482 0.10571796
-0.016440747 0.06471214
00000000: eba8 5bbd f6c9 343d 6997 a83d b010 043e
00000010: 8ea7 b1bd ede8 10bd 31e6 073d 7e11 8d3d
00000020: 112d 92bc 74b2 f2bb 736a d33d afed 99bd
00000030: 9b7e 343e 92f9 0f3e a067 d03d 71d5 b0bb
00000040: 698b 9d3d c4f9 0dbe 9df5 97bc 2e0a bfbc
00000050: d401 5bbb ff95 1a3e 22b9 c63d 747e 9cbd
00000060: a9fe e83d ff03 fd3d cb31 9bbd c5a9 493d
00000070: 35cf 133d 5b0d ec3b b71f e13c 876d 263e
00000080: 4bc0 683d 948a 493d 1158 27bd aed9 8fbb
00000090: f6a0 cd3d 0420 ec3d 4996 3ebd 6896 eb3d
000000a0: 3c57 1fbc 3ea9 4c3e 3ba7 233e e12b 78bd
000000b0: 246d 023b bba3 873d 06b1 81bc a882 d83d
000000c0: bfae 86bc cc87 843d
