model/BA200_p0.3_m70_n200_diff_pool.pt (torch, 793665 bytes, 113 tensors)

gnn1_pool.conv1.lin_rel.weight f4 [64, 2]
00000000: 12ec cfbe 52a7 2a3f a616 083f fd3e 373e
00000010: 09b5 3a3e 3d58 9fbd 44bd 983e 7b94 253f
00000020: a70d bcbe 2f4b 393f 95ba 373f 7653 06bf
00000030: 2088 13bf 5d87 b53e 9566 80bd 1a90 a7bc
00000040: f2ff 92bc ba41 c1bd 8cde 05bd 8365 42be
00000050: 5236 573f 938e 54be e589 313f 4256 703c
00000060: ddcd bc3e df44 f5bd 98f8 4cbe a3df eebd
00000070: e189 cebd d07c 373f 64fe 423f 6301 ffbe
00000080: 07f2 73be edc5 2d3f b2a4 3f3e afab afbd
00000090: fc96 3f3e ec62 573e 01a7 32be 8130 703d
000000a0: cdcf ba3e 7db7 093f 10fe e3bd 88d4 9ebe
000000b0: 2782 b13e 21ac ae3d b3d0 1d3f a388 17bf
000000c0: d1b4 bebd 6d02 f3be d98b 29bf 90f0 433e
000000d0: 46cb 563f 675e 86be 1aab 50be 445b 2e3e
000000e0: ed51 b23e 16d8 0a3e bb20 52bf 824c 5b3f
000000f0: 87ed fa3e f581 00bf c6a2 c2bf bedd 65bd
00000100: 0f50 cebe 2ce7 14bf d53d 223f 53cc 37bf
00000110: 4ec0 babe 47dc aebd 8cd8 2cbf f1d3 e63e
00000120: b3c7 4a3f 5723 1bbf 503b 2dbf 4137 893d
00000130: 5cdd a5be ff9a 333f cfe0 b23d 446b 2c3e
00000140: 8f0e 333f 1e2c 12bf df83 e43e 6e73 d0be
00000150: 28f0 d9be 4e60 d3be 83e3 503f 868a 82be
00000160: c563 cabe c244 433f a25c f8be 9a20 1abe
00000170: 2302 eb3d edc4 f43e b88f 933e e1b7 883e
00000180: 5723 923f c6a3 1fbf 2a7b e53e 23cc 96be
00000190: 63bb 0f3f 26fd 79bd c878 d5be f013 243f
000001a0: 1332 a43a e9a6 84be 4ce8 0c3f 9ad4 babe
000001b0: cd51 013f 56e5 e33e 3485 c33e e627 d3be
000001c0: 109e 083f 9585 9e3e 186f 0d3f ba7d f83e
000001d0: 3770 2abe 439f 37bf 17d9 1dbf e320 0a3f
000001e0: 3ff9 6a3f 1f8e 78be 521a d23e 2fb8 7f3d
000001f0: d5b6 823f bd5a c73d f275 4cbe 9e38 18bf
-0.40609795 0.6666156 0.5315956 0.17895122 0.18233122 -0.07780502 0.29831898 0.6467969
-0.36729166 0.72380346 0.71769077 -0.524711 -0.57629585 0.35454836 -0.06269566 -0.020454455
-0.01794431 -0.094363645 -0.03268294 -0.18984036 0.8406726 -0.20757513 0.69351035 0.014669003
0.3687581 -0.11976027 -0.20016706 -0.11663749 -0.10084892 0.71674824 0.7616942 -0.49805745
-0.23822795 0.67880136 0.1871517 -0.08577668 0.1870994 0.2103383 -0.1744652 0.058640007
0.36486664 0.53795606 -0.11132443 -0.31021523 0.3466961 0.08528925 0.61646575 -0.59192866
-0.09311832 -0.47462788 -0.66229016 0.19134736 0.8390392 -0.26243898 -0.2037777 0.17027003
0.3482813 0.13558993 -0.8208119 0.85663617 0.49009344 -0.501983 -1.5205925 -0.056119673
-0.40295455 -0.5816524 0.633756 -0.7179615 -0.36474842 -0.08538108 -0.67517924 0.45083573
0.79210967 -0.606008 -0.6766863 0.06699992 -0.32395446 0.7015838 0.08734285 0.16837794
0.6994409 -0.5709857 0.4463186 -0.40713066 -0.42566037 -0.41284412 0.81597155 -0.2549631
-0.39529243 0.7627679 -0.48508173 -0.15051499 0.11475017 0.47806492 0.28820586 0.26702788
1.1417035 -0.62359273 0.4482053 -0.2945262 0.56145304 -0.061032437 -0.4169371 0.6409292
0.001252713 -0.25908592 0.55041957 -0.36490327 0.50515443 0.44510907 0.38187563 -0.41241378
0.53366184 0.3096129 0.5524764 0.48533422 -0.16644369 -0.7172739 -0.6165938 0.5395643
0.9178657 -0.24272965 0.41035706 0.06243151 1.0212046 0.09734104 -0.19966868 -0.5946139

gnn1_pool.conv1.lin_root.weight f4 [64, 2]
00000000: c15d c0bd 5366 a83e fb90 dfbe 3c56 14bf
00000010: 5cfe 8fbe 738a 08bf e876 38bf 95c5 513f
00000020: 0178 ce3e eed3 223f 6e9c 053f 2c2d 3cbe
00000030: e576 063f bb0a b9be 636b bb3f d96a 7ebf
00000040: 02ce 92be 5a25 8c3f 596d b3be 4eb4 693b
00000050: b8d5 f9be d8a9 44bf b0b7 b13e 5bef 8ebe
00000060: addf d5bd 48c6 c7be 59e4 9ebd ff15 963f
00000070: 2fd3 1bbf 23a0 cc3e 64a6 183f ffda 003f
00000080: e0fd 0bbf 0049 333f 695b f63e 6b99 31bf
00000090: 6e6b 0dbf 75f5 0640 9982 efbd 8606 1fbe
000000a0: d9ed 09bf 2d4a 0cbf 22e2 29bf 8cdb 443f
000000b0: 583b 083f 3f83 0dbf f69d e93e 1ad4 3cbf
000000c0: d1e4 13be d4fb 223e 8129 30be bbbe 0fbf
000000d0: 66f0 183d 60f4 c2be a624 45bf 75b4 7e3e
000000e0: 8a22 833f 7fdd 813e 8550 f83e 5122 cc3e
000000f0: b109 1f3d 0b86 35be 05ed fbbe eacb e53e
00000100: f1ea 303e cd6b 15bf 5db6 bc3e a2ce cdbe
00000110: e561 083f 9b9f dd3e d37f dc3e 1196 bcbe
00000120: 7b22 593e 2193 65bf 6bb0 12bf e576 20bf
00000130: 95c4 34be fd47 b73e e6cf 0bbf f71d 9f3f
00000140: 12ac 2abf 9b5e 5f3e 3088 273e e9c2 26bf
00000150: 2f72 b33f c964 f8be 2050 2a3f ce15 2bbf
00000160: 357d 923d bb63 a7be 07f0 ab3d a84c d43e
00000170: 2620 733e e1b3 3cbf e27c 55bf 152a 873f
00000180: 40e9 363f 360a f2be b0f7 013f e5ff 1fbe
00000190: ca2b e53e 7ced 023e bba1 a4bd b0dd 05be
000001a0: d3b8 4d3f 5a3f 9b3e 9daf b8be 44d3 92be
000001b0: 95c6 53bf b770 2c3f 119e 223f 90af 793e
000001c0: 5503 263f 799f 2bbf c0bf 7a3f 4073 95be
000001d0: bc95 3e3f be8d db3e 5e59 13bf f03a 0abe
000001e0: c5d2 7a3e 7dc9 82bf 6833 47bf 50ac 323f
000001f0: bef9 f23c 657b 1c3f cce7 07be a618 053d
-0.09392882 0.32890567 -0.436653 -0.57944083 -0.28123748 -0.53336257 -0.72056437 0.8194211
0.4032593 0.6360463 0.5219182 -0.18376607 0.5252517 -0.36141 1.4642147 -0.99381787
-0.28672796 1.0948899 -0.35044363 0.0035660448 -0.48795867 -0.7682166 0.34710455 -0.2791699
-0.104430534 -0.39018464 -0.077583976 1.1725463 -0.60869116 0.39965925 0.5962889 0.5033416
-0.5468426 0.70033264 0.48116615 -0.6937472 -0.5524205 2.1087315 -0.116948314 -0.15529832
-0.5387855 -0.54800683 -0.66360676 0.768975 0.5321555 -0.5527839 0.45628327 -0.7376114
-0.14442755 0.15916377 -0.17203332 -0.56150407 0.037338637 -0.38077068 -0.77009046 0.24873526
1.0244915 0.253643 0.48498932 0.3986993 0.0388276 -0.17726915 -0.4920427 0.44882137
0.17277123 -0.58367616 0.36857882 -0.4019671 0.53274375 0.43285832 0.43066272 -0.36833242
0.2120456 -0.89677626 -0.5730044 -0.6268142 -0.17653115 0.3579711 -0.546141 1.243102
-0.6666881 0.21813433 0.16360545 -0.6514116 1.4019221 -0.48514393 0.6652851 -0.66830146
0.071527876 -0.32693276 0.08395391 0.41464734 0.23742732 -0.73711973 -0.8339368 1.0559717
0.7144966 -0.47273415 0.50768566 -0.1562496 0.4475997 0.12785906 -0.0803866 -0.13072848
0.80360144 0.3032177 -0.36071482 -0.28676808 -0.8272489 0.6735949 0.6352244 0.24383378
0.64848834 -0.6704021 0.9794884 -0.2918949 0.74447227 0.42881578 -0.5755824 -0.13499045
0.24494465 -1.0217739 -0.77812815 0.6979418 0.029660102 0.61125785 -0.13272017 0.03249421

gnn1_pool.conv1.lin_root.bias f4 [64]
00000000: 8351 b73e 6561 d4bd 6cea 1abf a2f0 923d
00000010: a0ec 033e 72b5 02be 3f2a 11bf fea1 873f
00000020: a8c2 8f3e 79de 31bf fc26 d73e 9c88 933e
00000030: b26c 13bf 10d3 223e 1302 e9bc 5d73 2b3e
00000040: bc5a 2abe ce2a 013f 870d 933e 995d a3be
00000050: 86b1 d9bb 3505 0b3f 3df4 fd3e 7a27 203e
00000060: ad50 19bf 8fb3 833e 8008 b13e d3b6 113f
00000070: 6326 e33d 263a fdbe 5471 263f 7caa 60be
00000080: c38a 8cbe 62d5 60be f07f 0fbf 77e6 09bf
00000090: 7219 093e 084d 28be 336e 153f 2a6d f43e
000000a0: b91b a9bd 6882 993e 5113 733f 64ac 013f
000000b0: 13e2 993e 623c 25bf cad1 833e 1188 083f
000000c0: 2b93 babd 961e f23e d1e0 65bd 7d1d 1cbf
000000d0: 5587 1dbd c306 20bf cba9 293f c6aa 2f3e
000000e0: b291 c13e ba8c 83be 9f52 9f3e 6857 10bf
000000f0: 952f 183e c75f 3a3f 5a7c 3bbf 0331 c6be
0.35804376 -0.10370139 -0.6051395 0.07174803 0.12883234 -0.12764528 -0.5670509 1.0596311
0.28078198 -0.6948009 0.4202193 0.28815162 -0.5758773 0.15900826 -0.028443372 0.16743226
-0.16636175 0.5045594 0.28721258 -0.31907347 -0.006643477 0.5430482 0.49600402 0.15640059
-0.59888726 0.2572293 0.34576797 0.5691959 0.11091306 -0.49458426 0.65016675 -0.21940035
-0.27449617 -0.21956399 -0.5605459 -0.53867286 0.13388613 -0.16435635 0.58371276 0.47739536
-0.08257241 0.29982305 0.9495135 0.5065367 0.30055293 -0.6454526 0.25745994 0.5333262
-0.09110101 0.4728896 -0.056122605 -0.60982496 -0.03845914 -0.6251032 0.6627471 0.17154989
0.3780647 -0.25693303 0.31117722 -0.5638337 0.14861901 0.72802395 -0.7323662 -0.38709268

gnn1_pool.bn1.weight f4 [64]
00000000: 17fa b13e 0000 803f 0000 803f a03a 543f
00000010: a685 4f3f b291 6d3f 973d 663f c902 0c3f
00000020: 2d6e 733f 0000 803f e8e0 723f d925 a73e
00000030: 0000 803f 8354 6f3f eb61 003f 54de 3d3f
00000040: 5240 5e3f 91ec ef3e 671d 4d3f 0000 803f
00000050: 3b85 7d3f 5343 573f 1283 723f b398 353f
00000060: 0000 803f 9093 633f b63d 7d3f 3381 ff3e
00000070: de47 383f d681 973f 2821 303f dc0c 6d3f
00000080: 0000 803f 1e8e 8a3f 0000 803f 0f8f a33f
00000090: 1419 673f 0000 803f a864 df3e 526f 143f
000000a0: 2268 293f 62a7 783f c900 d33e 258f 763f
000000b0: 7483 0a3f 0000 803f 4580 383f 79e1 713f
000000c0: f1e1 833f 54a4 763e 35a5 4a3f 0000 803f
000000d0: 0485 0d3d 0000 803f f17b 503f 7201 6e3f
000000e0: 9d23 443f 6f51 123f da3c c93e 0000 803f
000000f0: 5da2 803f 9365 6f3f 5cf7 123f 0000 803f
0.34761116 1.0 1.0 0.82901955 0.81063306 0.9280044 0.8993773 0.5469175
0.9508999 1.0 0.9487443 0.32646063 1.0 0.9348833 0.5014941 0.7416737
0.86816895 0.46860173 0.8012299 1.0 0.9903142 0.84087104 0.9473125 0.70936126
1.0 0.8889704 0.9892229 0.4990326 0.7198466 1.1836498 0.6880059 0.92597747
1.0 1.0824621 1.0 1.2778033 0.9027264 1.0 0.43631482 0.5798236
0.6617452 0.97130406 0.41211537 0.9631217 0.5410683 1.0 0.72070724 0.9448467
1.0303327 0.24086124 0.79158336 1.0 0.03455068 1.0 0.8143912 0.92970955
0.7661684 0.5715551 0.3930424 1.0 1.0049549 0.93514365 0.5740869 1.0

gnn1_pool.bn1.bias f4 [64]
00000000: 3b99 f93d 39ad 1e3b d224 6abc ece3 6f3d
00000010: 0316 ddbd c8f1 ee3d bda3 16bd 8d96 11bf
00000020: 426f c73c 4ad4 b63b 2f17 883e 8040 65be
00000030: 08ca 3437 8c38 a53b 4984 013f 673a 6a3e
00000040: 69bf 583d 638e d8be 22bf 453e ea86 183b
00000050: 7804 f33a ebbe 07bc 1e4a 1bbc bca9 11be
00000060: 71d5 193a 3648 71be 8b96 243e 5db3 ff3e
00000070: 6c66 96bb 499e 9abe c319 783d 9ebc d53e
00000080: 13cc 1f3c 54cc fd3e 939a d03a 4de0 0c3e
00000090: 14cc 2d3e 5a56 a33b 5fb8 363e 831e ca3e
000000a0: 87f1 113d b3d2 ba3d 6dfa d2be e9d5 c03c
000000b0: 4371 f9be 2959 e8bb 9b1f 38be b9ac 833d
000000c0: b117 663e 2fc6 27be e0cd 973d 3d3a 72ba
000000d0: 1ba8 18bd 9950 adbb 71b6 a23d 82c3 af3d
000000e0: c3c0 8ebe fc5e 13bf 18ea 3ebe 85ca 393c
000000f0: 4d69 453e 941e c23d 9992 e23e bf81 e2ba
0.121874295 0.0024212135 -0.014291005 0.058566973 -0.10795214 0.1166721 -0.036777247 -0.5687035
0.024345044 0.005579506 0.26580188 -0.22387886 1.0775875e-05 0.0050421413 0.50592476 0.22873841
0.052916918 -0.42296132 0.19311193 0.0023273774 0.001854076 -0.0082852645 -0.00947812 -0.14224905
0.0005868292 -0.23562703 0.16073053 0.4994153 -0.0045898464 -0.30198887 0.060571443 0.41745466
0.009753245 0.49569952 0.0015915207 0.13757439 0.16972381 0.004984659 0.1784377 0.39476404
0.03563073 0.09122219 -0.41206685 0.0235395 -0.48719224 -0.007090707 -0.17980807 0.064294286
0.22469975 -0.16384195 0.074123144 -0.00092402456 -0.037269693 -0.005289149 0.07944954 0.08582212
-0.2788144 -0.5756681 -0.18643987 0.011339788 0.1927845 0.094784886 0.4425247 -0.0017281099

gnn1_pool.bn1.running_mean f4 [64]
00000000: 3d65 3e3f 0000 0000 0000 0000 9a26 353f
00000010: 4ec5 763f 1ecd 703e 67c4 c93c f8d9 a33f
00000020: f9b4 233f 0000 0000 1a4d 093e 153f 183f
00000030: 0000 0000 36e1 153f 1790 d83e cea3 303f
00000040: c4ce ef3e e51c 053f 267c a33f 0000 0000
00000050: 0400 0000 b3fa 043f 7d85 2d3f 048c 953e
00000060: 0000 0000 05f2 ae3c aa33 be3e 088f dd3e
00000070: 1210 793f cb82 8e3e e6d0 e73e 43d5 b23c
00000080: 0000 0000 4b81 b63d 0000 0000 4296 d13c
00000090: fb60 5a3e 0000 0000 705b 7d3f e3d8 723f
000000a0: 0500 293d 1c26 6a3e 7fda 803f 2dde 3d3f
000000b0: 34fe 023f 0000 0000 1ca1 d23e 7d22 6a3f
000000c0: 777b d43e a8d0 223f 3a91 cf3e 0000 0000
000000d0: 52b7 b63e 0000 0000 8730 853f 1505 ff3e
000000e0: 637f 453f 3716 213f 6cce c63e 0000 0000
000000f0: 552d b23e 8dfc 5d3f e4d5 0a3e 0000 0000
0.7437323 0.0 0.0 0.70762026 0.96394813 0.23515746 0.024629785 1.2800894
0.6394802 0.0 0.13408318 0.59471256 0.0 0.5854677 0.42297432 0.68999946
0.46837437 0.51997215 1.2772262 0.0 6e-45 0.51945037 0.6778181 0.29208386
0.0 0.021355638 0.37148792 0.43273187 0.97290146 0.27834162 0.45276564 0.021830207
0.0 0.089113794 0.0 0.025584344 0.21326058 0.0 0.9896765 0.9486219
0.041259784 0.228661 1.006668 0.7416714 0.51169133 0.0 0.41138542 0.91458875
0.41500446 0.63599634 0.40540487 0.0 0.35686737 0.0 1.0405434 0.49808565
0.771475 0.6292452 0.38829362 0.0 0.3480021 0.86713487 0.13558155 0.0

gnn1_pool.bn1.running_var f4 [64]
00000000: 0b6f 1e3e 0400 0000 0400 0000 3042 053f
00000010: 2e42 eb3d 062c c73d bab0 c53b df4e c03f
00000020: 6b91 d83e 0400 0000 5af3 1f3d 6ac1 283e
00000030: 0400 0000 f187 b53e 5bcd 453e 189a f13d
00000040: de01 7d3e cbcd 863e 62e5 d73f 0400 0000
00000050: 0400 0000 a75d 8f3e ad55 a53e e026 083e
00000060: 0400 0000 48b6 993b d3bb f53d c4b3 493e
00000070: 937e 293e 27bd ae3d 6a33 bd3d 7a61 503b
00000080: 0400 0000 9f8f 043d 0400 0000 1393 e83b
00000090: a2e2 c13d 0400 0000 fd42 413e 3194 4f3f
000000a0: 2f8d 4c3c 07fa 9a3d bb3d 633f a25c 003f
000000b0: d917 ae3d 0400 0000 c5e2 2b3e 4569 5d3f
000000c0: 7f79 8a3e 4c83 413e c1b6 8c3d 0400 0000
000000d0: 0d75 9f3d 0400 0000 f00c 0e3f 97cd db3d
000000e0: 81dc ec3e 2891 c33e a9bc 753d 0400 0000
000000f0: 994c 273e b729 023f 27fb 0b3d 0400 0000
0.15472047 6e-45 6e-45 0.5205412 0.11487232 0.09725194 0.0060330303 1.502407
0.42298445 6e-45 0.039050438 0.16480032 6e-45 0.35455278 0.19316618 0.11796969
0.24707744 0.26328883 1.6866877 6e-45 6e-45 0.2800114 0.32291928 0.1329608
6e-45 0.004690919 0.11998715 0.19697481 0.1655219 0.08532172 0.09238322 0.0031796382
6e-45 0.03236353 6e-45 0.0070976107 0.09467055 6e-45 0.1887321 0.810855
0.012484833 0.0756722 0.8876607 0.50141346 0.08500642 6e-45 0.16785724 0.86488754
0.2704582 0.18897742 0.06870795 6e-45 0.077859975 6e-45 0.5548849 0.107325725
0.4626198 0.38196683 0.059994373 6e-45 0.16337813 0.508449 0.034175064 6e-45

gnn1_pool.conv2.lin_rel.weight f4 [64, 64]
00000000: 6f8d 53bd d966 3abd 954f e8bd f442 2a3d
00000010: fd97 333d 7ce2 d43d 03ab ebbc a1db 083d
00000020: 2e2d ea3d 9392 56bc 9b0a dcbd 3ba9 16bd
00000030: b058 8a3c 0bcc 8bbd 1c8a c03d 79fb 89bc
00000040: 401b 41bb ad94 f63d 103a 08bd b5d6 6dbd
00000050: 0087 01bd a677 c8bc aa8d e53d 522a bc3d
00000060: 59a7 963d 6fe3 b7bd 2900 1bbe 0e36 853d
00000070: faaf 333d 72ce e3bd dc23 dcbc 0d0b d9be
00000080: 544c a53d b071 5d3d 5fbd 6abd 5fdc 02be
00000090: 739a 91bd cc3c f9bb 01c5 92bd 4149 4fbd
000000a0: 1ab9 4b3d 1e37 bab9 477f 8abd 8e49 cc3c
000000b0: 7dad ea3d 27fa 76bd fafd f83d cf5c 8c3d
000000c0: c4ab 8d3d fd83 30bc 8fa4 a33d 1fc4 323d
000000d0: b7e1 963b 34c7 25bd f4f7 0abe 5993 c4bd
000000e0: 6651 dabd 624f a4bd 7054 30bd 472a 753e
000000f0: a8d9 8c3d a048 1f3d 56c9 193e 217b 38bd
00000100: 8615 523e 2616 f8bd e5d2 d1bd 64f2 8ebc
00000110: ed0d d63e 5759 d0be 6029 00bf 3a84 0b3e
00000120: e9d3 203e 69e1 ac3c b6ed f5be b31b bcbd
00000130: 4721 9ebd 66c0 693e 366f 1ebe 78aa cabe
00000140: cb5a d93d 3a6e 3d3e c015 0c3e 5738 2ebd
00000150: bfa3 8fbe a173 093e fc1e 5ebe 4bc6 f1bd
00000160: 3494 dbbc 57f8 78be a0e5 81be 6460 99be
00000170: bf46 2ebe 7ece c73e 9c47 d7be 67dd 3f3e
00000180: f495 c23d 9652 10bf 0f90 d23d ff74 3cbf
00000190: 04ad 9dbe e4ed 003e f1ed 873d 5520 55be
000001a0: e0e0 ea3d 260f a3be d207 283e a2cf 3cbe
000001b0: 2672 243e 4aed 2dbe 5f57 debd b65e b7bc
000001c0: ab46 9ebe b53a 76bd 540b 9cbe 849e 0fbe
000001d0: 82dc b13d f26f c93c 6cda 23bd 9b53 e4be
000001e0: 92f5 a1bd 848c 123e 5331 89be a78b 693e
000001f0: 6a99 cdbe 9656 3e3d c5d6 95be f8c7 39bd
00000200: 4e06 ad3c e0bc 4e3e c7f3 f2be 60ce 7f3c
00000210: 5ab9 9c3c 6359 6b3e d2a5 0ebf 6259 19bd
00000220: 0a7c 333d 4afb 9bbd 70eb 133e 161d ff3c
00000230: 04ad a13d 1651 243e f2f7 933d 6d0c 913c
00000240: 10c5 1c3e edcc 0dbd d6c7 303d 67e0 353d
00000250: a5dc 7c3d 2a40 b8b8 e510 0dbe 63a4 ea3d
00000260: 4349 4abe bd18 fabe 2bbc b53d ddb8 243e
00000270: 702c 843d 7759 073d a6ec 253d aa96 ee3e
00000280: c065 8e3e c3a8 ec3d d2db 353e d625 45bf
00000290: 17d9 973e 87a6 923e 5a6f 47bd b2d9 533c
000002a0: 6879 35be 9efc 943e 6ce6 d0bc 715d 303e
000002b0: b9e8 76bd fcbd 2cbe dd6e ebbd 1c79 303b
000002c0: ec59 703e 2ba1 1b3e c4d9 ebbd b6ca a13b
000002d0: 2cba 4a3e 64f9 bdbd 9937 98bd bfc8 94bc
000002e0: 11d4 13be b43e 0d3e 9fb3 813d 8d97 c43e
000002f0: cd9d 4a3e 94e8 983d 16c5 42be 6300 18bd
00000300: 7b56 6f3e 78c3 5dbe 0ea9 c9bc 12cf 7e3d
00000310: 0e5a 043f 986f f4be 74db a7be 04cf 303e
00000320: d676 16be 714e 05bc 2539 29bf 30b1 5ebd
00000330: 569c 7cbd c21b 153c ae6d b4bd 8072 12bf
00000340: b9f9 593e 49f3 c13d f7e2 583d f398 a03d
00000350: 4c49 ebbd 2880 4bbd 8d9d febd 859b 85be
00000360: 77ce 853c 0434 de3c 33b1 65be b3e4 65be
00000370: 044d 7ebd 8070 c13e 8a07 d0be 7ebc 70bc
00000380: 40ec 94bd c69f 5abf 990f 80bd e9e4 fbbe
00000390: 9b19 c2be 8bf5 48bd 2478 4a3e d6ef 8fbc
000003a0: 018e 043d 17b4 a4be c5d4 7e3c 750a 06be
000003b0: 6d54 b13e 5377 f8bc 5412 9a3c 4852 be3d
000003c0: 0613 a7be ba82 04be 0d65 86be 3477 1f3e
000003d0: 78e7 3bbe edd0 213e c608 c3bd 162c e7be
000003e0: a5e3 943d eeb7 973c fc7f 71be de65 93bc
000003f0: b4ee 63be 3f6e 98bd 453c 82be 98e0 a7bd
-0.051648553 -0.04550824 -0.11343304 0.041567758 0.04384612 0.10394761 -0.028768068 0.03341258
0.114343986 -0.013096469 -0.1074421 -0.036782485 0.016887993 -0.068260275 0.09401342 -0.016843544
-0.0029465705 0.120400764 -0.033258498 -0.05806609 -0.031622887 -0.024471115 0.11208661 0.091877595
0.07356138 -0.089789264 -0.1513678 0.06504451 0.043868996 -0.11123361 -0.026872568 -0.42391244
0.08071199 0.0540635 -0.057309505 -0.12779377 -0.07109537 -0.0076061245 -0.07166482 -0.05060697
0.049737073 -0.0003551775 -0.067625575 0.024937417 0.114588715 -0.060297158 0.12157817 0.06853639
0.06917527 -0.010773656 0.079903714 0.043644067 0.004604544 -0.040473178 -0.13571149 -0.09598417
-0.10660057 -0.080229536 -0.043049276 0.23941909 0.06877452 0.03888762 0.1501821 -0.0450393
0.20516023 -0.121135995 -0.10245303 -0.017449565 0.418075 -0.4069316 -0.50063133 0.13624659
0.15705837 0.021103578 -0.48032922 -0.09184971 -0.07721191 0.228273 -0.15472111 -0.39583182
0.106130205 0.1849908 0.13680172 -0.0425342 -0.28054616 0.13423015 -0.21691507 -0.118053995
-0.026804067 -0.24313484 -0.25370502 -0.29956353 -0.17019175 0.3902473 -0.4204682 0.18736802
0.095012575 -0.56376016 0.10281383 -0.7361602 -0.30796063 0.12590748 0.066371806 -0.20813115
0.11468673 -0.31847495 0.16409233 -0.1843858 0.16059169 -0.1698505 -0.108565085 -0.022384029
-0.3091329 -0.06011458 -0.30477393 -0.14025313 0.08684637 0.024589512 -0.040003225 -0.44595036
-0.07908167 0.14311415 -0.26795444 0.2280718 -0.40156108 0.046469294 -0.2926542 -0.04535672
0.02112117 0.20189238 -0.47451612 0.0156131685 0.019131351 0.22983317 -0.5572177 -0.037438758
0.043819465 -0.07616289 0.14445281 0.031141799 0.07894328 0.16046557 0.07225026 0.01770612
0.15309548 -0.03461926 0.04315933 0.04440346 0.06173386 -8.785755e-05 -0.13775976 0.114571355
-0.1975451 -0.48847 0.08873781 0.16086145 0.06453788 0.033044305 0.04050889 0.46599323
0.27812004 0.11555626 0.17759636 -0.7701086 0.29657814 0.28642675 -0.048690178 0.012930321
-0.17722094 0.29098982 -0.025500499 0.17223145 -0.060280535 -0.16869348 -0.11495755 0.0026927656
0.23471802 0.151982 -0.11516145 0.004937495 0.19797581 -0.09276083 -0.074324794 -0.01816213
-0.14436366 0.1379345 0.06333088 0.38396874 0.19786759 0.07466236 -0.19020495 -0.037109744
0.23372833 -0.21656597 -0.024616744 0.062209196 0.5169991 -0.4774139 -0.32784617 0.1726647
-0.1469377 -0.008136378 -0.6610282 -0.054368198 -0.06167253 0.009100856 -0.08809982 -0.57205963
0.21286668 0.09470231 0.052950826 0.07841673 -0.1148859 -0.049682766 -0.12432394 -0.26095214
0.016333802 0.027124412 -0.22430877 -0.22450523 -0.062085167 0.37781143 -0.40630752 -0.014693378
-0.072716236 -0.85400045 -0.06252975 -0.49198082 -0.3791016 -0.049062293 0.19772393 -0.017570417
0.032361988 -0.32168648 0.015553658 -0.13089927 0.34634724 -0.030330336 0.018807568 0.09293038
-0.326317 -0.12940493 -0.2624897 0.15572816 -0.18350017 0.15802355 -0.09523158 -0.45150822
0.07269982 0.018520322 -0.23583978 -0.01799291 -0.22259027 -0.07442903 -0.25436607 -0.08197135

gnn1_pool.conv2.lin_root.weight f4 [64, 64]
00000000: f289 bdbe 9fe9 d4bd a5ee 6fbe cecb 5abe
00000010: f11f 98be e30f 953e 336c e43e b409 273e
00000020: 07f4 93be 7e24 d23d 96ba ca3e 0e73 7c3e
00000030: 74cc 5e3d 3523 51be c7ed 83be 81d4 693e
00000040: 143b 1bbe 6552 143e 9ccc 4bbe 7c45 1a3c
00000050: e2d8 b03d 908b 16be 5121 c03e 44e3 773e
00000060: 58d3 a63d 31f8 ec3e 344c b43e 1c8e c7be
00000070: 4a98 cc3e ff76 ba3e e822 d23e 0f45 09bf
00000080: ee43 acbd e923 af3e 13e0 aa3d 6efa b63e
00000090: 6fa3 a83e b5e5 c9bd 3a29 f5be aea6 bcbe
000000a0: 9f65 04be 3fe7 053f 84ba 61bd d707 ec3e
000000b0: 8c4a 5b3d 42ed d93d 01a8 893d e4a5 b1be
000000c0: ff82 4e3e 164c e93e 8fc6 723f b7f1 8dbd
000000d0: 0501 df3d 9ff5 b33c 5e6b 9abe b773 703f
000000e0: 740a 8a3e 9ae7 793c 228e 0b3f 7557 e23d
000000f0: 70f7 df3e c71d 96be ca01 15be 5246 a03b
00000100: 42d4 bc3e 72ad 7e3d a527 623a 3af1 dc3e
00000110: 6b19 313e 6d37 cbbe 77db 68bd 704a 57be
00000120: 348d 763e f340 bfbd 092a 483e 564e b6be
00000130: e4f7 acbc e469 c93e e297 99bd d2e2 50be
00000140: cc49 303e d512 cabe 7e8f c63d 138f c9bd
00000150: b1d5 7ebe e66e 533a 1a53 c5be 3039 98be
00000160: f41d 2c3c ab66 a2bb e4e6 b0be 97f9 c83d
00000170: 70a7 94be 28de b13e 8298 80be 3f63 22bd
00000180: ac11 cc3c a582 67bf 0087 023e f214 0b3d
00000190: ae3c a7be 30d5 3b3e abcd be3e 201a ec3d
000001a0: 7f81 02be 21cc 74be 54ee 25bc 4eb1 edbe
000001b0: 9ec6 083e 184e 5bbe e369 cebe b2f6 fe3d
000001c0: cde8 96be 4202 b0be 10b6 d1be 4b37 33be
000001d0: 15fb 35bd a398 4a3d c0d4 8a3e 1259 a9be
000001e0: 9c0b cbbe 60f0 63be 0901 61be 944c 2f3c
000001f0: 9ddc d2be baa4 f23d 0c04 363d 4c4b 81bd
00000200: 22fc 293e ed06 b83c a528 c7be 957d a53e
00000210: 6664 37bd 60fb f6be 4181 63be ea8a 00bf
00000220: 47f8 383e c5ed 23bd 488f 8dbd 2c8f f9bd
00000230: c1b1 703d d6a8 cf3e bb4f 2a3e cf96 133e
00000240: 8dcd 9d3d 40df d7be 4c85 803e a05d 43be
00000250: 4ff1 ae3c 8d71 473e a6e0 acbe 2b2c 07bf
00000260: 792c 23be b053 acbe 6653 53bd 7db5 613e
00000270: 8bbc 993d 1b28 edbb 6406 e23d 9800 a1bd
00000280: e838 ab3e 6b87 8dbf 61d6 033e ffe8 9dbe
00000290: 7448 03bf b8c4 813e fe77 433e e35e 903e
000002a0: 2d3d 8fbd 9be9 f5be 54cb 12bf ca95 90be
000002b0: 3770 1bbe 02b8 8ebe a124 1cbf 99ad a93e
000002c0: 8bd5 0fbf 403a b1bd c199 b83d 6caf 853c
000002d0: ccce bbbd 46bf b8bd 1ff7 8c3e 079c 2a3c
000002e0: 080e c9be 52ca 1bbf 604d 07be 483e 123f
000002f0: 5ffc 19bf 7356 2e3e 5f86 df3d 71fc 1ebe
00000300: 6751 043e 9ae7 55bc 2d0c 523d 11d7 c23e
00000310: 29a9 3d3e ccfb 26be 1ebd 1c3e 5347 7bbd
00000320: f8dd 0d3e 799e 09be bb01 d83e 31c6 cfbd
00000330: 7303 3dbe d324 ca3e 832b 9d3d 22d6 e7bd
00000340: 8438 953e 4966 cfbd 354c f83d 96b5 723b
00000350: 3a63 95bd 36ef 823d 176c e1be 1134 99be
00000360: ee78 78bd b811 ff3d 4f0b 2dbe af59 d33d
00000370: 9251 31be c082 7b3e d023 f0bd 0049 ae3d
00000380: 620e 85bd f2b8 40bf 955e 2ebd 6c20 1b3d
00000390: fc64 92be fe1f 30be 2802 a23e d7ce a43d
000003a0: 28c2 9a3d 9984 8ebe cbff 27be a107 9bbe
000003b0: da55 eabd a1a7 bdbc c4e0 2fbe 27aa 9a3e
000003c0: 3d9c 93be f890 13be d5ed edbd 0b75 283e
000003d0: 1180 353c e04f 1e3e 290e 973e 4eea 97be
000003e0: 49c7 c1bd 5068 43be a265 e1bd 0c2b 473d
000003f0: f6c8 3bbe 0a50 563e af0d 1bbd 7c8d dfbd
-0.37019306 -0.10396122 -0.2343088 -0.21366808 -0.2971187 0.29113683 0.446138 0.16312295
-0.28897116 0.102608666 0.3959548 0.24653265 0.0543942 -0.20423587 -0.25767347 0.2283497
-0.15159255 0.14484556 -0.19902271 0.00941598 0.08635117 -0.14701676 0.37525418 0.24207789
0.08145779 0.46283105 0.35214388 -0.38975608 0.39959937 0.36418912 0.41042256 -0.53621
-0.08411394 0.34207085 0.0834352 0.35737938 0.3293719 -0.09858266 -0.47883016 -0.36845917
-0.1292939 0.5230598 -0.055109516 0.4609973 0.05353789 0.106409565 0.06721497 -0.34696877
0.20167159 0.4556586 0.94834226 -0.06930869 0.10888866 0.021967707 -0.3016004 0.93926567
0.269611 0.015252972 0.5451375 0.11051837 0.43743467 -0.29319593 -0.14551464 0.0048911953
0.3688069 0.06217713 0.00086271233 0.4315279 0.17294852 -0.39690724 -0.056849923 -0.2102449
0.24077302 -0.0933856 0.19547285 -0.3560664 -0.021114297 0.393386 -0.074996725 -0.20399025
0.17215651 -0.39467493 0.09695338 -0.09841742 -0.24886204 0.00080655364 -0.38539964 -0.2973113
0.010505188 -0.0049560866 -0.34551156 0.098132305 -0.29033995 0.34739804 -0.25116354 -0.03964543
0.02491077 -0.9043372 0.12746811 0.033955522 -0.32663482 0.18343043 0.37266287 0.115284204
-0.12744711 -0.23905994 -0.010127623 -0.46424335 0.13357016 -0.21416509 -0.4031516 0.12449397
-0.29474488 -0.34376723 -0.40959215 -0.17501561 -0.044428904 0.049461972 0.2711544 -0.33075768
-0.39657295 -0.22259665 -0.21973051 0.01069941 -0.4118394 0.11847825 0.044437453 -0.0631319
0.16600087 0.02246424 -0.38898197 0.32322374 -0.04477348 -0.4823866 -0.22217275 -0.50211966
0.1806346 -0.040021677 -0.06912094 -0.12185511 0.05876327 0.405585 0.16631977 0.14412998
0.07705221 -0.42162514 0.25101697 -0.19078684 0.0213553 0.1947691 -0.33765143 -0.5280177
-0.15934934 -0.33657598 -0.051593207 0.22041889 0.07506665 -0.007237447 0.11036375 -0.078614414
0.33441854 -1.1056951 0.12874748 -0.30841824 -0.5128243 0.25345397 0.19088742 0.28197393
-0.0699409 -0.4802979 -0.57341504 -0.2823928 -0.15179525 -0.27874762 -0.6099339 0.33140257
-0.56185216 -0.086536884 0.09013701 0.016319 -0.09170303 -0.090208575 0.27532288 0.010413176
-0.39268517 -0.6085559 -0.1321311 0.57126284 -0.6015071 0.17025165 0.10914301 -0.15525986
0.12921678 -0.013055706 0.051281143 0.38054708 0.1852156 -0.1630699 0.15306517 -0.061347317
0.13854206 -0.13439359 0.4218882 -0.10145224 -0.18458347 0.3948122 0.07674315 -0.113201395
0.2914468 -0.10126931 0.1212391 0.0037034503 -0.072943166 0.06393282 -0.44027779 -0.29922536
-0.060662203 0.124545515 -0.16898845 0.1031984 -0.17316273 0.24561596 -0.11725581 0.085100174
-0.06496884 -0.75282204 -0.04257067 0.037872717 -0.2859267 -0.17199704 0.3164227 0.08047264
0.075565636 -0.2783554 -0.16406171 -0.30279258 -0.11442156 -0.02315122 -0.17175585 0.3020794
-0.28830138 -0.1441077 -0.116176285 0.16450898 0.011077897 0.15460157 0.2950299 -0.29670948
-0.09461839 -0.19082761 -0.11005713 0.048625037 -0.1833838 0.2092897 -0.037854847 -0.10915658

gnn1_pool.conv2.lin_root.bias f4 [64]
00000000: dd91 533e 74db 3b3d 8fdf 383f 13d2 a2bc
00000010: 7bbf 1d3f e288 7abd ca7b 343e e4ef 8cbe
00000020: cf49 94be 9d15 9bbe 7917 2e3e 2bbc 643e
00000030: a039 3f3e 8044 d63e 26ef 48be 8b8b 8e3d
00000040: e1bb 923e 0225 d7bc 0042 bf3d dcba 8a3e
00000050: ccc1 ab3e 4aa5 90be 2f0b 39be f869 903e
00000060: 77a5 d33e bf69 37bd 5b5d 77be 301e abbe
00000070: 3f33 623e eadf fa3e df1c 2abe 5aaa f13d
00000080: 342e aa3e 3c47 fbbd 46bf 793d 8f64 d2bd
00000090: f445 8dbe 3311 053e b84a a73d d1a0 80bc
000000a0: ad77 7c3e 7441 703f caec 5ebe 310c 8abe
000000b0: 9424 be3c 7409 c3bd d401 e53d d79d 3e3e
000000c0: a0d1 4dbe 016a 13be b2e4 9c3e 27c6 24be
000000d0: 3b55 b7bd a8f2 243f e29d d8bd d52d bd3e
000000e0: 618d 993e e9e9 233e 13c9 803e 51e8 86be
000000f0: ed7c 2a3f 5045 92be bfa9 fc3e 29f5 1a3f
0.20661111 0.045863584 0.72216123 -0.019875562 0.616203 -0.061165698 0.17625347 -0.27526772
-0.2896256 -0.30289927 0.17001142 0.22337405 0.18674326 0.41849136 -0.19622478 0.069602095
0.28658965 -0.026262764 0.093387604 0.27095687 0.33546293 -0.28251106 -0.18070672 0.28205848
0.41337177 -0.04477858 -0.24156706 -0.3342147 0.22089861 0.48998958 -0.16612576 0.1180007
0.33238375 -0.12269446 0.06097343 -0.10273086 -0.27592432 0.12994842 0.08168548 -0.015701683
0.24655028 0.93849874 -0.21770015 -0.26962426 0.023210801 -0.095232874 0.11181989 0.18614899
-0.20099497 -0.14395906 0.3064323 -0.16091214 -0.08951803 0.64432764 -0.10576989 0.3694903
0.29990676 0.16007198 0.25153407 -0.26349118 0.6659687 -0.28568506 0.49348256 0.60530335

gnn1_pool.bn2.weight f4 [64]
00000000: d6b1 bb3e 5762 3c3f 8a55 6b3f e52a 4b3f
00000010: cf6b 693f 31e0 023f 80b8 063f e770 f33e
00000020: d469 813f f9cf 503f 8997 4c3f 8abc e83e
00000030: 077f 093f 95d3 0e3f 6343 633f 52fe db3e
00000040: 317b 313f 8ecf 3c3f 816c 083f ddf6 033f
00000050: 1c9e 3d3f eba0 283f 8fdf 623f c93c 223f
00000060: ba28 223f 4c67 0d3f 0600 d83e 281b 773f
00000070: 6643 0a3f c527 553f 2636 4e3f 4f67 f23e
00000080: 4980 853e 3f25 f73e 06ca c03e 579f 8b3e
00000090: 39da 673f 33cb 0c3f 473c 1d3f d7a6 103f
000000a0: cd38 213f 10ae 623f bace 1d3f 4b8f 483f
000000b0: a04e 473f ec13 213f eaa2 6c3f 3357 183f
000000c0: 5429 213f 0bdc 463f 21f7 6f3f bd4c 513f
000000d0: 8527 193f 0cab 553f 45d6 183f afe3 233f
000000e0: 317c e33e 67ca 483f 47fa 063f 9125 0f3f
000000f0: d264 673f b5cd 7a3f a463 5f3f de69 773f
0.36659116 0.73587555 0.919274 0.79362327 0.9118013 0.5112334 0.52625275 0.47547075
1.0110421 0.8156734 0.79918724 0.45456344 0.53709453 0.557916 0.887747 0.42967469
0.693286 0.73754203 0.53290564 0.5154856 0.7406938 0.6587054 0.88622373 0.63374
0.63343394 0.55235744 0.42187518 0.9652581 0.5400909 0.8326381 0.80551374 0.47344443
0.26074436 0.48270604 0.37654132 0.27270004 0.90567356 0.5499756 0.614201 0.5650458
0.62977296 0.8854685 0.61643565 0.7834365 0.7785435 0.62921023 0.9243609 0.59508055
0.62953687 0.7767951 0.93736464 0.8175772 0.59825927 0.8346412 0.5970195 0.6401929
0.44430688 0.7843384 0.5272564 0.55916697 0.90388215 0.97970134 0.87261415 0.96645916

gnn1_pool.bn2.bias f4 [64]
00000000: d44d c4bd c952 c23e e5e8 c23d 5ba8 883e
00000010: ea66 8d3d c072 d63e 8f03 39be 1d29 bf3e
00000020: 9ecf a93d edfb 2a3e c43e 3b3e f949 29be
00000030: ed62 f6bd a781 1a3f 8dff e53e 9657 013e
00000040: 2619 98bd 4b18 bfbe 7d74 c3bd 9cda df3c
00000050: c227 cd3d c875 a63e 5930 863b f00e 3b3a
00000060: d147 4f3d 6b3a 073f 80dd 2f3e ad7a f13e
00000070: 5ac6 06be 7884 0a3d 4705 b43e 729c b03e
00000080: 4550 01be 2366 453e 5117 e0bd 0ab2 f43c
00000090: def7 e83e 1521 74bd c375 1b3f 4ad1 f43e
000000a0: 3533 18bd 0bc3 2cbc 8872 813e 5619 dc3e
000000b0: 6f62 8b3e d1ea 903e b69f 7d3d d30c 053f
000000c0: f750 d53e e105 5a3e 0dd8 b03d a410 f13e
000000d0: f1ef f63e 8a35 d3bc 92f2 f53e eea3 793e
000000e0: 604c a33e 1a20 623e 91fa 3fbd 3934 803e
000000f0: b8fa e63c 6482 203e 3ccc 1d3c 688e 0b3d
-0.09585157 0.37953785 0.09517077 0.26690945 0.06904395 0.41884422 -0.18067764 0.37336054
0.08291553 0.16697665 0.18285662 -0.16532125 -0.12030587 0.60354084 0.44921532 0.12631068
-0.07426672 -0.37323222 -0.09543703 0.02732592 0.10017349 0.32511735 0.004095119 0.000713571
0.0506056 0.52823514 0.1717434 0.47163907 -0.13161603 0.03381774 0.35160276 0.34494358
-0.12628277 0.19277243 -0.10941947 0.029870052 0.45501608 -0.059601862 0.60726565 0.47815925
-0.03715821 -0.010544549 0.25282693 0.4298808 0.27223536 0.2830415 0.06191989 0.51972693
0.41663334 0.21291305 0.086349584 0.47083008 0.48229936 -0.025782365 0.4803663 0.2437894
0.31894207 0.22082558 -0.046869818 0.25039843 0.028195724 0.1567474 0.009631213 0.034071356

gnn1_pool.bn2.running_mean f4 [64]
00000000: c817 8740 e75f 8740 4af8 9e40 9369 5140
00000010: ca13 b040 4d15 3a40 648a c640 e992 0840
00000020: aa5d 243c 7ee4 243d 60f2 9f40 1a4f a440
00000030: 14e6 a840 2be8 ed40 e8e7 d63f 4e5c 0e40
00000040: 3fbe 8840 707d 0141 1e71 9540 e70b 7840
00000050: 3900 5340 8813 ea3f 7f74 5440 0c99 8740
00000060: 97af 7a40 c690 9440 0cf0 6b3f e1b0 993f
00000070: fcda 9c40 83e2 ce40 7b2f ff3e bcd1 1740
00000080: 7b5d a840 82ea 603f d36a a940 0546 d440
00000090: e7c3 0040 e219 8e40 d395 a040 307f 5240
000000a0: fb0b 8840 a589 e940 5b21 d33f a4ba 0c40
000000b0: 43c9 8740 769c 283f 4fa7 9440 399c 9440
000000c0: 6c3d 3c40 5569 4440 6d5e bf40 0d26 0640
000000d0: 55e5 8040 6be2 b940 9a6d 4f40 268f ab40
000000e0: 5037 8c40 2df1 b440 a3ec 8d40 062f 1e3f
000000f0: af56 c540 580b 8d3c 5988 9d40 b111 c340
4.221653 4.230457 4.9678087 3.2720687 5.5024157 2.90755 6.2043934 2.1339667
0.010032097 0.04025697 4.998337 5.134656 5.2780857 7.434591 1.6789522 2.2243838
4.2732234 8.093124 4.6700583 3.8757265 3.2968886 1.828721 3.3196104 4.2374325
3.9169672 4.6426725 0.9216316 1.2007104 4.9017315 6.4651504 0.49840912 2.3721762
5.261411 0.8785783 5.29429 6.6335473 2.011957 4.4406595 5.018289 3.289013
4.2514625 7.2980523 1.6494554 2.1988916 4.243318 0.6586374 4.6454234 4.64407
2.941249 3.068929 5.9802766 2.0960724 4.0279946 5.808889 3.2410645 5.361224
4.381752 5.6544404 4.4351363 0.617905 6.1668315 0.017217323 4.922894 6.0959096

gnn1_pool.bn2.running_var f4 [64]
00000000: b581 c541 33a7 c141 3073 d041 4957 6d41
00000010: 422a fe41 e6a4 4741 bba6 6b42 0a37 eb40
00000020: 496c 9d3c e016 6f3d b23f fd41 a250 0c42
00000030: f901 3d42 f68b 6642 0b93 5741 28cb 7c41
00000040: 8f50 eb41 7884 2e42 26be 0542 a017 db41
00000050: 2678 8d41 dd1a 7b41 709f 7041 1bfa 0042
00000060: ac69 e141 0a34 c641 81ed 9540 4e1d 1741
00000070: 051b 0b42 0493 2542 e958 a63f 2482 2e41
00000080: 0baa fd41 54a6 8e40 b2c1 2b42 18ff 2c42
00000090: 9160 8041 e621 f841 046d dd41 6178 7341
000000a0: f5c2 eb41 e205 5e42 ae9a a740 bbba 9541
000000b0: 30bf be41 7bef 1640 ffa4 ca41 039d e441
000000c0: 5e0d 7f41 28e2 5841 f32f 1c42 b3f6 8541
000000d0: 342f cc41 df68 0d42 e521 8041 34ce fe41
000000e0: e946 a241 4894 1542 2130 f441 02de ff3f
000000f0: f8be 1f42 3d1d 943c c155 cf41 002c 1c42
24.688334 24.20664 26.056244 14.83381 31.770634 12.477758 58.912823 7.3504686
0.019216673 0.058371425 31.656101 35.078743 47.251926 57.63668 13.473399 15.799599
29.414335 43.629364 33.43569 27.386536 17.683666 15.694058 15.038925 32.244244
28.176598 24.77541 4.685242 9.444654 34.776386 41.39357 1.2995883 10.906773
31.708029 4.4578037 42.939156 43.249115 16.047152 31.016552 27.67823 15.216889
29.470194 55.505745 5.237632 18.716177 23.843353 2.3583667 25.330564 28.576666
15.940763 13.555214 39.046825 16.745459 25.523048 35.352413 16.01655 31.850685
20.284624 37.394806 30.5235 1.9989626 39.936493 0.018080348 25.916872 39.04297

gnn1_pool.conv3.lin_rel.weight f4 [50, 64]
00000000: 73b8 52be 2d60 4fbe 2ac6 ac3d 698c 44ba
00000010: bde2 d83d c1f9 64be b81d 35be 2e7e 92be
00000020: af38 963c b04f a4bd 5484 c8bc 2841 99bb
00000030: 6961 26be 1857 a83d 3305 2f3d 50f8 d73c
00000040: b6fc eabd 0670 56bb 579c 83bd a200 473d
00000050: f1cd 02bc 5341 093d a5b4 1abc 6ddf 9abe
00000060: d7f3 6a3d bef8 4b3e 1722 1bbe ae86 3b3e
00000070: 1fe4 20be 7378 063e 0077 d93d 34f7 2c3d
00000080: 6468 8dbe 0859 c5bc 5a39 883d f6f6 b53d
00000090: 12e4 553c f336 cbbd 1767 1b3e 781e 043e
000000a0: 441e 42be 0112 34bc 555c 673c 7aa9 303e
000000b0: f66d 403d d71e c03d 622d 3d3c cc19 4b3b
000000c0: fa66 d3bd 34a9 65bd 5995 c2bd eb06 5f3e
000000d0: 1e45 e23d c440 a0bd bab8 173d c19a 703d
000000e0: 862f 8b3e 0d7d d83c 5850 8bbe 2c65 513d
000000f0: b500 463d 345d 8c3d b915 ec3d f350 153b
00000100: 79de f63e 11cf f6bd 847c 91be 9109 4abe
00000110: cfc7 f0be f094 05be 6bb9 b43e baba 1e3e
00000120: debc 323e b21d 853e ee15 b6be 3ff3 b03e
00000130: 4a62 d23e 0f9b 583d 4ae0 2abe 005b f13d
00000140: 5a72 563f 21c5 a73d f64c 0b3f 2ee0 b63e
00000150: 3e15 483f c950 8bbe 25c8 b9bd 709f cf3e
00000160: b3f4 183f 72af 23be efad a03d 3b0e a0be
00000170: 31e1 2a3f 808f 82bf 1040 6fbd 88be 68bd
00000180: 7a55 963e bbbe 3e3d d659 8e3e d435 99be
00000190: b7b0 89bd 4c6a 1e3f 5ab9 323e 0faa 99bb
000001a0: 40e5 0e3f 8c09 23bf 8c32 3ebe 45c6 b6bd
000001b0: ae6f 90be 6211 a8bb e777 08bf d4b3 f93a
000001c0: 623e b2bd 96e9 3abe e14c a7be 9179 c5bd
000001d0: 1a33 03be bd13 23bf 93d5 06bc 427b f8be
000001e0: 7563 f7be 51dc e1be e1bb ff3e 351c 06bd
000001f0: 7169 29bf 6c74 193d bac3 36bf f8e0 d3be
00000200: 952b 703e f54c f0be d2ed e4be 510b b6bd
00000210: 3cef fdbe bf3a 3ebe a80c a03e 95f7 26be
00000220: af8d 1bbe acb7 d8be 71c0 98be a4ae 593e
00000230: 22a7 ab3d a460 8dbe 2b06 76be 00cd 1bbc
00000240: 0904 f13b f185 3f3e 48b6 323e f135 a73d
00000250: 3651 85bd 8226 9dbd 7040 423e ffcb ea3d
00000260: 91e5 093d c8fa 91be ed4b 41be 0fac 4bbe
00000270: 883c 813d b5c4 80be 0466 26be 8d19 68be
00000280: fcc2 c63e eb1b 64bb ee85 303e 0b1a de3c
00000290: c385 edbd fec0 2d3e 97ea d1be 7882 b1be
000002a0: 969c 94bd 1b96 55be e132 d6bd c24c f6bd
000002b0: a122 3dbe 4952 e0be b3c2 56be 7e3c 8abe
000002c0: 625d 023e 4417 de3d b1a2 97be 1968 60be
000002d0: 841d e8be 853b 5cbe c9a7 64be 2750 78bf
000002e0: 100c 26be 5649 d0be 3dc3 193e 3fcb 5abe
000002f0: c713 aebe 5dee 8ebe 3b13 febe 93ae f9be
00000300: 1471 8c3d bc00 443d 1f9d 8b3c 18a0 a93d
00000310: 886f ac3d 0e15 0a3e 0c74 d43d 2aee 8a3e
00000320: a31a d3bb 491b babd f513 603e b54d ee3d
00000330: 97c4 f93c 4ef6 a3bc 0d59 e3be ceb1 70bc
00000340: 231c 52bd fdeb 243e 4246 873d f37f 36be
00000350: 4cd5 dfbe b694 f7be c961 343e c7ef 0abe
00000360: bad4 9abe 30a0 8bbe 7645 43be f304 f7be
00000370: c2ef bd3d af38 33bd bb85 a1bd 639e 18be
00000380: ca00 173e f29d d6be 4f01 a13d 7407 0d3d
00000390: 15e2 febe 7981 15be 3c87 edbc 3baa f8bd
000003a0: f469 14be 7313 313e a693 9b3e 4fc4 bebe
000003b0: 9f47 8f3d 3bc1 55bd d071 6f3e a22f 11be
000003c0: 1a60 8d3d 9ef6 8a3e e2c4 473d b60e 7cbe
000003d0: c431 5abe b8b7 af3d a69b 263e 5b84 c2bd
000003e0: 23f2 91be 4e62 b43c cbfc 803d b84b 8bbe
000003f0: 60e5 e43d 5a08 acbd d0d5 5b3d be54 5c3e
-0.20578174 -0.20251532 0.08436234 -0.00074977294 0.10590122 -0.22360899 -0.17687118 -0.28611892
0.018337576 -0.08023012 -0.024477161 -0.0046769567 -0.16248097 0.08219737 0.042729568 0.026363522
-0.11473982 -0.003272058 -0.06426304 0.048584588 -0.007983671 0.033509564 -0.009442483 -0.30248585
0.05736145 0.19919106 -0.15149723 0.18313095 -0.15712021 0.13131885 0.106184006 0.04222794
-0.27618706 -0.024090305 0.06651564 0.08884995 0.0130548645 -0.0992259 0.15176044 0.12902248
-0.18956858 -0.010990621 0.014121135 0.1725215 0.046979867 0.09380882 0.011546465 0.0030990718
-0.103223756 -0.056069568 -0.09501142 0.21779983 0.11048339 -0.07824853 0.037041403 0.058741335
0.27184695 0.026426816 -0.27209735 0.051121876 0.048340518 0.068537146 0.11527581 0.0022783845
0.48216608 -0.120512135 -0.2841531 -0.19730212 -0.47027442 -0.13045096 0.35297713 0.15500918
0.1745486 0.25999218 -0.35563606 0.34560582 0.41090614 0.05288225 -0.16687122 0.11784935
0.83768237 0.08191896 0.5441431 0.3571791 0.78157413 -0.27210072 -0.09071378 0.4055133
0.5974838 -0.15984896 0.07845675 -0.31260857 0.66749865 -1.0200043 -0.058410704 -0.05682233
0.29362088 0.046568613 0.27802914 -0.2992388 -0.06723159 0.61880946 0.17453519 -0.004689462
0.5581856 -0.6368644 -0.1857397 -0.08924536 -0.28210205 -0.0051290253 -0.53307956 0.0019050785
-0.08703305 -0.18253168 -0.3267584 -0.096423276 -0.12812462 -0.63701993 -0.008229631 -0.48531538
-0.48318067 -0.441134 0.49948028 -0.032741744 -0.66176516 0.037464544 -0.71392405 -0.41382575
0.23454125 -0.46933714 -0.44712692 -0.08888877 -0.49596584 -0.18577097 0.31259656 -0.16305383
-0.15190767 -0.4232763 -0.2983432 0.21258026 0.083814874 -0.27612793 -0.2402579 -0.009509325
0.0073552174 0.18703438 0.17452347 0.081645854 -0.065096304 -0.076733604 0.18969893 0.114646904
0.033666197 -0.28511643 -0.1887662 -0.19889854 0.063103735 -0.25150076 -0.16249853 -0.22665997
0.38820636 -0.003480668 0.1723859 0.027112028 -0.11597779 0.16968152 -0.4099929 -0.34669852
-0.07256429 -0.20858042 -0.10458923 -0.12026359 -0.18470241 -0.4381278 -0.2097271 -0.26999277
0.12730935 0.10844281 -0.2961631 -0.2191471 -0.4533502 -0.2150708 -0.2232963 -0.969973
-0.16215539 -0.4068095 0.15015884 -0.21366595 -0.33999464 -0.27916232 -0.49624047 -0.48766002
0.068575054 0.047852263 0.017042695 0.082824886 0.084197104 0.13484594 0.10373697 0.2713483
-0.0064423843 -0.090872355 0.21882613 0.11635915 0.03048925 -0.020014908 -0.44403878 -0.014690829
-0.051296365 0.16105647 0.066051975 -0.17822246 -0.4371742 -0.48355645 0.17615427 -0.1356803
-0.30240422 -0.2727065 -0.19069466 -0.48245963 0.09274246 -0.04375523 -0.07886835 -0.1490417
0.14746395 -0.41917378 0.07861578 0.034430936 -0.49781862 -0.14600171 -0.028995149 -0.12141844
-0.14493543 0.17292576 0.30386084 -0.37259147 0.069960825 -0.052186232 0.2338326 -0.14178327
0.069030955 0.2714128 0.048771746 -0.24614987 -0.21308047 0.085799634 0.16270313 -0.09497901
-0.28505048 0.022019532 0.062982164 -0.27206206 0.11176562 -0.084000304 0.053670704 0.21516702

gnn1_pool.conv3.lin_root.weight f4 [50, 64]
00000000: 54b2 bc3d 44ff f83e 3d5b 173e b352 a83e
00000010: 6472 843e 2781 d43e 4e07 993e 766a 38bd
00000020: ef36 dcbe fd93 01bf a207 3f3f 9ba0 cc3d
00000030: 4a59 773e 1295 a13d 07c2 93bd 0da0 553e
00000040: 3be7 143d 90c9 16bd 1cd6 52bc df78 453d
00000050: ee4c 87bd 3c91 8ebe c405 f13e 8bcd ad3d
00000060: ec06 20bb 0ed6 a83e abf1 213e cfef 093e
00000070: c541 083e 4a92 c13e 2479 66be 65b4 14be
00000080: 0e06 263d b52f c43d 82a4 bd3e d543 56be
00000090: 2a79 d03d 81d6 943d fe66 553e 0689 7c3e
000000a0: 2916 07bc 1338 e93d bf7e 313e 2cef 903c
000000b0: 85f1 283f 487e 9cbe d131 1e3f 8b42 953e
000000c0: 7431 8cbe c3c4 ae3e 5034 a63e 69d8 89bd
000000d0: cc45 033f 8d82 af3e bdf8 703f b360 a93e
000000e0: 6072 183f ba4d 903e ce50 6f3b 42b7 b6be
000000f0: 7ad0 9e3e b2f1 f1be 66f3 ab3e 861b 8b3e
00000100: 7ca8 7a3e 5a7d 11bd 50c0 773d 6b58 69ba
00000110: 26c0 273e 2b15 fb3c 8aec 6e3e 5499 263d
00000120: 9277 debd d425 763c b05d a33d dbc4 2b3e
00000130: 0971 353e 4d0d 273e 30b8 50be 942b e93e
00000140: 10fe 603e 5a58 b1be 9cba e23d adf0 923e
00000150: 8826 5b3e 67ed 95bd 5938 9abc 4ddc a03d
00000160: 39b2 423e 1794 323d 4b3d 283c 9b1f 303e
00000170: 55c2 0c3e 5b87 823d f8e8 a43d 2c01 ca3d
00000180: ff1f 9f3d 5af1 50bd dcd6 aa3d c2d9 43be
00000190: 5359 953f 6964 933c d580 003e fb13 203e
000001a0: 846e 323e aadb 1c3d 1242 f3bd 1227 263f
000001b0: c1be 05be 442b b03c 75a0 a6bd e371 4e3e
000001c0: db7e ee3d 9780 08be f2c1 3e3d 52a4 3c3f
000001d0: 9d79 293e 9e30 bbbc 68cc a43d 29ef 34bd
000001e0: 9a3e 94be 6f71 7e3c 632c 673e d6c6 e3bb
000001f0: 24ec 05be 1b95 13be e7a3 8d3d 73df 183d
00000200: ccc4 443e af4e 8b3d 127b 613d 5043 c1bc
00000210: d47a 193d 22a5 9ebd 35b5 003e 972b 24bd
00000220: 23d3 df3d 5a7b 90bc 4cf6 ff3d c263 153e
00000230: 6f88 3fbd a163 8fbe 2fd2 0e3f dcd7 353e
00000240: 9133 a83c 5d30 de3d b47d 463d 4095 163e
00000250: 1627 0a3e a1b0 043f 0a96 af3d 9a0b 813a
00000260: 129d 243e ecf2 f5be 496f 073e ef37 7d3f
00000270: 4d74 d63c 3929 5b3e 1bb1 b93d 3e31 013d
00000280: 8c66 c93d 0bb6 323e 9b3d 06bc 7d52 883e
00000290: b6be 553e 7615 253e eb4e 90be fd96 7fbe
000002a0: 26bd 3a3c 0e05 1e3e 974a f63d b9dc f73d
000002b0: 8fb3 83bd 2c72 3d3d 1557 513e 3d8a 1dbe
000002c0: 2ade ec3d 81fa 663d 8af2 1e3e 28a5 5a3e
000002d0: 47b8 36be 0ed9 f53d fc95 47bd 37ef 8f3d
000002e0: 5c7f 923c 1e55 363e f6be 2f3a 0b42 0f3e
000002f0: 0261 293d f7ad cd3e fdbb 683e cdb7 833e
00000300: a989 173d 5636 3d3f 381b 683e 975e be3e
00000310: 0e29 ef3c 2394 9f3e b82f fcbd c8be 043f
00000320: 2a68 09be 0348 22bd 930e 023f fa3b 37bd
00000330: e1d2 31be 492e c73c 0b44 34bf b2fb 483e
00000340: f701 bdbe 3589 783e e769 aa3d 1c7f 02be
00000350: 4f9c 2ebf e88a 09bf f6fc b83e dbdc 98be
00000360: 53dd edbe 7cd0 4e3e 47db 9dbd 090a 16bf
00000370: d862 acbe 3914 a53d ac32 b73c 5712 873d
00000380: f2ea 2f3d e060 89be e009 843b 28fe 793e
00000390: 37cc 98bf 950f 43be f904 8d3e 689f 373e
000003a0: eb28 18bd 08ca ef3d 05cb 133f 7a34 35bf
000003b0: d558 1d3f 5f96 933c 231e e63e 0ed0 f73d
000003c0: 0676 553d 62cd bb3e 1395 473e f898 20bf
000003d0: 524a 393e b828 d93d 9a74 e53e 1a51 74bd
000003e0: 0acc f93c 7ea5 e43e 2cb9 4fbe 22d0 38be
000003f0: df5b c73d 1b78 65bc 0644 503e 6554 373e
0.09213701 0.48632252 0.14780898 0.32875594 0.25868523 0.41504785 0.29888386 -0.045023404
-0.4301066 -0.5061644 0.7462102 0.099915706 0.24155155 0.07889761 -0.07214742 0.20861836
0.03635333 -0.03681332 -0.01286843 0.048210975 -0.0660647 -0.2784518 0.4707471 0.0848647
-0.0024418188 0.3297581 0.15814845 0.13470386 0.13306339 0.37806922 -0.22507149 -0.1452194
0.040533118 0.09579412 0.37039572 -0.20924313 0.1017936 0.07267476 0.2084007 0.24661645
-0.0082450295 0.113876484 0.17333506 0.017692171 0.6599353 -0.30565095 0.61794764 0.2915233
-0.2738148 0.34134492 0.32461786 -0.0673073 0.51278377 0.3427929 0.94129544 0.33081588
0.5954952 0.281843 0.003651667 -0.3568669 0.3101843 -0.4725471 0.33584136 0.27169436
0.24478334 -0.035519935 0.060486138 -0.000890142 0.16381893 0.030649742 0.2333242 0.04067357
-0.1086265 0.015023667 0.07976854 0.16774313 0.177189 0.16313668 -0.20382762 0.4554106
0.21971917 -0.3463772 0.11070749 0.28699246 0.21401417 -0.073206715 -0.018825697 0.07854519
0.19013299 0.04359826 0.01026852 0.17199557 0.13746007 0.06373473 0.08052248 0.09863505
0.07769775 -0.05101142 0.083417624 -0.19126037 1.1667885 0.017992215 0.12549146 0.15632622
0.17424971 0.038295425 -0.11877836 0.64903367 -0.13061048 0.021505006 -0.081360735 0.20160632
0.116452895 -0.13330303 0.04657168 0.7368823 0.16550298 -0.02285033 0.080468 -0.044173393
-0.2895401 0.015529974 0.22575526 -0.0069511933 -0.13078362 -0.14412348 0.069160275 0.037322473
0.19215697 0.06802117 0.05504901 -0.023591667 0.037470654 -0.0774634 0.12569125 -0.040080633
0.10928943 -0.017636944 0.12498149 0.14588836 -0.046760973 -0.28005698 0.55789465 0.17758125
0.020532401 0.10849068 0.048459724 0.14705372 0.13491473 0.51832014 0.085735396 0.0009845376
0.16075543 -0.48036897 0.13226046 0.9891347 0.026178503 0.21402444 0.09066983 0.0315411
0.098340124 0.17452256 -0.008193399 0.26625434 0.20873532 0.16121468 -0.2818521 -0.24959941
0.011397636 0.15431616 0.12025946 0.121026464 -0.064307325 0.04625146 0.20443375 -0.15384765
0.11565812 0.056391243 0.15522209 0.21352065 -0.17843734 0.120042905 -0.04872702 0.070280485
0.017882995 0.17805907 0.00067041756 0.13990037 0.04135228 0.40171787 0.22727962 0.25726166
0.036996517 0.73911035 0.22666633 0.3718154 0.029194381 0.31167707 -0.12313789 0.5185361
-0.13418642 -0.039619457 0.5080349 -0.044734932 -0.173656 0.024314063 -0.70416325 0.19627264
-0.36915562 0.2427109 0.083209805 -0.12743801 -0.6820726 -0.5372758 0.36130494 -0.29856
-0.4645792 0.20196718 -0.077078395 -0.5860906 -0.33669162 0.08060498 0.02236303 0.06595295
0.04294867 -0.26831722 0.0040294975 0.24413359 -1.1937321 -0.19048913 0.27542856 0.17931902
-0.037148397 0.11708456 0.5773166 -0.707832 0.6146367 0.018016038 0.44944867 0.1210023
0.05211451 0.36680132 0.19490461 -0.6273341 0.18094757 0.106034696 0.44815522 -0.059647657
0.030492801 0.4465751 -0.20285481 -0.18048146 0.0973432 -0.014005686 0.20338449 0.17903288

gnn1_pool.conv3.lin_root.bias f4 [50]
00000000: 8c76 a43c ed9e b03d 89d7 81be 652d afbd
00000010: aa02 56be 5773 47be 1798 ae3e 0f07 67bd
00000020: 59d7 c13c 2875 8a3b b6f0 653c 706d acbe
00000030: b9a5 d63e 72ff 93bd 5a42 ac3c 9e0c e73c
00000040: 843e 743d b909 86bd 2d4c 32be 5e7d 6dbe
00000050: 6412 843e af0a a7bd 9c11 d3be 7354 96be
00000060: df9a d9bd 8a73 063f 3942 323b a3cc c73e
00000070: b095 6dbd 5e76 413e 4051 863e cb48 3ebe
00000080: c1e5 f73e d851 133f e80a 84bd 2507 8f3d
00000090: ba01 7dbd d22e 4a3e 1b68 5ebd a749 9d3e
000000a0: d838 c0bc f88b f33b 22fd 8dbd fab3 a9bd
000000b0: 177a 87be 63b5 0ebe 8c93 a33d 6855 e8bd
000000c0: 8ace 843e f42a 01be
0.020076059 0.08624063 -0.25359753 -0.0855358 -0.20899454 -0.19477592 0.3410041 -0.056403216
0.023662256 0.004225392 0.014034441 -0.33677244 0.4192331 -0.07226457 0.021027733 0.028204259
0.059629932 -0.06544823 -0.17411871 -0.23192355 0.2579528 -0.081563346 -0.41224372 -0.29361305
-0.106252424 0.5252005 0.0027200116 0.39023313 -0.05800408 0.1889281 0.26233864 -0.18582456
0.48417476 0.5754676 -0.06447393 0.069837846 -0.061769225 0.19744423 -0.0542985 0.30720255
-0.023464605 0.007432457 -0.06933047 -0.08286281 -0.26460335 -0.13936381 0.07987127 -0.11344415
0.25938827 -0.12614042

gnn1_pool.bn3.weight f4 [50]
00000000: 2525 af3e 7088 323f dddd b03e 5949 763f
00000010: 7e5d 183f f211 7a3f 14f5 64bb 4917 2a3e
00000020: 2d7a 403f 603a dc3e c611 233f 37c3 603f
00000030: bd55 603f 39ff fa3e af8f 263f 9ce4 473f
00000040: eb72 543f 0a95 823f 7e31 4b3f 5e3a 753e
00000050: 6c48 253f 2472 293f 7c7e 3a3f 815a 213f
00000060: 82ce 453f 9716 c33e 2a0d 6f3f 5f04 963e
00000070: 25af 0e3f f31f 383f a8c4 b73e cf9d 543f
00000080: c58e 053e 2e57 743d 9699 2b3f be4d 5e3f
00000090: c6e7 4d3f f364 3f3f 159f 553f d89f fd3e
000000a0: d9ae 4b3f 58c0 ed3e 647d 243f 5763 063f
000000b0: 2181 733f 8896 f53e 2f78 603f e83f ec3e
000000c0: 98a1 553f df0e 593f
0.34208027 0.6973944 0.34544268 0.9620567 0.5951766 0.9768363 -0.0034936117 0.16610445
0.75186425 0.43013287 0.63698995 0.87797874 0.87630826 0.49022844 0.65062994 0.78083205
0.8298785 1.0201733 0.79372394 0.23948047 0.6456363 0.6618979 0.7284925 0.63028723
0.7726823 0.38103172 0.9337946 0.2930021 0.55736 0.7192375 0.35892224 0.83053297
0.13042744 0.059653454 0.6703123 0.86837375 0.80431783 0.7476341 0.83445865 0.49536014
0.7956367 0.4643581 0.6425383 0.5249533 0.9511891 0.4796641 0.87683386 0.46142507
0.834497 0.84788316

gnn1_pool.bn3.bias f4 [50]
00000000: 714d 873e 3d63 b93e 933d f23d a2f6 893d
00000010: 95a6 603d 26d1 6e3d 7252 30ba 6736 053e
00000020: a6ad c23e 5da6 763e 3d1e c23e 739a 343e
00000030: 2d7b fb3d 5c67 323e 43d5 a3be 598d c93e
00000040: ef1e be3e 7db9 92bd 2614 743e 64ed ac3d
00000050: be3d 353f f4c3 e63e 0266 833e 24a1 9a3d
00000060: befa ba3e 4d59 8cbe 0f23 9c3d 539c 41be
00000070: e1d2 493e afbd a2be 68d7 16be ed29 4a3e
00000080: 1caf bebd 1d1a 28bd 1839 6d3e 00ba 053e
00000090: baa8 b73e c11f 473e 4f01 893e bc18 fb3e
000000a0: ac59 933e b12b ebbd efe7 b63e f23a 263e
000000b0: 1ae2 a8bc 72ca 293e 5fb9 723d 720d 2b3e
000000c0: 8c5c 1e3d 487b c13e
0.2642627 0.36208525 0.118281506 0.067364946 0.054846365 0.05830493 -0.00067261525 0.13009034
0.38023108 0.240869 0.37913695 0.17637043 0.12279353 0.17422241 -0.31998643 0.39365652
0.37132975 -0.07164285 0.23835811 0.08443716 0.70797336 0.45071375 0.25663763 0.075502664
0.36519426 -0.2741188 0.076238744 -0.18907289 0.1970935 -0.31785342 -0.14730608 0.19742556
-0.09310743 -0.04104053 0.23166311 0.13059235 0.35870916 0.19445707 0.2675881 0.49042308
0.28779352 -0.11482943 0.35723826 0.16233423 -0.020615626 0.16581133 0.059258815 0.16704348
0.03866248 0.3778937
