model/BA200_p0.1_m70_diff_pool.pt (torch, 793665 bytes, 113 tensors)

gnn1_pool.conv1.lin_rel.weight f4 [64, 2]
00000000: 73f9 8dbf d9b2 073f 6f8c fa3e 1cae febe
00000010: 8cb0 303f 75f5 41be 8d1e 2abd 6389 6dbe
00000020: 3eb1 233e 604e 51bf 1f05 14be 383e e93d
00000030: 205a 04bf f9f8 a3be 98dd 533f 34c9 e0be
00000040: 2f1b a1be 6468 99be 8fce 85bf 376e 373f
00000050: c491 b23e 3b21 e93e b693 41bf b988 d33e
00000060: 2018 003f 0bc4 ebbe 17ff f4bd 581a 0d3f
00000070: 5751 8e3e c05d 8ebf 7542 27bf 3004 f8be
00000080: 2cf0 293e ee10 163f 911e 81be 83b7 60be
00000090: 48da e3bd f814 213f 8c2f a23e 9f63 04bf
000000a0: d994 ccbe 7298 b0be 1867 bebe d914 483f
000000b0: 38f4 cd3d 224c 4bbf cbe1 a3be 680c 6ebe
000000c0: 4d82 e63e 0f04 24bf 889e 05bf 51c8 b7be
000000d0: c799 053f 1fc8 06bf 1009 953e 1ad3 a93e
000000e0: 7325 a7be d025 4d3f aa58 c8be 7e3f ffbe
000000f0: fad3 593e 7ce0 173f 5871 a4bf bc28 b03e
00000100: c80d 8fbd e249 ac3e 13b9 58bf 759d 3a3e
00000110: 1fc5 4cbf 8e98 703d 1bcf a63e 4231 b53e
00000120: 6550 cabe efa5 533f ebc5 efbe 694b d53e
00000130: ee01 533e 81fe 7d3f ed1d 4dbd 8239 65be
00000140: 6e46 05be 23ec b03e 4e4b 87be 7f20 3e3e
00000150: ed4d 893c 5000 5a3d 240a 35bf b477 753e
00000160: 21d3 213f 8bb3 f83e 6b87 91be 0126 863f
00000170: fb86 33bf 8844 423f 5a60 6b3f 47f1 a0be
00000180: 554c 9ebe 2dd1 f3be 6541 b83e 8512 dcbe
00000190: 8b7e 04bf 95d1 e5bc a762 4c3f 1a73 febe
000001a0: 6b2b 70be eb10 953d 9df0 4dbf f23b 7f3f
000001b0: 28ef 9b3e 29a8 c5be ee7b a53e b984 90bf
000001c0: 794c a3bf 9f61 193d c875 ee3e 029d c43d
000001d0: 06db e43e 9e43 97bf 5d9c 52be a53e 393f
000001e0: 0557 8abe d390 fa3e 7efb 14bf a794 433f
000001f0: a43d 083f 5e48 0c3f db37 f9bd c717 2cbf
-1.1091751 0.53007275 0.48935267 -0.4974221 0.6901939 -0.1894129 -0.04153304 -0.2319694
0.15985581 -0.81760216 -0.14455079 0.113888204 -0.5170002 -0.3202589 0.8276 -0.43903506
-0.31466052 -0.29962456 -1.0453662 0.7165255 0.34876835 0.45533165 -0.75616014 0.4131525
0.5003681 -0.46048006 -0.11962717 0.5511832 0.27796432 -1.112236 -0.6533578 -0.48440695
0.16595525 0.5861958 -0.25218633 -0.21945004 -0.11125618 0.6292262 0.316769 -0.5171451
-0.39957312 -0.34491307 -0.3718803 0.7815681 0.10056347 -0.79413044 -0.32008204 -0.2324692
0.45021287 -0.6406869 -0.52195024 -0.35895017 0.5218777 -0.5264911 0.29108477 0.3316887
-0.3264576 0.8013582 -0.39130145 -0.49853128 0.21272269 0.5932691 -1.284709 0.34406078
-0.069850504 0.33650118 -0.846574 0.18224128 -0.7998828 0.058739237 0.32579884 0.35389143
-0.3951446 0.8267507 -0.46830687 0.41659096 0.20606205 0.9921647 -0.050077368 -0.22385219
-0.13015148 0.34555158 -0.2642464 0.18567084 0.01676079 0.053222954 -0.707186 0.23971444
0.6321278 0.4857448 -0.28423628 1.0480348 -0.7012784 0.7588582 0.91943896 -0.3143408
-0.30917612 -0.47620526 0.35987392 -0.4298288 -0.5175559 -0.028054038 0.7983803 -0.4969719
-0.23454063 0.072786175 -0.8044527 0.99700844 0.304559 -0.3860486 0.32321113 -1.1290504
-1.2757713 0.037446614 0.46574235 0.09600259 0.44698352 -1.181751 -0.2056746 0.7236121
-0.27019516 0.48938617 -0.58196247 0.763987 0.53219056 0.54797924 -0.12168857 -0.6722378

gnn1_pool.conv1.lin_root.weight f4 [64, 2]
00000000: 55f8 edbe 3aef 933d 7b96 b9be 1e34 333d
00000010: 34d4 b73e f301 eebe 9056 5f3e baaf e7be
00000020: 8371 133e 5df8 dcbe 30f5 f4be 41a3 523d
00000030: 78bc fbbd ce90 273f 904b 3d3e 81da e73e
00000040: e5c4 37be e10e 62be 2138 eebd 38e3 29bf
00000050: 059a 60bf 8253 953f 87e7 913e c66c 68bd
00000060: 5eb8 19bf 46ce 953e 70eb 03bf d52e 28bf
00000070: 9e73 9e3e 96b4 1ebf 8764 1cbf 87d5 c9be
00000080: 8de6 04bf 4cc0 053f 0a78 943e 2b02 1e3f
00000090: d94e 22be 68f1 e63e 9928 113e 6dce 1e3f
000000a0: add3 d03f bc67 ecbe 7bed 6f3e 7d72 87bf
000000b0: 4ef6 8a3e 6cd6 3c3f 7d83 a6bd 2c3b 3a3d
000000c0: e208 debd 0a83 f03e 74ea b53f 1cd9 e9be
000000d0: 43f0 66be 5c48 1dbf 96b4 cb3f 7ba1 66bf
000000e0: 6338 333f 9606 08bf 4ddb 373e a0f3 4d3e
000000f0: 9bed 23be 263c 3d3f a764 983e 2372 313b
00000100: 7964 75bf 746d 5f3f d056 423f 521e d03e
00000110: 7e96 27bf 5c22 ba3e 025a 3f40 731f c1bf
00000120: 723c 2c3f 7f1d a7be e699 0abf 9eb2 cb3e
00000130: 7927 19bf 836f 45bd 4b7c e8be 8a01 21bf
00000140: 57e8 4ebe 19e2 d13e fc73 073d 2814 67bf
00000150: ab66 b4be 3132 20bf ad71 07bf e332 c9be
00000160: a44a 4c3f 846f a4be 5622 163f 6346 fd3e
00000170: 383c d4bd fbc7 7abe f6a1 12be b317 763e
00000180: 6215 fe3e 7152 7d3e 90dd 80be 089e f13e
00000190: b619 dfbe d113 27bf fd1a 4fbd 3d28 c5be
000001a0: dd51 8cbd e7dc 03be b0f5 183f 9598 85bf
000001b0: 6087 0dbd c3e7 6a3f 4e89 133f b337 aebe
000001c0: 0d13 03be b44d eabe dccf 2ebe 44e8 503f
000001d0: ac78 acbe df0e 1ebf 6496 033f d0fb afbd
000001e0: 1939 edbe 8103 043f 2348 213e b840 c3be
000001f0: 9f42 a43f 4b64 82bf edd5 97be bd49 5f3e
-0.46478525 0.07223363 -0.3624762 0.043750875 0.35904086 -0.46485862 0.21810365 -0.45251256
0.1439877 -0.43158236 -0.47843313 0.051425222 -0.12291807 0.6545533 0.18485856 0.45283893
-0.17946203 -0.22075988 -0.116317995 -0.66362333 -0.87735015 1.166611 0.28496954 -0.05674436
-0.60046947 0.29258937 -0.51531124 -0.6569646 0.30947584 -0.619943 -0.6109089 -0.3942072
-0.5191429 0.52246547 0.28997833 0.6172206 -0.1585039 0.45106053 0.14175643 0.6203373
1.6314598 -0.46172893 0.23430435 -1.0581814 0.2714104 0.7376468 -0.08130548 0.045466587
-0.10841538 0.46974975 1.4212174 -0.45673454 -0.2255259 -0.61438537 1.5914485 -0.9009015
0.70007914 -0.5313505 0.1795475 0.20112467 -0.16008608 0.73919904 0.29764292 0.0027076087
-0.95856434 0.8727639 0.75913715 0.40648133 -0.6546401 0.3635434 2.9898686 -1.5087723
0.6727973 -0.3263969 -0.5414108 0.39784712 -0.59825855 -0.04820205 -0.45407328 -0.62892973
-0.20205818 0.4099281 0.033069596 -0.9026513 -0.3523458 -0.62576586 -0.5290783 -0.39296636
0.7980139 -0.3211633 0.5864614 0.49467763 -0.10363048 -0.24490349 -0.14319596 0.24032478
0.4962569 0.2473848 -0.2516904 0.4719088 -0.43574303 -0.6526461 -0.050562847 -0.38507262
-0.06851552 -0.12877236 0.5974989 -1.0437189 -0.03455293 0.9175989 0.57631385 -0.3402687
-0.12800236 -0.45762408 -0.1707148 0.8160441 -0.33685815 -0.6174144 0.5140135 -0.08592951
-0.46332625 0.51567847 0.15750174 -0.38135314 1.2832831 -1.0186857 -0.296554 0.21805473

gnn1_pool.conv1.lin_root.bias f4 [64]
00000000: 2c5e bdbe 399f 603f 8a7e 88bd 7433 313f
00000010: f181 c8be 4377 5ebe cf8e 283f c52d 18bf
00000020: 4910 d93e bd8c 7fbe 9a53 233f 7ce3 80be
00000030: 8c2a 883d 475e 26bd 5707 e3be afbd 273f
00000040: 4e1d 9abc 71a1 dbbe 07c0 8c3e 5185 08bf
00000050: ee5e 5f3f 626d 873e 7ffb cb3d 2f07 17bf
00000060: 7a84 ac3e adf6 4e3f 0016 a3be d80b 0a3f
00000070: 2af1 72be 805d e6be 861d 9bbc b55c edbe
00000080: 1e78 1d3f af86 81be e7f8 3d3e 1446 923f
00000090: b23c 0bbf bdb6 7dbe 1793 dabe 56a2 5dbe
000000a0: e644 363f eac0 363f db7c 19bf d2de b53d
000000b0: 2298 223f 7fff 27bf af1a a0be 2bfe 8cbc
000000c0: fb7b 26bf ac33 01be 1347 c2be 32ca 453f
000000d0: 6ce3 19bf 56ef 003e b552 d83e db67 2abf
000000e0: 017f 913e cff6 80bc dfaa 8b3d 5667 41be
000000f0: 1d4c 26bd ce48 94be 9b56 073f f2b4 3fbe
-0.3698591 0.87742954 -0.066647604 0.69219136 -0.39161637 -0.21725182 0.6584291 -0.5944484
0.42395237 -0.24956031 0.6379944 -0.25173557 0.0664874 -0.040617254 -0.44341537 0.6552381
-0.018812802 -0.42896608 0.27490255 -0.53328425 0.87254226 0.2645064 0.099600784 -0.58995336
0.33694822 0.8084515 -0.31852722 0.5392432 -0.2372481 -0.4499321 -0.018934976 -0.46359792
0.6151141 -0.25298068 0.1855198 1.1427636 -0.5438949 -0.2477674 -0.42690346 -0.21643957
0.7119888 0.71388113 -0.5995614 0.0888039 0.63513386 -0.6562423 -0.31270358 -0.01721104
-0.6503293 -0.12617368 -0.3794485 0.7726165 -0.60112643 0.125913 0.422506 -0.6656472
0.2841721 -0.015742688 0.068197004 -0.18887076 -0.04059993 -0.28961796 0.52866524 -0.18721369

gnn1_pool.bn1.weight f4 [64]
00000000: e636 d23f 1385 d83e 342c 353f 39f3 0a3f
00000010: ff91 953f 0000 803f e2a8 003f 8b8f 823f
00000020: 0000 803f 3e5b c83f a605 443f 5a69 a43f
00000030: 51d0 353f 0000 803f 5e73 b33f 0000 803f
00000040: 7497 2b3f 0000 803f 9d10 fc3e b887 913f
00000050: 954f 0f3f 0a20 083f 48a1 083f 0000 803f
00000060: 0d0a 0a3f 3ff4 253f 2f6e 7e3f 6c48 043f
00000070: 3b35 3f3f 0000 803f f774 2f3f 5372 cc3f
00000080: fea8 053f 4b66 be3f 49c1 e33f ba12 183f
00000090: 7d29 293f e01c cf3f 90b2 dc3f 0000 803f
000000a0: 4a0e 233f 88c0 133f 0000 803f 3197 a33f
000000b0: fd49 393f 61e9 183f 0e34 b93f 2808 ef3e
000000c0: 0000 803f 8437 553f 0000 803f a441 153f
000000d0: 0000 803f 9519 423f a773 c33e 77be a73f
000000e0: bdc5 c43f c6bd 203e e771 c43f 1e47 223f
000000f0: 5efc 1b3f 2c5b 963f 75fe f93e 0000 803f
1.6423004 0.42289028 0.70770574 0.5427738 1.168518 1.0 0.50257695 1.0200056
1.0 1.5652845 0.7657112 1.2844651 0.7102099 1.0 1.4019582 1.0
0.67027974 1.0 0.49231425 1.1369543 0.5598081 0.5317389 0.53371096 1.0
0.53921586 0.64825815 0.99386877 0.51673007 0.746906 1.0 0.6853785 1.5972389
0.52210987 1.4874967 1.7793361 0.59403574 0.6607893 1.6180687 1.7241993 1.0
0.6369368 0.57715654 1.0 1.2780515 0.7237852 0.5973111 1.4469011 0.4668591
1.0 0.83287835 1.0 0.58303285 1.0 0.75820285 0.38174173 1.3105
1.5372845 0.15697393 1.534726 0.63389766 0.60931957 1.1746573 0.48826948 1.0

gnn1_pool.bn1.bias f4 [64]
00000000: bc11 723e 3984 893c a5f8 123d 1727 eb3b
00000010: 33d5 19bc a90e e63b 5f2c 963d dea5 6d3e
00000020: 30c0 3e3e b0dc 4b3e 99a8 1d3e a71a 943e
00000030: 7163 7b3e f9f1 8abb 9865 24bd 239d 65be
00000040: 0793 9b3e c486 9abb d52a 8cbd 690d 643e
00000050: 1996 99be 615d edbd 51d5 443e 5520 a83b
00000060: 3ffd 203e 4cc4 2ebd 6ba2 7bbb f357 8dbe
00000070: 17e7 30be 29cb 07bd 096c 3a3d 2fdd 583e
00000080: ac84 013e 094f 253d 013b 993e 4b61 3fbe
00000090: 12b7 f13b d3ab c13e a3ab 693e de9e bf3b
000000a0: 220a 40bd 3575 cabd 8359 413c 87dc 4d3c
000000b0: 387e 24be 9692 813d e602 903e c8a2 1c3e
000000c0: 6ce7 0ebe 42e4 0c3e a3c8 36ba 04fb b53d
000000d0: 55cd ca3b ace3 f1bc 8ea0 c23d 3b93 373e
000000e0: 1602 573e 1d16 b83d 3dd4 573e 7bc8 86bd
000000f0: a469 9b3e e6a6 b83e 81bd 4abe 6913 603b
0.23639578 0.016786681 0.035881657 0.0071762907 -0.00938921 0.0070207906 0.07332682 0.23207805
0.18628001 0.19908404 0.15396346 0.28926584 0.24549653 -0.004240271 -0.04013595 -0.22423224
0.3038561 -0.0047157723 -0.06844107 0.2227074 -0.29997328 -0.11590076 0.19221999 0.0051308074
0.15721606 -0.042667672 -0.003839637 -0.27606162 -0.17275654 -0.033152733 0.045513187 0.21178125
0.12648267 0.040358577 0.2992783 -0.18689458 0.00737656 0.37826404 0.2281938 0.005847796
-0.046884663 -0.09885637 0.011801126 0.012564785 -0.16063774 0.06326787 0.2812721 0.15296471
-0.13955468 0.13758948 -0.0006972646 0.08885768 0.0061890283 -0.029527508 0.095032796 0.17927258
0.2099689 0.08988593 0.21077056 -0.06581207 0.30354035 0.36064833 -0.19798853 0.0034191257

gnn1_pool.bn1.running_mean f4 [64]
00000000: 54d9 953b 28bf 453f 4086 153f 8b26 293f
00000010: 0400 0000 0000 0000 62f2 803e 082c 1e3e
00000020: 0000 0000 e8ee 933b fc0b 173f d042 5c3c
00000030: 93ae ac3d 0000 0000 eb35 fd3c 0000 0000
00000040: 736e 453e 0000 0000 6d7b c13e 4a0b 8f3c
00000050: 2347 d53f ffb3 b23e f95d 9a3e 0000 0000
00000060: dba9 ec3e 9d1c af3f 0400 0000 2e8d f33f
00000070: 5c00 b43e 0000 0000 02d3 b43e d456 163b
00000080: 253f b53e 37c8 7a3d 20c7 2d3d 2662 5f40
00000090: 6e5b e83d d939 113d 2ce0 083d 0000 0000
000000a0: 1c09 2b3f 898a f33e 0000 0000 0400 0000
000000b0: 98f0 e23f a0b9 1f3e 277a 0b3c a37e eb3e
000000c0: 0000 0000 cf57 8e3d 0000 0000 5c0e 843f
000000d0: 0000 0000 d3a1 af3e 21cb 2c3f 2156 523d
000000e0: 45e5 233b 458b be3e f70f 1c3d 4a68 a13e
000000f0: d0e7 033e 7869 e23c 545f ec3f 0000 0000
0.0045730267 0.77244806 0.58407974 0.66074437 6e-45 0.0 0.25184923 0.15446484
0.0 0.004514564 0.5900266 0.013443664 0.08431735 0.0 0.0309095 0.0
0.19280414 0.0 0.3778948 0.017461438 1.6662334 0.3490295 0.3014982 0.0
0.4622334 1.3680607 6e-45 1.902746 0.35156524 0.0 0.35317236 0.0022939937
0.35399738 0.061226096 0.04242623 3.4903655 0.11345564 0.03545556 0.033416912 0.0
0.66810775 0.4756663 0.0 6e-45 1.7729673 0.15598154 0.00851301 0.45995054
0.0 0.06950342 0.0 1.0316882 0.0 0.3430315 0.6749745 0.05135167
0.0025008481 0.3721563 0.038101163 0.3152488 0.12881398 0.027638182 1.8466592 0.0

gnn1_pool.bn1.running_var f4 [64]
00000000: ecb1 853a 23fc 733d d05d 013e 7b5c b63d
00000010: 0400 0000 0400 0000 54ed f03d 7e5c f73c
00000020: 0400 0000 2341 cb3a 4786 3a3f 313f 4a3b
00000030: 9ab7 133d 0400 0000 7a07 613b 0400 0000
00000040: db45 093e 0400 0000 c7be 093e 533b 533b
00000050: 4208 3d3f dd68 b93d 8449 2c3d 0400 0000
00000060: 4cd3 933d 64c4 053f 0400 0000 820e 813f
00000070: ab62 b43d 0400 0000 f065 323e 5eee d439
00000080: 7252 e63e 1300 903c 5e0d 6b3c 741d 5940
00000090: ecfd 163d bab3 3e3c 673a 233c 0400 0000
000000a0: 7204 d03d e6e9 923d 0400 0000 0400 0000
000000b0: f719 693e d679 5c3d d820 123b 3209 8f3d
000000c0: 0400 0000 d28f c83c 0400 0000 54d5 203e
000000d0: 0400 0000 39f4 1e3e 908b 093e fe3f 0f3c
000000e0: 46d1 fc39 9074 153e a7e7 a93b 4a45 603d
000000f0: e8e8 883d 32f6 063c 110d 663f 0400 0000
0.001020012 0.05956663 0.12633443 0.08904358 6e-45 6e-45 0.11764017 0.03019547
6e-45 0.0015507083 0.7286114 0.003086042 0.036063768 6e-45 0.0034336732 6e-45
0.13405554 6e-45 0.13451682 0.0032231405 0.73840725 0.09053204 0.042062297 6e-45
0.07218036 0.52252793 6e-45 1.0082552 0.08807882 6e-45 0.17421699 0.00040613388
0.44984776 0.01757816 0.014346449 3.3924227 0.036863253 0.01163953 0.009962655 6e-45
0.10157098 0.07173519 6e-45 6e-45 0.22763811 0.05382713 0.0022297408 0.06984176
6e-45 0.024482641 6e-45 0.15706378 6e-45 0.15522851 0.13432145 0.008743284
0.00048221106 0.14595246 0.005185086 0.05475358 0.06685048 0.0082374085 0.8986369 6e-45

gnn1_pool.conv2.lin_rel.weight f4 [64, 64]
00000000: 2db0 713f 3d8c ce3d 3685 90bd b798 b03d
00000010: 386d 98be 7511 24bd e61d 27be c325 523e
00000020: aae9 313e cc01 fe3e d0aa 913c 1177 433e
00000030: 0868 073e e9e6 903d 3d85 c6be 36ec 7dbe
00000040: 6d36 043d 4cf9 353d e03d d23c 4d35 0d3e
00000050: f8c7 9a3c bd1c 0a3e d24f 003d fad9 ea3d
00000060: 8894 55bd bd7f 27bc 63da 8d3b 6aef d6bd
00000070: 0925 ff3d 2ee1 63be a74c 2bbe 3f74 fcbd
00000080: a520 3bbd d7d6 983e 9869 bebf baa0 be3c
00000090: 6866 cebd d7c9 f7bf 8bb2 9fbf 3533 7ebd
000000a0: 122e afbd 5d52 363e e069 5dbb 209c 6e3b
000000b0: 5081 0e3e f3f0 cbbe d6ce 0d3f 4772 b73d
000000c0: 85a6 93be 6fe7 1c3e f63b 923c 9289 9e3d
000000d0: 6ad1 33bd 2c16 773e 46f1 863d f3fd 3bbe
000000e0: bcf9 7d3d 416d 833d 68be 8fbe bfb1 063e
000000f0: b498 3e3b 2cab 983e 10da 603d 0457 fc3d
00000100: cc32 dc3e 5034 103e a2bd eabd 402f 413d
00000110: b1e5 9cbd 8bd0 303d 7b7b 2a3e 6ced 453e
00000120: 1a17 b43e 8330 95bf 5c9d 553e f88f 38bf
00000130: 1b44 0d3e b913 53be ab66 95be 49e4 41be
00000140: 7b80 cb3e ea1c 1b3d e832 733c 7c5f de3e
00000150: 5505 87be 7f71 28be 56e5 673e 2bfa e73d
00000160: 745b 5c3e a3fe f4bd aae8 603e 4f2c 9ebe
00000170: 070f bdbd 0d8b 67bd de84 7f3c f086 aebf
00000180: 656e 703e feb7 a1bd 3290 1c3e 1339 95be
00000190: cedd 76bd f3d7 2e3e 3c47 673e 9e9f 4f3e
000001a0: 4e35 133d 6b22 08be de32 babc 0497 b9bb
000001b0: d180 82be f0c7 173d 4b6a 65bf 78c4 2c3e
000001c0: 1238 87be 81ed 8b3e 9523 843d 5f3b 4e3e
000001d0: 44aa cb3d 903d 033b 6323 893e a291 4ebe
000001e0: a210 b6bf 3e4b 7d3e 8a60 75be 3e62 bcbd
000001f0: 036d 7e3e b874 02bf d879 41be 7a1e de3c
00000200: 88d0 30bf b9be a13d 921a 313d e33c 2dbe
00000210: c446 4cbe 7b32 053c 2294 ad3d ceb5 42be
00000220: d35e 60be 397f 69bf fcad 943c e28d a2bf
00000230: 15b6 a1bd 40f0 c1bd 05dd 2dbe 9cb5 5b3e
00000240: 7b2f a43d 8d85 c03d 019a 073e e01a e2bd
00000250: 4f3f cfbc 9cb9 bebd bace 07be a29e f73c
00000260: ab47 b0bc b1c2 16be a8f5 263e 947a f83d
00000270: e790 173d d446 853d 9601 4f3e afa3 6fbf
00000280: 8aeb 04bc 8b09 7dbe a6b0 b83e 40b2 d6bd
00000290: eeb2 6ebe fb11 d83e e6cd bc3e 7a3f f43d
000002a0: 4dc0 233e 2cb0 c83d 5494 273d 0e5f 003e
000002b0: 83af 91bd 7e66 42be 2a62 8ebf 1969 4cbe
000002c0: 1d78 a13d 6b3f a4bd 645a 383e 6ff1 2e3d
000002d0: 5b39 443e cb41 1cbd 6db1 afbb 2c42 53be
000002e0: 78ce 40bf e029 69bd e85c 8abe c957 1cbd
000002f0: 7065 e63d c867 39bf 6468 09be 125a 813b
00000300: ba75 903e 31fb 8c3e ff38 f0bc 00fc 75be
00000310: 83f0 f73d d3b9 1b3c 9055 a73e 3ed6 323e
00000320: 97d9 25be afcb bfbf eb30 b63e 26e2 8d3d
00000330: 6fb8 853e 664c c73d 2f60 b23e f214 c93d
00000340: 716b 853d da21 fcbb 27ba 73bd e44c 923e
00000350: a830 b6bd 4b6c ebbd d047 803e e8fd 87bc
00000360: a531 103e 9dd0 ccbe 83a4 cabd 32a7 13be
00000370: edf3 65be 41d2 a43d e0fb 273e 54a5 ecbf
00000380: 2ae7 8d3e 7a0f ee3c 0878 583e 45d8 40be
00000390: e5fb d23d 5efb 5e3e 0f82 663e 7723 88ba
000003a0: 251f ce3a 6089 29be bf36 103d 4057 39be
000003b0: f0aa 4abe 8e5b 0a3d 71c5 9dbf 64c8 933d
000003c0: 2a93 af3d 0fe0 193e 63d1 2ebd 8f0c af3c
000003d0: 5983 2abe 721e 0fbe 4d31 8a3e 40fd de3e
000003e0: 9309 d8bf 11bf 003e 9855 f03e e586 c9bd
000003f0: 87ea f03d ceee 433e ec3a 4dbe 1e59 233e
0.9440945 0.10085342 -0.07056658 0.08622878 -0.29770827 -0.04005571 -0.16319999 0.20522217
0.17374292 0.49610746 0.017781645 0.19088389 0.13223279 0.070752926 -0.38773528 -0.24797139
0.032278467 0.0444272 0.02566427 0.13789864 0.01889418 0.13487525 0.031326123 0.11467357
-0.052143604 -0.010223326 0.0043290122 -0.10494883 0.12458236 -0.22253868 -0.1672846 -0.1232686
-0.04568543 0.2985141 -1.4875975 0.02327 -0.10078126 -1.9358472 -1.2476362 -0.062060554
-0.08553709 0.17804857 -0.003378503 0.0036408976 0.13916516 -0.39832267 0.5539373 0.089573435
-0.28837982 0.1532266 0.017850857 0.07741083 -0.043900885 0.24129552 0.06588988 -0.18358593
0.062005743 0.06417323 -0.28074956 0.13153742 0.0029082717 0.29818094 0.05489546 0.123212844
0.43007505 0.14082456 -0.11461951 0.0471642 -0.07660998 0.043167632 0.16648667 0.1932885
0.35173875 -1.165543 0.20860809 -0.7209468 0.13795511 -0.20612992 -0.29179892 -0.1893474
0.3974646 0.03786937 0.01484368 0.43432224 -0.26371256 -0.16449545 0.22646078 0.11327013
0.21519262 -0.119626306 0.21963754 -0.3089318 -0.09231382 -0.056529094 0.015595643 -1.363493
0.23479612 -0.07896422 0.15289381 -0.29145107 -0.060270123 0.17074566 0.22585768 0.20275733
0.035939507 -0.1329438 -0.022729333 -0.0056637544 -0.25488904 0.03705591 -0.89615315 0.16871822
-0.26409966 0.2732964 0.06452099 0.20139836 0.09944585 0.0020025708 0.2678481 -0.20172742
-1.4223826 0.24735734 -0.23962608 -0.09198426 0.24846272 -0.5095935 -0.18894136 0.027114142
-0.69068193 0.078977056 0.04323823 -0.16917758 -0.1994887 0.008129711 0.0847552 -0.19014665
-0.21911173 -0.9120975 0.018149368 -1.2699549 -0.078960575 -0.09469652 -0.16978844 0.21455997
0.08016869 0.09400473 0.13242342 -0.11040282 -0.025298743 -0.09312746 -0.13262454 0.03022701
-0.021518549 -0.14722706 0.16304648 0.12132755 0.037003424 0.0650765 0.20215449 -0.93609136
-0.0081127975 -0.24710672 0.36072272 -0.10483217 -0.23310444 0.42201218 0.36875838 0.1192617
0.15991326 0.09799227 0.04091294 0.1253626 -0.07113554 -0.1898441 -1.1123707 -0.19961967
0.07884238 -0.080199085 0.18003231 0.042710718 0.19162504 -0.038148683 -0.005361727 -0.20630711
-0.75315046 -0.0569247 -0.27024007 -0.038169656 0.112498164 -0.7242398 -0.13418728 0.003947505
0.28214818 0.27535394 -0.029324053 -0.24021912 0.12106421 0.009504753 0.32682467 0.1746454
-0.16196285 -1.4984034 0.35584196 0.069279 0.26117274 0.09731369 0.34839007 0.09818448
0.065146334 -0.007694465 -0.0595037 0.28574288 -0.08895999 -0.114952646 0.2505479 -0.016600564
0.14081438 -0.4000291 -0.09894659 -0.14419249 -0.22456332 0.08047915 0.16404676 -1.8487954
0.27715427 0.029060114 0.21139538 -0.188325 0.10301951 0.21775576 0.22510551 -0.0010386546
0.0015725835 -0.1655631 0.03520846 -0.1809969 -0.1979177 0.03377872 -1.2325879 0.07215956
0.08572991 0.15026878 -0.042680155 0.021368293 -0.16651668 -0.13976458 0.2699074 0.4355259
-1.6877922 0.12572886 0.46940303 -0.09840182 0.117634825 0.19134066 -0.20042008 0.15951964

gnn1_pool.conv2.lin_root.weight f4 [64, 64]
00000000: bccf fd3e aa1b 273c d8d2 ff3d 4618 613e
00000010: d3cc 573d 5594 e6bd 266c 86be a57a cdbc
00000020: 86ea 413e 9bc2 d43d fb23 47be 9739 2cbf
00000030: d5da c0be 6cb5 12bc 6eef 1c3e 40cf 84be
00000040: d27b 9abe 2d68 cb3c 517d b0bd 81e9 c7be
00000050: ce17 85bd d63e b0bc f6a1 063d e3ba a2bd
00000060: 5594 083e 8f32 963e 2acf a23d 65dc d73c
00000070: 808e 34be be61 12be 5694 57be 2ffe 7f3e
00000080: da25 a9be e504 123e c79d bdbc aa30 f63d
00000090: 5cd3 cb3d b9d4 683e 9d3b 613d 8616 64bd
000000a0: 3bff 72be aea1 193e cad7 14bd 9cf1 2c3d
000000b0: 8d1c 7e3e 8446 13bd 63c8 5f3e 5502 b83c
000000c0: f1dd 9abe 6cc0 42be 71c0 a3bd ba9c 293d
000000d0: a67c 8fbc 6b21 1ebe 2d06 c43b 80f4 143e
000000e0: 4e42 653e fb5d f7bd 21e5 113e cd2e e1bd
000000f0: 3e6e c1bd 4ece 79bf 6918 053e 94d6 733c
00000100: 0cb7 88be 0905 23bd 84db 17be 681c babd
00000110: d768 38bc 002d b73d ef84 b33d 2b73 cc3d
00000120: 47be 613e 243f c3bf bd6d 3b3e 4aca 7bbe
00000130: 98f8 ef3d 096e 55bd 7b5c b8be e8ab 62be
00000140: fb06 613e 81c0 a43d a8e5 a83d e5a3 923e
00000150: 7a41 8abe 9b5a 8cbd c9f3 223d 6163 d83d
00000160: 7c6b 7c3d e420 04be 6ea3 873d cd49 6cbe
00000170: f756 d2bd a70a 86be dd86 a13d 9c61 c5bf
00000180: 64c9 b73d 8e90 963d 3388 1ebe 7a9f b1bc
00000190: 829c 62bc fa54 28bd 930d 22be 4a57 373e
000001a0: 1058 053e 7b29 e8bc cc04 2e3e 4982 083e
000001b0: dc6f 6ebe 0e4a edbd faa8 cbbf 0d0f 9e3d
000001c0: 8dee 3bbe bd44 4f3e ca39 443d e01e b3bd
000001d0: 2c6e 313e a51a 723d 4344 683e 325b 4ebf
000001e0: a3c3 9abf 12fd 683e 29a2 c8be f06a 01be
000001f0: 80be 363e feee c6be 7215 50be 7ae0 503c
00000200: 4917 92bf 595d 3ebd 2e40 803c f48c 21bd
00000210: f09d a6bc b851 043e 929f 0f3d a777 e0be
00000220: 0392 46be 93fd 8dbf ce91 61bd f83e f6bd
00000230: 107a c2bc 81ce 0f3e 2abb 903e 9547 6d3e
00000240: a78d b4be f87c 4e3d 0627 173e 8741 f73d
00000250: 312f ef3e aa3d 9c3e ed40 1bbe e438 b6bd
00000260: fd9f 37be c7eb e63d 0ec4 43bd b721 e43e
00000270: 4f98 cc3e 118e 083e 2d1c f6bd dbf1 2dbf
00000280: 00dd 02bd ad4f 7abd f58a 8abe 000a 953e
00000290: 4e69 6f3e d0d4 febe ec1e 9dbe c275 18ba
000002a0: 5e92 c0bd 66fa 513e 0d23 45bd 5f2e b93d
000002b0: ca75 ec3c fb7d 833e 936e 8abf bcac 75be
000002c0: 8038 003e 169f e83d 0bb8 0bbc ea38 6abe
000002d0: 422e 5e3d c517 663e 2551 73be 681f 7e3e
000002e0: 896d 21bf 4be2 84be 5adc 4c3e a124 743e
000002f0: c9b5 e7be fda8 9cbd 7269 293e d855 b23b
00000300: c040 1a3e 86da afbe 4d1f 79be 09fa d0bd
00000310: bc28 873d 1c48 8ebd 2a36 df3d e083 b8be
00000320: bba9 28be 2bdb adbd c321 2f3d 4ba5 aebd
00000330: d57f f7bc 18fc d33d 97ab 0cbc 909f 6c3e
00000340: bd9d b63d 47de 11bd 5d29 a83e 9dda 71be
00000350: b366 96bc 0028 03be 98f3 b8be 2381 55bd
00000360: 082d 6bbe 258a 19be bb10 b2bc a0b4 33be
00000370: 6917 243d ca0c 28bc 1fa0 743e 5f48 8e3e
00000380: c1df 3f3e bbca 2bbd 2c88 973e 86af 5ebd
00000390: 82a4 573d 28dd 3a3e ad48 d13e 34e5 efbd
000003a0: 1f79 7c3e f96a 25be 73f6 acbd a782 58bd
000003b0: 90e4 53be 1c33 f23e 73ac 703d e4d7 80be
000003c0: fb9d 8c3d 5dc9 88be 2b04 bfbd 117a bfbe
000003d0: 7714 f9bd e1d8 923d 93c5 7ebd 5264 0b3e
000003e0: 0e03 d03d 5bce 1abd 9c2e 1a3d 2bc9 263e
000003f0: 9680 533e d42c d1be ab09 21be 2a49 1f3c
0.4957255 0.010199467 0.12491387 0.21981916 0.05268557 -0.11258761 -0.26254386 -0.025082896
0.1893712 0.103886805 -0.19447319 -0.67275375 -0.37666956 -0.008954387 0.1532571 -0.2593937
-0.30172592 0.024829948 -0.08617652 -0.39045337 -0.06498681 -0.021514338 0.0328693 -0.07945802
0.13337834 0.29335448 0.0794967 0.02635021 -0.17632484 -0.14295098 -0.2105268 0.24999307
-0.3303669 0.1425968 -0.023146523 0.12021001 0.09952423 0.22737397 0.054988492 -0.055685543
-0.23730175 0.15003082 -0.036338605 0.042222604 0.24815579 -0.03595592 0.21853785 0.02246205
-0.30247453 -0.19018716 -0.0799569 0.04140923 -0.017515492 -0.15442435 0.0059821815 0.14546394
0.22388574 -0.12078472 0.14247562 -0.10995255 -0.09444855 -0.9758042 0.12997593 0.014882702
-0.26702154 -0.039799724 -0.14829832 -0.09087449 -0.0112554645 0.0894413 0.087655894 0.09982904
0.22045241 -1.5253644 0.1830358 -0.24588886 0.11717337 -0.05210689 -0.36008057 -0.2213589
0.21975319 0.0804453 0.082469285 0.28640667 -0.2700308 -0.06853219 0.039783273 0.1056583
0.061625943 -0.12903172 0.066229686 -0.23075028 -0.102704935 -0.26180002 0.07887051 -1.5420413
0.08973959 0.0735179 -0.15481643 -0.02168249 -0.01383126 -0.041096665 -0.1582549 0.17904392
0.13021874 -0.028340092 0.16994017 0.1333095 -0.23284858 -0.115863904 -1.5910943 0.077177145
-0.18352719 0.20241065 0.047906674 -0.08746123 0.17327183 0.05910744 0.2268229 -0.80607903
-1.2090954 0.22752789 -0.39186218 -0.1263845 0.17846107 -0.38854212 -0.2032068 0.012748832
-1.1413356 -0.046475742 0.015655603 -0.039441064 -0.020338982 0.12921798 0.035064287 -0.43841287
-0.19391637 -1.109301 -0.05507069 -0.12023729 -0.023739845 0.14043619 0.28267795 0.23171838
-0.35264322 0.05041215 0.1476098 0.12073045 0.46715692 0.30515796 -0.15161486 -0.0889757
-0.17932124 0.1127544 -0.047794394 0.44556972 0.39959952 0.13335444 -0.12017093 -0.6794717
-0.031949043 -0.06111114 -0.2705914 0.29109192 0.23380014 -0.49771738 -0.30687654 -0.0005815887
-0.09402917 0.20505676 -0.04812913 0.09042048 0.02886476 0.25682053 -1.0814995 -0.23991674
0.12521553 0.11358468 -0.008527766 -0.22873273 0.054243334 0.22470005 -0.23761423 0.24816668
-0.6305776 -0.25953898 0.20005932 0.23842098 -0.4525588 -0.076494195 0.1654413 0.0054423623
0.15063763 -0.34346408 -0.24328347 -0.102039404 0.06599566 -0.069473475 0.10899003 -0.36038113
-0.16470997 -0.084890686 0.042756807 -0.08527621 -0.030212322 0.103508174 -0.008585832 0.23107743
0.08916805 -0.03561237 0.32844058 -0.2361855 -0.018359518 -0.12808228 -0.36123347 -0.052125107
-0.22966397 -0.14994104 -0.021736493 -0.17549372 0.04006139 -0.010256955 0.23889206 0.2778959
0.18737699 -0.041941386 0.29596078 -0.05436661 0.05264712 0.18248427 0.4087576 -0.11713639
0.24655579 -0.16154088 -0.08445444 -0.052858975 -0.20692658 0.47304618 0.05875821 -0.2516471
0.0686607 -0.26716128 -0.09326967 -0.37397817 -0.121621065 0.071702726 -0.06220014 0.13612488
0.10156833 -0.037794452 0.037642106 0.16287677 0.2065452 -0.40854514 -0.15726344 0.0097220335

gnn1_pool.conv2.lin_root.bias f4 [64]
00000000: 4a27 0b3e c55e 283e e831 1bbe 8f71 91bd
00000010: e901 363e 9a6d 8fbe 5e7a 9abe 80d8 efbd
00000020: 94f5 113e d2ff 09bf 1149 13bf 000e 19bf
00000030: 74d2 8c3c d76f b5be 3710 13bf e91d d0be
00000040: 4f3c b2be 8989 b5be c126 0ebf 9b8f ed3d
00000050: d176 703c 8835 cdbe a85f 2cbe 0784 babd
00000060: e9b1 90be d445 a3be 382d 55be 99b6 bdbe
00000070: 1af8 16bf d80a 613e cfd7 4ebe 49c5 bc3c
00000080: 5920 03bf d8ca 4f3e 6640 bcbe 2f9c 463d
00000090: 8eb5 d5bd 791f 4e3e 6ac5 013e 885e 3cbe
000000a0: d09e 17be eeae 05bf cf6a 6cbe 295e ca3d
000000b0: 6683 f23e 8fb3 18bf e791 9d3e 0c9a 20bf
000000c0: 0ead 81bd ee58 bcbe 5b7a 9ebe 56aa acbd
000000d0: 23b6 fb3c 8516 93be 4767 143d c1d5 47be
000000e0: 4581 8cbe 5ff0 53bd df10 d4be a3f5 adbe
000000f0: 72cf 32be 6c14 95be aac8 a3be 3dfc f0be
0.13589206 0.16442402 -0.15155756 -0.07101738 0.17774166 -0.28013307 -0.30171484 -0.11711216
0.14253837 -0.53905976 -0.57533365 -0.5978699 0.017190196 -0.3543689 -0.57446617 -0.4064782
-0.34811637 -0.35456493 -0.55527884 0.11599656 0.014676766 -0.40079904 -0.16833365 -0.091072135
-0.28260735 -0.31889212 -0.20818031 -0.37053373 -0.5897232 0.21976793 -0.20199512 0.023043292
-0.51221234 0.20292222 -0.36767882 0.048488792 -0.104350194 0.20129193 0.12672964 -0.18395436
-0.14806676 -0.52220047 -0.23087619 0.09881241 0.47365874 -0.59648985 0.30775377 -0.62735057
-0.06331836 -0.36786598 -0.30952725 -0.084309265 0.030726498 -0.2872812 0.036231305 -0.19515134
-0.27442375 -0.051742908 -0.41419122 -0.33976468 -0.17461947 -0.29117143 -0.31989032 -0.47067443

gnn1_pool.bn2.weight f4 [64]
00000000: 10a9 603f a5a4 0a3f bd64 233f d6fa 323f
00000010: 47e4 d23e 6142 453f 0004 ee3e 773d 683f
00000020: df63 3d3f fc38 7a3f fb5a 8c3f d87d 673f
00000030: d216 863f afdb 463f ccd3 5f3f 3075 673f
00000040: 0cae 433f 46dd 7d3f 5b11 643f 96c7 0e3f
00000050: d7c7 5b3f 1937 493f 3d98 103f 14f0 253f
00000060: 877c 563f e6c0 293f e8c8 c63e f61a 483f
00000070: 5e11 b73f 289b 7f3f c212 1d3f 6ef0 1e3f
00000080: 76af 5e3f 6007 863f 5da3 8d3f 64d9 053f
00000090: 99ba dc3e 813e a23e b242 0e3f e0d7 7d3f
000000a0: 8ed9 033f 1a4a 763f 3d15 4b3f 11c9 3e3f
000000b0: f31b d23e 7b2f 6c3f 1640 0c3f 8a6c 533f
000000c0: ca22 893f 2b5f 9a3f c9bc 433f 7199 ae3e
000000d0: 8ea3 1d3f d8a1 103f 2bed 463f 29bc 423f
000000e0: 04c1 843f 76a7 483f b691 643f 423d 4d3f
000000f0: 26c1 3e3f 3b74 523f 021e e73e 1a13 883f
0.8775797 0.5415748 0.6382559 0.69913995 0.41189787 0.7705441 0.46487427 0.9071879
0.73980516 0.977432 1.0965265 0.904264 1.0475714 0.7767896 0.8743255 0.9041319
0.7643745 0.9916576 0.8908898 0.55773294 0.85851806 0.785997 0.564823 0.64819455
0.83783764 0.66309965 0.38825154 0.7816614 1.4302175 0.99846125 0.6135675 0.62085617
0.8698648 1.0471001 1.106548 0.52284837 0.43111113 0.31688312 0.5557052 0.99157524
0.5150384 0.9620682 0.7932928 0.74525553 0.4103695 0.9225995 0.5478529 0.8258749
1.0713742 1.2060293 0.7645994 0.34101442 0.6157769 0.56496954 0.7770564 0.7606836
1.0371404 0.78380525 0.8928484 0.80171597 0.7451347 0.82208604 0.45140082 1.0630829

gnn1_pool.bn2.bias f4 [64]
00000000: 315e 08be ddaf 72bd bb11 f03d 6a21 263e
00000010: 05cf 963d 51b2 bd3e 155c d13d d282 003e
00000020: ee33 d13d 0fa4 a43e 41df 183e ac68 923e
00000030: 67b7 5c3e 978c 853e 9308 603e 63e1 153e
00000040: 2240 123e 0d3c cb3c 0355 a13e 0468 c0ba
00000050: 10bb 693e 5bd2 923e cacf e23d f42a 6d3d
00000060: 54a3 c53e 4949 783e f16f 0d3e 95fe a43e
00000070: 4d2f 013e 0e47 63bc 3ad7 8a3d 6f2a d03d
00000080: 9cb8 373e 12b5 e1bd d10b c13d e369 583e
00000090: be08 633d f104 113e f065 82bd a4f0 483e
000000a0: 6bb4 3f3e e924 723e 8568 823e 60fd bb3e
000000b0: 9c54 413d 6ac4 963e 5388 303c 30a0 463e
000000c0: f953 523e be00 893e 11ad ac3e f43f ab3d
000000d0: 25fa e8bd da4a 543c d627 763e 30c4 a93e
000000e0: a002 813e e15f c73e c7b2 913e 0526 b33e
000000f0: ff69 3d3d f273 9a3e 1edf 8b3d 4cba 9b3e
-0.13317181 -0.059249748 0.11722132 0.16223684 0.073637046 0.37050107 0.102226414 0.12549904
0.10214983 0.32156417 0.14928915 0.28595483 0.21554337 0.26083824 0.21878271 0.1463676
0.14282277 0.024808908 0.3151017 -0.0014679437 0.22825265 0.28676113 0.11074789 0.05790229
0.38601172 0.24246706 0.13812234 0.3222548 0.126157 -0.013871921 0.067793325 0.101643436
0.17941517 -0.110208645 0.09426082 0.21134143 0.05542826 0.14162041 -0.06367099 0.19623047
0.18721168 0.23646893 0.25470367 0.36716747 0.04719983 0.29446727 0.01077469 0.19397044
0.20539846 0.2675838 0.3372579 0.083618075 -0.11375836 0.012957299 0.24038634 0.33157492
0.25197315 0.38940337 0.2845671 0.34989944 0.046243664 0.30166584 0.068296656 0.3041557

gnn1_pool.bn2.running_mean f4 [64]
00000000: dc5d c43f 821b 3d40 c8ca e83e c72d 0f40
00000010: 48f9 7b40 98ae 3040 2cd1 023f 176a c53d
00000020: a8ee 4b3f 3dd1 4c3f a6c9 163f 02f7 f53e
00000030: 5b60 9b3e a15e 8e3f 77e4 0c40 d440 4d3d
00000040: b106 2f3f 63e7 063f 4236 6d3f dcba 1540
00000050: dd8a 9f3e c0f3 cf3f 4c73 f03e e270 583f
00000060: e469 2340 98c5 fe3e 6bef 0740 9746 a03f
00000070: 7abb 953e a933 e13f 8e70 8c3f 66e0 823f
00000080: 65ac f43d f86a 4e40 d961 363e bf3b c23f
00000090: 92cc f03e 406e fd3f d91d 0140 3b05 d03f
000000a0: 8c3f 0340 29fc a23f a007 d63f 7444 b33f
000000b0: e462 5940 d334 093f 4503 ec3f 4389 b83e
000000c0: 0f35 ac3e a6b2 953e 7e30 2d40 9e38 1340
000000d0: e005 823f 2669 4a3e d680 2940 011d 2540
000000e0: e4cf 613f 8e5e 3640 f49b 9c3f 2eaa 163f
000000f0: b501 a43f d1c7 f83f 387a 093f b62d e43e
1.5341144 2.954804 0.4546721 2.237169 3.93709 2.7606564 0.5110042 0.09639376
0.79661036 0.8000677 0.5890144 0.48040015 0.3034695 1.1122628 2.2014444 0.050110653
0.68369585 0.5269682 0.92660916 2.33953 0.31160632 1.6246262 0.46962965 0.84547246
2.553338 0.49760127 2.123988 1.2521542 0.29244596 1.759389 1.0971849 1.0224731
0.11946944 3.2252789 0.17810763 1.5174483 0.47031075 1.9799271 2.0174468 1.6251596
2.0507536 1.2733203 1.6721077 1.4005265 3.3966608 0.5359623 1.8438498 0.36042222
0.3363423 0.2923786 2.7060847 2.3003306 1.0158043 0.19766673 2.6484885 2.5798953
0.8820784 2.8495212 1.2235093 0.58853424 1.2813021 1.9435979 0.53702116 0.44566125

gnn1_pool.bn2.running_var f4 [64]
00000000: 2fc7 2d40 ae1d ea40 b896 843f 7ac2 8241
00000010: 8a99 d741 f60f f241 ead5 9f40 d72d 6a3e
00000020: 26fd 973f 9326 8040 6e37 ad3f 878b 6a3f
00000030: 2d87 ab3f fe17 df40 100b a241 f4a4 e53d
00000040: 3519 1240 cdc9 e93f e42f 7840 e851 ee40
00000050: a9b2 5e3f 7ea3 8541 8ad0 733f 6947 6d40
00000060: 6e9b bf41 10fa b53f bd1a d841 fc47 1241
00000070: 785d b63e 5961 0240 96a9 aa40 441b 2a40
00000080: eb6f 963e 49e9 0a41 2bcb ea3e a15a b140
00000090: 4a8e fe40 61df 1d41 a73b 9840 4384 8940
000000a0: c85d b141 70a1 0141 2743 db40 ce0d e440
000000b0: 96f8 e540 2cb6 c43f 526a fc40 d6b6 4340
000000c0: ab67 ec3e ed69 313f e610 fe41 a4c3 e541
000000d0: 4e72 c33f 5c26 903e 6e29 a841 9858 e141
000000e0: 667e 3640 dc37 bd41 730c f240 2dab e03f
000000f0: 01af bd40 1c12 6041 4a7b 1841 2d95 473f
2.7152822 7.316123 1.0358496 16.34496 26.94997 30.257793 4.9948626 0.22869049
1.187413 4.004709 1.3532541 0.9161915 1.3400627 6.9716787 20.255402 0.11213103
2.2827885 1.826471 3.877923 7.4474983 0.86991364 16.70483 0.9524008 3.7074835
23.950893 1.4216938 27.013056 9.142574 0.35618186 2.0371916 5.3332014 2.6579142
0.29382262 8.681954 0.4585813 5.542313 7.9548693 9.867036 4.757282 4.297395
22.170792 8.101913 6.8519473 7.126685 7.186595 1.5368094 7.8879786 3.0580344
0.46172842 0.69302255 31.758251 28.720528 1.5269258 0.28154266 21.02023 28.168259
2.8514647 23.652275 7.5640197 1.7552239 5.927613 14.004421 9.5301 0.77962

gnn1_pool.conv3.lin_rel.weight f4 [50, 64]
00000000: 90cc 9ebd c45e 3fbd 09f8 62be 7060 15bc
00000010: 2e1d 713d 53fd bbbe 3ca3 1dbe 1cf5 d8bd
00000020: a1aa 90bb 0933 b53d 1de4 3cbf 0616 11bf
00000030: f4ae 793d ff60 b0bd 299b 7fbe 70c9 cebd
00000040: 8a72 a23e 88d5 483e 578a 84be 0db6 dfbd
00000050: 5bb1 cbbe 96e9 e5bc d208 51be aa29 bcbe
00000060: 1306 bfbe 23ec 09bf 053d 403d 629a acbd
00000070: 1d3d 7fbf 887e a5be db64 56be 7fd5 23be
00000080: 054d 49be 5034 14be 5608 02be 4ad9 e7be
00000090: 5724 9a3c d4d3 d1be 773e 91be ab31 2ebe
000000a0: 4471 00bd 915b 843d c581 04be 125a 58bf
000000b0: 3a40 3abe c375 afbe 40de af3e a55d 74be
000000c0: f586 b13e ce01 cebe fd30 96be a1b9 d2bd
000000d0: f2f7 b23e 1ee9 8bbd 5b6b 90be 1c2e a8bd
000000e0: 8d59 1cbf a9ef ccbe 8b70 293e 1b4e b7be
000000f0: 1f67 8cbe 0dc7 9dbe 1364 7bbd 8270 5fbf
00000100: 2367 1e3e d520 3dbd 64a5 b2be 7e68 7b3e
00000110: 0dff fc3d 9ac7 99be ec80 1dbf d5f9 78be
00000120: f8ef 503d 11e7 d23e 3769 78be 2cab 26be
00000130: 6d59 cf3e de36 d93e 90ff 7b3e 2b46 93be
00000140: 4b35 a8bd c7cd da3e 7891 25bd 956b 2b3d
00000150: 08f3 80be d154 093f 83b6 98be 3980 b1be
00000160: 3bed 01be c189 24be 1f17 093e f935 ee3e
00000170: 9374 2cbe 93c1 3fbe 772a c2be 6138 abbe
00000180: 2026 90be 4baf 5a3e 9c86 b33e fc2b 52be
00000190: 8ece bcbe e65e f1bd cc45 0abf 7f9c 9abe
000001a0: d2f2 8b3d 260f b23e fc8d a9be 3a59 72be
000001b0: 1bb5 47bd 2eed 3c3e a41a e3bd a0ee 89bf
000001c0: d4e1 65be e2c2 61be 5dbc 2e3e dac4 2f3e
000001d0: 7565 b2bd dad6 a1bc 0bc3 543e dfb4 453e
000001e0: 04c2 d8bc 3eb5 9bbe 59f7 a43e 2147 31bc
000001f0: c44c b8be e7ff 57be 6f46 b2be 0252 8cbe
00000200: 0df1 243f 4b2a debe 94c4 a1bd 96fc cdbe
00000210: 1ea2 6abe 4e1c 1bbf 6a46 9d3d 1eab 403e
00000220: 8ff0 fe3e ee5d 5f3e c060 773e 73fc 503d
00000230: 3163 9d3e 782b a8be f2d4 12bf 99a9 db3e
00000240: 9fe4 af3e 497a da3d d103 37be 24b2 2d3f
00000250: ee32 233e a004 36be 1006 c0bc 4448 05be
00000260: f7df f1be 2ae7 763b e79f b9be 45e2 27bf
00000270: 7771 8a3e 0a14 303e 9a9f 233d 977e 14be
00000280: 94cd 71bf 30be 45bd 9873 8d3e 4e8c a63e
00000290: 3ada 903e 68ef a23e 56dd aabe 8149 03bd
000002a0: f326 54be 8e15 6fbd 342d 243e 6682 2a3d
000002b0: 7e06 f23d d2ec 70bf 8c54 0ebd cadc d73d
000002c0: 621c c9bd b4c3 85bf 0517 0dbf 7f0e acbe
000002d0: 7737 2cbd efc0 793d c259 99be 57ab acbe
000002e0: 370f 99bc 778b d0be 6c9e b1bd 87de 29bd
000002f0: a0c4 1fbe ac32 bcbe 0207 e43e 62ee 903c
00000300: 067e 553e 180c 9bbd 76c1 e5be 8131 213e
00000310: 8d31 5d3e 480e 25be 1bfa d6be b47f 78be
00000320: cdc0 3a3e 930f e33e de36 91bd 512a 07be
00000330: 94a8 033e e89d 063f 0839 343e 4ce6 aebd
00000340: 070a 2f3e 37e5 043f 6bb1 cbbc a1c2 333e
00000350: f6e8 86bd c7d4 1c3f 8e55 9cbe 62a8 b7be
00000360: a55b 1dbe 4fe2 5bbd 8740 9bbd 4e50 003f
00000370: b676 a4bd cf68 c1be 4b0e a3be 8d04 d1be
00000380: 77fa 8bbe cfed e5bc 8c82 e03e baf4 55be
00000390: ba49 233d 5414 92be 4b90 d9be cad3 44be
000003a0: f6e6 7ebd 8981 343f 032f fcbe 6f5f 8ebd
000003b0: f18e c7bd be2d bd3e 064d 323e a024 53bf
000003c0: c52d 003e 0f72 80be 1861 783e aac6 0fbe
000003d0: ab16 473e 11c7 85bd f8ae ac3d 5f4a 3d3e
000003e0: c610 9bbc 9b3f 753c 12b2 2a3f d717 acbe
000003f0: b9e5 dcbe ab73 72be 495c bebe 28f2 da3b
-0.07753861 -0.046721235 -0.2216493 -0.009117231 0.05886572 -0.3671671 -0.153943 -0.10593626
-0.004414872 0.08847625 -0.73785573 -0.5667423 0.060957864 -0.086122505 -0.24961533 -0.10097015
0.3172801 0.19612706 -0.25886795 -0.10923395 -0.3978375 -0.028065484 -0.20413521 -0.36750537
-0.37309322 -0.5387594 0.046933193 -0.08427884 -0.99702626 -0.32323098 -0.20936911 -0.15999411
-0.19658287 -0.1447308 -0.12698492 -0.45282966 0.018816156 -0.40981925 -0.2836797 -0.17011134
-0.03135802 0.064627774 -0.12940128 -0.84512436 -0.18188563 -0.34269533 0.3434925 -0.23863848
0.34673277 -0.40235752 -0.2933425 -0.10289312 0.34954792 -0.06831573 -0.28206906 -0.0821192
-0.61074144 -0.40026596 0.16546838 -0.35801777 -0.27422425 -0.30815926 -0.061374735 -0.8728105
0.15469031 -0.04617389 -0.34891808 0.2455158 0.123533346 -0.30035096 -0.61524844 -0.24314053
0.051010102 0.41191915 -0.24258886 -0.16276234 0.40497914 0.42424673 0.24609208 -0.2876447
-0.0821329 0.4273512 -0.040421933 0.041850645 -0.25185418 0.53645045 -0.29826745 -0.3466814
-0.12688152 -0.16068174 0.13387726 0.46525553 -0.16841345 -0.18726186 -0.37923023 -0.3344145
-0.28154087 0.21355931 0.35063636 -0.20524591 -0.3687634 -0.117856786 -0.5401275 -0.30197522
0.06833424 0.34777182 -0.33116138 -0.2366685 -0.0487567 0.18449852 -0.11089066 -1.0775948
-0.22449428 -0.22046998 0.17064042 0.17164937 -0.08710758 -0.01975577 0.20777528 0.19307278
-0.026459701 -0.30411714 0.3221996 -0.010820181 -0.35996068 -0.21093713 -0.34819362 -0.27406317
0.64430314 -0.43391642 -0.078988224 -0.4023177 -0.22913405 -0.60590065 0.07679446 0.18815276
0.49792907 0.21813175 0.24158001 0.051022004 0.3073974 -0.32845664 -0.5735618 0.4290283
0.34354112 0.10667855 -0.1787255 0.67849946 0.15937397 -0.17775202 -0.02344039 -0.13015848
-0.47241184 0.0037674406 -0.36254808 -0.65579635 0.27039692 0.17195144 0.03994713 -0.14501415
-0.9445431 -0.04827708 0.27627254 0.3252892 0.28291494 0.31823277 -0.3337199 -0.03205252
-0.20717983 -0.058370166 0.16032869 0.041628264 0.118176445 -0.9411136 -0.0347486 0.10540159
-0.09819867 -1.0450349 -0.5511325 -0.3360481 -0.042045083 0.06097501 -0.29951292 -0.33724472
-0.018684013 -0.40731403 -0.08672795 -0.041471984 -0.1560235 -0.3675741 0.44536597 0.017691795
0.20848855 -0.07570666 -0.4487416 0.1574154 0.21600933 -0.16118729 -0.4198769 -0.24267465
0.1823761 0.4434782 -0.07090543 -0.13199736 0.12857276 0.52584696 0.1759988 -0.085400194
0.17093669 0.51912254 -0.024864873 0.17554714 -0.065874025 0.6126217 -0.30534023 -0.35870653
-0.15366991 -0.05368262 -0.07580667 0.50122535 -0.08030455 -0.37775275 -0.31846842 -0.40823784
-0.27339527 -0.028067498 0.438496 -0.20894137 0.039865233 -0.28531134 -0.424929 -0.19221416
-0.06223198 0.70510155 -0.49254617 -0.06951796 -0.09744061 0.3694896 0.17412195 -0.8247776
0.1251746 -0.2508702 0.24255788 -0.14040628 0.19442241 -0.065321095 0.0843181 0.18485402
-0.018928897 0.014968778 0.66677964 -0.33611938 -0.43144014 -0.23676936 -0.37179783 0.0066816993

gnn1_pool.conv3.lin_root.weight f4 [50, 64]
00000000: 746a af3b 1500 b23d cbc4 463e a3c9 77be
00000010: 29dd 043e d2bc 1cbe a4c5 3c3e 96a9 a4bd
00000020: 97af 8abd cbe9 a6be 9be2 09be 5f3b 47be
00000030: fd9f 18bd 8f9d 0b3d f94e 82bd a94e 3ebf
00000040: c7f5 703e d3b5 153e 49e0 22be a072 c43b
00000050: 3be6 50be 6000 d7bd 654a 953e ac28 66be
00000060: 851a b9bd b91e 31be 7f27 e1be 0926 b3be
00000070: eff6 5ebe 74d6 94bc 85d5 26bd ba09 e13d
00000080: bf83 973d 5a38 39be 5ae3 003e 3db4 793e
00000090: 9bff cf3d 1226 363e 4664 6ebc 6b51 b23e
000000a0: 9db8 93be 1f34 cebd f338 cd3e daf7 00be
000000b0: 3ea5 163e 228f 1cbe e7fa b43e 0930 26bf
000000c0: e9d6 e9bd 3da3 c1bd aed6 edbd 9b17 36be
000000d0: 1175 7c3e 2ce7 433e ecb2 d13d ddb4 2fbe
000000e0: d353 c43c c0c4 07be 53ff ffbd 8fd9 09be
000000f0: 6e99 7fbd c155 2bbe 549b bd3d d7f4 51bd
00000100: 1c7e cb3c d266 dd3d cb48 c73d 25c2 37bd
00000110: 9017 ecbd 8ab0 e2be fd34 fb3d f1e0 67be
00000120: 0675 11be 49fe 09bd 4b9c 3e3e 40bd fa3d
00000130: b537 b73d 0095 ddbd c352 5dbe fef9 2f3e
00000140: 9460 bd3d 64d0 cf3e dacc 19be 832f a23d
00000150: f0f2 8dbe c521 71be e791 61be 673e 06be
00000160: 4ed4 7ebe a722 28be 00a0 15bd 6133 f8be
00000170: 1d08 f53d 2a6c 06bd d318 2bbd 509a 1dbe
00000180: 6d1d 0fbe 23f1 d4bd 7c20 9e3e 23f7 d73c
00000190: d410 fe3e e815 823d 0851 20bc 59d6 623e
000001a0: 3ffa 8ebc 8b5a 983c 1b2f ab3e 7702 91be
000001b0: 0a6b 943e 006f 21be 64b1 233f 8587 613e
000001c0: 4922 0e3d dd08 0ebe de21 7cbe a9d9 993d
000001d0: bca6 4b3e 7fb0 47be c1b2 10be 1cca d5be
000001e0: b60c a83d 0257 a2be ac75 01be 42e6 193c
000001f0: 918b 1cbd dc2b fabd 6306 6a3e b4e3 deb9
00000200: 8d1f cf3e 409f 323e e1aa 8c3e fe51 a23d
00000210: e6a1 703e fffb 823e df05 303e 225b 8e3e
00000220: a991 b23d ddeb 443d 9e69 013b 9c61 00be
00000230: 21df c13e 88b5 f43d 3d87 8a3e f854 f53b
00000240: 9e31 a63d f73d f23d 1091 fe3b 6991 123e
00000250: 6d41 463e 4870 db3d 8208 a83c 2f44 4f3e
00000260: b558 ec3d 1e4d 923d 001a bd3e e9db b73e
00000270: f960 3cbd 9ca1 783d f6a1 f33d 90b8 fe3d
00000280: 488d f83c b7ee 8f3e 11df fb3c 9bc4 363e
00000290: 8733 d9bd 24c7 823e d304 fa3d 1ae0 c33e
000002a0: b69d a13e 0440 a13e d6c4 413e 6565 9e3d
000002b0: cfa4 35bc cca4 603e 964d 05be 58da 973e
000002c0: 585e b7be 2b73 8dbe ec9a 663d f19d 7f3e
000002d0: ec8d 82be eb8a 283e 8ed1 b03e 2b2c e63d
000002e0: 5364 a3bd b496 083e 0dd1 2a3e 13cf e53d
000002f0: 80d9 093e e2b8 083e 4b78 3f3e 3636 dbbd
00000300: 4b9d 803d 88f6 1d3e 009e 3e3e e6e1 8abd
00000310: 48e9 ddbd f6a4 c9be 4539 3fbe 9678 52bc
00000320: f8e3 9ebd 726a c1bc 2ffc 673d 1d1c 15be
00000330: d36f 643d f1ec 46be c2b2 89be dc4f 3b3d
00000340: dfa0 3c3e dd81 243e 4029 d7be 9f77 82bd
00000350: cf51 efbd 4910 39bd 26d0 9d3d 0fe3 0c3e
00000360: 494d b6be eddb 07be 5c1b 84bd bf48 94be
00000370: 0b4a a43d c46a 0dbe b85f 313e 5d40 2a3e
00000380: 1e7f 42be b375 023e 5df9 a83e 4666 843e
00000390: 86ae 6ebd 8acc 263e 85b6 773e 3b8c 183e
000003a0: a616 a0bd e9d0 27be 0a66 f73e a3f8 49be
000003b0: 9055 943e af09 69be 3a84 25be abc3 01bf
000003c0: 97ad 083e c283 93bc e155 efbe 3186 1cbe
000003d0: 122a 573e fe59 ddbc 360f 1f3e d4d7 f4be
000003e0: 9d86 c83d d931 94be 7444 40bd 79ae 3e3e
000003f0: 9fc4 a03d a2e0 9dbe c781 d9bd 30c3 a53d
0.0053532664 0.08691422 0.19411008 -0.24198012 0.12974991 -0.15306404 0.18434769 -0.080401585
-0.06771772 -0.32600245 -0.1346535 -0.19456242 -0.03726195 0.034085806 -0.06362719 -0.74338776
0.23531257 0.14620142 -0.1590587 0.0059951097 -0.20400326 -0.104981184 0.2915832 -0.22476453
-0.09038261 -0.17296876 -0.43975446 -0.34989956 -0.21773885 -0.018168665 -0.04073097 0.10988183
0.073981754 -0.18087903 0.12586728 0.24385162 0.10156175 0.1778796 -0.014550274 0.34827742
-0.28851786 -0.10068535 0.4008251 -0.12594548 0.14711472 -0.15288976 0.35347673 -0.64917046
-0.11417944 -0.09454963 -0.116132125 -0.17782442 0.24654032 0.19131154 0.10239205 -0.17158838
0.023965752 -0.13258648 -0.12499871 -0.13461898 -0.06240218 -0.16731931 0.09258142 -0.051258888
0.024840407 0.10810627 0.09730681 -0.044862885 -0.11527932 -0.44275314 0.12265966 -0.22644402
-0.14204797 -0.03368977 0.18614309 0.12243128 0.08946172 -0.10819435 -0.21613602 0.17185208
0.092469364 0.40588677 -0.15019551 0.079192184 -0.2772441 -0.23548038 -0.22028314 -0.13109742
-0.24885675 -0.16419469 -0.03652954 -0.484767 0.11964438 -0.032817997 -0.04177172 -0.15390897
-0.13976069 -0.10397556 0.3088416 0.026362961 0.49622214 0.063518345 -0.009784944 0.2215208
-0.017453311 0.018597862 0.33434376 -0.28322193 0.28987914 -0.15765 0.6394255 0.22024353
0.034700666 -0.13870569 -0.24622294 0.075122185 0.19887823 -0.19500922 -0.14130689 -0.4175576
0.082055494 -0.31707007 -0.12642545 0.009393277 -0.03821904 -0.12215397 0.22853999 -0.00042512792
0.4045376 0.17443562 0.2747412 0.07925795 0.2349926 0.25582883 0.1718974 0.27803904
0.08719189 0.0480765 0.001974679 -0.12537235 0.37865546 0.11948687 0.27056304 0.0074869357
0.081149325 0.11828225 0.0077687576 0.14313282 0.19360895 0.10714775 0.02051187 0.20240854
0.11540357 0.07143615 0.369339 0.35909966 -0.045990918 0.060700998 0.11896126 0.12437546
0.030340806 0.28111812 0.030746015 0.17848437 -0.10605531 0.25542557 0.122079514 0.38256913
0.31565636 0.31494153 0.18922743 0.07734183 -0.011086657 0.21937865 -0.13017878 0.2965877
-0.35814166 -0.2762693 0.05630009 0.24962594 -0.25498903 0.16459243 0.34534878 0.11238893
-0.0797812 0.13338739 0.16681309 0.11221137 0.13461876 0.13351777 0.18698232 -0.10703699
0.06280001 0.15426075 0.1861496 -0.06781368 -0.108355105 -0.39383668 -0.1867419 -0.012846133
-0.07758325 -0.023610327 0.056636985 -0.14561506 0.055770706 -0.19426323 -0.26894194 0.045730457
0.18420742 0.16065164 -0.4202366 -0.06370472 -0.116855256 -0.045181546 0.07705717 0.13758491
-0.3560584 -0.13267489 -0.06450531 -0.2896175 0.08021935 -0.13810259 0.1732167 0.16626115
-0.18993804 0.12740211 0.3300275 0.25859278 -0.058271907 0.16288963 0.2419072 0.14897244
-0.0781682 -0.16388287 0.48320037 -0.19723754 0.2897153 -0.227576 -0.16163722 -0.5068919
0.1334747 -0.018007163 -0.46745208 -0.15285565 0.21012142 -0.02702045 0.15533146 -0.47820914
0.097913004 -0.2894428 -0.046940282 0.18621244 0.078500025 -0.30835444 -0.10620456 0.0809387

gnn1_pool.conv3.lin_root.bias f4 [50]
00000000: d0f7 41be 8f6a c4be 0e30 2bbe 65da 7abe
00000010: a2dd 91be d211 11be 2ab2 52be 9a22 93be
00000020: f8c3 89bb fd07 00be 5611 03bf 9b49 b1be
00000030: 233a 00bf 2df9 63be ea5b 73be 4cbb e3be
00000040: c5c4 abbe ee2f 073e ca6b 39be 89e2 29be
00000050: e238 89be be46 4abe a779 1a3e 6953 a9be
00000060: 3676 763e eaf5 cd3e 3060 fabd e5cc 823e
00000070: d853 39be 10f7 b8be 86fc e03c 9aeb 093e
00000080: f3f3 c83b b8d8 1bbe 0386 5a3e fd0a b5be
00000090: d1b9 d6be bfbc 91be 3bf4 cebe c6f8 95be
000000a0: cf8a 623e e04e febe 9f26 29bf 1dd9 0ebd
000000b0: d69a 6bbe 8c70 46be b5d7 97bd 50c1 a7bd
000000c0: b017 14bf 652b 453e
-0.18942189 -0.38362548 -0.1671755 -0.24497373 -0.28489405 -0.14166954 -0.20575777 -0.28737336
-0.0042042695 -0.12503047 -0.5119833 -0.3462647 -0.5008871 -0.22263022 -0.23765531 -0.44478834
-0.3354856 0.13201877 -0.18107525 -0.16590323 -0.2680121 -0.19753549 0.15085469 -0.3307145
0.24068531 0.4022668 -0.122253776 0.25546947 -0.1809839 -0.36125994 0.027464163 0.13468781
0.0061325966 -0.1521939 0.21340184 -0.35359946 -0.41938642 -0.28464314 -0.40420708 -0.29291362
0.22123264 -0.49669552 -0.66074556 -0.034875024 -0.23008284 -0.1937887 -0.0741419 -0.08191168
-0.57848644 0.19254835

gnn1_pool.bn3.weight f4 [50]
00000000: e3f1 7c3f a1ba 173f 5172 533f f4f1 5f3f
00000010: 7326 5e3f a038 803f 7938 403f 9b70 543f
00000020: 40e3 823f 0494 183f fbe9 623f ea43 6b3f
00000030: cdbd 753f d615 773f b36f 683f b69a 743f
00000040: bebf 4e3f 5759 7b3f 2f76 063f 0b06 1e3f
00000050: 3b64 7e3f feef 803f 3c69 663f a276 a93f
00000060: 6bb6 463f 571c 8e3f a012 7d3f c43c 693f
00000070: b2fc 8b3f 009f 3f3f 7fb9 4c3f 5c7a 543f
00000080: 2b14 403f f48a 593f d475 643f 9093 4d3f
00000090: d84a 7f3f 8dc5 663f 34f3 3d3f c2a4 853f
000000a0: 3be6 323f 56b4 943f 567d 683f a581 923f
000000b0: 3534 623f 9ae4 6d3f e44d 8b3f 84ad 203f
000000c0: df26 403f aebd 333f
0.9880659 0.5926915 0.8259631 0.87478566 0.8677742 1.001728 0.7508617 0.8298432
1.0225601 0.59600854 0.88638276 0.91900504 0.9599274 0.96517694 0.9079544 0.9554857
0.80761325 0.98183197 0.52524084 0.6172797 0.9937169 1.007324 0.90004325 1.3239329
0.776221 1.1102399 0.98856544 0.91108346 1.0936491 0.7485199 0.79970545 0.82999206
0.75030774 0.8497765 0.8924229 0.8030329 0.9972358 0.9014519 0.74199224 1.0440905
0.69882554 1.1617534 0.9081625 1.1445814 0.8836091 0.92926943 1.0883145 0.62764764
0.7505931 0.70211303

gnn1_pool.bn3.bias f4 [50]
00000000: faec 9f3b 729a bf3d 27a4 c53e f375 5e3e
00000010: d5ed 9d3e e141 7a3d d179 4e3e 7075 a53d
00000020: bbbf f3bd 154a 743e 1057 e33d 92ad 263e
00000030: 3d9f 903e c744 8f3d 6d56 8d3e a7dc 82be
00000040: f8fa 8b3d 92a1 52bc f017 2d3e 16dd 113e
00000050: 7954 af3e aaf0 ee3d dba2 bfbd 9e89 9b3e
00000060: 8d9c bbbc 029b edbd bd38 443e 259a c63d
00000070: 2866 613e c80f 483e db5f 9dbd 26ae 58bd
00000080: 8f19 343e 9172 063e 82e9 b0bc 4523 b43c
00000090: ce7c 2f3e 4310 bbbd 8fd2 493e e49c 243e
000000a0: d0ba 343e 2167 a43d 2f37 233e 8bdd 083e
000000b0: ae97 6d3d a4d4 183e cf49 bbbc 41ab 103e
000000c0: a6a1 4f3e 6618 3f3e
0.0048805447 0.0935563 0.386018 0.21724682 0.30845514 0.061097983 0.20163657 0.0807904
-0.11901804 0.23856385 0.1110059 0.1627715 0.2824649 0.0699554 0.27605 -0.2555897
0.06834978 -0.012855904 0.16903663 0.14244494 0.34244135 0.11666997 -0.09357234 0.3037843
-0.022901798 -0.11601831 0.19162269 0.096973695 0.22011626 0.1953727 -0.076842986 -0.052900456
0.17587875 0.13129641 -0.02159572 0.021989474 0.17137453 -0.09133961 0.19709228 0.16075474
0.17649388 0.08027483 0.1593902 0.13365762 0.05800598 0.14924866 -0.022862343 0.14127828
0.20276508 0.18661651
