model/BA200_p0.4_m50_diff_pool.pt (torch, 793665 bytes, 113 tensors)

gnn1_pool.conv1.lin_rel.weight f4 [64, 2]
000000 65 d2 09 bf c1 37 7d bd 04 56 04 bf 97 fe eb 3e
       -0.5383666 -0.06182075 -0.5169375 0.46092674
000010 15 fb f9 be 4a 00 8e 3e 2c e7 c7 3e 56 93 0a bf
       -0.48824373 0.27734596 0.39043558 -0.54131067
000020 60 88 80 bd c9 99 e3 be 86 c1 21 be 93 01 06 bf
       -0.062760115 -0.44453266 -0.1579648 -0.5234615
000030 89 ff 0e be 18 b3 41 be 47 93 f8 bd b3 22 cb be
       -0.13964666 -0.18915975 -0.12137466 -0.3967491
000040 42 ac 04 bf ba 58 4a 3f 2f cf a4 be 4b 44 db 3e
       -0.51825345 0.79041636 -0.3218932 0.4282554
000050 b0 0b 8b be 9e 63 d8 be ed 73 c5 3d 80 88 7b be
       -0.27157354 -0.42263502 0.09641252 -0.2456379
000060 49 de 86 be f0 53 82 be 21 90 16 3f b4 a3 be be
       -0.26341465 -0.25454664 0.58813673 -0.3723427
000070 68 9a 1a 3f 59 32 a1 be d0 c5 b3 be e6 81 0d be
       0.60391855 -0.31483725 -0.35111856 -0.13819084
000080 9e 4c 84 3d 81 10 f6 bc 9d 22 65 bf 75 e0 a6 3d
       0.06459926 -0.030037167 -0.8950594 0.081482805
000090 4b a4 3d 3d 7d 1f ee be 0d c7 8b be 8d 1f 14 3f
       0.04629926 -0.465084 -0.273003 0.5786064
0000a0 20 40 9a 3e a2 de d3 3e 62 d2 c9 3d 9d 10 25 bf
       0.30127048 0.41380793 0.098545805 -0.64478475
0000b0 f3 90 03 3f 3e 61 42 bf 90 08 7a be e0 fa 27 bd
       0.5139305 -0.7592963 -0.24417329 -0.041010737
0000c0 34 32 47 3f 4e 98 2f be f7 99 c6 be 7a a2 81 3e
       0.7781098 -0.17147943 -0.3878934 0.25319272
0000d0 b7 a4 13 bf c3 30 84 3e ad df b8 3d 51 e5 ac be
       -0.5767321 0.25818452 0.09027038 -0.33768705
0000e0 7a d4 2f bf c3 6d 30 bf a4 b4 e6 3e 9c f6 0c 3e
       -0.6868359 -0.68917483 0.45059693 0.13765949
0000f0 95 84 3b bf 2c c1 cb 3e a8 dc bf 3e c2 b7 c5 3e
       -0.7324918 0.39795816 0.37473035 0.3861676
000100 ea 8c 09 bf 19 96 a2 3e 64 9c d9 bd 88 3f 1c bf
       -0.5373064 0.3175514 -0.10625532 -0.6103444
000110 8e b6 af bd ca 28 8f 3e c2 e7 1b 3f 88 55 c7 be
       -0.085797414 0.27960807 0.6090051 -0.38932443
000120 14 2e e8 3e 31 30 fd be 62 49 8d be 56 69 ee be
       0.45347655 -0.4945083 -0.2759505 -0.4656474
000130 ff 12 44 3f 43 f7 d5 be 89 60 4a 3f f4 1f e5 3e
       0.76591486 -0.41790208 0.7905355 0.4475094
000140 20 84 8e 3e 5e d0 12 bf c6 d9 bc be 47 82 0f bf
       0.27835178 -0.57349193 -0.36884898 -0.5605816
000150 2a 02 34 3e 23 be 20 bf 59 55 f6 be 20 d6 d7 3d
       0.1757895 -0.62790126 -0.4811199 0.10538888
000160 a9 25 28 bf cb d1 6b 3f 12 e8 1a 3f 1d 23 bb 3e
       -0.65682465 0.92116994 0.6051036 0.36550227
000170 89 9c 26 bd 57 b2 10 3f 6d f2 9c 3e b2 dd 2e 3e
       -0.040676627 0.56522125 0.30653706 0.17076758
000180 0f 7f 93 3e a1 f1 7e be b1 4c bf be 92 d5 60 3f
       0.28807876 -0.24896862 -0.37363198 0.8782588
000190 ea 5b 80 be a7 46 e2 be 26 fc 5f be 49 28 93 be
       -0.25070125 -0.44194528 -0.21873531 -0.28741673
0001a0 2e 9d 82 3e 8d 2d 4d bf f2 d1 0f 3e 56 18 96 be
       0.25510544 -0.8014763 0.14044932 -0.29315442
0001b0 a6 a9 97 be ac 54 54 3f f2 2f 36 3f 30 70 79 be
       -0.2962162 0.829417 0.7116691 -0.24359202
0001c0 29 c8 be be 5b 9b 26 bd 81 2f 8a be ec 65 48 be
       -0.37262085 -0.040675502 -0.26989368 -0.1957013
0001d0 53 db db be b7 81 f7 3b 50 b9 01 be cd b5 13 bf
       -0.4294077 0.007553305 -0.12668347 -0.5769928
0001e0 32 d8 1c bf dd 17 10 3f 32 bf e5 bd ab c1 34 3f
       -0.6126739 0.5628641 -0.11218108 0.70608014
0001f0 8c fa 3f 3f 07 b9 13 bf c8 70 0a 3f 73 f7 09 bf
       0.7499168 -0.57704204 0.5407834 -0.538932

gnn1_pool.conv1.lin_root.weight f4 [64, 2]
000000 f9 11 10 bf 99 f9 af 3e c1 6d 28 bf d9 77 e4 ba
       -0.56277424 0.34370115 -0.6579247 -0.0017430737
000010 1b 8b 70 3e 63 a7 25 be 2c 63 37 bd af 7d c8 3e
       0.23490565 -0.16177134 -0.044772312 0.3915839
000020 ef 9d 23 bf eb 8d 26 3e 3a 1d 39 3f 89 c9 10 3f
       -0.6391286 0.16265075 0.7231022 0.5655752
000030 31 aa 29 3f c5 8d 9a be 43 d0 e8 3e d4 8a 04 3f
       0.66275316 -0.30186287 0.4547139 0.51774335
000040 8d 22 c7 3e 09 30 1e 3f 60 20 d7 3e 46 c9 14 bf
       0.38893548 0.61792046 0.42016888 -0.5811962
000050 61 37 d2 bd 23 ba 00 be 3a ed 9d bd 8c e1 56 bd
       -0.10264469 -0.12571006 -0.07711263 -0.052461192
000060 e8 7f 85 be 1e 93 7e 3f 38 ea 57 be 24 b4 20 bf
       -0.26074147 0.99443233 -0.21085441 -0.6277487
000070 e7 7f c3 be b8 8a 9f 3e 6b b1 dd be b3 82 33 bf
       -0.3818352 0.31160522 -0.43299422 -0.70121306
000080 11 f3 50 3f 54 18 cc be da 6b a5 bc ca 29 bd be
       0.8162089 -0.3986231 -0.02019303 -0.36945945
000090 5a de 11 bf 77 f8 ba 3c ca 9c 25 bf 07 03 a9 bb
       -0.56979907 0.022823555 -0.64692366 -0.0051578316
0000a0 5a 97 17 bf ae c4 c7 3e 68 28 86 be fb ba c7 be
       -0.5921532 0.39017242 -0.26202703 -0.39009842
0000b0 f6 8b be 3e 06 d4 91 be 89 63 48 3e bc f5 0c 3f
       0.37216157 -0.28482074 0.1956922 0.5506246
0000c0 5d e2 d2 bd 9f 36 06 bf c2 c0 c0 be bd 95 14 3d
       -0.102970816 -0.52427095 -0.37647063 0.036275614
0000d0 60 3c 07 bf 34 81 5d be df 15 a4 3e 70 22 2a 3f
       -0.528265 -0.21631318 0.32047936 0.664588
0000e0 a8 ee ee 3e 06 f5 76 be 4b 27 43 3f 21 3b df be
       0.46666455 -0.24116907 0.7623183 -0.435998
0000f0 28 e4 82 3e 5e bf eb be 5a a9 69 3f f4 aa 0c bf
       0.25564694 -0.4604444 0.91274035 -0.54948354
000100 58 65 e2 be aa 44 94 be d6 df 88 bd 1b 35 f7 3e
       -0.44217944 -0.28958637 -0.06683318 0.48282704
000110 a7 4c 5e be e5 eb 29 3f 87 8b a4 be f2 e5 55 3e
       -0.21708928 0.6637557 -0.321377 0.20888498
000120 8c 82 58 3d 92 c1 2f 3f 63 45 1c bf 3f 78 05 bf
       0.052858874 0.6865474 -0.61043376 -0.52136606
000130 30 ac f5 be 23 43 ee 3e 96 16 a7 be ef 9d 7a 3e
       -0.4798293 0.46535596 -0.3263442 0.2447431
000140 20 f8 9c be f6 43 cc 39 16 82 e5 be 54 5e 10 3e
       -0.30658054 0.00038960547 -0.4482581 0.14098483
000150 40 db 82 bd 44 66 4b 3f 02 89 db be fd 2c 81 bd
       -0.06389475 0.7945292 -0.42877966 -0.06307409
000160 84 05 d4 3e 59 b1 c2 3e 7c 0d 8a bd d7 86 cc 3e
       0.41410458 0.3802593 -0.06740853 0.39946625
000170 1f 7d 94 be 17 0a e5 3e 71 05 6f 3f 6a fa be bd
       -0.2900171 0.4473426 0.9336768 -0.093251064
000180 c9 43 24 3f 2a 85 ec 3e e0 16 54 3e ed 9f 0b 3f
       0.6416593 0.46195346 0.20711851 0.545409
000190 a9 5f 0e bf c2 b9 d7 3e 68 81 45 be 4f 82 c1 bc
       -0.55614716 0.4213391 -0.19287646 -0.023621706
0001a0 2b 23 6e 3e 63 79 44 be 5a 50 28 3f 6a d3 6e 3e
       0.23255603 -0.1918693 0.65747607 0.23322836
0001b0 0c 51 08 3f 2f 76 2d 3f 4a 69 2f 3f a2 91 0a 3f
       0.5324867 0.6775846 0.68520033 0.5412847
0001c0 09 58 02 bf 8a 47 09 be b6 19 26 bf 02 42 0c bf
       -0.5091558 -0.13406196 -0.6488298 -0.5478822
0001d0 b1 5f 01 bf aa 5a b5 be 24 9c 77 3e 5d b6 ea be
       -0.5053664 -0.35420734 0.24180657 -0.45842257
0001e0 e7 df 63 bf 75 05 e2 be ab f1 1c bf c7 c9 02 bf
       -0.8901352 -0.44144788 -0.61306256 -0.5108914
0001f0 58 dd 86 bd ad 59 f0 3e f6 96 0d 3f 2a bb 29 bf
       -0.06585187 0.46943417 0.55308473 -0.66301215

gnn1_pool.conv1.lin_root.bias f4 [64]
000000 b4 4f 1e 3f 90 1d de bc 31 22 1a 3f 62 a7 d2 bd
       0.6184037 -0.027113706 0.6020842 -0.10285832
000010 76 70 48 be 77 cd 20 bd cb fe 09 3f 1f ed 0a bf
       -0.1957415 -0.039258447 0.5390441 -0.5426807
000020 ad 7d 08 bf 05 66 c2 be 23 60 69 3e e6 5a 26 bf
       -0.53316766 -0.3796846 0.2279058 -0.6498245
000030 45 1b f7 3e ee 6b c7 be 93 95 85 be d7 39 48 be
       0.48262993 -0.3894953 -0.2609068 -0.19553314
000040 7d 94 58 3e 62 42 b8 3d f8 c5 24 bd a4 48 1c 3d
       0.21150394 0.089970365 -0.04022786 0.038155213
000050 aa 9a 9e 3e f3 62 c3 3e bf 59 fe be 31 ec 2e bf
       0.30977374 0.3816143 -0.49677846 -0.6832915
000060 89 16 4c 3f 4b 32 19 3e 46 17 9c 3e 59 8b e5 3d
       0.79721886 0.14960591 0.30486506 0.11208219
000070 fb 65 18 bf a7 03 ab 3e 7d 32 dd bd 3f 2e 6a 3e
       -0.5953061 0.33401224 -0.108006455 0.22869204
000080 80 c2 51 3e 86 cc 16 bf e3 50 7d 3e 47 f3 5a be
       0.20484352 -0.5890583 0.24737887 -0.21381865
000090 56 c2 0c bf 28 45 14 bf ce 16 e2 3e 56 6e d0 be
       -0.54984033 -0.57918024 0.44158024 -0.4070918
0000a0 9a 43 a7 be 03 b4 81 3d 05 26 f0 bd d9 0f b0 3e
       -0.32668763 0.06333163 -0.11726002 0.3438709
0000b0 a8 56 e7 3d 9b 57 73 bd 8d ce 1c bf 8b 0a b8 3e
       0.11295825 -0.05940972 -0.6125267 0.35945544
0000c0 ff b7 57 be 54 d6 f7 be 03 2f f8 be dc f0 63 be
       -0.21066283 -0.48405707 -0.48473367 -0.2225985
0000d0 e7 e5 b0 be cb 74 07 3f 12 f4 0d 3e 62 85 fb 3e
       -0.34550402 0.52912587 0.13862637 0.491252
0000e0 ec 7a 07 3e 70 a4 84 be 0f da ba be c7 8f 15 3f
       0.13230485 -0.25906706 -0.3649449 0.5842251
0000f0 83 44 c0 3e cb d0 17 bf 35 0a 25 3f 2b fb 21 bf
       0.3755227 -0.5930297 0.644687 -0.63273877

gnn1_pool.bn1.weight f4 [64]
000000 2e 33 50 3f 1a 29 84 3f 33 dd 83 3f 60 3b 7a 3f
       0.81328094 1.0325043 1.030188 0.9774685
000010 00 00 80 3f 2e 15 27 3f ae c2 4d 3f 00 00 80 3f
       1.0 0.6526669 0.8037518 1.0
000020 05 71 87 3f 98 40 68 3f 00 00 80 3f 00 00 80 3f
       1.0581366 0.9072356 1.0 1.0
000030 22 ab 41 3f 78 1a 7d 3f 96 37 80 3f 00 00 80 3f
       0.7565175 0.98868513 1.0016963 1.0
000040 7c 82 5a 3f 26 88 c9 3f ec 04 85 3f 33 9c 7a 3f
       0.85355353 1.5744674 1.0392127 0.9789459
000050 85 d0 6b 3f 94 de 87 3f 5b 35 9c 3f 00 00 80 3f
       0.9211505 1.06148 1.2203783 1.0
000060 0d 2a 70 3f d1 21 66 3f 73 9f 76 3f 38 6e 83 3f
       0.93814164 0.8989535 0.9633705 1.0268011
000070 00 00 80 3f 91 67 40 3f e9 ee a0 3f 88 cc 4b 3f
       1.0 0.7515803 1.257291 0.79608965
000080 f9 b5 7d 3f 00 00 80 3f 3c 43 82 3f 26 32 4b 3f
       0.99105793 1.0 1.0176768 0.79373395
000090 35 33 89 3f 00 00 80 3f 38 d1 8e 3f f3 0e 78 3f
       1.0718752 1.0 1.1157598 0.9689781
0000a0 00 00 80 3f 00 00 80 3f bb 35 83 3f 0e c9 7f 3f
       1.0 1.0 1.0250772 0.9991616
0000b0 92 37 87 3f c1 75 22 3f db 8b 80 3f 6a 54 5f 3f
       1.0563834 0.6346093 1.004268 0.8723818
0000c0 88 c5 4d 3f 9d 43 6e 3f 00 00 80 3f 00 00 80 3f
       0.80379534 0.9307192 1.0 1.0
0000d0 ab 8f 99 3f 2e 43 45 3f 3e 0c 7d 3f b4 ca 5b 3f
       1.1996969 0.77055633 0.98846805 0.85856175
0000e0 97 87 83 3f 00 00 80 3f 00 00 80 3f 72 66 4d 3f
       1.0275754 1.0 1.0 0.80234444
0000f0 45 59 91 3f 00 00 80 3f ec ad 8c 3f 2b 9a 8c 3f
       1.1355368 1.0 1.0990577 1.0984548

gnn1_pool.bn1.bias f4 [64]
000000 dc 86 35 bd c3 56 09 3e 62 3f df 3d 43 11 2b be
       -0.044318065 0.13412003 0.10900761 -0.16705804
000010 47 4c 8a 3b 85 9b c1 3d d6 74 90 3d 5c 95 b7 bb
       0.0042205187 0.09453491 0.07053535 -0.005602522
000020 e4 8f 97 3d 8e c3 1b 3e 1b 2c cc bd e7 3d 0a 3a
       0.07400492 0.15211317 -0.0996935 0.00052735064
000030 f9 38 f5 bd 74 1c b2 3a 49 09 b1 3d 35 7b 86 3c
       -0.11973757 0.0013588802 0.08644349 0.016416172
000040 77 7d 1b 3d 07 7a 72 bd 62 d6 13 bc e4 5f ec bc
       0.03796145 -0.059198406 -0.009023281 -0.028854318
000050 86 44 40 bc cc 8a 27 3e 09 f8 17 3e d2 27 44 3e
       -0.011735087 0.1636154 0.14840712 0.19155815
000060 60 a0 1f 3d b4 78 df bd 9d d6 10 3e c7 62 52 bd
       0.038971305 -0.10911694 0.14144368 -0.051363733
000070 71 95 2e 3c 14 14 39 3e 68 e8 0e be 53 ca af 3d
       0.010655747 0.18074065 -0.13955843 0.08583512
000080 18 40 02 3e 83 f8 b7 bc 82 a7 a2 bc 98 80 cb 3d
       0.12719762 -0.022457367 -0.019855265 0.09936637
000090 b8 f1 8f 3e 9f e3 6e bc fc 50 29 3c 4b 09 12 3d
       0.28114104 -0.014580636 0.01033425 0.035653394
0000a0 8d d6 fa 3b 5f 95 6c 3c 6c ed 44 bd f8 55 90 3b
       0.007654971 0.01443991 -0.048077986 0.0044047795
0000b0 fc fd 95 bc 94 ff 19 be 35 27 f5 3d f9 f4 31 3e
       -0.018309586 -0.15038902 0.11970369 0.17378606
0000c0 05 1f 5d 3d 04 cc 03 be 23 a0 07 3e 40 3d 3b bb
       0.05398466 -0.12870795 0.13244681 -0.0028570443
0000d0 93 ba 01 3e 33 15 fe 3d 36 8d c2 bb 4f 19 c8 3c
       0.12668829 0.12406387 -0.005937244 0.02442613
0000e0 87 48 d4 3d 4c 35 73 be 7f 0e 9a 3b b0 29 0c 3e
       0.10365396 -0.237508 0.004701435 0.13687778
0000f0 d7 ad 16 3d a4 bb 05 3b ca 27 00 bd 20 88 54 3e
       0.03678688 0.0020406032 -0.031287946 0.20755053

gnn1_pool.bn1.running_mean f4 [64]
000000 d6 89 f9 3e e1 be 12 3e 36 5f 2b 3f f8 e4 12 3d
       0.48737973 0.14330627 0.66942155 0.035862893
000010 00 00 00 00 be 9e 24 3e 40 30 df 3e 00 00 00 00
       0.0 0.1607618 0.435915 0.0
000020 e2 60 ee 3e b9 66 af 3d 00 00 00 00 00 00 00 00
       0.4655829 0.08564515 0.0 0.0
000030 ac c0 3e 3f 04 00 00 00 50 1e f0 3c 00 00 00 00
       0.74512744 6e-45 0.02931133 0.0
000040 db 5c cd 3e ae 42 47 3c 04 00 00 00 68 14 84 3e
       0.40109906 0.012161894 6e-45 0.2579682
000050 63 bb 33 3f b1 31 38 3b 6b 48 a4 3b 00 00 00 00
       0.70207804 0.002810579 0.0050135157 0.0
000060 f8 ca 04 3f 39 1c 3d 3e f7 32 e9 3d 93 07 d7 3e
       0.51872206 0.18467797 0.11386674 0.41997966
000070 00 00 00 00 e8 9b 15 3f 8a 17 a4 3d 8a 59 21 3f
       0.0 0.5844102 0.08012302 0.6302725
000080 8b 8e 85 3d 00 00 00 00 9d 34 41 3f 3a 4e 6e 3c
       0.065213285 0.0 0.75470906 0.014545018
000090 0a 5c 83 3c 00 00 00 00 b9 71 fc 3e 73 65 60 3e
       0.016035099 0.0 0.49305514 0.219137
0000a0 00 00 00 00 00 00 00 00 3a 2a 09 3e d6 76 23 3e
       0.0 0.0 0.13395014 0.15963301
0000b0 2e 63 81 3f 42 9e 16 3f e2 12 27 3e d9 61 5f 3f
       1.0108392 0.5883523 0.16315797 0.8725868
0000c0 ac 7b 5b 3e 46 1b 01 3f 00 00 00 00 00 00 00 00
       0.21433896 0.5043224 0.0 0.0
0000d0 0d 28 95 3a 37 43 3f 3f bf 2e a5 3f 59 9e 8c 3f
       0.0011379734 0.74711937 1.2904891 1.0985824
0000e0 04 00 00 00 00 00 00 00 00 00 00 00 08 f1 1f 3e
       6e-45 0.0 0.0 0.1561929
0000f0 b5 20 2a 3e 00 00 00 00 63 2a 2e 3f 95 ea 57 3c
       0.16614039 0.0 0.68033427 0.013178487

gnn1_pool.bn1.running_var f4 [64]
000000 c3 d2 1f 3e 55 7e ee 3c cf 29 47 3d 96 1f ea 3b
       0.15607743 0.029112974 0.048623856 0.0071448786
000010 04 00 00 00 38 58 86 3c e9 a5 64 3e 04 00 00 00
       6e-45 0.016399488 0.22328915 6e-45
000020 5a ba ba 3d 9e 3e b4 3c 04 00 00 00 04 00 00 00
       0.09117575 0.022002514 6e-45 6e-45
000030 5f 58 b4 3e 04 00 00 00 b6 9e bf 3b 04 00 00 00
       0.35223672 6e-45 0.0058477772 6e-45
000040 c1 32 81 3e d9 db cc 3a 04 00 00 00 01 28 73 3d
       0.25234035 0.0015629485 6e-45 0.059364323
000050 79 63 71 3e 72 f4 f8 39 d4 e2 bf 3a 04 00 00 00
       0.23573102 0.00047484372 0.0014639744 6e-45
000060 6b 89 ea 3d 18 53 f6 3c 4c 08 96 3c 1f 2d e6 3c
       0.11451992 0.030068919 0.018314503 0.028097687
000070 04 00 00 00 d2 91 bc 3e ea eb d5 3c 57 83 01 3f
       6e-45 0.36830002 0.02611347 0.50591034
000080 f9 fc 03 3c 04 00 00 00 04 d8 56 3e ff f8 37 3b
       0.008055919 6e-45 0.20980841 0.0028071997
000090 b5 37 4c 3b 04 00 00 00 12 e5 11 3e 9d 81 07 3d
       0.0031161134 6e-45 0.1424754 0.033082593
0000a0 04 00 00 00 04 00 00 00 21 7e de 3c 23 02 be 3c
       6e-45 6e-45 0.027159752 0.023194378
0000b0 ad ef 00 3e ac b2 42 3d 97 ce cf 3c 6d ac 84 3e
       0.12591429 0.047533676 0.025367064 0.259128
0000c0 13 bb eb 3c ed ec d4 3d 04 00 00 00 04 00 00 00
       0.028775727 0.103967525 6e-45 6e-45
0000d0 18 15 2d 39 ed 64 82 3d 01 35 a8 3d a8 c3 7c 3d
       0.00016506424 0.06366906 0.08213235 0.06171003
0000e0 04 00 00 00 04 00 00 00 04 00 00 00 30 b9 30 3d
       6e-45 6e-45 6e-45 0.04314536
0000f0 5d 53 1b 3d 04 00 00 00 09 0b ec 3d 00 21 46 3b
       0.0379213 6e-45 0.11525542 0.0030232072

gnn1_pool.conv2.lin_rel.weight f4 [64, 64]
000000 0d 4b 2e be aa 92 55 bd 97 e4 6d bd 90 45 ad 3d
       -0.17020817 -0.052141823 -0.05807933 0.084605336
000010 8a f0 ad bd 66 43 17 3f a2 06 88 3e dc 5b a7 bd
       -0.08493145 0.59087217 0.2656756 -0.08171818
000020 7c bc 4c be bc ad 61 be f0 ab 14 bd 39 5c 0d 3e
       -0.19993776 -0.2203893 -0.036296785 0.13804711
000030 bf ce 70 be 5e 2e d6 3c e0 12 01 be 07 9d 3f be
       -0.23516367 0.026145156 -0.12604856 -0.18712245
000040 86 43 da 3e f5 c8 85 3d e6 36 2f bd ab dc 0b be
       0.4262964 0.0653247 -0.042776965 -0.13658397
000050 c8 cd c3 be 6e 4b cd 3e f9 80 25 3f ad da 0d bd
       -0.38242936 0.4009661 0.6464992 -0.034632374
000060 de aa 27 3f f7 60 ea bc a0 e1 b4 3c 06 a1 6b 3d
       0.654951 -0.02861069 0.022080243 0.05752661
000070 59 50 f2 3c e1 e3 cb 3e c8 50 2f be 07 18 a4 3e
       0.029579328 0.39822295 -0.1712066 0.3204958
000080 05 e7 ec 3e 19 6c af 3d 9f df 0e bf 56 14 d5 3a
       0.46270004 0.0856554 -0.5580997 0.0016256671
000090 49 45 a0 bc dd 8c 60 bc 54 60 9a 3c 9e a6 4b be
       -0.019564288 -0.013705459 0.018844761 -0.19887778
0000a0 62 bb 90 bd 28 d8 9b bd 0d 05 2a be d5 a5 94 bd
       -0.070669904 -0.07609588 -0.16603489 -0.072581924
0000b0 8a 10 8c be f1 39 7e be 04 29 71 bd 14 ba 99 3e
       -0.27356368 -0.2482679 -0.058877006 0.3002478
0000c0 f6 ee 1a 3f 01 1d 84 be f1 3d e7 3d 29 17 03 3d
       0.60520875 -0.25803378 0.11291111 0.03200451
0000d0 83 c8 f8 3d f2 4c 04 3f c1 1d f8 be da 3d 8b 3e
       0.121476196 0.5167991 -0.484602 0.27195626
0000e0 69 c2 bf bd 15 09 43 3b f4 2a 23 3d db e1 39 3f
       -0.09363253 0.0029760052 0.039835885 0.72610253
0000f0 2e df 8b 3d 22 05 8e 3d b4 e3 4e 3e 16 e3 2a 3f
       0.068296775 0.06934573 0.2020405 0.66752756
000100 ef be 0e 3e 19 5f 50 bd 88 49 b1 be f5 e4 35 3e
       0.13940023 -0.050871942 -0.34626412 0.17763121
000110 d3 ec ce bd 1e 4c 4f ba 13 e2 38 be 56 ce 94 3d
       -0.101037644 -0.00079077657 -0.1805499 0.07265918
000120 a6 ff 5f 3b ac 6d 59 be 53 1d 84 3d db e9 ee 3c
       0.0034179478 -0.21233243 0.06450906 0.029164245
000130 67 a0 34 3e 9b 6a 40 3c b8 f2 10 3e 04 c7 f2 bc
       0.17639314 0.011744167 0.1415509 -0.029635914
000140 52 b4 b5 bd 18 da fc bd 1e ec 7a bd 2e 8b 3e be
       -0.08872284 -0.123462856 -0.061260335 -0.1860778
000150 93 92 10 3e 1c 54 46 3e b1 a8 cb 3e 8a 36 f1 bd
       0.14118414 0.19368023 0.3977714 -0.117779806
000160 c5 e3 01 3e e4 19 29 3d 9e 94 3e be e2 01 a3 3e
       0.12684543 0.041284457 -0.1861138 0.31837374
000170 c9 1c dd bd ed 6c df bd a0 91 8d be 83 5d 3e bd
       -0.10796506 -0.10909448 -0.27650166 -0.0464759
000180 ac d0 16 bd c5 49 82 3d d9 78 06 3e 30 05 06 3e
       -0.0368201 0.06361727 0.13132037 0.13087916
000190 81 4d 8d 3e 79 58 2a bd 34 29 d1 3e 3e 94 ac 3e
       0.27598193 -0.04158828 0.40851748 0.3370685
0001a0 e9 df a3 bd 6f ba 92 3d 61 18 0d 3e 60 f2 4a be
       -0.08001692 0.07164466 0.13778831 -0.19819021
0001b0 16 99 7a bd 4b 10 08 3e c3 52 e4 bd 8a 15 01 be
       -0.06118115 0.13287465 -0.11148598 -0.12605873
0001c0 eb ac 1d 3e 56 ec 27 be 82 08 ec 3c a3 a0 c3 3d
       0.15397994 -0.16398749 0.02881265 0.095521234
0001d0 e7 7d 9b bd c8 ad da 3d fe 2b bf bd 3d 07 39 3e
       -0.07592373 0.106776774 -0.09334563 0.18069167
0001e0 3f aa 0d bd c2 95 e8 3c 64 ed fd bd e0 9b 01 3d
       -0.034586187 0.028391723 -0.12398794 0.031642795
0001f0 13 84 d7 bd 8e e6 55 3d ec 28 88 3e be cb 93 3e
       -0.10523238 0.052221827 0.2659372 0.2886638
000200 fa 35 33 bd 8a 6b 2f 3c 8f 60 bf be db a0 74 3c
       -0.043752648 0.010706792 -0.37378356 0.014930929
000210 5a e8 2d be f5 d7 d7 3d bd 13 1b be 1a 17 ae 3d
       -0.16983166 0.105392374 -0.15144248 0.085005
000220 94 4a 99 bd 95 54 f5 be d9 4c 59 3d d8 f0 ce 3d
       -0.07484928 -0.47916093 0.053051803 0.10104531
000230 52 1c 19 3e 6a 92 d9 3c 93 77 b2 3b 68 7b 9d 3d
       0.1495221 0.026559073 0.0054463833 0.076895535
000240 8c 3b 6c bb 43 ba 0b 3d c7 15 19 be 7b 2f ba 3d
       -0.0036046235 0.03411318 -0.14949714 0.090910874
000250 c4 62 87 3d 09 78 2a 3e f0 70 f4 3d ad 81 03 be
       0.06610635 0.16647352 0.119356036 -0.12842436
000260 ad 60 3f 3e be 42 be bd e5 68 ba bd 9d 28 b0 3e
       0.18689223 -0.09290074 -0.09102038 0.34405985
000270 c5 4d 68 bd e1 e4 f1 bd 0f 68 07 bf 56 e9 48 bd
       -0.05671479 -0.11811233 -0.52893156 -0.04905065
000280 17 26 a0 bd d6 7a 9d 3d a8 af 89 3b 0c f7 5e bd
       -0.07819765 0.07689445 0.004201848 -0.05443482
000290 b6 bc 79 bd e2 17 0d be 9f 96 d2 3e 87 2a 92 3d
       -0.060970984 -0.13778642 0.4113054 0.07137018
0002a0 ab 4d c4 bb 97 19 92 3d 4b 0c 4b bd ab 47 12 be
       -0.005990704 0.07133787 -0.04957227 -0.14285152
0002b0 8e 90 29 be a6 de 8c 3e 1b ab 3d be ac 69 5e 3d
       -0.1655905 0.27513617 -0.18522303 0.054299995
0002c0 9f f4 07 3e aa 1b 0c be 99 b4 0f be 08 75 60 bc
       0.1327691 -0.13682428 -0.14033736 -0.013699777
0002d0 2b c6 cc be b2 b1 06 3e 66 df 10 be 9c ad 5f 3e
       -0.3999494 0.13153723 -0.1414772 0.2184357
0002e0 65 9d 8a be f3 73 d8 3d cf 01 96 3d 52 f1 e4 ba
       -0.27073207 0.105689906 0.07324564 -0.0017466939
0002f0 38 02 6d bd 4f 76 16 bc 5b 15 69 3e 03 bf 27 3e
       -0.057863444 -0.00918348 0.22762053 0.16381459
000300 75 34 a0 3d 2b cb 4d bc 4b 4a ee bd 5d f3 2f 3e
       0.078225054 -0.012560646 -0.11635264 0.1718268
000310 0e 13 09 3d c8 c8 43 3e 61 ed 30 be ce c0 ab bc
       0.033465438 0.1911956 -0.17278053 -0.02096596
000320 dc a7 cc bd 62 03 c6 be a3 f3 83 bd 7a 55 93 bd
       -0.09992954 -0.38674456 -0.064429544 -0.07194038
000330 2b 0b 24 3e 37 c6 c3 3c 53 04 9b 3d 84 7f 4f 3d
       0.16019885 0.023898227 0.07569184 0.050658718
000340 ee 26 2c be 1e 11 a0 be d0 f0 cf 3d 86 21 4b 3d
       -0.16811725 -0.3126306 0.10153353 0.049592517
000350 45 c6 4b 3e 80 ca a9 3e 60 4f 35 3e c4 49 9b 3d
       0.19899853 0.33162308 0.1770606 0.07582429
000360 9c 7d 42 3c 1b 2f 0b be 2d e7 9a 3d cf 67 94 3e
       0.011870768 -0.13592188 0.075636245 0.2898545
000370 7d b2 05 bd 16 3c 2d bd c9 46 54 be 5e ac 04 be
       -0.032640923 -0.04229363 -0.20730127 -0.12956378
000380 0a 4d 8f 3d 04 ee 18 3e 37 3e 1a 3e 4e cf f4 3d
       0.06997116 0.14934546 0.15062796 0.11953603
000390 8c aa 03 3e a2 56 dc bd 26 8f c2 3e a2 2e 9f 3d
       0.12858027 -0.107587114 0.3799984 0.077725664
0003a0 e8 96 7f bc ff f0 aa bd 07 42 71 3e 83 6a f7 bc
       -0.015599944 -0.083467476 0.23560344 -0.030202156
0003b0 75 c5 7d be 37 2c 9b 3e 59 6a 09 3d a2 51 6d be
       -0.24782355 0.3030717 0.033548687 -0.23175672
0003c0 9d 51 73 3d 0d 94 57 bd 80 5c a6 3d fc 29 8b bc
       0.059404004 -0.052631427 0.08123112 -0.016987793
0003d0 62 26 94 3d 40 de c9 bd 5b bd c1 bd 2b 8c fc 3d
       0.072338834 -0.09856844 -0.09459945 0.123314224
0003e0 38 90 0e bd 07 36 00 3c 54 b8 f1 3d a3 4b 80 bd
       -0.034805506 0.007825381 0.11802736 -0.062644266
0003f0 00 4a 8d bd 29 a2 81 3d 3b bc 6e 3e c0 ed d5 3d
       -0.0689888 0.06329758 0.23313992 0.10445738

gnn1_pool.conv2.lin_root.weight f4 [64, 64]
000000 5f d3 8b bd 35 a9 22 3d 5b 12 01 be 4c 41 d9 bc
       -0.06827425 0.03971215 -0.12604658 -0.026520394
000010 e5 2c cf bd f5 ca 5f bd 5c e4 18 3e 25 95 99 3d
       -0.10115985 -0.054636914 0.14930862 0.0749915
000020 3f 20 a5 bd f9 61 1d 3c ee 03 bb 3d f3 6b ca 3d
       -0.08062791 0.009605878 0.09131609 0.09883871
000030 e2 5c 94 3d 90 05 a7 bd 8c ee a4 3d 87 40 99 bc
       0.072442785 -0.08155358 0.08053312 -0.018707527
000040 e4 3b 75 3b a7 46 27 be db 8f 9c 3d 4f e4 2b bd
       0.003741973 -0.16335545 0.07644626 -0.04196578
000050 15 0f b3 3d 23 25 2b bd 89 b0 04 3e bf 4e ab 3d
       0.08743111 -0.041783463 0.12957968 0.08364629
000060 82 a8 92 3c 69 09 0d be ea 98 a9 bd de de 0b 3b
       0.017902616 -0.13773121 -0.08281119 0.0021342556
000070 e6 5a f1 3c 1f 6f d4 3d 19 f9 51 3d 0e 9d 0f bc
       0.029462289 0.10372757 0.05126295 -0.008765472
000080 19 ed 57 be 56 fd 3e bd 30 c4 fb bd a1 57 1f be
       -0.2108654 -0.04662832 -0.12293279 -0.15560772
000090 91 6e 32 be 7f 85 56 3d 31 15 44 bd d2 a3 6c 3d
       -0.1742499 0.052373406 -0.047871772 0.05777342
0000a0 a2 82 f3 bd 20 a0 e4 bd ce 56 ed 3c f7 19 05 be
       -0.118901506 -0.11163354 0.028972056 -0.12998186
0000b0 1d 03 6c be dd 4d be bc aa 51 d7 bd e2 51 6d 3c
       -0.23048063 -0.023230487 -0.10513623 0.014484854
0000c0 8c 7b cc bb 60 44 19 be 5c 88 0f 3d d3 f8 ef 3c
       -0.006240314 -0.14967489 0.03504215 0.029293453
0000d0 60 19 34 3d ab a8 0e 3e 9e 6e a0 bd 38 b5 fd 3d
       0.043969512 0.13931529 -0.078335986 0.1238808
0000e0 54 59 1c 3d 9a 32 be bd d0 e5 81 3d 83 d3 9e 3d
       0.038171127 -0.09286995 0.063426614 0.077551864
0000f0 2e d3 04 be 07 c0 04 3c ca 9d 01 3e e7 73 4e 3b
       -0.12971184 0.0081024235 0.12657848 0.0031502189
000100 4c 5d 66 3e a3 4b a4 3e 87 3a 6e 3c ba e8 ed 3b
       0.22496527 0.32088956 0.014540321 0.007260409
000110 2e 4c 09 bd d2 04 78 bd 16 4c 7c be f6 3a bd 3d
       -0.033519916 -0.060551472 -0.246384 0.092397615
000120 e1 dc 16 3e c9 8d 03 bd 2b 4f f6 3c aa cf f6 3c
       0.14732696 -0.03211764 0.030067047 0.030128319
000130 1d f7 59 3e 34 44 c5 3d 4c 80 c7 3c 5b 6d 89 bc
       0.21285672 0.09632149 0.024353169 -0.016775778
000140 66 05 63 be b5 fb 64 bc 27 17 3d 3d 32 fc bd 3e
       -0.22170028 -0.013976027 0.046164658 0.37106472
000150 d6 84 24 3e 7b dd e0 bc 7d 8e 96 3e bd 5e 60 3d
       0.16066298 -0.02744936 0.29405585 0.05477785
000160 04 62 61 be cc 29 82 3e 54 b6 59 bc 52 bf 71 3d
       -0.22010046 0.25422513 -0.013288099 0.059020348
000170 ed 50 a6 bd ff 9f c9 bc 4a b7 33 3d 50 ad 09 be
       -0.08120904 -0.024612425 0.04387597 -0.1344502
000180 ef 77 2c 3e 0d 48 6f bd 56 48 04 3e 2d e8 13 bd
       0.16842626 -0.058418322 0.12918219 -0.036110092
000190 01 62 5f 3e c5 d7 09 3d 71 18 fc 3d e9 74 2a bd
       0.2181473 0.03365304 0.12309349 -0.0416154
0001a0 5e d4 c7 bd 03 20 c2 3d 9f d6 47 3c be fa 1e 3e
       -0.09757303 0.09478762 0.012197166 0.15525338
0001b0 3b 12 44 3d b8 95 8e 3d 04 b7 09 3e 10 52 86 be
       0.04786895 0.0696215 0.13448721 -0.26234484
0001c0 e6 4a 88 be ce cf b0 3e 14 bd 0a 3d e0 90 21 ba
       -0.26619643 0.34533542 0.033871725 -0.00061632507
0001d0 5a fa 49 3e ed fb c6 bd 88 a2 1e 3e 5b 37 7e be
       0.19724408 -0.0971602 0.15491688 -0.24825804
0001e0 3e 00 23 3d fd 50 83 bd b2 c9 6d 3d 96 de d8 bd
       0.039795153 -0.06411932 0.05805368 -0.1058933
0001f0 89 61 a9 3e aa 0c 84 bd 7f cc 81 bd cd db f4 3d
       0.33082226 -0.06447728 -0.06337833 0.11955986
000200 bb 20 d8 3d 03 99 59 3c 34 61 16 3e c2 42 18 3e
       0.10553118 0.01328111 0.14685518 0.14869216
000210 45 b8 59 bd ca 76 43 be 9f 90 b2 bd be 25 0e bd
       -0.05315425 -0.19088283 -0.087189905 -0.034703963
000220 45 19 45 3e 00 c1 19 3e c1 a4 2e 3e 1c 6c 86 bb
       0.19247921 0.1501503 0.17055036 -0.004102243
000230 3e 87 2c 3d 76 02 30 3d 8f 76 eb 3d 95 a3 8a 3d
       0.042121165 0.042971097 0.11497223 0.06769482
000240 b7 13 dc bb 52 10 17 3f 4f 2a 70 be f9 17 19 3d
       -0.0067162174 0.5900928 -0.2345364 0.037376378
000250 63 e9 89 bd da 0c 49 be a4 12 44 bb 37 14 9b bc
       -0.06733968 -0.19633809 -0.0029918337 -0.018930538
000260 1a f6 19 be 9a b0 c7 3d b9 e0 68 bd 9d 1b fa bc
       -0.15035287 0.09750481 -0.056854937 -0.030530745
000270 46 12 f7 bd bf 71 97 bd b0 a2 80 3e db 35 03 bc
       -0.12064032 -0.07394742 0.2512412 -0.008008446
000280 8c 09 77 3e de d6 1e 3e f5 eb 62 3d 6f ab 27 be
       0.24124736 0.15511653 0.055400807 -0.1637399
000290 18 c0 45 be 08 8b 09 be 7e ee 63 3d 7a 49 a0 3d
       -0.19311559 -0.13431942 0.055647366 0.078265145
0002a0 a1 94 bb 3d bf aa 41 3e dd 42 a3 3c aa ad da bd
       0.09159208 0.1891279 0.019929344 -0.10677655
0002b0 e3 14 9a 3d 83 51 f6 3d 1e a3 27 be 88 78 6b 3d
       0.07523515 0.12027266 -0.16370818 0.057487994
0002c0 b4 f5 ac bd 7c c4 c8 3c 41 eb 62 be dc f6 3d bd
       -0.08445302 0.024507754 -0.22160055 -0.046378
0002d0 e4 66 a9 3d 2f 42 31 3d 0f 09 67 3d 15 ea ee bd
       0.08271578 0.04327601 0.056405123 -0.11665741
0002e0 05 85 fb bd 72 78 67 3e 96 49 4a 3d 14 78 59 be
       -0.12281231 0.2260454 0.049386583 -0.21237212
0002f0 dd 93 f2 3d 73 31 04 3e ed f3 6a 3d f1 c0 a9 bd
       0.11844609 0.12909488 0.057361532 -0.08288754
000300 e2 f5 84 3e 36 6c b1 3e 90 fb b6 bb 81 e2 13 3d
       0.25968844 0.3465287 -0.005584188 0.036104683
000310 90 8d 4f be a1 50 6e be d9 39 1a bd 05 70 46 bc
       -0.20268846 -0.23272945 -0.037652824 -0.0121116685
000320 19 9c 98 3e b7 43 b5 bd 91 92 84 3c c2 f1 51 bc
       0.29806593 -0.08850806 0.01618317 -0.012813987
000330 19 76 b4 bc 4e ca c0 bd 59 11 7c 3b 24 70 fc bb
       -0.02202897 -0.094135866 0.0038462488 -0.007703798
000340 c5 73 ca bd dc 25 0b bd 48 18 d4 3c 34 78 e1 3e
       -0.098853625 -0.033971652 0.025890484 0.4403702
000350 34 05 06 3d 20 ce 18 bd b3 a6 9f 3e bc 6b a7 3c
       0.032719806 -0.03730595 0.3118187 0.020437114
000360 cc 14 9e be 1a 0e bf 3e cd 48 a9 3d 3a f1 7c 3d
       -0.30875242 0.37315446 0.08265839 0.06175349
000370 33 47 5e bc 63 33 0f 3d 94 c4 fd bc 4a d1 24 be
       -0.01356678 0.034961116 -0.030977525 -0.16095462
000380 d5 36 0f 3e 00 88 61 3d 07 27 2e 3e 35 5f 87 3d
       0.1398576 0.05506134 0.17007075 0.06609956
000390 1a 64 80 bd 5c c3 a3 3b 17 bd 93 3d 30 1b 63 bb
       -0.06269093 0.004997654 0.072138004 -0.0034653656
0003a0 2a 13 26 bd ed b7 04 be dd a1 1c 3c 36 9c 83 3e
       -0.04054562 -0.12960787 0.009560076 0.25705117
0003b0 4b ba e7 3d 64 1c 94 bd 57 38 09 3e 11 a1 4e be
       0.113148294 -0.072319776 0.13400398 -0.2017863
0003c0 78 2c 1d be 11 0b 2e 3e ff df d9 3d 11 bf dc 3d
       -0.15348995 0.16996409 0.10638427 0.107786305
0003d0 6d 0a cf 3d bf 6d c9 bd 29 a6 53 3e c8 7a d6 bd
       0.101094104 -0.098353855 0.20668854 -0.104726374
0003e0 d0 ba 02 be 83 6c 6f bd 22 57 ee 3d 92 8e 39 bd
       -0.12766576 -0.058453094 0.11637713 -0.04530198
0003f0 cc da 9b 3e 8e b9 08 be ba 6b 62 3c 29 17 9c 3e
       0.30440366 -0.13352033 0.013819629 0.3048642

gnn1_pool.conv2.lin_root.bias f4 [64]
000000 93 c4 08 bc d8 9e 2c bb 5b bd d6 bd 75 67 c2 bd
       -0.008347648 -0.0026339795 -0.104853354 -0.09492389
000010 e3 74 96 be 74 76 48 3d 91 95 a8 bc 75 f1 a2 bd
       -0.29386052 0.04894109 -0.020579131 -0.079562105
000020 f2 c0 2d be 63 ea cb 3c ad b0 17 be ce 06 f8 bd
       -0.16968134 0.024892038 -0.1481349 -0.12110673
000030 49 64 17 3e 93 40 9a bd 07 bd b3 bd cd a1 aa 3c
       0.1478435 -0.07531848 -0.087762885 0.020829106
000040 be 6a c9 bd 35 a3 17 be 46 45 92 bd bd 36 3d be
       -0.098348126 -0.14808352 -0.07142119 -0.18477912
000050 ee 3d 4b be 34 46 c6 3d 06 e1 0b bf fb 01 a7 bd
       -0.19847843 0.09681359 -0.54640234 -0.081546746
000060 60 b4 03 3e 61 49 2d 3e 69 5f a0 be 82 13 8c 3c
       0.12861776 0.16922523 -0.31322792 0.017099146
000070 68 e4 05 3e 6d d7 62 3e c3 42 e2 3b 18 00 c5 3d
       0.13075411 0.22152491 0.0069049313 0.096191585
000080 bd ce 5e 3e e3 e0 16 be d2 7f 87 bd 8b 11 bc 3d
       0.21758552 -0.14734225 -0.06616177 0.091830336
000090 e4 d1 9c 3d 9e d1 4e 3d 07 b9 47 be 91 2a b8 3d
       0.07657221 0.050492875 -0.19504176 0.08992494
0000a0 59 73 2a 3e 7e c4 ef be 7e 66 67 be ec b7 79 bd
       0.16645564 -0.468296 -0.22597691 -0.060966417
0000b0 a1 f8 00 be 8c b7 9d be ce 28 d2 be ff 47 83 be
       -0.12594844 -0.30804098 -0.41046757 -0.25640866
0000c0 19 95 81 3e fd ec e5 bc c8 66 05 3e e8 3e 3c be
       0.25309065 -0.028067106 0.13027489 -0.18383372
0000d0 c2 b7 2d be f7 49 02 be 4c e1 15 bf 4d 76 43 be
       -0.1696463 -0.12723528 -0.585469 -0.19088097
0000e0 07 46 9b be ea 9f cf ba b2 f5 09 3d d1 22 b3 3d
       -0.30326864 -0.0015840505 0.03368158 0.08746875
0000f0 49 47 34 bc 60 00 c6 be 9d 91 4a 3c 23 9e 20 be
       -0.011003324 -0.3867216 0.0123638185 -0.15685324

gnn1_pool.bn2.weight f4 [64]
000000 e3 2c 5a 3f 7d c9 85 3f ed c0 53 3f f0 7e 5f 3f
       0.8522474 1.0452114 0.82716256 0.87303066
000010 21 1e 84 3f c5 9c 61 3f 5b f6 2e 3f 4f 42 7e 3f
       1.0321695 0.88129836 0.6834466 0.9931993
000020 ed 73 3c 3f b3 91 42 3f 64 83 2c 3f 31 9d 11 3f
       0.7361439 0.7600357 0.67387986 0.5688048
000030 e5 dc 5a 3f a4 ce 59 3f c4 5b 27 3f 32 58 51 3f
       0.8549331 0.85080934 0.653744 0.817752
000040 e4 97 7e 3f 04 b3 76 3f b8 ad 7a 3f 9e 25 29 3f
       0.99450517 0.96366906 0.97921324 0.66073024
000050 59 48 6e 3f ac 27 67 3f 49 58 a3 3f 64 43 32 3f
       0.93079144 0.9029491 1.2761317 0.6963408
000060 84 74 2e 3f d6 ff 41 3f c6 5f 67 3f a7 59 7b 3f
       0.6814654 0.75781 0.90380514 0.98183674
000070 d5 d7 6f 3f 13 90 83 3f 59 ab 6f 3f e5 42 82 3f
       0.9368871 1.0278343 0.9362083 1.0176665
000080 e7 cd 71 3f 85 98 6c 3f ad f1 36 3f ae 76 4c 3f
       0.9445481 0.92420226 0.7146252 0.7986859
000090 bc e0 4f 3f e5 08 75 3f 3b 87 5b 3f c2 d8 53 3f
       0.8120229 0.95716697 0.8575322 0.8275262
0000a0 e4 64 71 3f 65 a0 85 3f ff 69 68 3f 63 c7 38 3f
       0.9429457 1.0439574 0.9078674 0.7217924
0000b0 b5 8b 91 3f 87 a3 51 3f a3 b8 a1 3f a4 ac 76 3f
       1.137076 0.8189015 1.2634472 0.9635718
0000c0 d7 b9 59 3f 02 e6 89 3f 8b 05 50 3f bc e8 50 3f
       0.85049194 1.0773318 0.8125846 0.81605124
0000d0 ae 67 58 3f c4 ba 05 3f 06 71 5d 3f 91 45 4b 3f
       0.845332 0.52238107 0.86500585 0.79403025
0000e0 03 96 7f 3f 88 59 70 3f 59 ab 4d 3f ab 90 46 3f
       0.99838275 0.93886614 0.8033958 0.77564496
0000f0 e1 6f 75 3f 5d 26 67 3f d3 b3 74 3f c7 f3 56 3f
       0.9587384 0.9029291 0.9558689 0.83965725

gnn1_pool.bn2.bias f4 [64]
000000 8e 5b 69 3e 4b e1 a8 3d a8 d5 43 3d 62 cd d8 3d
       0.22788832 0.08246096 0.04781118 0.10586049
000010 e9 33 1a 3d 7c 7e 3f bd 71 bc 79 3e ae 38 76 3d
       0.03764716 -0.046751484 0.24388291 0.060112648
000020 06 2c 7b 3e aa 0e b7 3b 53 51 b7 3d de ac 6e bd
       0.24528512 0.005586465 0.08951058 -0.058270328
000030 f5 e3 85 bd c3 53 89 3e d2 94 dc 3d 97 19 ea 3d
       -0.0653762 0.26821718 0.10770573 0.11430662
000040 bb 65 c4 3c f6 6b cf 3d ee 7a a8 3d ba 00 8b 3e
       0.02397429 0.10128014 0.08226572 0.27148992
000050 96 88 a1 3e 13 ab 55 3c 40 f4 df bd bc 97 ab 3e
       0.3154952 0.013041276 -0.10935259 0.33514202
000060 18 f1 91 3e 7e dc c0 3e 59 27 e1 3b 31 0c bc 3d
       0.28504252 0.37668222 0.0068711457 0.09182013
000070 cf 00 ea 3d c8 6e 82 bd 8e cd d3 3c 03 21 2e 3e
       0.114259355 -0.06368786 0.025854852 0.1700478
000080 79 90 1a 3c 90 15 fa 3d bb f9 8e 3d 36 51 13 3f
       0.009433859 0.12211144 0.06981226 0.57545793
000090 8b 46 aa 3e bc 7c d9 3d a8 88 89 3e 2d d2 56 3e
       0.33256945 0.10619494 0.26862073 0.20978613
0000a0 d0 a7 26 3d e4 12 c4 3e 02 35 43 3e 1a 81 d6 3d
       0.040687382 0.38295662 0.1906319 0.10473843
0000b0 46 1f 42 3d 81 1d f7 3d 6a 32 8a ba 57 12 60 3d
       0.047393106 0.12066174 -0.0010543589 0.05470499
0000c0 aa 3d 66 be 04 50 0a be aa 2c 90 3e 2d c2 88 3e
       -0.2248446 -0.13507086 0.28159076 0.26710644
0000d0 32 e3 67 3e dd 07 c9 3d 23 97 86 3d 6d 68 9f 3d
       0.22645262 0.09815953 0.06571796 0.077835895
0000e0 44 91 e1 3c 5c 40 a2 3e 48 82 18 3e 65 e8 84 3e
       0.027535088 0.31689727 0.14893448 0.25958553
0000f0 68 d7 73 bd 00 00 8d 3e 9b 2b d4 3c a7 de a1 3e
       -0.0595316 0.27539062 0.025899699 0.31615183

gnn1_pool.bn2.running_mean f4 [64]
000000 c9 31 0e 40 a5 b3 0a 40 b0 47 78 3f 84 a1 14 40
       2.2217886 2.1672146 0.96984386 2.3223581
000010 f7 75 01 40 34 b8 db 3f 1c 9f d6 3f ec de e6 3e
       2.022825 1.7165589 1.6767306 0.4509195
000020 e8 fe 82 3f 73 92 0e 40 04 b6 54 3f 74 1d 0b 40
       1.0234041 2.2276886 0.83090234 2.1736727
000030 16 3f d3 3f 17 95 13 3f 46 0e e5 3f 2b e1 0a 40
       1.6503627 0.5764937 1.7894981 2.1699932
000040 c3 ce 33 40 b5 d5 83 3f a6 8b 2b 3f 03 1d 83 3f
       2.8094947 1.0299593 0.6700996 1.0243229
000050 e8 c2 c7 3e 82 8e f3 3f 18 e1 13 3e c6 60 bd 3f
       0.3901589 1.9027865 0.14441335 1.4795158
000060 a8 c9 dd 3f 17 dd 13 40 99 8f 1f 40 89 ca eb 3f
       1.7327166 2.3103693 2.4931395 1.8421184
000070 8c ff f2 3f 84 15 1b 40 48 cd 01 40 03 4c 10 40
       1.8984237 2.4231882 2.0281544 2.2546394
000080 e6 5c 04 40 4f 55 fe 3f 8f 05 c0 3f c7 3a 20 40
       2.06817 1.9869784 1.5001696 2.5035875
000090 9c 4b c5 3f 48 7b 9b 3f b2 2a 28 3f 93 20 c5 3f
       1.5413699 1.2146997 0.6569015 1.5400566
0000a0 8f ef 0c 40 58 a7 94 3e e4 b9 1e 40 9e b5 5b 3f
       2.2021215 0.29033923 2.4800959 0.85824
0000b0 bc e6 b0 3f 72 86 cc 3f 47 dd 01 3e 3e 51 97 3f
       1.3820415 1.597853 0.12682067 1.1821668
0000c0 b0 c0 f1 3f 19 82 f4 3f 05 89 24 40 38 f2 e6 3f
       1.8886929 1.9102203 2.570863 1.8042669
0000d0 a3 81 a5 3e 94 ce 88 3f ab 46 2b 3e fb ec c0 3e
       0.32325467 1.0688043 0.16726176 0.37680802
0000e0 29 44 c7 3e 6b f9 da 3f c5 c9 0b 40 77 03 01 40
       0.3891919 1.7107366 2.18419 2.0158365
0000f0 60 94 e1 3f 9a 46 f7 3e b3 d7 0e 40 1e 33 fe 3e
       1.7623405 0.48296052 2.2319152 0.49648374

gnn1_pool.bn2.running_var f4 [64]
000000 2f 3c 52 41 d2 3c e1 40 17 f3 50 40 ec 2b 0e 41
       13.139693 7.0386744 3.264837 8.885723
000010 ce 0c 04 41 48 72 aa 40 ad 21 0c 41 27 53 ac 3f
       8.253126 5.3264503 8.758222 1.3462876
000020 12 f2 bd 40 dc 4e f2 40 0e c0 5f 40 af 60 11 41
       5.9357996 7.5721264 3.496097 9.086104
000030 4a cf d7 40 7b e8 e0 3f 70 5f db 40 dd 00 0d 41
       6.744054 1.7570947 6.8554 8.812711
000040 37 58 82 41 5b c6 45 40 59 85 17 40 ec 79 97 40
       16.293074 3.0902317 2.367514 4.733633
000050 14 c0 a2 3f 22 ad a5 40 a7 7f a7 3e db 49 e2 40
       1.2714868 5.1773844 0.32714579 7.0715156
000060 3e 1f 37 41 d7 4e 5a 41 88 01 42 41 0f 6c 9d 40
       11.4451275 13.644248 12.125374 4.9194407
000070 22 12 2a 41 43 ba 32 41 e1 f9 b3 40 ca d8 b0 40
       10.629427 11.170474 5.624253 5.5264635
000080 f8 a8 02 41 3c b3 0c 41 b0 c3 8d 40 ae 52 48 41
       8.166252 8.793758 4.4301376 12.520185
000090 08 5c cb 40 d1 b9 32 40 4c 81 27 40 e2 46 fc 40
       6.3549843 2.7925913 2.6172667 7.8836527
0000a0 c8 7f d9 40 38 92 5c 3f 5a 39 51 41 7c 9e 7e 40
       6.7968483 0.8616061 13.076502 3.978423
0000b0 93 dc 7a 40 d7 2c fc 40 84 11 8f 3e a4 ac 5e 40
       3.9197128 7.8804736 0.2794305 3.4792871
0000c0 42 eb 75 40 b7 b0 8c 40 c6 4d 92 41 28 d0 17 41
       3.842484 4.3965716 18.287975 9.488319
0000d0 8c ef 94 3f b5 d5 a9 40 b3 c7 bd 3e a7 04 9f 3f
       1.1635604 5.3073373 0.3706642 1.2423295
0000e0 d4 5a 8d 3f bb 7e 00 41 79 81 fe 40 ce 6f 57 41
       1.1043344 8.03094 7.953305 13.464796
0000f0 34 43 66 40 d7 10 a3 3f e0 47 de 40 74 d4 0d 40
       3.5978518 1.2739514 6.946274 2.216092

gnn1_pool.conv3.lin_rel.weight f4 [50, 64]
000000 b2 4a 20 bd ce d5 9e 3d c1 ba d7 3d f7 03 41 3e
       -0.039133735 0.07755624 0.10533667 0.18849169
000010 e7 45 88 3d 0d 88 81 be 16 56 0c be 1a ab 7f be
       0.06653958 -0.2529911 -0.13704714 -0.24967614
000020 0c b3 8c be a2 ff e2 3d b6 16 10 be 80 8a d9 3d
       -0.27480352 0.11083914 -0.14071164 0.1062212
000030 85 64 16 be 52 d1 b5 bd 38 2d 90 3c f1 7a 25 3e
       -0.14686783 -0.08877815 0.017599687 0.1616018
000040 4e 2d f0 3d 01 15 07 bd ba b7 e4 bd c8 4e c4 be
       0.11727391 -0.032979015 -0.111678556 -0.38341355
000050 bd a6 63 be 8b 83 44 3e cf fb 1b 3e 36 96 8b bc
       -0.22231574 0.19190805 0.15232776 -0.0170394
000060 a9 35 7d 3c 37 77 13 be 15 d4 18 3d c6 bc 89 3e
       0.015454688 -0.14400946 0.037311632 0.26901835
000070 46 6e 9f 3d 9d 32 a3 3d 16 50 58 3e 6c 1c ef 3d
       0.07784705 0.07968638 0.211243 0.11675343
000080 d7 75 04 3e 8f 82 a8 3d 67 a7 1c 3e af e0 89 be
       0.12935577 0.08228027 0.15298234 -0.26929232
000090 e4 dd 1e bd 81 47 a4 bd 68 9e 94 be 94 bb b7 bc
       -0.03878583 -0.08021451 -0.29027104 -0.022428311
0000a0 e5 e6 6f 3e 79 3f ca be b0 3f 61 bc 28 f2 91 bd
       0.23427923 -0.3950155 -0.013748094 -0.07126266
0000b0 63 51 99 3e 1d 77 02 bb 93 18 98 bc ad 55 c6 3b
       0.29944906 -0.0019907423 -0.018566405 0.006052694
0000c0 fe 5d 98 3e b9 d4 69 be da 77 3f bd 8d b9 d6 bb
       0.2975921 -0.22835054 -0.04674516 -0.006552881
0000d0 b5 67 1d be b2 d8 8a be 91 d9 7b be 5f 45 81 3d
       -0.15371592 -0.2711845 -0.24594714 0.063120596
0000e0 9b 94 c2 3c 1a 4f 9d bc 08 0b 13 3e 7e 8a 2b be
       0.023752501 -0.019202758 0.14359677 -0.1675205
0000f0 25 22 cc be c7 0b 4e 3e 52 97 95 3d e8 00 aa be
       -0.398698 0.2012168 0.07304253 -0.33203816
000100 7d f2 0b 3e e5 b7 03 3a 78 76 0b 3e 56 b8 c7 3d
       0.1366672 0.0005024656 0.13619411 0.09751956
000110 71 3b cc 3e 27 e6 4c 3d d2 63 48 3e 5f 81 03 3e
       0.398891 0.050024178 0.19569328 0.1284232
000120 19 e8 7f 3e af 25 83 3d a2 16 a2 3c 49 27 7c 3d
       0.24990882 0.06403672 0.019786183 0.061560903
000130 b1 fb 42 3d e6 7e 13 3f 2a 5e 08 3c b4 4a 44 3e
       0.047603313 0.57615507 0.008323232 0.19169122
000140 96 49 c9 3e d0 21 0e 3e 6f 25 71 3e f6 56 19 3e
       0.39313954 0.13880086 0.23549436 0.14974579
000150 eb 38 4e 3e 32 6a 14 3e 04 54 8d bd 44 d1 a5 3e
       0.201389 0.14493635 -0.0690079 0.3238622
000160 d5 3c eb 3d 5c e6 ef 3d c4 ff ba 3e 61 b3 5c 3e
       0.11486212 0.117138594 0.3652326 0.21552803
000170 21 f3 37 3f d3 70 eb 3d 94 fb f0 bc 28 e1 ea 3d
       0.7185536 0.11496129 -0.029416837 0.114687264
000180 ce 95 21 3e 1e a5 e9 3e 08 26 5d 3e 13 00 1f 3e
       0.15779802 0.45633787 0.21596539 0.15527372
000190 e4 fa a6 3e 14 83 0f 3e 4b e2 88 3d 43 ce b4 3e
       0.3261329 0.14014846 0.06683787 0.35313615
0001a0 68 84 26 3d a1 8d dc be e3 69 9a 3e e1 dc e4 3d
       0.040653616 -0.43076804 0.3015891 0.11174942
0001b0 ee be 0c 3e 98 42 96 3e 29 f2 37 be c2 cb 08 3e
       0.13744709 0.29347682 -0.1796347 0.13358977
0001c0 19 20 1a 3d 17 92 2b 3e f5 47 9e 3e d5 24 bb 3e
       0.037628267 0.16754948 0.30914274 0.36551538
0001d0 c9 2d 4a 3e 14 88 b2 3b c9 29 45 bc 6a bb ed 3e
       0.19744028 0.0054483507 -0.012033888 0.46432048
0001e0 65 aa 19 be 5e b7 a5 3e 51 f3 7d 3e 0d 2b d0 3e
       -0.15006407 0.3236646 0.24799849 0.40657845
0001f0 a0 8d 00 be b5 70 35 bd 86 7b 25 3e c2 ab 19 3e
       -0.12554026 -0.04429694 0.16160402 0.15006927
000200 32 a3 4e 3d 10 e3 05 3e 7f ed 2d bd 01 e1 86 bd
       0.050448604 0.13074899 -0.042462822 -0.06585885
000210 c5 a8 a9 3d 50 99 90 3d ff 50 15 bb 9b 4d 16 3e
       0.08284143 0.07060492 -0.0022783873 0.14678042
000220 62 0a 05 3d 12 a4 b4 3d fb 31 50 3d c4 54 86 3b
       0.032480605 0.088203564 0.050828915 0.0040994603
000230 a3 e8 bc bc de 95 01 be 36 1c 53 3c d2 2e cd 3d
       -0.023060149 -0.12654826 0.012885144 0.10018696
000240 88 83 a5 bd 02 8c 91 bd c6 4d a4 3d da ad a3 bb
       -0.08081728 -0.071067825 0.080226466 -0.00499509
000250 37 eb 6e bd 39 a1 de 3d 5b b9 a7 be f2 d7 48 3e
       -0.058329787 0.108705945 -0.32758602 0.19613627
000260 2b de 54 3d ae a9 d4 bc 2e fb 96 3c 7b 13 37 3b
       0.05196969 -0.025959816 0.018430319 0.0027935195
000270 0e 4c 99 3d 67 05 62 be 82 2c c9 3d 60 03 2a 3e
       0.074852094 -0.22072373 0.09822942 0.1660285
000280 30 d2 2b bc 1a fb ae 3d a6 dd 26 3e 5c 99 9e 3e
       -0.010487124 0.085439876 0.1629549 0.3097638
000290 29 70 32 3e 76 fe a6 3d a1 8d e5 bc 6e 37 e8 3d
       0.17425598 0.08154003 -0.028021635 0.113386974
0002a0 46 fc f8 3d c4 a8 92 3c 12 3f a0 3d d2 4a c2 bd
       0.12157492 0.01790274 0.0782453 -0.09486927
0002b0 67 e8 91 bb bf 96 06 3e ec c7 02 be d2 8e 2a bd
       -0.0044527533 0.13143443 -0.12771577 -0.04164011
0002c0 2f a8 97 3c 8d 87 86 bb 1d 17 59 bd cc 97 a0 3d
       0.018512813 -0.0041055144 -0.05300056 0.07841453
0002d0 56 55 6c be 23 d3 ff bc c3 e5 04 3e ec 12 14 be
       -0.23079428 -0.031228608 0.12978272 -0.14460343
0002e0 6e 2e 73 be c7 83 25 3d 37 49 01 3e b1 b4 6a 3c
       -0.2374818 0.040408876 0.12625585 0.014325307
0002f0 97 ee 9f 3d 85 5c 26 bd e0 31 ae 3c ee 89 7e 3c
       0.07809179 -0.040615577 0.021264017 0.015535815
000300 63 7e 65 3e b2 ee a3 3d 81 c9 05 3d e1 a8 92 3a
       0.22411494 0.08004512 0.032662872 0.0011189246
000310 93 c6 0f 3e d2 e0 10 3d f3 c1 4c 3e 69 14 13 3e
       0.14040594 0.035370655 0.19995861 0.14363255
000320 a3 82 41 3e a2 bd e1 3d 24 bd ab 3d b9 36 7c 3e
       0.1889749 0.11022498 0.08385685 0.2463025
000330 d4 55 9a bd 5b 6f 21 3d ab 18 11 3b c2 ec 03 3a
       -0.07535902 0.039412837 0.0022139947 0.0005032533
000340 57 51 6d 3e 70 9e cb 3d be e8 0c 3d f6 32 cc 3d
       0.2317556 0.09942329 0.034401648 0.099706575
000350 8d d9 7a bd 3b 9b 19 bd e2 7c de 3d 20 b3 74 3e
       -0.06124263 -0.037501555 0.10863663 0.23896456
000360 72 e5 41 3d c0 23 b4 3d 58 9d a6 3d 05 d3 c8 3d
       0.047337957 0.08795881 0.0813548 0.09805874
000370 08 4d 2f 3e 84 6f 60 3e 76 93 5a bd fe 4a 89 bd
       0.17119229 0.2191754 -0.053363286 -0.06703757
000380 6e db 40 3e 6f 05 5a 3d c1 d5 17 3e ce 55 a3 bd
       0.18833706 0.053227838 0.14827634 -0.0797535
000390 2d da bb 3d 47 51 df bb d9 f4 bc 3d 9b 43 24 3d
       0.09172473 -0.006815109 0.092263885 0.040103536
0003a0 38 08 32 3e 79 53 f0 3d d0 be 28 3d 54 44 f5 3c
       0.17385948 0.11734671 0.041197598 0.029939808
0003b0 be 2e e7 3d 14 d3 13 3e ba 03 ac bd fe 5b 6b 3c
       0.11288212 0.14435989 -0.08399148 0.014365194
0003c0 9a 56 a5 3d 97 d1 91 3d dc 80 89 3d 77 c5 4e 3e
       0.080731586 0.07120054 0.06714031 0.20192514
0003d0 ba 0a 9c 3e 2b 9d 05 3e 50 12 04 3e 02 36 70 3e
       0.30476934 0.13048236 0.1289761 0.23458102
0003e0 74 07 1b 3e c2 90 7f 3e 78 ba e9 bb a8 c2 bf 3d
       0.15139562 0.24957564 -0.0071328245 0.093632996
0003f0 b8 1c a4 3d 40 f6 7b bd aa 0f 18 3e 1f 45 50 3d
       0.0801329 -0.06151414 0.14849725 0.05084717
