model/BA200_p0.1_m70_n200_diff_pool.pt (torch, 793665 bytes, 113 tensors)

gnn1_pool.conv1.lin_rel.weight f4 [64, 2]
000000 d7 dd 1b 3f d6 61 03 bb 4f 28 8a be 00 a9 e7 be
       0.60885376 -0.0020047328 -0.26983878 -0.45246124
000010 93 36 4e be 19 a5 bb 3d 44 e9 98 be 05 a4 90 3e
       -0.20138006 0.09162349 -0.29865468 0.28250137
000020 a7 ae d3 3e 18 1c 2f 3e ed d2 65 bf 84 e8 ea 3e
       0.41344187 0.1710056 -0.8977497 0.4588052
000030 2d 53 e0 3e c6 bd 55 3f a1 e4 1f bf 70 0e 01 3f
       0.43813458 0.83492696 -0.62458235 0.50412655
000040 2f 99 16 3f d1 4b 70 be a0 5f f2 be aa d8 91 3e
       0.5882749 -0.23466422 -0.4733858 0.28485614
000050 05 3e 3a 3f 2a ef 8d 3d 67 9e a6 be a1 20 07 3f
       0.72750884 0.069303825 -0.32542726 0.5278416
000060 be 89 83 be fd 01 ca 3e fa d0 1d bf 90 de 25 bf
       -0.25691026 0.39454642 -0.61647 -0.6479273
000070 6b f5 44 3f 52 71 04 bf f5 18 e9 be fd c5 3d 3f
       0.7693698 -0.51735413 -0.45526853 0.7413023
000080 1f 65 55 be 64 04 12 3f a4 23 09 3f d2 d1 12 3d
       -0.20839356 0.5703795 0.5357001 0.03584463
000090 1a 71 e3 be 1e 10 17 3f c8 0c be be 85 64 26 bf
       -0.44422227 0.5900897 -0.37119126 -0.6499713
0000a0 43 87 5e be 9e a1 ff be 60 47 f3 be f2 1e c3 3e
       -0.21731286 -0.49927992 -0.47515392 0.38109547
0000b0 c7 95 39 bf de bc d0 3e 7a 6c 45 3e 80 fc ff be
       -0.7249417 0.40769094 0.19279662 -0.4999733
0000c0 8d 63 3a 3f 4f 24 3c be 04 23 43 bf 62 9c 9a 3e
       0.7280815 -0.18373226 -0.76225305 0.30197436
0000d0 39 86 7a be bd 88 0b 3f 39 ed ee 3d 0e 6b 66 3f
       -0.24465264 0.5450552 0.116663404 0.900071
0000e0 08 89 5f bf 24 a6 e9 3e d2 26 6c bf cf de 95 be
       -0.8731847 0.45634568 -0.92246735 -0.29271552
0000f0 8a 31 74 3f 8a ea 61 3d 85 4d d0 3e 8e 18 3b bf
       0.9538809 0.055155315 0.40684143 -0.7308434
000100 d0 3f 5d 3e 20 5c 32 bf e5 3a f1 be bb 3b ce bd
       0.21606374 -0.6967182 -0.47115245 -0.100699864
000110 59 dc 31 bf 5e 36 0f 3f 01 69 0d be 5f ef 2e 3f
       -0.6947685 0.5594233 -0.13809587 0.68334
000120 86 2c 1e bd 6d 48 39 3f 75 66 cb bd ff 4d 32 be
       -0.03861668 0.7237614 -0.099316515 -0.17412566
000130 35 70 51 3f b4 04 0a bf fc 03 1e 3f 47 69 b2 be
       0.8181184 -0.53913426 0.6172483 -0.34845945
000140 d8 92 17 3f bd 12 1f bf 65 b6 0c 3f 83 dd 55 3e
       0.5920844 -0.6213797 0.5496581 0.20885281
000150 11 33 4a 3f 42 b8 10 bf 5f 83 2d 3f 06 8e 0f 3e
       0.7898417 -0.56531155 0.6777858 0.14019021
000160 25 cb c0 3f 9a fc b5 bf 25 55 81 3f 26 53 99 bd
       1.5061995 -1.4217713 1.0104109 -0.074865624
000170 2d 70 1b bf 17 4a 08 3f c7 a0 18 bf 9c 32 73 3f
       -0.6071804 0.5323805 -0.59620327 0.949991
000180 b5 cc 1d be c7 5e 1f 3f 9b 2f 26 bf 40 d5 e0 3e
       -0.15410121 0.62253994 -0.6491639 0.43912697
000190 a4 26 15 bf 30 ee 1a 3f 7a 1e f8 3e d2 92 3d be
       -0.58262086 0.60519695 0.48460752 -0.18513039
0001a0 13 46 eb 3d b6 46 f4 be bd 77 10 be 4f 31 1c bf
       0.11487975 -0.47710198 -0.14108177 -0.6101274
0001b0 82 77 a3 bd 14 54 07 bf 26 52 32 bf eb 72 33 3f
       -0.07981779 -0.5286267 -0.696566 0.70097226
0001c0 e5 e2 b6 be d4 aa fb 3e 71 75 fe 3e 94 b6 60 bf
       -0.35719982 0.4915377 0.49698976 -0.8777859
0001d0 ae 2e 30 bf 69 f6 b4 3e 84 21 7d bf 74 29 81 be
       -0.6882123 0.35344246 -0.98879266 -0.2522694
0001e0 9c ea 83 bf 47 09 7c 3f 7a 77 83 be 76 eb 5e 3f
       -1.0305972 0.98451656 -0.2567709 0.87078035
0001f0 c2 00 45 bf e6 8d 56 3e b1 69 20 be d1 c0 d5 be
       -0.7695428 0.20952567 -0.15665318 -0.4174867

gnn1_pool.conv1.lin_root.weight f4 [64, 2]
000000 d7 b0 20 3f 38 ae 69 be 0c 05 40 be c6 b1 e3 bd
       0.62769836 -0.22820365 -0.18751925 -0.11117892
000010 1b 4a 63 bf 4a df 6a 3f af 69 1a bf f2 9f a9 3e
       -0.8878495 0.9174696 -0.6031751 0.3312984
000020 d9 4f 59 be 82 46 bc be a4 df 29 bf 07 f5 b9 3e
       -0.21221866 -0.36772543 -0.66356874 0.36319754
000030 b4 54 06 bf 32 34 39 bd 9a 74 9c 3d 49 c7 ca be
       -0.52472997 -0.045215793 0.076394275 -0.39605168
000040 49 8e b4 3e 44 db bc 3d f7 b2 22 bf 3c 64 eb be
       0.35264805 0.09221509 -0.6355433 -0.4597491
000050 73 ac 50 be 33 27 d9 3e 83 ba 07 3d 92 a8 d2 be
       -0.20378284 0.4241272 0.033136856 -0.41144234
000060 f4 84 f3 3e 52 24 cf be 37 d7 27 3f 6b e0 35 bd
       0.47562373 -0.40457398 0.65562767 -0.044403475
000070 68 f7 0e 3f 6c 8a 13 3e 8e 44 08 bf 89 3a 94 3e
       0.5584626 0.14408273 -0.53229606 0.2895091
000080 0a 27 fe be d5 42 30 3f 5e da dc be 8c 97 da be
       -0.4963916 0.6885198 -0.4313535 -0.42693746
000090 cf 14 b9 3e c2 62 68 bb 3e 33 b1 be 17 54 b3 3e
       0.36148688 -0.0035459255 -0.34609407 0.35025093
0000a0 59 72 20 bf 95 5b 54 be fb c2 8e be c9 54 38 bf
       -0.6267448 -0.20738061 -0.27883133 -0.7200437
0000b0 62 fc 07 bf 37 51 16 3e 05 11 12 3e 0d 50 90 be
       -0.5311948 0.14679419 0.14264305 -0.28186074
0000c0 05 6f fc be c9 a8 88 3e f2 54 04 3f 64 49 f5 3d
       -0.4930345 0.26691273 0.51692116 0.11976889
0000d0 6a ab 15 bf c3 a4 15 3f 26 79 10 bf 94 10 a9 3d
       -0.5846468 0.5845453 -0.5643486 0.08255115
0000e0 0e 9a b7 be c2 82 bc 3e 6d b1 65 3f 2f 4b ff be
       -0.35859722 0.3681851 0.89723855 -0.49862048
0000f0 e1 92 9a 3e 00 a0 45 bd 11 57 d4 3e e7 01 81 3e
       0.30190185 -0.04824829 0.41472676 0.25196764
000100 49 b5 18 3f c5 f4 b5 3e a4 0b 81 3e 11 3a 3a be
       0.5965162 0.35538307 0.25204194 -0.18186213
000110 f8 5f 14 bf 73 b6 8b be 66 96 ae be ab c9 b4 3e
       -0.57958937 -0.27287635 -0.3409912 0.3531011
000120 a4 ed f6 be 86 d2 33 3e 55 f0 0a 3f 85 e2 2c 3e
       -0.4822818 0.17560777 0.5427297 0.16883285
000130 f6 3e aa 3e e4 e0 ac be 54 07 00 bf c0 35 c6 3e
       0.3325116 -0.33765328 -0.5001118 0.38712883
000140 a2 89 1b 3f 79 6c 9a 3e 99 de d7 3d 2f 13 69 3f
       0.60756886 0.30160883 0.10540504 0.91044897
000150 8e ea 18 bf 60 ef d8 3e 53 b6 da 3e 81 e3 2a bf
       -0.597329 0.4237013 0.42717227 -0.66753393
000160 ae 11 e8 3e c7 e4 c0 3e 49 28 d2 3e bd 58 0c 3e
       0.4532599 0.37674543 0.4104636 0.13705726
000170 97 3f bb be 57 6e ca 3e 4e d1 9f 3e 75 19 fd be
       -0.36571953 0.39537308 0.31214374 -0.49433485
000180 64 92 b1 3e 02 3a 2f 3f c3 5a f7 be b8 2e ae 3e
       0.34682 0.6844789 -0.48311433 0.3402002
000190 6d df 1c 3f f2 b5 94 3e 70 5f af 3e c6 c3 05 3e
       0.6127842 0.29045063 0.342525 0.13062963
0001a0 ad d3 92 3d 4e cc 5c be 7c 83 01 3e d4 b4 44 3e
       0.0716928 -0.21562311 0.12647814 0.19209605
0001b0 e0 9f eb bd cf 86 c7 be 3c 54 73 bf e2 88 f4 3d
       -0.11505103 -0.38970038 -0.95050406 0.11940171
0001c0 30 f6 1b be 30 c6 95 3e fc 9d de 3e dd ef 8f 3d
       -0.15230632 0.29252768 0.43479908 0.07028172
0001d0 5c 03 20 3e e1 86 6c be 31 39 92 3d 39 75 dc 3e
       0.15626281 -0.23098327 0.07139815 0.43058184
0001e0 79 3a d3 3e 24 b5 14 3f e1 c6 18 bd aa 1b 04 bf
       0.4125555 0.580889 -0.03729904 -0.5160471
0001f0 20 e1 9d 3e 61 ae b7 3e 15 fa c4 3c 2c 85 47 3e
       0.3083582 0.35875228 0.02404503 0.19484395

gnn1_pool.conv1.lin_root.bias f4 [64]
000000 f5 47 73 3e e2 05 cd bd 35 76 48 3f fc 64 1e bf
       0.23757918 -0.10010888 0.7830537 -0.6187284
000010 fc f4 b6 be 2d 3b 31 3e 3f ad e9 3d 61 52 94 3e
       -0.35733783 0.1730773 0.11409997 0.289691
000020 0f ac 17 3f 68 e8 26 be 94 cf 41 3c 41 ca 0b be
       0.59246916 -0.16299593 0.011829276 -0.13651372
000030 fc 08 cf 3d f4 9d 97 be 98 7c df 3e 4c 5c 86 be
       0.101091355 -0.29612696 0.43649745 -0.26242292
000040 1e 17 73 be 75 4e 0d bf 52 b5 81 3e 20 14 f7 be
       -0.23739287 -0.5519784 0.2533365 -0.48257542
000050 4b 00 c9 3d fe 6b a3 3e 29 f6 ef 3d 41 93 af be
       0.09814509 0.3191833 0.11716873 -0.34292033
000060 8f c7 05 bf 6f cd f1 be 7b 64 01 3d f2 d2 19 bf
       -0.5225763 -0.47227046 0.031589966 -0.600875
000070 52 cf d5 3e fb 63 45 3f 93 2a fe 3e cf 73 12 bc
       0.41759735 0.77105683 0.49641857 -0.008938744
000080 eb c2 17 3e ed df 1c bf bd 7b 23 3f fe a7 01 3f
       0.14820449 -0.61279184 0.63860685 0.5064696
000090 11 e9 2c be e4 12 0b bf aa 81 4f 3f b2 5c 01 bf
       -0.16885783 -0.543257 0.81057227 -0.50532067
0000a0 4c 22 15 be c7 7c 91 be ea 77 3e 3f 3a c9 35 3f
       -0.14563864 -0.2841551 0.74401724 0.7101017
0000b0 66 df 94 3e 5d 95 36 bf cc 69 5f be 80 f1 3c 3f
       0.2907669 -0.7132166 -0.21817702 0.73806
0000c0 c3 b5 2b be 5a 9d 97 3e 3e 0c 40 3e 4b b2 95 bc
       -0.16768555 0.29612237 0.1875467 -0.018273493
0000d0 4b 4b 26 bf 80 07 32 bf 63 0a 41 3e 66 28 55 3e
       -0.6495864 -0.69542694 0.18851618 0.20816192
0000e0 f5 62 97 be 85 be 5b 3e bf a0 20 bf 20 45 f5 3d
       -0.29567686 0.21459396 -0.6274528 0.11976075
0000f0 ea ee 22 3f ce 60 77 3d 21 98 bd be 3d 35 13 bf
       0.63645804 0.060395055 -0.37030128 -0.5750311

gnn1_pool.bn1.weight f4 [64]
000000 a4 35 9c 3e 00 00 80 3f 62 6e 1d 3f 08 e9 7c 3f
       0.30509675 1.0 0.61496556 0.9879308
000010 00 00 80 3f e2 5a 2d 3f 98 44 d4 3d c2 66 a5 3f
       1.0 0.677168 0.10364646 1.2921984
000020 15 57 86 ba 00 00 80 3f 05 9f e4 3e 7f 79 a2 3f
       -0.0010249341 1.0 0.44652572 1.2693328
000030 9d 03 2e 3f 00 00 80 3f f0 96 0a 3c c4 c5 82 3f
       0.67974263 1.0 0.008458838 1.0216603
000040 ca 3b 6f 3e 00 00 80 3f 97 6a 9e 3e 00 00 80 3f
       0.23362651 1.0 0.30940697 1.0
000050 00 00 80 3f 93 4b 93 3f 75 69 d0 3f 00 00 80 3f
       1.0 1.1507438 1.6282183 1.0
000060 d6 30 6a 3f d5 4f 7b 3f 6d 65 bd 3e 13 0a a7 3f
       0.9148077 0.9816869 0.36991444 1.304995
000070 82 38 23 3f 88 5e 7b 3e 2c 4e 80 3c 69 67 5f 3d
       0.637581 0.2454778 0.015662275 0.05454198
000080 ea f1 9a 3c 00 00 80 3f bd 56 49 3f 71 c8 84 3e
       0.018914182 1.0 0.7864798 0.25934175
000090 d3 c8 1d 3d 00 00 80 3f 07 a4 7a 3c 3a 26 27 3f
       0.0385216 1.0 0.015297896 0.65292704
0000a0 ce 2b 5c 3e fb 94 ba 3e d6 36 dc 3e 46 05 1c 3e
       0.21501085 0.36441788 0.43010587 0.15236387
0000b0 03 aa 32 3e 67 41 10 3e d6 06 b9 3f e9 29 07 3f
       0.17447667 0.14087449 1.4455211 0.52798325
0000c0 42 a0 97 b9 5a f3 06 3f b8 b8 d5 3e b7 0b 15 3b
       -0.00028920366 0.52715075 0.41742492 0.0022742578
0000d0 00 00 80 3f 00 00 80 3f 00 00 80 3f d9 d4 c1 3f
       1.0 1.0 1.0 1.5143081
0000e0 81 4b a3 3f 8c 58 f2 3e 00 00 80 3f 97 03 31 3f
       1.2757417 0.4733318 1.0 0.691461
0000f0 d6 94 14 3d ad e7 92 3f 42 87 ae 3f 00 00 80 3f
       0.036274754 1.1476952 1.3635027 1.0

gnn1_pool.bn1.bias f4 [64]
000000 aa 78 c5 3c 26 00 67 3e 2c c7 b0 bd 45 fb cb 3b
       0.024105389 0.2255865 -0.08631739 0.006225022
000010 a5 d6 9c 3e 07 ea 17 3e 98 e3 51 bd d9 45 8c 3e
       0.3063251 0.14835368 -0.05124244 0.2739704
000020 e3 61 78 bb 67 68 ec 3b 35 48 38 be d8 7c a2 3e
       -0.0037900142 0.007214594 -0.17996295 0.31735873
000030 42 28 4c 3e 1d 48 56 3d c0 cb b9 bb ea 2a 84 3d
       0.19937232 0.052314866 -0.005670041 0.06453498
000040 2a e0 0e 3c b8 50 a3 bb 1d 47 73 3e 12 27 89 3e
       0.008720437 -0.0049839877 0.23757596 0.2678762
000050 88 a0 21 3c 55 8e 3e 3e 96 56 73 3e 5b 70 6c be
       0.009864934 0.18608983 0.23763499 -0.23089735
000060 aa 0d 6b be e2 b8 58 3d aa 88 01 be d6 d1 a1 3e
       -0.22954431 0.052910693 -0.1264979 0.31605405
000070 66 61 a5 3c 62 a4 00 3e 5b 10 ec ba 1d fc 0d 3a
       0.020188045 0.12562707 -0.0018010245 0.0005416291
000080 f9 23 da bb af b4 64 3c e8 fa 08 3e 50 f5 ca bd
       -0.0066571203 0.013959094 0.13376963 -0.09910071
000090 94 1d 91 3c ec c3 4a bc a8 3b b6 bb 30 82 8e be
       0.0177143 -0.012375813 -0.005561311 -0.278337
0000a0 22 67 94 3d b9 e1 07 be b9 c7 23 be b2 58 a7 bb
       0.072462335 -0.132697 -0.15994157 -0.005107009
0000b0 83 d8 91 bc 48 8b 02 3d 2b 2b a2 3e c4 a3 bd 3e
       -0.017803436 0.03187111 0.3167356 0.37039006
0000c0 ec 4e a8 3a d9 89 51 3d 5e 1d 96 3e 05 a9 48 ba
       0.0012840903 0.051156852 0.2931928 -0.00076545804
0000d0 eb 74 d0 3b 88 2c 8a 3e b9 18 f7 bd 1a bb 79 3e
       0.006361594 0.269871 -0.12065262 0.2438778
0000e0 47 df ab 3e e5 2b 03 3e 31 20 02 be c4 82 25 3e
       0.33568785 0.12809713 -0.12707593 0.16163164
0000f0 74 1b 57 3c e3 74 45 3c cc 2b 8a 3e 95 8a ee bb
       0.013129104 0.012051794 0.2698654 -0.007279704

gnn1_pool.bn1.running_mean f4 [64]
000000 5b ef 8d 3f 00 00 00 00 99 2c ae 3e 04 00 00 00
       1.108867 0.0 0.340184 6e-45
000010 00 00 00 00 18 62 8a 3d a1 c0 7e 3e a6 58 df 3d
       0.0 0.06756991 0.2487817 0.1090558
000020 9c e6 9c 3f 00 00 00 00 ac 4d ec 3e a7 0d 8e 3c
       1.2257876 0.0 0.4615301 0.017340494
000030 b0 14 c8 3e 00 00 00 00 8c 21 a4 3f c2 c3 32 3d
       0.39078283 0.0 1.2822738 0.04364372
000040 c7 e4 04 3e 00 00 00 00 eb 0b d5 3e 00 00 00 00
       0.12977897 0.0 0.41610655 0.0
000050 00 00 00 00 27 eb 8a 3c 03 1d 0a 3d 00 00 00 00
       0.0 0.016957833 0.033719074 0.0
000060 94 72 ad 3c a6 b3 ae 3b ab 84 21 3e e7 e1 79 3c
       0.0211728 0.0053314744 0.15773265 0.015251613
000070 a2 ca 05 3e b6 db 38 3f ac 99 b3 3f 0f 39 e5 3e
       0.1306558 0.7221025 1.4031272 0.44770095
000080 67 7d 21 3f 00 00 00 00 ae 0e b6 3d bc 16 d9 3e
       0.63081974 0.0 0.08889519 0.42400157
000090 7d aa 92 3d 00 00 00 00 4c fe b3 3f 88 3c b6 3c
       0.07161424 0.0 1.406198 0.02224566
0000a0 0f 11 21 3f 13 5b dd 3e 95 21 3c 3f 42 21 b6 3f
       0.62916654 0.43233547 0.7348874 1.42289
0000b0 38 e3 ac 3f 69 3b b8 3e e6 6a 1d 3d 0c d5 44 3f
       1.3506842 0.35982826 0.038432024 0.76887584
0000c0 94 37 ab 3e 73 1b e4 3d c9 e4 03 3f df 17 0f 3f
       0.3344084 0.11138048 0.51520973 0.558958
0000d0 00 00 00 00 00 00 00 00 00 00 00 00 23 6f 8f 3d
       0.0 0.0 0.0 0.070036195
0000e0 c5 3e c5 3c 48 1d 2b 3f 00 00 00 00 99 51 21 3c
       0.024077782 0.66841555 0.0 0.009846115
0000f0 5e a5 2c 3f 01 c5 f6 3d 35 5b af 3b 00 00 00 00
       0.6743983 0.12049294 0.005351449 0.0

gnn1_pool.bn1.running_var f4 [64]
000000 46 22 3c 3e 04 00 00 00 e6 71 e3 3e 04 00 00 00
       0.1837245 6e-45 0.44422835 6e-45
000010 04 00 00 00 a4 67 16 3d 58 95 7f 3d 6b 09 fc 3c
       6e-45 0.036719933 0.062398285 0.03076621
000020 48 17 90 3d 04 00 00 00 92 59 73 3d c4 0f 75 3b
       0.070356905 6e-45 0.059411593 0.003739343
000030 a9 af 67 3d 04 00 00 00 9f 00 32 3e 87 a7 9e 3c
       0.056564007 6e-45 0.1738305 0.019366993
000040 92 27 93 3d 04 00 00 00 5f 92 77 3d 04 00 00 00
       0.07185282 6e-45 0.060442325 6e-45
000050 04 00 00 00 3f 9a 6d 3b a1 53 58 3c 04 00 00 00
       6e-45 0.0036255268 0.013203532 6e-45
000060 51 3f 94 3b b8 5f c6 3a 99 90 d2 3d d3 67 6d 3b
       0.0045241495 0.0015134728 0.10281486 0.0036225214
000070 8a de 99 3d 80 99 1c 3e a1 72 c3 3d 85 1b 9a 3d
       0.07513149 0.1529293 0.09543348 0.0752478
000080 23 36 98 3d 04 00 00 00 43 e6 16 3d ad 5e 29 3e
       0.07432201 6e-45 0.03684069 0.16540022
000090 f9 62 d6 3c 04 00 00 00 75 61 83 3e 39 60 a4 3b
       0.02617024 6e-45 0.2566029 0.0050163534
0000a0 b9 ef e6 3d 4e 30 be 3d 4c ab 2f 3e 74 03 85 3e
       0.11276192 0.09286557 0.17155188 0.25979197
0000b0 64 5b f8 3e dd 40 89 3d 85 70 81 3c bc 72 23 3e
       0.48507226 0.06701825 0.015800724 0.15961736
0000c0 5d 61 9d 3d 6a 11 73 3d 00 6b 9f 3d c3 6f 39 3d
       0.07684586 0.05934278 0.077840805 0.0452726
0000d0 04 00 00 00 04 00 00 00 04 00 00 00 54 da 20 3d
       6e-45 6e-45 6e-45 0.039270714
0000e0 30 c8 dc 3b 42 1c 10 3e 04 00 00 00 8a 26 01 3b
       0.0067377314 0.1407328 6e-45 0.001970681
0000f0 cd 4f 93 3e 20 7b 08 3d 02 a8 70 3a 04 00 00 00
       0.2877182 0.033320546 0.00091803086 6e-45

gnn1_pool.conv2.lin_rel.weight f4 [64, 64]
000000 db 56 5b 3e 23 41 13 be 0a 83 d9 bd 5b 79 31 3e
       0.21419851 -0.14380316 -0.10620697 0.1733145
000010 4b be 40 be 15 33 00 3d 20 3d 14 be c7 ab 24 be
       -0.18822591 0.031298716 -0.14476442 -0.16081153
000020 22 72 7a 3e e7 07 35 3d e8 df d3 3d 80 31 a4 be
       0.244576 0.04419699 0.10345441 -0.32069016
000030 f0 de 0c 3e 4b 27 b3 be 83 1a af 3d 2b 9b a4 bd
       0.13756919 -0.34990916 0.085499786 -0.080374084
000040 2e 97 f4 bd e8 22 d2 3c 01 9f 86 be e5 7d ac be
       -0.11942898 0.02565141 -0.26293185 -0.336898
000050 12 a0 55 be cd da 3e be bb 93 01 be 6a 35 8d 3e
       -0.20861843 -0.18638153 -0.12654011 0.27579814
000060 ef 34 a4 3d f0 35 89 be a0 ae 0f be 4f 61 94 bd
       0.08017909 -0.26798964 -0.14031458 -0.07245123
000070 b1 a4 df bd 9c eb 28 bd af de 2b 3d 0d 34 6a 3e
       -0.10920084 -0.04124032 0.041960414 0.22871418
000080 3c 94 0e 3d 49 4e 89 be d4 2e 0a be ab 98 2b be
       0.034809336 -0.2681754 -0.13494426 -0.16757457
000090 f5 ea 61 bd 31 f5 e4 3d 11 fe 88 bc 76 ff 06 be
       -0.055155713 0.11179579 -0.01672271 -0.13183388
0000a0 f6 cc 41 3e b5 16 29 be 4d 26 75 3d 61 4d 0f 3e
       0.18925843 -0.16512568 0.05985098 0.13994361
0000b0 82 a3 80 3e d6 87 0f 3e 46 bd 0e be 89 00 e1 bd
       0.25124747 0.14016661 -0.1393939 -0.1098643
0000c0 e0 2b e0 bc 5f 44 51 be 9b 5c 62 be e1 61 25 3e
       -0.027364671 -0.20436238 -0.22105639 0.16150619
0000d0 38 42 2f be ee b7 31 be 9b 24 76 3e 62 c3 35 be
       -0.17115104 -0.1735532 0.24037401 -0.17750314
0000e0 11 fc 9c bd a6 15 99 3c ca f4 b3 3e 34 19 60 be
       -0.07665265 0.01868708 0.35147697 -0.21884614
0000f0 c9 57 1b be 3f e2 77 be ba 7a 02 bf a8 2d 13 3e
       -0.15170206 -0.242074 -0.50968516 0.14372885
000100 b1 84 2b 3e 93 13 dc be 8d f4 04 3c 2c 76 ae bc
       0.16749837 -0.42983684 0.008114946 -0.021296583
000110 19 80 aa be c9 8a de be 7a e4 53 bc 9a 6e 10 be
       -0.33300856 -0.4346526 -0.012932891 -0.14104691
000120 31 04 12 3e 86 80 4a ba c7 57 48 3e f2 44 48 bd
       0.14259411 -0.000772484 0.19564734 -0.048893876
000130 2a 37 14 bb 4e ca b0 be 37 f6 83 3e df 5f c0 be
       -0.0022615888 -0.34529346 0.25773785 -0.37573144
000140 ec a3 1d be 33 34 87 3b 69 df f4 be 41 7f f2 be
       -0.15394562 0.0041260957 -0.47826698 -0.47362712
000150 e7 a8 cc 3c 3e 42 62 3d 6b f6 1f be bc a8 00 3f
       0.024982883 0.055238955 -0.15621345 0.5025747
000160 e0 22 1a 3f e4 36 41 3d 08 b4 bc 3c 7f 6e 65 be
       0.60209465 0.04717149 0.023035064 -0.22405432
000170 27 6b 50 be 48 cf df bd ac e5 41 3e d0 b8 2d 3e
       -0.20353375 -0.10928208 0.18935269 0.16965032
000180 18 3b af 3e 62 71 b3 bd 73 86 eb be 07 44 09 be
       0.34224772 -0.087618604 -0.46001014 -0.13404857
000190 e6 50 80 be 09 fb 47 3e 19 1e 46 3e a5 a6 27 3f
       -0.2506172 0.19529356 0.19347419 0.65488654
0001a0 a5 5d 5f 3e 5d 47 49 3e ca e0 cb 3e 33 02 a9 3c
       0.21813066 0.19656129 0.39819938 0.020630931
0001b0 6f 33 74 3e 3c db 7c 3e 25 6a 92 be ea 14 d0 be
       0.23847745 0.24693006 -0.28596607 -0.40640956
0001c0 48 ea 1b be d8 f9 22 be 47 d4 dd be 49 21 4a 3e
       -0.1522609 -0.1591562 -0.43326017 0.1973926
0001d0 08 6b e3 bc df 54 a2 be 8c e9 93 3e 40 1b f5 be
       -0.027760997 -0.31705377 0.2888912 -0.47872353
0001e0 89 77 97 be 00 5f b8 3e 39 07 c4 3e 4a 24 94 bd
       -0.29583386 0.3600998 0.3828676 -0.07233484
0001f0 85 40 af be 3f a0 24 bd 80 0b b2 3c 58 35 0c 3b
       -0.34228912 -0.040191885 0.021734 0.00213941
000200 de 31 99 3e 1e 3a ca be 73 ed b7 bd 12 5e 3f be
       0.29920858 -0.39497465 -0.08980837 -0.18688229
000210 dd cc 77 be 02 b3 43 bd 14 61 b8 bd 1e c5 97 be
       -0.24199243 -0.047778137 -0.09002891 -0.29642576
000220 07 e3 53 3e 5a e0 15 bd 42 15 8f 3e dd 9a 04 bf
       0.20692073 -0.03659091 0.27945906 -0.517988
000230 79 fd cd be 88 5a a3 be 66 2e a5 3d dc d7 e9 3c
       -0.40232447 -0.31905007 0.080654904 0.028545313
000240 b0 d2 38 3d bb 93 86 be 7d d7 8b be 95 3f c5 be
       0.045122802 -0.26284584 -0.27312842 -0.38525072
000250 66 26 5d 3d 0a b9 a8 be 82 3a 21 3e 27 7c d3 3e
       0.053991698 -0.32953674 0.15744975 0.41305658
000260 ab fe 51 3e 7e 23 ad 3d 02 56 e3 bd 3a 9e 03 3e
       0.20507304 0.08454035 -0.11100389 0.12853327
000270 5a 58 55 bd 5b d5 39 be 1d a8 6b 3e 20 39 94 3e
       -0.05208621 -0.18147795 0.23013349 0.28949833
000280 8e 91 7f 3e 70 d4 26 be 64 57 7b be a8 63 cc bd
       0.24957868 -0.16291976 -0.24545056 -0.099799454
000290 a0 bf ec 3c 51 c2 99 3e 2e 3c 62 3e 77 3d ab 3e
       0.028899968 0.30031064 0.22093269 0.3344533
0002a0 18 aa 8f 3e 02 7d bc 3e fa 92 50 3e a8 81 8f 3e
       0.2805946 0.36814123 0.20368567 0.28028607
0002b0 67 2d a6 3e 65 4e d0 3e 38 f6 70 3d 3c be 6b be
       0.32456514 0.4068481 0.058828562 -0.23021787
0002c0 70 58 8e be a8 8c 23 be 6d eb 79 be 07 be 91 3e
       -0.27801847 -0.15971625 -0.24406214 0.28465292
0002d0 d6 c1 a2 bd 33 a7 bc be 5f 64 8e 3e 1a a5 a5 bd
       -0.079471275 -0.36846313 0.27810952 -0.08088131
0002e0 f5 03 05 bd e1 af a2 3e e4 be 8a 3e 50 ac 91 3e
       -0.032474477 0.3177481 0.27098763 0.28451777
0002f0 5d c0 b9 be fe 6b 7e be 40 6a 44 3e 71 17 56 3d
       -0.36279574 -0.24845883 0.19181156 0.05226845
000300 82 7f 39 3e 4e 96 b4 be 3f 8a c1 bd 4d 34 62 bd
       0.18115047 -0.35270923 -0.094501965 -0.05522566
000310 4d 35 2d be 71 1d 68 3e 6b da 8f be 51 56 55 bf
       -0.16914864 0.22667481 -0.28096327 -0.83334833
000320 4c 1b 95 3e 02 c7 1b 3e f0 fd 0c 3f 4f 17 0e bf
       0.29122388 0.15212634 0.5507498 -0.55504316
000330 65 7b 61 bf 19 b4 12 be 91 77 61 3e dd 52 ed bc
       -0.8807891 -0.14326514 0.22018267 -0.028970176
000340 3c 4c dc 3c f3 5a 19 be f5 27 d2 be c2 6a 7f be
       0.02689182 -0.149761 -0.4104611 -0.24943069
000350 f5 72 75 3e 85 74 22 bf b3 06 8c 3c e4 bf 80 3e
       0.23969634 -0.63459045 0.017093038 0.251464
000360 e3 ec 76 be d4 71 bd be 4f ef 12 3e 1f 10 62 be
       -0.24113803 -0.37000906 0.14349101 -0.22076462
000370 6b f2 3d 3b 4f 2a 18 be 1b 06 55 3e fa 50 ac 3e
       0.0028983604 -0.1485989 0.2080311 0.3365553
000380 4d c1 4b 3e 95 23 20 be 4a b2 a7 bb 76 9c 7f be
       0.19897957 -0.15638573 -0.0051176893 -0.24962029
000390 a2 fe 3c 3c 53 92 31 3e e6 2f fe 3d 22 b2 bb be
       0.011535319 0.17340975 0.1241148 -0.36659342
0003a0 ca 56 2b 3e 7e aa 83 3e a4 80 3c 3f fa 52 52 3e
       0.16732326 0.25716013 0.7363379 0.20539466
0003b0 d0 f4 eb 3e f8 c3 d6 3e c0 f0 a2 bd 12 34 04 bf
       0.46085215 0.41946387 -0.07956076 -0.51641953
0003c0 16 a1 60 be cb bf 56 3e 67 da dc be 4e f5 b3 3e
       -0.2193645 0.209716 -0.43135378 0.3514809
0003d0 aa a8 db 3d 9d 21 36 be 19 32 a6 3e a8 27 9e 3d
       0.107255295 -0.1778626 0.32460096 0.077224076
0003e0 d5 c0 34 be 9a 66 68 3e 47 9f 28 3e 8b b4 1a bd
       -0.17651685 0.2269539 0.1646701 -0.037769835
0003f0 c2 96 94 be 0f 95 15 bf e8 49 0d bf 22 5e 08 bf
       -0.2902127 -0.5843057 -0.55190897 -0.53268635

gnn1_pool.conv2.lin_root.weight f4 [64, 64]
000000 8f fb 9c bc d2 19 ac be 32 31 3e bc 66 fb 05 3e
       -0.019162921 -0.3361345 -0.011608409 0.13084182
000010 0e d1 ac be 9e ae ce 3e a6 2b f8 bd d4 66 f5 3d
       -0.33753246 0.40367597 -0.121177 0.119825035
000020 5e b7 09 3d 22 23 46 3d 68 c9 70 bc a1 e1 1d be
       0.03362214 0.04837335 -0.0146964565 -0.15418102
000030 fd 0b c7 bd f2 be 1a be 18 75 b0 3d a1 da e1 3e
       -0.097190835 -0.15111902 0.08616084 0.44112113
000040 ea 7b 10 be 8d 00 38 3d f6 88 25 3d c2 d7 56 be
       -0.1410977 0.0449224 0.04041382 -0.20980743
000050 b3 26 57 be 49 cd 78 be be de 0e 3f 57 88 29 3e
       -0.21010856 -0.2429706 0.5580863 0.16555916
000060 60 d5 b0 3e 39 99 50 be 1a af b5 bd d1 7e 04 3f
       0.34537792 -0.2037095 -0.088712886 0.51756006
000070 a3 0c cb bd ea dd 89 3d 99 63 aa 3d ba fb c9 3d
       -0.0991452 0.0673178 0.08319778 0.09862466
000080 60 30 92 3b 20 0a 6a be 29 9a 9f 3e b0 54 72 bd
       0.004461333 -0.22855425 0.31172302 -0.059162796
000090 c8 ff 13 bc e2 cc b4 3e db f1 ae 3c 75 2f 81 3e
       -0.009033151 0.35312563 0.02135556 0.2523152
0000a0 2d 12 2a 3e 00 85 3b 3c 85 9d 10 bd fe 8d 5e 3c
       0.16608496 0.011445284 -0.035306472 0.013583658
0000b0 4b c1 d8 3c ad 74 a4 3e b8 47 04 3f e5 46 4c bd
       0.026459357 0.32120267 0.51671934 -0.049872298
0000c0 c7 be b0 bc 6a 23 3b be ea 17 f3 bd 08 f0 9b bd
       -0.021575345 -0.18275228 -0.118697956 -0.07614142
0000d0 b0 2b d7 bc 58 29 9c be af 37 41 3e 6b b9 9a 3e
       -0.026265949 -0.30500293 0.18868898 0.30219588
0000e0 4d 5c 00 3f ec 52 f2 3d 83 8d d0 3e 12 9c bd 3e
       0.5014084 0.11832222 0.40732965 0.37033135
0000f0 e7 c7 13 be 13 f4 8d 3d 20 82 0d 3e 97 1f 29 3d
       -0.14431725 0.06931319 0.1381917 0.041289892
000100 d4 27 7a be df 4f fc be c9 17 5d 3e d4 e4 07 3d
       -0.24429256 -0.49279687 0.21591105 0.033177212
000110 a9 f1 93 be bc 41 0c 3e 2e fb 67 3e 15 42 e8 be
       -0.2889531 0.1369695 0.22654411 -0.45362917
000120 9a 29 61 bd 72 97 08 3d fc 9c ae 3e 9b a7 99 bd
       -0.054971315 0.033347555 0.34104145 -0.07502671
000130 8c 88 90 be ed c2 4a be 2a 55 7d bd c6 82 d5 3d
       -0.28229177 -0.19800921 -0.061848797 0.10425334
000140 0d 45 83 3e d3 69 22 3c 3c b8 1f be f8 d4 a3 be
       0.2563862 0.009912926 -0.15597624 -0.3199842
000150 90 79 1f 3c f7 ca 95 3d f0 1d 24 3e a8 9c cc 3e
       0.009733573 0.07314103 0.16027045 0.3996327
000160 bf 84 1e be c4 40 a4 3e cf ff 27 3e 38 15 b0 3d
       -0.15480326 0.32080662 0.16406177 0.08597797
000170 33 3e 6d 3e 11 23 86 be 85 d3 ed bd c1 d9 93 be
       0.23168258 -0.2619863 -0.1161261 -0.2887707
000180 f8 bc 16 be 54 c1 76 be e1 38 87 3e 94 58 96 3e
       -0.14720523 -0.24097186 0.26410583 0.29364455
000190 3b ba 15 3e b5 8e ec 3d 57 87 ce bc e1 0d 24 bd
       0.14621823 0.11550657 -0.02521102 -0.0400523
0001a0 5a 86 ab be b2 58 35 3e 6e 29 89 3e 78 ef 58 be
       -0.3350094 0.17709616 0.2678942 -0.211851
0001b0 6e 59 20 be 81 73 99 be d2 61 23 3e b9 a2 6b be
       -0.15659115 -0.29970935 0.15955284 -0.23011293
0001c0 ee 03 40 3d d8 b2 30 3e 4f 5c d6 bd 10 56 77 bd
       0.046878748 0.17255723 -0.10466825 -0.06038481
0001d0 6a b3 dc 3c ef 08 88 be 2c 1d 7a 3e dd e6 00 3e
       0.02694102 -0.26569316 0.2442519 0.12588067
0001e0 79 d3 37 3c 4c a2 df be ca 94 d5 3e fd 97 6e 3d
       0.011219853 -0.4367851 0.4171508 0.058250416
0001f0 ce 77 6e 3e bf 29 b1 be 78 ea c8 be 64 be 87 bd
       0.2328789 -0.34602162 -0.39241385 -0.06628111
000200 37 f5 6a 3d 87 af d6 be 08 7b 06 3d ad 4f f8 bd
       0.05736276 -0.41930792 0.032832175 -0.12124572
000210 66 6e e4 be ca fb 2c 3e c8 da fd bb e7 b5 04 bf
       -0.44615477 0.16892925 -0.007747028 -0.5184006
000220 76 fa a5 bc a6 1a b2 bd af d2 a5 3c c3 80 63 be
       -0.02026103 -0.08696489 0.020242063 -0.22217087
000230 9a 9b db bc 26 b9 7e be 1c f3 44 be 77 a4 2b 3e
       -0.026807595 -0.24875316 -0.19233364 0.16761957
000240 d1 7f fb bc 9c 4c 7a bd fb 6e 9d bd c1 11 95 be
       -0.030700596 -0.061108217 -0.076871835 -0.29115108
000250 e7 21 b3 bd 31 da 3b be 69 11 a1 3e a3 d1 db 3e
       -0.08746701 -0.18344952 0.31458595 0.42933378
000260 96 d9 7b be 88 35 ec 3c d3 c7 8c bc 73 4a c0 3d
       -0.24594721 0.02883412 -0.017185127 0.093892
000270 df cb 11 3e b8 06 ce 3d 70 29 74 bd 8b 77 ff bd
       0.14237927 0.10059875 -0.05960983 -0.12473973
000280 bb 52 7f bd 46 2f 3d be 52 1c 89 3e 37 89 85 3d
       -0.062334757 -0.18475065 0.2677942 0.06520312
000290 43 11 8e 3d e5 d6 e1 3d 56 5d f2 bc 36 bb 3b be
       0.06936886 0.11027316 -0.029585522 -0.18333134
0002a0 e9 a2 58 be ed bf e9 3b b6 06 87 3d 15 c3 66 bd
       -0.21155895 0.007133475 0.06593077 -0.05633839
0002b0 7c f1 33 bd 3c 70 b1 bc 65 18 c1 3e 53 a2 d6 bd
       -0.04393147 -0.021659963 0.37713924 -0.1048018
0002c0 2e 4c 6a bd b9 18 1a bd 7f 78 89 bd 5c bf 71 bd
       -0.057201557 -0.037621234 -0.06712436 -0.059020385
0002d0 1a fb f6 bb e3 e9 a0 be 0f 38 8c 3e 3f f7 c3 3e
       -0.007537258 -0.3142844 0.2738652 0.3827457
0002e0 bf f6 07 3e 24 31 bb bd 39 d4 9e 3e 80 c8 9e 3d
       0.1327772 -0.09140232 0.31021288 0.07753086
0002f0 b9 2f 04 3e 85 76 c2 be 3a 44 0e bf 9c 34 7b 3d
       0.1290883 -0.37981048 -0.55572855 0.06132947
000300 6d f5 25 be 31 49 65 be 11 ed b7 3d 94 2f 0b bc
       -0.16206904 -0.22391202 0.08980764 -0.00849523
000310 71 49 7c be 0a 57 b6 3e d9 40 04 3e 7a bc ae bd
       -0.2463739 0.3561328 0.12915362 -0.08532043
000320 08 a3 bf 3c bf 9d 80 3d ec 29 a6 3b 50 13 ef be
       0.023393169 0.06280088 0.0050709154 -0.46694422
000330 3e 6b 95 bd f1 d1 8d be 01 de f4 bd 94 bb c8 3e
       -0.072958454 -0.27699235 -0.119564064 0.3920561
000340 1b 94 46 3e ce de 8c bc ee 6f 9d bd 57 29 88 be
       0.19392435 -0.017196085 -0.076873645 -0.2659404
000350 36 1c 27 3e 4d d1 86 be de 79 cf 3b 8c 09 6c 3e
       0.16319355 -0.2633156 0.0063316664 0.23050517
000360 3d 45 9c bd 82 28 72 be 33 04 be 3c ce 4e 3d 39
       -0.07630394 -0.23648265 0.023195362 0.00018053802
000370 06 0e a4 3e 42 74 88 bd bf cf 24 be ca f8 15 be
       0.3204195 -0.066627994 -0.16094874 -0.14645687
000380 ab b3 57 3d 26 b8 4c be 39 ae 0c 3e ac f9 dd ba
       0.05266158 -0.19992122 0.13738336 -0.001693537
000390 bd 09 94 3d 1b 2b 9e 3e 15 00 a0 3b 06 d1 72 bd
       0.0722842 0.30892262 0.0048828223 -0.05928137
0003a0 79 5d 40 3c 7b e8 db 3d 40 69 b9 3d 77 92 8c 3c
       0.011741036 0.107377015 0.09053278 0.017159684
0003b0 8d 07 f8 3c 92 30 a8 bd 5e bb 9b 3e 6d 5d 30 3c
       0.030277038 -0.08212389 0.30416387 0.010764462
0003c0 82 aa d3 3d f9 42 4a 3e 70 2b 0e be 35 27 1e bd
       0.10335256 0.1975211 -0.13883758 -0.03861161
0003d0 00 d7 21 3e 48 c1 86 be c6 65 79 3e 1d 3c 44 3e
       0.15804672 -0.26319337 0.2435523 0.19163556
0003e0 7e 86 3f bc a9 32 0b be 52 f6 bd 3e 3e 7e 35 3d
       -0.01168978 -0.13593544 0.3710199 0.044309847
0003f0 c1 b6 1e 3e e1 21 1a be 37 98 b5 3e 0a e7 26 bf
       0.15499403 -0.15051986 0.35467693 -0.6519629

gnn1_pool.conv2.lin_root.bias f4 [64]
000000 1b 61 87 be f4 48 fb be 9c a5 c0 be 4b 85 11 be
       -0.26441273 -0.49079096 -0.3762635 -0.14211003
000010 b2 f3 12 bd 95 6d c0 be d0 5c a4 be 14 6b b2 be
       -0.035876937 -0.37583604 -0.3210206 -0.3484732
000020 c0 ec 0c be a5 73 c9 be 93 e3 24 3e 83 df ba be
       -0.13762188 -0.39346042 0.16102438 -0.3649865
000030 5e 82 83 be 7d f1 61 be 47 4a f1 be d7 39 90 3d
       -0.256854 -0.22064777 -0.47126982 0.07042282
000040 eb 46 05 be 48 43 8d be 6d d6 68 be bd 34 ee bb
       -0.13015334 -0.27590394 -0.22738047 -0.0072694705
000050 58 42 38 bd ad 3e 94 be 6e c2 38 3d 29 15 89 be
       -0.044985145 -0.28954068 0.045107298 -0.26773956
000060 00 7f b0 3e c7 a4 ee be 58 b0 8f be f9 60 ae 3d
       0.34471893 -0.4661009 -0.28064227 0.0851459
000070 41 9c 22 be ab fa 09 be 33 59 ee 3d af 24 3a 3c
       -0.15879919 -0.13474528 0.11638107 0.011361285
000080 ea 2c e0 be 0c 3e 14 bf 87 2e 07 bf 1e 22 be 3d
       -0.43784267 -0.57907176 -0.5280537 0.09283851
000090 de d8 aa be 2a de 08 be 4e 9d 81 bd 26 09 bb 3c
       -0.33368582 -0.13365999 -0.063288316 0.02283151
0000a0 dd 83 95 be e0 7a 80 be 35 aa 8a be 80 36 d5 3c
       -0.29202166 -0.25093746 -0.27082983 0.026026964
0000b0 7f 3a 51 be 8f ec 61 be 79 af 8a 3d 4d c4 fe be
       -0.2043247 -0.22062896 0.0677175 -0.4975914
0000c0 df 99 92 be d2 0e 76 be a9 a0 ce bd ee a3 0f bd
       -0.2863302 -0.24029091 -0.10089237 -0.035068445
0000d0 93 69 b8 3d b1 51 ec bd 2c 02 aa be 48 09 1a be
       0.09004512 -0.11539019 -0.33204782 -0.15042603
0000e0 a1 14 80 be cc 75 1e be 50 a2 ce bd 4b ff 32 3d
       -0.2501574 -0.15474623 -0.100895524 0.043700498
0000f0 60 05 ce be 49 be 3d bb 38 b4 0f bf 92 c3 d6 be
       -0.40238476 -0.002895253 -0.56134367 -0.41946083

gnn1_pool.bn2.weight f4 [64]
000000 bb d0 e3 3e c4 2b a1 3f 74 55 2d 3f 40 01 05 3f
       0.44495186 1.2591481 0.67708516 0.5195503
000010 e3 01 f1 3e ca 63 f9 3e ff 39 8c 3f 70 51 7e 3f
       0.47071752 0.48708946 1.0955199 0.99343014
000020 c2 48 4f 3f 1f b9 31 3f 53 f5 13 3e 3b a8 98 3f
       0.80970395 0.694231 0.14449053 1.192634
000030 5e 9e 89 3e 4f ef 45 3f cd ba 54 3f 2f 9f 04 3f
       0.26878637 0.7731828 0.83097535 0.51805395
000040 5f 09 6a 3f 6d d6 44 3f 36 9b 78 3f 77 d4 31 3f
       0.9142055 0.7688969 0.97111833 0.6946482
000050 f2 31 9e 3c 93 b2 3a 3f e7 7e b7 3e 4d 95 86 3f
       0.019310925 0.7292873 0.35839006 1.0514313
000060 55 60 f1 3e ae 0e 61 3f cd 69 39 3f fd f3 c3 3e
       0.47143808 0.87913024 0.72427064 0.38272086
000070 e1 9d 34 3f 7a 7e 26 3f b6 46 00 3f 22 07 9b 3e
       0.70553404 0.6503674 0.50107896 0.3027888
000080 27 26 84 3f 1c 78 35 3f f5 ed e2 3e 61 35 5c 3f
       1.0324143 0.708864 0.44322172 0.8601895
000090 59 1d 69 3f 66 ee 76 3f 7f 5f 0e 3f 03 c7 71 3f
       0.91060406 0.9645752 0.55614465 0.9444429
0000a0 69 31 20 3f c0 34 b0 3e 41 ec 10 3f 9b 84 d5 3e
       0.62575394 0.34415245 0.56610495 0.41702732
0000b0 c3 96 5f 3f b6 7e 4f 3f 98 ed d8 3e c5 68 80 3f
       0.8733942 0.8105272 0.4236877 1.0031973
0000c0 8d 5f 59 3f 46 ee 23 3f cc f8 b9 3e 9a 5e f7 3e
       0.84911424 0.6403545 0.3632263 0.48314363
0000d0 58 2a d3 3e 01 0a 74 3e 04 37 c8 3e 87 00 41 3f
       0.41243243 0.23831941 0.39104474 0.7539143
0000e0 83 59 49 3f ec 92 35 3f 2c 81 43 3f fb 43 51 3f
       0.7865221 0.7092731 0.76368976 0.81744355
0000f0 1b 7d 3d 3f 41 c9 68 3f 8d 92 c5 3f 88 48 3d 3f
       0.7401902 0.9093209 1.5435349 0.739388

gnn1_pool.bn2.bias f4 [64]
000000 01 ab e6 3d cd b7 2d 3e d0 06 53 3e 27 c2 11 3e
       0.11263085 0.16964646 0.20608068 0.1423422
000010 ed cd 28 3d ea 68 0b 3e c7 17 d3 3e fb e1 a8 3e
       0.04121201 0.1361424 0.41229078 0.3298491
000020 5a c9 49 3e 90 9e 42 3e 06 d6 90 3d 0e e1 2d 3e
       0.19705716 0.190058 0.07072072 0.16980383
000030 f8 65 4f 3d 1b 7c 1f 3e 9e 9b 73 3e db af 85 3d
       0.050634354 0.15574686 0.23789832 0.065276824
000040 37 90 ea 3d 1b 80 6c 3e 1e 5a 82 3e 77 16 0f 3e
       0.11453288 0.23095743 0.2545938 0.13973413
000050 54 cf 35 3c e9 4d e0 3c 62 61 a3 3d 43 d0 a3 3e
       0.011096794 0.0273809 0.07977559 0.3199483
000060 84 94 81 bc 49 fa 98 3e b6 71 48 3e 03 7f 79 3d
       -0.015817888 0.29878452 0.19574627 0.060912143
000070 fb b3 1c 3e c3 67 33 3d 37 d2 d9 3d f3 7d 42 3e
       0.15303032 0.043800127 0.106357984 0.18993358
000080 13 32 9b 3e 9b 19 55 3e ae 07 3c 3d 38 fb 19 be
       0.3031164 0.20810549 0.04590576 -0.15037239
000090 81 6e 93 3e 0c ff 4c 3e 7e 98 10 3e b8 e0 38 3e
       0.28795245 0.20019168 0.14120671 0.18054473
0000a0 e2 42 0d 3e 79 64 b8 3d fa a6 46 3e bb 5d c9 3d
       0.13795045 0.09003539 0.19399634 0.09832331
0000b0 1d 9a 80 3e 43 92 b7 3d 4c 4f 74 bc 86 e3 9f 3e
       0.2511758 0.08963444 -0.014911484 0.31228274
0000c0 08 7f 52 3e 3c 53 0c 3e a0 42 b2 3d 36 db 1e 3e
       0.20556271 0.13703626 0.08704114 0.1551331
0000d0 fb 6e 2a 3e d4 e8 06 3e 0b d1 06 3e db 5e 94 3d
       0.16643898 0.13174754 0.13165681 0.07244655
0000e0 35 f6 6c 3e 5c e2 4f 3e 83 7f 63 3e 5f e0 72 3d
       0.23140796 0.20301193 0.2221661 0.05929601
0000f0 82 94 11 3e 65 44 14 bd 79 2b 4e 3e 22 2f 45 3e
       0.14216807 -0.03619804 0.20133771 0.19256261

gnn1_pool.bn2.running_mean f4 [64]
000000 96 a8 48 3f e0 e8 5e 3d 16 6d e8 3e 2e 3d dd 3e
       0.7838224 0.054421306 0.45395726 0.4321074
000010 97 40 42 3f ac e5 71 3f 42 ef a8 3f 2b 30 46 3f
       0.75879806 0.94491076 1.3198016 0.7741725
000020 bf fa 3f 3e 54 41 64 3f a2 12 94 3f 2e 6f bf 3d
       0.18747996 0.8916218 1.1568186 0.09347378
000030 e6 ac e1 3f 73 b7 b7 3e 4e e6 0a 3f bd 82 1f 3f
       1.763089 0.35882148 0.5425767 0.62308866
000040 50 a0 c9 3e 16 37 e2 3e 86 a9 a7 3e 4a b1 51 3f
       0.3938012 0.44182652 0.32746524 0.81911147
000050 e1 be 7d 3f f1 56 e0 3e 8c 37 82 3f a6 cf 15 3f
       0.99119383 0.4381633 1.0173202 0.5851997
000060 60 d9 a4 3f 2c 87 81 3f 18 20 70 3f b1 f1 f8 3f
       1.2878838 1.0119376 0.9379897 1.9448758
000070 67 6f 0f 3f e3 d2 d5 3e 87 49 ce 3f 84 97 46 3f
       0.5602936 0.41762456 1.6116189 0.77574944
000080 6b 47 85 3e f0 46 b5 3e c2 79 8f 3d c3 1b fe 3e
       0.2603105 0.35405684 0.07005645 0.49630556
000090 f7 f1 9d 3f eb 24 88 3f c6 89 fe 3e 69 19 66 3f
       1.2339467 1.0636266 0.49714488 0.8988252
0000a0 2f f4 bc 3f 2a 4f 50 3f d5 8f ba 3f 18 b0 53 3f
       1.4762019 0.81370795 1.4575144 0.8269057
0000b0 17 0c 97 3e 9e 30 f5 3e 82 47 fa 3e 5f 1d b5 3e
       0.2950141 0.47888654 0.4888268 0.3537397
0000c0 79 71 2e 3e 37 26 35 3e 0f 27 cb 3e 89 a7 68 3f
       0.17035474 0.17690359 0.39678237 0.9088064
0000d0 ce 06 cc 3f 2f 16 f0 3e a8 e7 ef 3f 88 69 9c 3f
       1.5939577 0.46891925 1.8742571 1.2219706
0000e0 50 da bf 3e d8 80 64 3f d2 c2 c1 3e ce da 52 3f
       0.37471247 0.892591 0.3784395 0.8236512
0000f0 c3 ea 0b 3e 9b b9 3c 3f 98 4b 0b 3d 9d 43 29 3f
       0.13663773 0.7372071 0.03400764 0.66118795

gnn1_pool.bn2.running_var f4 [64]
000000 83 90 26 41 5f 76 0f 3e da 57 12 40 60 0b 3a 40
       10.410281 0.14009999 2.286612 2.9069443
000010 18 a9 71 40 d3 71 47 41 54 8e 92 41 a9 ef eb 40
       3.7759457 12.465289 18.319496 7.3730054
000020 24 15 96 3e 60 74 54 41 a8 a7 8d 3f 2e 78 82 3e
       0.29313004 13.278412 1.106679 0.25482315
000030 ad b7 af 41 35 83 80 3f 10 c7 a1 40 93 ae 22 3f
       21.964685 1.0040041 5.0555496 0.6354763
000040 9f b3 20 3f 74 83 17 3f 4c 6d eb 3f 96 64 51 40
       0.6277408 0.59184957 1.839273 3.2717643
000050 17 94 6c 3f 03 a5 d4 3f 05 73 0c 40 94 53 14 40
       0.9241347 1.6612858 2.1945202 2.3176012
000060 17 1f e8 3f 3a 71 3c 41 20 66 29 41 29 a4 1e 40
       1.8134488 11.777643 10.587433 2.4787695
000070 88 85 05 40 c7 e0 ec 3f a8 e2 c0 3f bf 14 43 3f
       2.086275 1.8506097 1.506917 0.7620353
000080 f1 65 46 3f b7 7b f2 3f 61 1f ba 3e f5 6b f3 3f
       0.774993 1.8944005 0.36352065 1.9017321
000090 35 90 94 41 4d 72 d5 40 b2 0f 26 3f 56 38 49 40
       18.570414 6.6702027 0.648677 3.1440635
0000a0 bd 2f 8d 41 19 f1 42 41 60 dc 95 41 61 cf 13 41
       17.64831 12.183862 18.732605 9.23813
0000b0 dc 08 5f 3f 40 0b 46 3f 82 74 d2 3f 40 05 bc 3f
       0.87122893 0.77360916 1.6441805 1.4689102
0000c0 18 8c c0 3e aa 29 0f 3f c1 a7 ff 3f d7 66 46 3f
       0.37606883 0.5592295 1.997307 0.7750067
0000d0 93 f1 28 40 06 ee 0a 3f cb 95 d4 41 46 fe 08 41
       2.6397445 0.54269445 26.573141 8.562078
0000e0 05 63 07 40 63 11 46 3f ca 2e af 3f ed 39 76 3f
       2.1154187 0.7737028 1.3686154 0.9618214
0000f0 d9 01 15 3f 99 bb 0c 3f cb 2c 47 3d 8a ac cc 40
       0.58205944 0.5497375 0.048626702 6.396062

gnn1_pool.conv3.lin_rel.weight f4 [50, 64]
000000 b6 94 10 3d 71 80 1b 3e 6d e5 66 3c 61 f0 7e 3e
       0.03529807 0.15185715 0.014092785 0.24896385
000010 80 1f 21 3e fa 23 0b 3e c0 8a 10 3d b3 50 f2 bd
       0.15734673 0.13587943 0.035288572 -0.118317984
000020 c0 55 1f bd e3 9f 99 bd 1c 2c a3 be 4c 2e 97 3d
       -0.038900137 -0.07501199 -0.3186959 0.07381877
000030 77 2a 82 be 43 f9 43 3e 96 04 20 be 38 ac 13 bd
       -0.25423023 0.19138055 -0.1562675 -0.036052912
000040 ba c3 dc be b6 1b 3e bf 10 8c 40 3e 7b 62 8f 3e
       -0.43118078 -0.74261034 0.1880343 0.28004822
000050 4e be ed be 3c 0f 5a 3e 60 e4 0c be c9 1a b7 3d
       -0.46434253 0.21294874 -0.13758993 0.08940656
000060 f5 51 04 be e0 f6 64 3d 94 8f 30 3e db a0 a5 be
       -0.12921889 0.0558995 0.1724227 -0.32349285
000070 4b 89 3a 3d 7f e7 63 3e 8e 15 a8 be f7 99 9d be
       0.04554109 0.22256278 -0.32828945 -0.30781528
000080 40 5b 40 3d a3 f6 99 3c d7 33 d4 be 23 17 20 3f
       0.046962023 0.018794363 -0.414458 0.62535304
000090 51 6c a2 3c f1 d0 72 be 49 6b 89 be 3e 22 b7 3e
       0.01982704 -0.23712517 -0.26839665 0.35768312
0000a0 e5 82 26 be 5e d4 b9 3d 0d 50 12 be 2c 42 d2 3e
       -0.1626087 0.09073709 -0.1428835 0.4106611
0000b0 65 86 18 3c 6b 23 b1 bd 97 d6 06 3f 95 93 0e 3e
       0.009309386 -0.086493336 0.5267119 0.13923486
0000c0 79 bb 6e 3e b8 9e 6f bd 2f 07 a4 3e ec 56 cf be
       0.23313703 -0.058500975 0.3203673 -0.40496004
0000d0 a8 c5 a1 be 9d 44 45 3c e1 04 44 be a4 bf a0 3d
       -0.31596112 0.012040284 -0.19142486 0.078490525
0000e0 fc 99 12 3e 9c 23 00 bf a5 8a 56 3e 46 69 34 bf
       0.14316553 -0.50054336 0.20951326 -0.70473135
0000f0 09 d2 c5 3e 5f 82 a6 be 34 6c 39 3c b3 92 06 3e
       0.38636807 -0.3252134 0.011317302 0.13141899
000100 4a a2 d9 be ea f2 24 be 45 23 5b 3e 3b 41 c0 3d
       -0.4250663 -0.1610829 0.21400173 0.09387442
000110 3e e9 80 bd 92 b5 3e 3e a9 0a be bb 91 65 29 bc
       -0.062944874 0.18623951 -0.0057996106 -0.010339157
000120 b4 19 b8 3c 74 2f 27 be 50 ce da be 79 e7 77 3d
       0.022473194 -0.16326696 -0.4273553 0.060523484
000130 22 21 65 be 62 74 5f be ff cd 69 be bc 4c 8d 3d
       -0.2237592 -0.2182174 -0.22832488 0.068994015
000140 51 37 6e 3d 3e 81 c6 bd fb c7 c0 bd 7a fa 50 bd
       0.058158223 -0.0969262 -0.09413143 -0.051020123
000150 8e ce cf be 5a 8e 7d bd 9b ce ed bd 21 72 ab 3e
       -0.40587276 -0.061903335 -0.116116725 0.3348551
000160 ca 3b d1 be 2e ea 7f bd 43 66 1f 3e 62 79 8f 3b
       -0.40865928 -0.06247919 0.15566353 0.0043784836
000170 7c 3a d5 bd 47 e4 46 be 9c a8 85 be 63 28 1b 3e
       -0.10411546 -0.19423018 -0.261052 0.15152125
000180 d7 18 20 be 66 35 88 3e 13 62 ca bd 67 c5 01 3e
       -0.15634476 0.2660324 -0.098819874 0.1267296
000190 db 2d de bd ce 8d 8f 3e 12 dd 3f bf c7 96 03 3f
       -0.1084859 0.28037876 -0.749467 0.5140194
0001a0 ac 67 ca bc ff ae 22 3e ef b9 dc 3d e8 07 e7 3d
       -0.024707638 0.15887068 0.107776515 0.11280805
0001b0 4a 81 d8 3e 1b 98 49 3e 1e d4 9c bd 60 9d 4c 3d
       0.4228614 0.1968693 -0.07657646 0.049954772
0001c0 1b c0 01 3f 85 5a d1 3c 60 30 13 bd 0e 0a 76 bf
       0.50683755 0.025555858 -0.035934806 -0.9610909
0001d0 75 e3 07 bd b1 ed 0c be 8e 6b 2c be 5a 24 2f bd
       -0.033175904 -0.13762547 -0.16837904 -0.042759277
0001e0 47 45 f7 bd a4 43 c7 bd fe ef ae 3e 8e 5d 1b be
       -0.120737605 -0.09729698 0.34167475 -0.15172407
0001f0 2b e3 cf be 3e d0 b9 be ff 15 db 3e b0 9d 0e 3e
       -0.40603003 -0.3629169 0.4279022 0.1392734
000200 63 d6 83 3e 3c 0a 96 be 0e 4a 9b 3d 41 48 9d 3e
       0.25749502 -0.29304683 0.07582484 0.30719188
000210 74 71 53 3d e2 9f 27 3e 8c 5c 15 bf 9f aa 2c be
       0.05162187 0.16369584 -0.5834434 -0.16861962
000220 0d 67 13 3e ca ca 06 bc 12 fb 02 3e 83 a5 35 bf
       0.1439478 -0.00822706 0.12791088 -0.70955676
000230 39 ad 94 be 2f 1f 45 be 53 db 0a 3f 65 85 8b be
       -0.29038408 -0.19250177 0.5424091 -0.2725021
000240 b5 46 40 3e a2 c8 e0 bd 9a d0 00 3e 85 fc 9d 3d
       0.18776973 -0.10975768 0.12579575 0.0771418
000250 50 73 e0 ba b8 c4 06 be c8 5f 4f be 9a 33 31 be
       -0.001712421 -0.1316098 -0.20251381 -0.1730484
000260 3f 0c 52 3c d3 b4 9f be 72 f3 47 be c1 75 28 bd
       0.0128203025 -0.31192645 -0.19526461 -0.041127924
000270 4f 7f a7 bd c9 86 00 3f 2b cb 7f 3e f2 af 85 be
       -0.08178579 0.50205666 0.24979846 -0.26110798
000280 45 66 62 bf 9e 21 ee bd 80 19 32 3e fa 57 ab 3d
       -0.884373 -0.11627506 0.1739254 0.083663896
000290 96 2d 3f be 3e f7 8c 3d 37 7e 19 be 9e 13 c0 be
       -0.18669733 0.06883095 -0.14989553 -0.37514967
0002a0 87 f5 a2 be d9 7c a1 3d ea a9 c6 bd 9f 47 88 bd
       -0.31827947 0.07885141 -0.09700377 -0.06654286
0002b0 62 e5 19 3d e5 c5 05 3f cd d7 8c 3d f1 e9 65 be
       0.037572272 0.5225509 0.06877098 -0.22452523
0002c0 d7 ff aa be 31 e6 f5 bc b8 69 1d 3e a6 1a 3c bd
       -0.33398315 -0.03001699 0.1537236 -0.04592385
0002d0 60 16 f1 bd 9a 85 89 be d9 c9 20 bd 43 3b 6b bd
       -0.11771846 -0.26859742 -0.039254997 -0.057429563
0002e0 a3 68 10 be 17 db c5 3c 7f 37 a5 be 8d 70 1b 3e
       -0.14102416 0.024152322 -0.32268903 0.15179653
0002f0 39 1f f4 3d 0c c9 ed bd b4 5f 85 bf 4a ee 34 be
       0.11920018 -0.11610612 -1.0419831 -0.17669025
000300 2e 9f ee bd f2 55 2a bd fc 8c 0b be df c8 8b be
       -0.11651455 -0.04158587 -0.13628 -0.2730169
000310 1f 3d 67 3d fc e4 89 bc ac d9 60 be 7e fe c7 bd
       0.056454774 -0.016832821 -0.21958035 -0.097653374
000320 44 d3 80 bf 6e f3 8b bd 90 9b 43 bf 61 10 c1 bc
       -1.0064473 -0.0683354 -0.76409245 -0.02356738
000330 4e 5b 7a 3e 08 4f 0b be 7d cd 93 3e 68 c3 62 3d
       0.24448892 -0.13604367 0.28867713 0.055362135
000340 46 e2 2c be 49 d4 fe bc 48 a5 be 3c 23 c0 6a be
       -0.16883191 -0.031107085 0.023272172 -0.22924857
000350 88 07 80 bf 25 d8 13 be a0 be 20 be 83 66 0f be
       -1.0002298 -0.14437921 -0.15697718 -0.14003949
000360 d7 3d 24 3c db 88 ee bd 3a 33 b5 bc 6e 96 3b be
       0.010024509 -0.11647197 -0.022119153 -0.18319103
000370 9b 95 d1 bd 24 4d 9a 3e 75 82 ae bd 60 fe 70 be
       -0.10233613 0.3013698 -0.085209765 -0.23534536
000380 67 41 d4 be 97 e3 8a bd 53 22 a6 bc ed 39 35 3e
       -0.41456148 -0.067816906 -0.020280039 0.17697878
000390 23 9b 11 be 2f cb 6d 3e 98 e0 0d bd ef d7 50 be
       -0.14219336 0.2322204 -0.034638017 -0.20394872
0003a0 f6 59 1a 3e 02 ea 9c bd b2 1e 44 be 5a 1f 92 bd
       0.1507338 -0.07661821 -0.19152334 -0.07134886
0003b0 c5 aa a4 be 4f 26 2e 3f e7 c9 4e 3d 25 16 81 bd
       -0.32161537 0.68027204 0.050485518 -0.06303052
0003c0 f1 6a ae be 6f 73 17 be 68 57 bf 3c 0c 22 81 be
       -0.34065965 -0.14790128 0.023357108 -0.25221288
0003d0 82 03 de be cc a0 7c be 5b c3 7c bb e8 52 15 3e
       -0.4336205 -0.24670714 -0.003856859 0.14582407
0003e0 c8 d9 20 be f0 bc 25 be 26 3e b7 bd 75 1f 8c bd
       -0.15708077 -0.16185355 -0.08947401 -0.068419375
0003f0 6b 50 92 be 91 6e d1 3d 27 4e a5 bd 4a 47 7c 3d
       -0.2857698 0.10226167 -0.08071547 0.061591424
