model/BA200_p0.1_m50_train_p1.pt (torch, 793665 bytes, 113 tensors)

gnn1_pool.conv1.lin_rel.weight f4 [64, 2]
00000000: 26bd bd3e f0b7 fcbe 20c0 673e 5ca0 183f
00000010: 892f e23e 5781 f8be 4f18 5dbe 23ef 513f
00000020: 9f5f 6e3d 45ea debd 4d9e 6f3f ec2c 1dbf
00000030: 11e1 343e 07f0 843f 014e a4be ab62 86be
00000040: 6a38 dabe 4334 3b3f c55a 013e a2cd 39bf
00000050: c82f 983e c802 c03e 5b3e 34bf 335d 18bd
00000060: d599 d0be 1821 ff3d 4dc6 9bbd ab73 50be
00000070: f3f2 84bd b92f aebe 9c79 b83e 67c8 013d
00000080: 4370 7b3e f9f6 7f3e 44c5 46be e191 973f
00000090: 9a13 f1bd 5f12 e13c f6cf 133f 7806 43bf
000000a0: 853f 26bf 4f99 573f cddb e9be 4600 26bf
000000b0: 32d4 b6be c571 053f 1fba 1a3e 4de3 883f
000000c0: 05fa 0c3f dfff 4cbf 8dd7 8dbe 26af 623e
000000d0: bcbd 143e 768d ab3e 6eb3 67be 6db9 d43d
000000e0: d9df 4fbd 7a00 e93e e9c8 15bf a4b8 083f
000000f0: 53e7 603f 4dcd 55bc 2635 5ebf 5681 443e
00000100: 2d1b c1be f48b 663f f55e a13e 725e 243f
00000110: f32f 18bf a3cc b6bd 09b3 23bf 182f 563f
00000120: fdc6 0e3e 102c 41be b671 ffbe 75e6 f1be
00000130: fb22 8dbe 8893 333f e373 20bf 7742 d3be
00000140: e3ce ed3e aeea 16be 6587 e63e f2bc e4be
00000150: e5e2 b93e 37b7 7cbe e607 593e 6683 c4be
00000160: e546 9abe e7d4 c63c 6c45 60be 5dd2 423c
00000170: cca6 253f d0a5 24bf a363 0e3e f31b 1ebe
00000180: f6af 15bf 4dc8 b9be 0cab 2ebe 16af 72be
00000190: 051f 8ebe e629 95be c23a 973e 3025 f53e
000001a0: 4537 433d 9cc7 06be a9ab 72be d115 5ebe
000001b0: ebca 10bf 18fa ddbe 9218 0b3f 9463 93be
000001c0: 1099 1e3e 0f27 143f a913 c63e a419 01bf
000001d0: 1bb9 94be 9233 3e3f b824 273f 544c 2e3f
000001e0: 5cd2 b63d b29a 9d3e c494 08bf 03f3 2d3f
000001f0: 1301 2bbf 1ac0 363f dbcb 8dbc bf2f cd3e
0.3705837 -0.49359083 0.22631884 0.5961969 0.4417689 -0.48536178 -0.21591304 0.8200552
0.05819666 -0.10884527 0.9360092 -0.6139667 0.17663981 1.038575 -0.32090762 -0.26247153
-0.42621166 0.7312662 0.12632282 -0.72579396 0.29723954 0.37502122 -0.70407647 -0.037198257
-0.40742365 0.12457484 -0.07606182 -0.20356624 -0.064916514 -0.34020784 0.3603028 0.03168526
0.24554543 0.24996556 -0.19411188 1.1841394 -0.11771317 0.02747458 0.577392 -0.76181746
-0.64940673 0.84218305 -0.45675507 -0.6484417 -0.35708767 0.52126724 0.15110062 1.0694367
0.55069 -0.8007793 -0.27703515 0.22137126 0.14525503 0.33506364 -0.2262704 0.1038693
-0.050750587 0.45508176 -0.5850969 0.5340674 0.8785297 -0.013049436 -0.8679985 0.19189963
-0.37716046 0.900573 0.3151776 0.6420661 -0.59448165 -0.0892575 -0.6394506 0.8366561
0.13943096 -0.18864465 -0.49891442 -0.47246137 -0.2756575 0.7014699 -0.6267683 -0.41261646
0.46446905 -0.1473796 0.45025173 -0.44675404 0.3630592 -0.24679266 0.2119442 -0.383815
-0.30132213 0.024271442 -0.21901482 0.011890975 0.64707637 -0.6431551 0.13905196 -0.1544035
-0.5847162 -0.3628563 -0.17057437 -0.23699602 -0.2775804 -0.29133528 0.29537016 0.47879934
0.04766013 -0.13162082 -0.23698296 -0.2168801 -0.5655963 -0.4335487 0.54334366 -0.2878691
0.15488076 0.578721 0.38686875 -0.5042975 -0.29047474 0.7429744 0.65290403 0.6808522
0.089268416 0.30782086 -0.53352 0.6794893 -0.66798514 0.71386874 -0.01730912 0.4007549

gnn1_pool.conv1.lin_root.weight f4 [64, 2]
00000000: ac14 dfbe e7cf 053f bbc8 123f 654a 87be
00000010: f5dc 4abf cd7a 1c3e 3c1d f6bd bffc 1b3e
00000020: 46aa 6c3f bb90 14bf b742 083f a1f3 dc3e
00000030: 702a 07bf 5851 4bbe 66c8 c03f d171 d4be
00000040: 62df c9be bf20 9e3e bc7c 99be 6e47 0f3f
00000050: e03e 5abf 856f 303f 1143 0b3f 19f8 c7be
00000060: 086d 5dbf 7b57 c53e c1b6 50bd dbd5 a83e
00000070: a93d 16be 54c0 4f3d edf8 fabd 8b30 823f
00000080: 6ba6 57bf d4cd 823f 971f c13e c505 0a3f
00000090: e510 4c3f 2686 2fbe 2960 023f 2110 c93c
000000a0: feef de3e cc5a 8ebf 7597 8ebd ab7f 073f
000000b0: 770a 853e 55cc 03bf 1dd2 2abf f3d6 743e
000000c0: bb42 2e3f 2061 59be a9d7 18bc ab02 5a3f
000000d0: 1d06 12bf 6352 8e3f f9d4 1d3f 5314 88be
000000e0: d3d7 4dbf 3308 3d3f 50f0 c2be 17ea 20bf
000000f0: e75e acbe 7bbd 2b3f bc31 c9be c6d7 133f
00000100: 7b69 64bf 9b40 183d 267f 23be 0c2b 2d3f
00000110: ce79 01bd 08a3 f03e 0ad2 653e 6c69 05be
00000120: 51c9 e53d 3f5d 813e c5c0 90bd 047a 003f
00000130: 68cc 9d3e c8e2 f03e 9b6a abbe 0b34 4dbe
00000140: 6065 2ebf 09c1 c7bd 6d1d 2a3f 27eb 85bd
00000150: cf1d a63e d914 4cbe 25fc 253e 6771 a03d
00000160: 4161 b43d 11b6 01bf d618 5bbe ca55 14bf
00000170: 1595 0c3f ff97 adbe d5a4 c43d 604b 733f
00000180: 19b7 3d3d 0f65 553e fd20 79be 1f0c 84be
00000190: efe0 2440 5fde 8bbf 49bc 2a3f 3010 38bd
000001a0: 3602 ddbd 4ecf 2a3f 2bf5 aa3e 3dea 29bf
000001b0: 39fd d03e 3bd0 20bf d613 84be f8c5 0f3f
000001c0: 27db 513d bb27 6d3f cc20 a13e cbcd 2cbf
000001d0: b760 95be cf28 b2bf 8bdc a63f c3c4 2abf
000001e0: 51cb 463f ab88 8bbc 8432 f1be 7a48 07be
000001f0: 6afa ca3d 018e a8bf 6b93 eabe e445 29bf
-0.4357046 0.5227036 0.5733754 -0.26423946 -0.79243404 0.1528122 -0.12017295 0.15233134
0.92447317 -0.5803334 0.532268 0.43154624 -0.5279913 -0.19855249 1.5061157 -0.41493085
-0.3942824 0.30884358 -0.29977977 0.5596837 -0.8525219 0.68920165 0.5439921 -0.3905647
-0.86494493 0.38543305 -0.050955538 0.3297566 -0.14671959 0.050720528 -0.1225451 1.0171064
-0.8423831 1.0219064 0.37719414 0.53915054 0.7971328 -0.17141017 0.5092798 0.024543824
0.43542475 -1.1121459 -0.06962482 0.5292918 0.25984547 -0.5148366 -0.6672686 0.23910122
0.6807057 -0.21228456 -0.009328761 0.8516032 -0.5704058 1.1118892 0.61653095 -0.26578006
-0.80407447 0.73840636 -0.3807397 -0.6285719 -0.33666155 0.67086 -0.39295757 0.5775112
-0.8922345 0.037170988 -0.15966472 0.6764381 -0.031610303 0.46999383 0.22443405 -0.13028497
0.11220039 0.25266454 -0.07068018 0.5018618 0.30820012 0.4704802 -0.3347977 -0.20039384
-0.68123436 -0.097536154 0.6645115 -0.065389924 0.32444617 -0.19929828 0.16209467 0.0783413
0.08807612 -0.50668436 -0.21396193 -0.57943404 0.5491498 -0.33905026 0.09601752 0.9503689
0.046317194 0.20839332 -0.2432899 -0.25790498 2.5762289 -1.0927237 0.6669355 -0.044937313
-0.10791437 0.6672257 0.33390173 -0.66373044 0.40818194 -0.62817734 -0.25796384 0.5616145
0.05123439 0.9263875 0.31470335 -0.67501515 -0.2917535 -1.3918704 1.3036054 -0.66706485
0.77653986 -0.017032942 -0.47108853 -0.13211241 0.09911044 -1.3168336 -0.45815596 -0.6612227

gnn1_pool.conv1.lin_root.bias f4 [64]
00000000: a747 653d b32b 3f3f aea3 e43e d79a 77be
00000010: 2c68 553e a32b 443e 17a4 bc3e 04c5 293f
00000020: 8c69 c9be 752c 0b3e 781b e33e a289 d33e
00000030: 9bd5 3b3f 2547 19bf c371 c7be dec3 f63d
00000040: 5b86 1f3f 2103 f5be 488b 113f f52c 853d
00000050: 5d70 863e ed1d 1fbf 3a26 8c3e 9308 31bf
00000060: c3c7 2fbf 520d 073f 9680 703e 1b5f fa3e
00000070: e21e e23e 59ee 98be 00f3 13bf 202d 8dbd
00000080: 1c11 6bbd 8d92 a43e 6900 1abf 7832 e9bd
00000090: 3521 cbbe 2c0f e5be a11c 14bf 606e a83e
000000a0: 42e9 fabe f2ac 183e abdf 38bf baf8 e3be
000000b0: ed21 40be 99b8 0dbf a3f8 adbe b5c1 e43d
000000c0: 1d56 8fbd c1ee dcbe 8e4c af3f 29aa 493e
000000d0: 5194 ec3e 93d2 11be b311 12bf ac25 9dbe
000000e0: 2825 473d 9e68 41bf 9bb5 243f 60b9 043f
000000f0: bd20 9d3e 006c 9c3e cc3b 1a3f 7496 34bf
0.055976536 0.74676055 0.44656128 -0.2418016 0.2084052 0.19157271 0.3684394 0.66316247
-0.39338338 0.13591178 0.44356894 0.41315943 0.7337281 -0.5987418 -0.3895398 0.120490775
0.62314385 -0.4785395 0.5685315 0.065027155 0.262576 -0.6215504 0.27372915 -0.6915371
-0.6866419 0.527547 0.23486552 0.48900685 0.44164187 -0.29869345 -0.57792664 -0.068933725
-0.057389364 0.3214306 -0.60156876 -0.11386579 -0.39673772 -0.44738138 -0.57856184 0.3289671
-0.49006087 0.14909723 -0.7221629 -0.445257 -0.18762942 -0.553598 -0.33978757 0.11169759
-0.06998847 -0.43150905 1.3695238 0.19693817 0.46206906 -0.14240484 -0.57058257 -0.30692804
0.04861942 -0.7555026 0.6433961 0.5184536 0.3068904 0.30551147 0.6024749 -0.70542073

gnn1_pool.bn1.weight f4 [64]
00000000: 01c8 5d3f a637 2f3f 0530 4f3f 7ae0 a93f
00000010: 7ed1 113f a509 1c3f 1ccd e73e 131c 613f
00000020: 5584 e33f 12d7 8a3f d857 393f 8b2e 6d3f
00000030: d825 713f 0000 803f 0000 803f dc34 3a3f
00000040: 6fe1 453f ce1a 1d3f f619 1f3f 4e8d 163f
00000050: 8e1f 793f 0000 803f 2f98 5a3f f138 bd3f
00000060: f7dd 643f d3c2 233f 5298 523f aeca 0d3f
00000070: 5c12 2d3f 0000 803f eca4 4f3f 255e de3f
00000080: 11ee f73f dbc5 3e3f 0000 803f c1fe bc3f
00000090: 0000 803f 0000 803f d445 903f 0000 803f
000000a0: 0000 803f bb81 503f fd8d 883f 0000 803f
000000b0: 0000 803f 0000 803f 1ce0 fc3e cf78 3c3f
000000c0: 0000 803f 0000 803f 1eb5 553f 0720 1b3f
000000d0: 6405 233f 0000 803f 0000 803f 4639 523f
000000e0: 3d80 163f 7837 913f 03d8 063f 9a63 3e3f
000000f0: 809b fd3e d899 cb3f ed30 843f 0000 803f
0.86633307 0.6844429 0.80932647 1.327163 0.56960285 0.60952216 0.45273674 0.8793346
1.777476 1.0846884 0.72399664 0.92649144 0.9419837 1.0 1.0 0.72736907
0.7729711 0.61369026 0.6214899 0.58809364 0.97313774 1.0 0.85388464 1.4783002
0.8940119 0.63969153 0.8226367 0.5538739 0.6760614 1.0 0.81111026 1.7372481
1.9369527 0.74520653 1.0 1.4765245 1.0 1.0 1.127131 1.0
1.0 0.81447953 1.0668331 1.0 1.0 1.0 0.49389732 0.7362184
1.0 1.0 0.8347949 0.60595745 0.636801 1.0 1.0 0.8211864
0.58789426 1.1345053 0.5267336 0.7437073 0.495327 1.5906324 1.0327431 1.0

gnn1_pool.bn1.bias f4 [64]
00000000: ad37 283c c577 01be 6982 0f3e 8a18 5f3e
00000010: 9e57 87be 6b4b 55bd 7fa9 d43d 3f86 2fbd
00000020: 147e 3c3e f43c 883e 8791 2f3e a29e c8bd
00000030: 70ca 6b3e fbed eabb 67a4 f1bb f51d 5a3d
00000040: 234d d43e b91b 903d a998 14be 81eb 47bd
00000050: e412 f63c a443 cd3a a57e 19bb fbb6 b33e
00000060: d41f 323d b6dd 4e3e 3fd7 353e 86f5 0bbe
00000070: 8612 5d3e ee1e 5c3b 8729 c43e cb58 a43e
00000080: 64aa b33e e577 4f3e 4e40 453e 63ea 163e
00000090: 6b70 fbbb 4f18 af3b 2b81 243e 2515 f13b
000000a0: 804a 783b 3556 02be 1f2c 0d3b 7161 a1bb
000000b0: 113b 553e fa61 7bbe f4ef 14bd f49c 1e3d
000000c0: ba00 a63b c476 6bbb 35c8 46be 5857 9bbe
000000d0: 1e02 633e 31b8 4abb 128c a63e 5db3 8d3e
000000e0: f89c 493e 3bf7 a0bb 6f4f 30bc 4426 e0be
000000f0: 3b2d 63be ca9c ae3e 97ea 573c 7006 a3ba
0.01026718 -0.12643345 0.14014591 0.21786705 -0.26434034 -0.052073877 0.10383891 -0.042852636
0.1840747 0.26609004 0.17145358 -0.09795882 0.23026443 -0.0071694828 -0.0073743346 0.053251226
0.414651 0.07036538 -0.1451136 -0.04880858 0.030038305 0.0015660417 -0.0023421433 0.3510054
0.043487385 0.20201764 0.17757891 -0.13667879 0.21589097 0.0033587771 0.38312933 0.32098994
0.35090935 0.2026058 0.19262812 0.14737849 -0.0076733134 0.005343474 0.16064899 0.007357257
0.0037886202 -0.12728198 0.002154119 -0.004924946 0.20823313 -0.24549094 -0.03636165 0.0387239
0.0050660046 -0.0035928944 -0.1941231 -0.30340075 0.22168776 -0.003093254 0.3252874 0.27675906
0.19688785 -0.0049122847 -0.010761126 -0.43779194 -0.22185223 0.34103996 0.013178489 -0.0012437832

gnn1_pool.bn1.running_mean f4 [64]
00000000: 9ef0 de3d dc7a be3f 0421 123e b421 853d
00000010: 59c1 673f 786a 933f 232c b73e 084c bc3f
00000020: 49ae 033d accf ab3d 1e7d 9f3e cdd9 b03e
00000030: 8dea 533e 0000 0000 0000 0000 616e fd3e
00000040: 00eb d73e 1821 7a3e c4b4 8b3f 9b84 293f
00000050: d1c7 b53e 0000 0000 995b ab3e 645f 1f3d
00000060: 39b6 473e 5884 143f 1007 ac3e 0c39 4c3f
00000070: f192 963e 0000 0000 e20b e33d b057 323d
00000080: 5b01 6d3d 1fda 413f 0000 0000 fa86 ad3d
00000090: 0000 0000 0000 0000 20c6 443d 0000 0000
000000a0: 0000 0000 8d6b 573f 0400 0000 0000 0000
000000b0: 0000 0000 0000 0000 a613 d43e 1332 de3e
000000c0: 0000 0000 0000 0000 e8c6 3840 2aae 883f
000000d0: e805 023f 0000 0000 0000 0000 fcb2 a53d
000000e0: acc6 123f 0400 0000 1495 893e 0b27 0440
000000f0: 9854 893f ea42 963d ba53 a33e 0000 0000
0.10885738 1.4881244 0.14270407 0.06500569 0.905294 1.1516867 0.3577586 1.4710703
0.032148633 0.0838922 0.31150144 0.3454117 0.20694943 0.0 0.0 0.49498275
0.42171478 0.24426687 1.091454 0.66217965 0.3550401 0.0 0.3346832 0.03890933
0.19503106 0.5801444 0.33599138 0.79774547 0.29408982 0.0 0.11086251 0.043540657
0.05786262 0.7572345 0.0 0.0847301 0.0 0.0 0.04804051 0.0
0.0 0.84148484 6e-45 0.0 0.0 0.0 0.4142124 0.4339758
0.0 0.0 2.8871403 1.0678151 0.5079026 0.0 0.0 0.08090779
0.573344 6e-45 0.2687155 2.064883 1.0728941 0.073369816 0.31899816 0.0

gnn1_pool.bn1.running_var f4 [64]
00000000: a2cb 5b3d 95d6 d13d 20b3 7e3d 82ad b43c
00000010: 0a87 613e 63be 2a3e 656c b23d d743 143f
00000020: 7345 4a3c b628 0f3d 13c1 b83e 2d05 4f3d
00000030: 02a1 263e 0400 0000 0400 0000 b186 473e
00000040: 4ff4 133f a02a b93d 0bb6 163e 6cab 193e
00000050: a0af 023e 0400 0000 835e 6e3d 79b2 603c
00000060: ee33 3c3d db4b 303e 211f d73e 0702 eb3d
00000070: 779e a43e 0400 0000 04da 643d 8cf7 8f3c
00000080: e38a eb3c f273 133e 0400 0000 2b18 083d
00000090: 0400 0000 0400 0000 5cb8 603c 0400 0000
000000a0: 0400 0000 ca30 2b3e 0400 0000 0400 0000
000000b0: 0400 0000 0400 0000 c6f8 d83d bc62 dd3d
000000c0: 0400 0000 0400 0000 67b6 0e40 f4a0 9d3d
000000d0: cc89 bc3d 0400 0000 0400 0000 0cad 053d
000000e0: 2ba4 2b3e 0400 0000 f255 833d 7683 243f
000000f0: 3c81 c23d c11f f23c 5658 dc3d 0400 0000
0.053660996 0.102460064 0.062182546 0.022055391 0.2202417 0.1667419 0.08712081 0.57916015
0.01234566 0.034950934 0.36084804 0.050542045 0.16272357 6e-45 6e-45 0.19484974
0.5779466 0.09041333 0.14717881 0.15006799 0.12762308 6e-45 0.058195602 0.013714426
0.04594796 0.17216437 0.42015937 0.11474996 0.3215215 6e-45 0.05587198 0.017574094
0.02875275 0.14399698 6e-45 0.033226173 6e-45 6e-45 0.01371583 6e-45
6e-45 0.1671783 6e-45 6e-45 6e-45 6e-45 0.10594325 0.10809848
6e-45 6e-45 2.229883 0.07696715 0.0920597 6e-45 6e-45 0.032635733
0.16761844 6e-45 0.06412877 0.64263093 0.09497306 0.029556157 0.10759036 6e-45

gnn1_pool.conv2.lin_rel.weight f4 [64, 64]
00000000: a825 1b3e 1e0c df3d 521b f83d baac 30bf
00000010: a35a e3bd 20f2 66be 4724 0dbc 3c40 143e
00000020: 0bdc 62bf d5d9 743e 4bd7 c83a 6913 a23e
00000030: f4eb d0bd 388b f23c 305f 6d3c 4d2b c5bd
00000040: 3ab9 8dbc 3251 ae3d 0c0d a83d f4dd efbd
00000050: 46c9 a43e ca4b 81bd 479f ad3e f175 86bf
00000060: 98cb 8abe e2c6 f13d caca b7bd ae8d e93c
00000070: aaa2 873c efaa cebd b8dd 0a3d ba08 70bf
00000080: fcf8 8fbf 750a 13bd c2cc 433e 5014 183d
00000090: 1206 c83d bf61 933d d24e 84be 0d24 b8bd
000000a0: 7b61 91bd 01ad 4abe 166a 06be 4826 37bc
000000b0: 4c2a 9e3e f6d6 8dbe f957 7ebe 4ee5 05be
000000c0: f879 7dbc dfac a2bd 82f3 afbd 4945 133e
000000d0: 3706 ecbd 5746 78bd 2bbb 7b3e 65c1 013e
000000e0: 751c 12bc 79bb 57be bba1 273e 328d d7bc
000000f0: 2238 893d c7fd 6dbf 7e87 bc3e 000f e03c
00000100: 74d9 033e 79ca 39be ed81 863e 98ea b9be
00000110: c2b4 703c 334f 403c ee51 a2bd bf5f 42be
00000120: 72e2 89bf 89f1 413e f37a 9e3d 4990 ef3d
00000130: e0c4 4f3e eef9 293d ec7b b43a 7740 213d
00000140: 1e48 cf3d 0cea 1dbd 8b4d 5cbe 9b12 fb3c
00000150: 970f 4e3e a363 06be 7916 23be 4c55 91be
00000160: 0883 90be 0470 7dbd 9564 513e 377a 6cbe
00000170: c8c3 d03d 2779 0e3e 82f6 873e f98c 19bf
00000180: a246 32bf 9f19 e73d 187a 513e 0165 95bf
00000190: 1a63 873e bdef b0bc dd84 1bbf 380d 86bd
000001a0: a2f5 06be 79d6 5ebd 1314 99bd 9670 83bd
000001b0: 7c20 1a3e 6914 06be 82d0 fc3c 6244 3c3d
000001c0: b0f6 023d e6db 83be cf6d 3bbe aeab 02be
000001d0: 5661 d33b 1a64 eabd ecdd 143e 3249 3c3e
000001e0: 8ed2 ae3c 173e 0bbe 59f1 f23d c73f efbd
000001f0: fd79 4cbe 14e9 1fbf 431b 613e bd20 263e
00000200: 6ebe 223e 3ac1 57be 6b4a 803e 9eea 5ebd
00000210: 49fd 093e 7a0b df3e 8a2b a5be f83a 5d3d
00000220: 3a1e 823e 79e6 3f3e ed10 5a3e b326 e7be
00000230: 1a14 62bd 9158 66bd 178d 31be 4769 9e3e
00000240: ef57 df3d 4cd8 73be 97b4 7fbe d46e fe3e
00000250: da65 12bf abc0 533e fa91 d0be 18ed eb3d
00000260: 0bf8 b13e 5e6b 51be 99c1 243e 1949 8abe
00000270: 1bd1 eabd b44e eebd 4fcd f33d 8503 683e
00000280: a0a7 05bd 1498 40be c22b 913d 0966 0abe
00000290: 8049 d6bd a9e1 343e 2c0e 3f3d 5e51 213e
000002a0: deee 653d 1210 763e bce4 053e 7611 553e
000002b0: fd96 843e 8f6b 9bbe 50d1 f13e b551 c73e
000002c0: 045c 803e 27ab 24be 8269 d6bd ac59 b2be
000002d0: fa1b 7b3e 1366 003e 7614 8d3e db32 403e
000002e0: b45e 8cbe 5d30 12be 8d5e ebbe 3e7c 68be
000002f0: 63b8 9abe f640 74bd 51af e8be 4c20 a03c
00000300: 84bf 7a3f df74 4abe 9761 153f 4b61 40be
00000310: c4ca 04be 4b3c 583d ca99 fdbd 7ecf c2be
00000320: aa8c 00be 443f 7e3e aa03 1c3e 8211 a43e
00000330: d2df 2b3d 2875 24bc 2a5d 333d 3e75 ac3e
00000340: 2fff 893d 441f 583d d13a 57be b49b 9bbd
00000350: 3e1b 8a3e 35ab 0fbd 04fa 4b3e a4a7 6abe
00000360: a6a2 d7bd 9d95 0d3d e01c c73e c287 03be
00000370: db81 d43d fac2 4c3e 143f 9a3e 32af 7dbe
00000380: c551 dbbe 42da 23bd a4cc 9abe d114 88be
00000390: 4f89 d93d 5efd c3bd a7f3 6abe 8552 32bd
000003a0: 085b c83d 5186 9dbd e918 98bd dba0 86bd
000003b0: 0244 19bf bd30 df3e 5959 f7bd e3bd 4b3e
000003c0: e754 1ebe ce3a 523d 6631 85be 84dd b3bd
000003d0: f529 d23c 29fd 03bd 30f8 eabe 990d cb3e
000003e0: c01b 2b3d 3dda 8bbd 3552 493e bcf0 5a3e
000003f0: 4e3b 6dbb 9503 b6be 137f 973e 602d 53bd
0.15151083 0.10890983 0.12114586 -0.6901356 -0.11101272 -0.22553301 -0.008614606 0.14477628
-0.8861701 0.23911221 0.0015322951 0.31655434 -0.102012545 0.0296074 0.0144880265 -0.096273996
-0.017300237 0.085115805 0.082056135 -0.11712256 0.3218481 -0.06313284 0.3391058 -1.0504743
-0.27108455 0.11805512 -0.08974226 0.028509941 0.016557056 -0.10091197 0.033902854 -0.93763316
-1.1247859 -0.035898644 0.19121078 0.037128747 0.09766783 0.07196378 -0.25841385 -0.08991251
-0.07098671 -0.19792558 -0.13126406 -0.011178561 0.30891645 -0.27703065 -0.24838246 -0.13075754
-0.015470974 -0.07943129 -0.08591367 0.14381899 -0.11524623 -0.060613956 0.24583118 0.1267143
-0.0089179175 -0.21067609 0.16370289 -0.026312444 0.067001596 -0.9296536 0.36822122 0.027350903
0.1287592 -0.18143643 0.26271 -0.36311793 0.0146915335 0.011737633 -0.07925783 -0.18981837
-1.0772231 0.18939795 0.077382945 0.11697442 0.20289946 0.041498117 0.0013769842 0.03936812
0.10121177 -0.038553283 -0.21513955 0.03064852 0.20123135 -0.13123946 -0.15926541 -0.2838539
-0.2822497 -0.061874405 0.20448525 -0.23093496 0.10193592 0.13913403 0.26555258 -0.5998073
-0.6963903 0.11284184 0.20456731 -1.1671449 0.26442796 -0.021598691 -0.6074961 -0.0654549
-0.13179639 -0.054403756 -0.07474532 -0.064179584 0.15051454 -0.13093723 0.030861143 0.045963652
0.03197354 -0.25753707 -0.18303607 -0.12760803 0.0064508123 -0.11444874 0.14537781 0.18387297
0.021340635 -0.13597904 0.1186244 -0.116820864 -0.1996841 -0.62465024 0.21983056 0.16223426
0.15892956 -0.21069804 0.25056776 -0.054422967 0.13475527 0.43563443 -0.3225978 0.054011315
0.25413686 0.18740262 0.21295519 -0.45146713 -0.05519495 -0.056236807 -0.17338978 0.30939695
0.10905444 -0.2381298 -0.24971233 0.4969393 -0.57186663 0.20678966 -0.4073637 0.115198314
0.34759554 -0.20451114 0.16089477 -0.27008894 -0.11465665 -0.11636105 0.11904394 0.22657593
-0.032630563 -0.18808013 0.07088424 -0.13515486 -0.10463238 0.17664208 0.046644375 0.15753695
0.056136005 0.24029568 0.13075536 0.20807442 0.25896445 -0.30355498 0.47230005 0.38929525
0.25070202 -0.16080914 -0.10469343 -0.3483404 0.24522391 0.12538938 0.27554673 0.187694
-0.27416003 -0.14276262 -0.45970574 -0.22703645 -0.302188 -0.059632264 -0.45446256 0.01954665
0.9794848 -0.19771145 0.58352035 -0.18787114 -0.12967974 0.052791875 -0.123828486 -0.3804893
-0.12553659 0.24828821 0.15235773 0.32044607 0.0419615 -0.010037698 0.04379002 0.336832
0.067381255 0.052764192 -0.2101853 -0.075980574 0.2697391 -0.035075385 0.19919592 -0.22915512
-0.105290696 0.03456651 0.38889217 -0.12844756 0.103763305 0.19996253 0.3012625 -0.24773863
-0.42835823 -0.04000307 -0.30234253 -0.26578382 0.10621893 -0.0956981 -0.22944508 -0.043535728
0.09782988 -0.076916344 -0.07426626 -0.065736495 -0.59869397 0.43591872 -0.120775886 0.19896655
-0.15462075 0.05132561 -0.2601425 -0.08782485 0.025654772 -0.032223854 -0.45892477 0.39658812
0.04177451 -0.06828735 0.19660266 0.21380895 -0.0036198678 -0.35549608 0.29589137 -0.051556945

gnn1_pool.conv2.lin_root.weight f4 [64, 64]
00000000: b29e 91be fd5d 1bbd bbcc 12be 08ea febc
00000010: 257a 6e3e 925f 3a3d 6aeb 9fbd 4563 903e
00000020: 90c5 003e c34b ee3c 362b 5dbe 7466 0dbd
00000030: 88f6 8cbe 54c4 2a3e 6741 e3bc 24b9 34be
00000040: f26d 043e 66cc 8fbd 07af 82ba e31c 583e
00000050: 41ec 27bd 1e9e 84bd 7132 26be efca 9a3d
00000060: 87a4 5a3d 2df1 ddbd 3e18 7abe 322e 1d3c
00000070: e464 45be 4368 933d 82b6 69bd 603e 143e
00000080: ac87 083e 1d68 94be 54f4 923e 8b22 09bf
00000090: 3ada 633e a026 83bd 7a70 d0bc d695 24be
000000a0: 1071 96bd 0e2d 8a3e db55 083e 6d7d 9abd
000000b0: c4d7 453e 0ec3 fdbd 6ffa 853e 06c5 113d
000000c0: 9686 78be bc6f 203d 11ef 6f3e eef1 41be
000000d0: d856 bb3d 45df 28bd 7d04 303e e3f8 2ebd
000000e0: 7ed4 51be 352a f33d 69a8 4bbe 68aa 05be
000000f0: 6160 a43b ba8a 3f3e 346c 62be 6673 063e
00000100: aa80 d1bd 7016 2f3e 906b c8bd 672c a93c
00000110: 1920 5c3d eebc 9ebd 1da5 1ebc 7850 383e
00000120: 484b 03be 6b97 a0be cdc5 8dbe e65b b93d
00000130: 60b5 4dbe e265 c73d 8c70 1cbd d0e7 e8bd
00000140: 5832 3dbe 1c11 133e c679 403e c27c 2b3d
00000150: dc0b 8b3e 934f edbb 5c3e dd3d 98b7 dfbe
00000160: 7600 e73d 24e2 96bd 14e7 e3bd 80a2 163e
00000170: 177d 9cbd 1e02 bf3c f3f3 b9be a390 dabe
00000180: 933c 29be 29c4 08be 17d9 4d3e afe4 603d
00000190: a872 0c3e f959 c5bc f3f0 d13d 99cf 03be
000001a0: 3546 8dbd ce82 043d cbca 60bd 103c 3c3d
000001b0: 5a75 593e fee0 34be 22a2 923d c30d 02be
000001c0: 4ea8 163d 0a69 60be 544a 863e 808e 0b3e
000001d0: 9301 19be 4698 433d 9270 c23d 997a c2be
000001e0: d096 773c 909d 4b3d 098d 2f3d b1ed 6d3b
000001f0: e04b 2c3e 50ec 7b3d 9621 b63d ce1d 263e
00000200: 0b1c 663e 0aa8 22be bfe3 913e 117a 103e
00000210: ef4f 69be aaf0 45be 2caf 7e3e 0275 0ebe
00000220: 5199 773e e3b7 453e fb02 0e3e 41d1 34be
00000230: 1ec2 ab3e 88c7 ffbc c2b2 31bc b91b f03d
00000240: 5cca 943e 7292 143e 5fe3 91be 88a5 80be
00000250: 1c51 2abe eaa8 c03d cd65 153c 7b47 063e
00000260: 32aa a0be 66bc 553e 29e7 573e cc4b 10be
00000270: 5a3d 6f3e 7cb0 83be 86f9 573e ba7e fa3d
00000280: 3ba4 123e 270f e13d 31c3 c43d 1681 d6be
00000290: 4e42 63be c05f 49bc a5b3 4e3e 4d38 3f3e
000002a0: c1ec 8a3c 5cf6 5bbe 78a6 3cbd 5ec1 3e3d
000002b0: 7ebc 1c3d 2fbd 33be 7934 86be c2f7 4d3d
000002c0: 40e7 173e 8713 0fbe 2df8 e5bd e993 66be
000002d0: bded ee3d ef0d 3f3e 9f42 8c3e 6c3d 183e
000002e0: 18cd aa3e eb88 0abe 09c1 18bd 9d74 26be
000002f0: 48d5 66be 3dc8 adbc 3b3c c3bd bb0f 37bc
00000300: 5fcc 2e3e dd98 fe3c ed00 7b3e 146e a23d
00000310: 455f a23d ff51 d0bd c5e9 ba3d e5f1 413b
00000320: 3fba 94be 9cde d83c c734 c13c 313f 673e
00000330: 7573 c23d 690f 3fbd 12af 683c 6fe4 363d
00000340: b68a 95bf ebbb f53d cc23 97bd 867a 3d3d
00000350: 8a60 a93e 2c6e 68be e9a5 6b3e ec5c cabe
00000360: 5f52 abbd a608 f0bd b332 fb3d b7bd 123e
00000370: 8c67 893c db1d c83d 40d9 aebe 7806 91be
00000380: 529c 76be 0629 7c3d 7cbd e7be e640 d83d
00000390: 78a5 313e 38b5 05be 30a8 e8bd 1a4b c6bd
000003a0: 7007 363c bad3 b0bd 9c1f 5d3e ab3a 56be
000003b0: f363 08bf 2bcd dd3e 2add 5c3c db98 03bc
000003c0: 3aef 10be a6a4 17bd f5bb 83bb ef6b 5b3e
000003d0: 032a a3bc 6f0e d1bd 4299 0ebf fbbc 35bd
000003e0: e4e0 1abc 92b3 0f3e afc3 e33d b98d 813f
000003f0: 31f0 723e 7b2e 38bc 91c3 813e bd9d 73bc
-0.28441387 -0.03793143 -0.14335911 -0.031117454 0.23288782 0.0455013 -0.078085735 0.28200737
0.12575364 0.02908886 -0.21598515 -0.034521535 -0.27531838 0.16676456 -0.027741147 -0.1764875
0.12932566 -0.07021408 -0.0009970375 0.2110477 -0.040996794 -0.06475471 -0.1623018 0.07558238
0.05337956 -0.10837016 -0.2442331 0.009593533 -0.19276768 0.07197621 -0.05705882 0.14476919
0.13333005 -0.28985682 0.28702033 -0.53568333 0.22251216 -0.064038515 -0.025444258 -0.16072783
-0.07345784 0.269875 0.13314001 -0.07543454 0.1932059 -0.12390719 0.26167628 0.035588287
-0.2427009 0.03916906 0.2343104 -0.18939945 0.091474235 -0.04122855 0.17189212 -0.042717826
-0.20491216 0.11873285 -0.19888462 -0.13053286 0.005016372 0.18705264 -0.22111589 0.13129959
-0.10229619 0.17098403 -0.09786141 0.020651055 0.05374155 -0.07750879 -0.009682921 0.17999446
-0.12821686 -0.31365523 -0.27689973 0.09050731 -0.2008872 0.097362295 -0.03819327 -0.1137234
-0.18476236 0.14361995 0.18796453 0.041867025 0.27157485 -0.007242152 0.1080291 -0.43694758
0.11279385 -0.07367352 -0.11128059 0.14710426 -0.076410465 0.02331644 -0.3631893 -0.42688474
-0.16527013 -0.13356079 0.20102344 0.05490559 0.13715613 -0.024090754 0.102510355 -0.12872161
-0.068981566 0.032351308 -0.0548809 0.045955718 0.21236172 -0.17663953 0.07159831 -0.12700562
0.0367816 -0.21915069 0.26228583 0.13628578 -0.14942007 0.04775264 0.09494127 -0.3798416
0.01511164 0.04971081 0.04285911 0.0036305005 0.16825819 0.061504662 0.08893125 0.16222307
0.22471635 -0.15884414 0.2849407 0.14109065 -0.22784398 -0.19330087 0.2487151 -0.13911822
0.2417958 0.19308428 0.13868324 -0.17657949 0.33546537 -0.031223074 -0.010845842 0.11724038
0.29060638 0.1450899 -0.28493783 -0.2512629 -0.16632503 0.09407218 0.0091185095 0.13113205
-0.3137985 0.2087265 0.21084274 -0.14091414 0.23363248 -0.25720584 0.2109128 0.122312024
0.14320461 0.10989218 0.09607542 -0.4189536 -0.22193262 -0.012290895 0.20185716 0.18673821
0.016958596 -0.21480697 -0.046057194 0.046571128 0.038265698 -0.17552637 -0.26211908 0.05028511
0.14834309 -0.13972293 -0.112289764 -0.22517361 0.11666439 0.18657659 0.27394578 0.1486718
0.333596 -0.13528793 -0.037293468 -0.16255422 -0.22542298 -0.021213645 -0.095329724 -0.011173184
0.17070149 0.03107875 0.24512072 0.07931152 0.079283275 -0.101718895 0.09126619 0.0029593643
-0.29048344 0.026473336 0.023584737 0.225827 0.09494678 -0.046645556 0.014201896 0.044651445
-1.1682956 0.11998733 -0.073798746 0.046259426 0.33081466 -0.22698277 0.23012508 -0.3952402
-0.083653204 -0.117203996 0.122655295 0.14330183 0.016773008 0.097713195 -0.34150124 -0.28325248
-0.24083069 0.06156256 -0.45261753 0.105592534 0.17348278 -0.1305741 -0.11360204 -0.09682293
0.011110172 -0.08634134 0.2159409 -0.20920818 -0.5327751 0.43320593 0.013480464 -0.008032049
-0.14153758 -0.037022255 -0.004020209 0.21427892 -0.019917494 -0.10207831 -0.557026 -0.04436968
-0.009453032 0.14033344 0.11121308 1.0121375 0.23724438 -0.011241551 0.25344518 -0.014869151

gnn1_pool.conv2.lin_root.bias f4 [64]
00000000: dbed 383d 4982 e93d e85e 8d3d ce06 e6be
00000010: bed0 543e b5dd c7be cdb2 d7bd b6fb efbe
00000020: 0197 efbe eacf 45be a056 7f3d fd53 14be
00000030: 2e3e 283e 6974 aebe 4f23 91be 214a 84be
00000040: 79f9 9fbe 9772 b13e ddd1 d1be 3019 55be
00000050: ccbb 98be 1325 6e3e 68b1 17bf ac95 063e
00000060: 07bd 9fbd c32c 1dbe 33d4 bc3d e2e0 bb3e
00000070: 992c a7be 82bf eabe 1bef 323e a8df adbe
00000080: 186f d3be 2d66 f5be 25b7 4a3e 4612 c3bc
00000090: 3a5e dd3d bdf3 91be 0091 e5be f405 06bf
000000a0: c60f c8be ba94 2e3e cb98 843e fa39 18bf
000000b0: 679a 12be aa5d edbd e9e0 cbbe fd5e 83be
000000c0: b36e 6bbe 7e67 fd3d 64fe 35bc 6879 2dbe
000000d0: 3d03 563d 5b7f 403e dae7 09bf 252f 4ebe
000000e0: 7238 f0be 479c 02bf 517c d03d 3f89 bfbd
000000f0: beb8 f63e 6820 4d3e d0a3 83be 2a36 0bbe
0.04514871 0.11401803 0.069028676 -0.44927067 0.20782754 -0.39036337 -0.105321504 -0.46871728
-0.46794894 -0.19317594 0.06233847 -0.14485164 0.1642997 -0.3407319 -0.2834725 -0.25837806
-0.3124502 0.34657738 -0.40980425 -0.2081039 -0.29830778 0.2325633 -0.59255075 0.13143033
-0.07799726 -0.15349106 0.09220161 0.3669501 -0.32651213 -0.45849234 0.17474024 -0.339597
-0.41295695 -0.47929516 0.19796427 -0.023812424 0.10808988 -0.2850627 -0.4483719 -0.52352834
-0.39074534 0.17048922 0.25897822 -0.59463465 -0.14316712 -0.115901306 -0.3982003 -0.25658408
-0.22991447 0.12373255 -0.011108015 -0.16940844 0.052249182 0.18798582 -0.538694 -0.20135172
-0.46918064 -0.5101971 0.101799615 -0.093523495 0.48187822 0.20031893 -0.25710917 -0.1359488

gnn1_pool.bn2.weight f4 [64]
00000000: 9d63 833f f65b 213f 6f4a 433f c427 2f3f
00000010: 5809 573e 79e2 9f3f dc23 453f 64c3 823f
00000020: 5196 2e3f 0623 3f3f d39b 4d3f 787d 143f
00000030: 07ed 313f b12a 4d3f dc18 5a3f 7a93 9f3f
00000040: 6d11 503f a164 8d3e f40f 5f3f bf47 363f
00000050: 7b27 593f e0d0 813f 220e 573f bccf 3d3e
00000060: edff 413f 5b68 d33e a1e5 593e b239 0e3f
00000070: 6e3d 8a3f bc57 653f f748 573f d859 513f
00000080: 1b35 273f d26c 1c3f 8d31 163f 0e79 c53e
00000090: e082 2c3f 408c 463f 561f 713f d823 673f
000000a0: 776e 1f3f c6f7 f23d f3ed 8c3f 4cc3 973f
000000b0: e5c8 093f 4ef6 d73e 6344 af3f 73c1 353f
000000c0: 0f94 0a3f 5735 283f 5917 453f e431 433f
000000d0: 31c4 0a3f e5d5 8c3f 5360 6e3f 7a3c 293f
000000e0: 02ba 723f 5f52 863f 3fe7 ed3e 530f f43e
000000f0: bfe9 423f 8eab c13e 67b2 373f 74ec 953f
1.0264775 0.63030946 0.7628545 0.6842005 0.20999658 1.2490989 0.7700784 1.0215878
0.68198115 0.74662817 0.80315894 0.5800395 0.695023 0.80143267 0.8519418 1.2466881
0.8127659 0.27615836 0.8713372 0.71203226 0.8482587 1.0141869 0.8400594 0.18536276
0.75781137 0.41290554 0.21279003 0.55556786 1.0799997 0.89587 0.8409571 0.81777716
0.6531541 0.61103547 0.5866936 0.3856892 0.673872 0.77557755 0.9418844 0.9028907
0.6227793 0.11863665 1.1010116 1.1856475 0.53822166 0.42180103 1.3692745 0.70998305
0.5413217 0.6570639 0.7698875 0.76248 0.54205614 1.1002775 0.9311573 0.66107905
0.94815075 1.0493888 0.4646549 0.4766794 0.7613792 0.37826198 0.71756595 1.1712785

gnn1_pool.bn2.bias f4 [64]
00000000: 92c1 2dbd b1a0 a0be e9ab 513e dad4 0dbd
00000010: d296 9e3d c8b5 003d d04e 96bb ade1 d13e
00000020: 9ee9 833e 3677 cb3e 2af3 8ebe e5cf 47bd
00000030: 4a7a 833e 19fb be3e 7e79 a03e 907f 063f
00000040: b64b 9e3e 6d8e c7bd 4155 1c3e cebd 953e
00000050: 94ae 843e 3f10 08bd 9eed 8e3e 7283 303c
00000060: 0dad 29be eaae 0bbe 63a1 a1bd 97b5 debd
00000070: 0e33 8e3e d0c6 043d 3c3b 58be 6a05 35be
00000080: bff2 9a3e fa85 2e3e 4a18 f8bd f75c 56bd
00000090: d4fd ad3e 254a 8f3e 5892 af3e 3a3f 143e
000000a0: 64f5 dcbd 8e53 80bd bd7c 22be 8ca3 b73e
000000b0: 2667 893e c498 ae3d edea 9e3e b2cf b63e
000000c0: 0c6b 3abd 022a e3bd 2fcc c3bd 0826 5cbd
000000d0: 3866 b6be b19a 80be ed06 953e 69b6 17be
000000e0: 55e2 313e f8c7 dd3e c07b 30be 31ba a1bd
000000f0: 5b85 2ebd e2e8 53be 9cd4 c0bd 3cb5 873c
-0.04242093 -0.31372598 0.20475735 -0.03462682 0.077436104 0.03142336 -0.004587032 0.4099249
0.25764173 0.39739388 -0.27919894 -0.048782248 0.25679237 0.37300947 0.3134269 0.52538395
0.30917138 -0.097439624 0.15266897 0.29246372 0.25914443 -0.03321862 0.27915663 0.0107735265
-0.1656992 -0.13640943 -0.0789211 -0.10874479 0.27773327 0.032416165 -0.21116346 -0.17677847
0.30263326 0.17043296 -0.12114008 -0.052334752 0.33982718 0.27986255 0.3429134 0.14477244
-0.10788992 -0.06265937 -0.15867896 0.35866964 0.2683651 0.085252315 0.3103861 0.35705334
-0.045512244 -0.11091997 -0.09560429 -0.053747207 -0.35624862 -0.2511802 0.29106846 -0.14815678
0.17371495 0.43316627 -0.17234707 -0.07896841 -0.042607646 -0.20694306 -0.09415552 0.016565911

gnn1_pool.bn2.running_mean f4 [64]
00000000: 18c7 bd3f 6414 2440 df81 7140 b060 943f
00000010: eeb8 9440 0400 0000 fad9 8d3f 0875 893f
00000020: fe3f 803f 721b 6640 20ea b73f 39e2 803f
00000030: 6cc7 8f40 e55e 1a40 272c 673f 4518 c43e
00000040: b9f3 8c3f 27e4 8340 2405 753f e55f 8640
00000050: a08a 4f40 8cd2 5340 caaf 1e3f fceb 2a40
00000060: 3535 ad3f b82f 2d40 e932 2640 4a14 3c40
00000070: 8f11 423e 726e 303f 92ad 6940 07c0 fa3f
00000080: 5a2b d83f e5ed a23f cc1b 7b40 bda5 c73f
00000090: 24ca 533f 4058 343f fc23 e23e ee9f cc3f
000000a0: a1c5 253f 0477 3740 a966 1040 ea1c 1f3f
000000b0: 3f85 313f cdfa 6f3f cae7 953e 7d26 3740
000000c0: deb1 2140 4607 5f40 c0d7 a43f 74ff 5240
000000d0: 4f8e 7740 8c57 f03f 3248 3b3f 9136 6540
000000e0: 4c72 473e 1c6e 713f 6d32 fc3f 903e ba3f
000000f0: 1896 6a40 63ed 6740 a4cc b23f f5cc 703f
1.4826384 2.5637445 3.7735517 1.1592007 4.6475744 6e-45 1.1082146 1.073884
1.0019529 3.5954251 1.4368324 1.0069038 4.4930935 2.412042 0.90301746 0.38299766
1.1011878 4.1216006 0.9571097 4.199206 3.242836 3.3097258 0.6198698 2.6706533
1.3531862 2.7060375 2.5968573 2.9387383 0.1895201 0.68918526 3.651219 1.9589852
1.688823 1.272885 3.9235716 1.5597454 0.8273032 0.7044716 0.4416808 1.5986307
0.6475468 2.8666391 2.2562659 0.62153494 0.6934394 0.93742067 0.29278404 2.8617241
2.5264812 3.484819 1.2878342 3.2968416 3.8680608 1.8776717 0.73157036 3.5814555
0.19477195 0.9430864 1.9702889 1.4550343 3.665411 3.623864 1.3968701 0.9406274

gnn1_pool.bn2.running_var f4 [64]
00000000: 28c6 1a40 5d41 a340 f6d9 dc41 2d45 8a40
00000010: 13f3 9742 0400 0000 d3ca 1940 9365 e440
00000020: 5d88 cf40 77a6 4342 76bf d03f 4aaf 3940
00000030: f697 4e42 0848 ce41 20c0 c340 441b a13f
00000040: a3ef eb40 e4e6 a940 64e9 aa40 2964 8a42
00000050: acc1 2b42 0754 3c41 815d 9640 9dd3 f840
00000060: 60bc 6a40 f543 6441 a12b e040 cbbf e840
00000070: 53f0 2a3f 401f 7140 31d0 bb40 1bc2 dc40
00000080: c451 5441 00a8 9241 86fd ff40 9d3e 9040
00000090: e360 1140 53d0 7640 84f2 143f d45f 5841
000000a0: a666 663f 5157 c340 6721 6840 a08f a140
000000b0: 5585 b63f ef8d ce3f 9418 9f3e 9584 0142
000000c0: 1ac5 3f41 a205 6941 e7eb d63f b503 7a41
000000d0: c4b3 0e41 c2fd 1940 6782 d840 aa16 a741
000000e0: c2f7 bf3f db61 ac40 8986 b840 ac13 4b40
000000f0: bfa2 b640 9ec2 a040 cf02 3340 4536 863f
2.4183445 5.101729 27.606426 4.3209443 75.974754 6e-45 2.4030044 7.137399
6.485396 48.912563 1.6308429 2.9013238 51.6484 25.785172 6.1172028 1.2586446
7.3730025 5.309435 5.34099 69.195625 42.939133 11.7705145 4.698914 7.7758317
3.6677475 14.266591 7.005326 7.273412 0.66772956 3.7675323 5.869164 6.8986945
13.269962 18.332031 7.9996977 4.507643 2.2715385 3.856465 0.5818255 13.523396
0.9000038 6.1044087 3.6270387 5.0487823 1.425944 1.6137065 0.3107344 32.379475
11.9856205 14.563875 1.6790742 15.625905 8.918888 2.4061131 6.7659183 20.886066
1.4997485 5.3869452 5.7664227 3.1730757 5.7073665 5.023757 2.7970464 1.0485312

gnn1_pool.conv3.lin_rel.weight f4 [50, 64]
00000000: c4c9 f23e 4b66 0cbe 8c13 e9be f18d 34be
00000010: 62a2 09be 1f00 c13d 91b2 b13e 494c f2be
00000020: 4872 6b3d 4baf 763d ba1b 313e 7283 fdbb
00000030: 431d 4fbe 9167 b4bc 3c35 bfbd 6809 4f3d
00000040: d0f7 b5be 9677 97bc 07cb 8b3e e360 34be
00000050: fee2 c6bc 6fd6 f6be a05d 4ebe 18e8 b23c
00000060: e2f0 3fbe 90e9 fdbd dc65 bfbe 5321 cbbe
00000070: 54ad 273f de10 0f3e cf1e 46bf 2e21 52bd
00000080: ee1e 033e 2fce 78be ad97 8b3d c953 f73d
00000090: d99d 7c3e 03e1 dd3c 1cc4 873e 0432 6cbe
000000a0: 4151 8f3d b939 36be 5973 013f 3f42 cfbe
000000b0: 4157 243e 23c8 21bf c549 1e3e 0476 8d3d
000000c0: e187 2ebd 37a4 a6be 1596 46bf a532 943d
000000d0: a5a5 a7be 38cd 193f c715 9ebe 7fea 2bbe
000000e0: 671c e5be e5bb bebe 79bc 6ebe ab66 043e
000000f0: 95a9 b53e 6b5d 9bbd 24a8 d43e 1059 ce3d
00000100: 9e5b c43e 14bf 9abd 7941 1cbf e7a0 2fbe
00000110: e1a1 a2be 20b3 6fbe dfc9 133e 5dd7 6d3d
00000120: fe88 77bd b785 78be 7dd9 943e 64dc 0cbe
00000130: 38cd 10bf 399b 89be 9444 68bd 2d03 383f
00000140: e502 39be 794f 853e d226 aabe deb4 f7be
00000150: a266 acbe 174a 7cbf a56a 32bf ca07 0dbd
00000160: fcc3 3fbe 07d6 0bbe 60ee a6be 2965 1bbe
00000170: 90fa 7e3f fe3a 90bd 5320 abbe bc9c fa3d
00000180: a941 053f 02de 09be 2fc4 633e 13d9 0cbe
00000190: f3d9 4a3d 62ed 81be 0052 823e cd59 a33c
000001a0: b3b1 b53c be1c 7abd de5d e43e d835 4bbf
000001b0: fe8a 053b 73b5 f0be 76d8 393d 6152 4ebe
000001c0: 27c6 173e 7c50 dbbd 6b37 b5be a8cf 933e
000001d0: 03c2 3e3e 811e b83e ea79 adbe 242e a1bd
000001e0: f474 85be fad6 37be 79f9 bfbd 67e5 68bd
000001f0: 50b4 e43e e924 d83d e188 3c3e bd71 603e
00000200: 6b6d b23e af2c bb3d bb87 86bf 2834 97be
00000210: 46b8 0cbd d379 d7bd c95b fe3a 08ce 15bf
00000220: 29ae 37be f6f2 27be e059 a03e 15dc f93d
00000230: 2a4c 13bf c638 c9be ee6f 12be d7c7 adbe
00000240: e6ec fbbe 7bc4 4c3d 8b42 8e3e 916e 90be
00000250: a693 ebbe 4b0d 0fbf fc55 9cbe 1f97 9b3c
00000260: f3f2 5ebd 3cc4 18be a41e 63be f2f5 87be
00000270: 9d84 1c3e 93a6 3b3e 50fd 01bf c981 d5bd
00000280: 3f55 50be 455c be3d d51a 013e 3920 e03d
00000290: 5cbb 69bd 7885 40be 5a30 763e 5651 56be
000002a0: 15f6 05be cc48 b2bd d5bb 333f 5b8c 2ebe
000002b0: 7717 4abe 3531 e9be ea54 b5bd ce25 a1be
000002c0: 94ec 13be 1e10 67be c3cc 2abf 53b5 4c3d
000002d0: 3b51 2abe ba2b 273f 762e 0f3c e141 6fbe
000002e0: 59ba 87be 2f5e f3be 175e a0bd ae17 8c3e
000002f0: c66d ad3e f605 de3d 3608 c93e 1892 cf3e
00000300: f7ef 0bbf 4352 68bc f9fd b8bd 8ce0 2dbe
00000310: ae66 d6bd 804a 2ebf 57d7 eabe 62f0 113e
00000320: 5cfa 8e3d 4139 113e 499c 1bbd fd6b 1bbf
00000330: b0e3 fc3c 6110 cc3c 3341 643e 28af dc3c
00000340: 355c 043e 7a94 c4bd 2ae3 883c 7338 863d
00000350: ec7f ce3d 8cfc aa3d ff18 21bd 24b5 88bd
00000360: 40c2 48be f557 07be f274 4ebe 5433 f4bd
00000370: 9bf1 34bf f526 773b 4cce 593e 88a0 c1be
00000380: 386c e6bd 6a81 b2be fd33 3cbe fb8a e5be
00000390: 284f dfbe 8dcb 933d 6569 39bf 51a2 94bc
000003a0: b5d1 9dbe a3e9 26be 1d14 edbe 71fe e3bd
000003b0: bfe0 77be 2c24 ae3d 79ad 7abf 59a0 f33d
000003c0: 196f 85be 95ba afbd b25b 383e d00c c6be
000003d0: d3de 3cbd c11f b5be d29a 34be 76e9 33bd
000003e0: 037d 24be 4177 bf3d 64a8 28be 01a6 d9be
000003f0: 7aea 11be aa24 f9bd dbfd f1be 4970 23bf
0.4741956 -0.13710897 -0.45522726 -0.17632271 -0.1344085 0.09423851 0.34706548 -0.47323826
0.057482034 0.060225766 0.17295733 -0.007736617 -0.20226006 -0.02202204 -0.093363255 0.05054608
-0.35540628 -0.01848964 0.27303335 -0.17615084 -0.02427816 -0.48210475 -0.20152903 0.021839187
-0.18744233 -0.12398064 -0.373824 -0.39673862 0.6549885 0.13971278 -0.7739076 -0.051301174
0.12804767 -0.24297403 0.06816039 0.120765276 0.24669589 0.027084833 0.26516807 -0.23065954
0.0699792 -0.17795457 0.5056663 -0.4048023 0.1604891 -0.6319601 0.15457828 0.06907275
-0.042610053 -0.3254716 -0.77572757 0.07236222 -0.32743564 0.60078764 -0.3087599 -0.16788672
-0.44748232 -0.37252727 -0.23314084 0.1292979 0.35480943 -0.075861774 0.4153453 0.10075581
0.38351148 -0.075559765 -0.61037403 -0.17151223 -0.3176413 -0.23408175 0.14432476 0.058066715
-0.06043338 -0.24269758 0.2907218 -0.13755947 -0.5656314 -0.26876238 -0.056706026 0.71879846
-0.1806751 0.26037195 -0.33232743 -0.48380178 -0.33672053 -0.9855055 -0.69693977 -0.034431256
-0.18727106 -0.13655864 -0.3260374 -0.15175308 0.9960108 -0.07042502 -0.334231 0.12236926
0.52053314 -0.13463596 0.22242807 -0.13754682 0.04952426 -0.2537642 0.25453186 0.019940281
0.02217946 -0.061062567 0.44602865 -0.79379034 0.0020377035 -0.47013435 0.04537245 -0.20148613
0.14821683 -0.107087106 -0.35393843 0.28869367 0.18628697 0.35960773 -0.33882076 -0.07870129
-0.2606579 -0.17953101 -0.09373755 -0.0568594 0.44668818 0.10553915 0.1841159 0.21918388
0.34849104 0.09139382 -1.0510172 -0.2953198 -0.034355424 -0.10521283 0.0019406016 -0.58517504
-0.1793753 -0.16401276 0.3131857 0.122001804 -0.5753809 -0.39301127 -0.1430051 -0.33941528
-0.49204177 0.049992066 0.27785143 -0.28209355 -0.46011084 -0.5587966 -0.3053435 0.018992959
-0.054430913 -0.14918607 -0.22179657 -0.2655483 0.15284963 0.18325262 -0.5077715 -0.10425145
-0.20345019 0.09294943 0.12607892 0.10943646 -0.057063445 -0.18800914 0.24041882 -0.20929465
-0.13082154 -0.08705291 0.70208484 -0.17045729 -0.19735514 -0.45545354 -0.08854087 -0.31474155
-0.14445716 -0.22564742 -0.6671869 0.04997761 -0.1663255 0.65301096 0.0087391045 -0.23364975
-0.2650936 -0.47532794 -0.07830446 0.27361816 0.33872813 0.10840981 0.39264077 0.40541148
-0.5466303 -0.014179769 -0.090328164 -0.16980189 -0.10468803 -0.6808243 -0.45867416 0.14251855
0.06981346 0.14181997 -0.037990842 -0.6071165 0.030870289 0.024910154 0.22290497 0.02693899
0.12925799 -0.09598632 0.016709883 0.065537356 0.10082993 0.08348951 -0.03933048 -0.06675175
-0.1960535 -0.13217147 -0.20161799 -0.119238526 -0.7068116 0.003771243 0.21270102 -0.37817788
-0.1125111 -0.3486436 -0.18379207 -0.44832596 -0.4361508 0.072165586 -0.72426444 -0.018143805
-0.30824056 -0.16300063 -0.46304408 -0.11132515 -0.24206828 0.08502993 -0.9792095 0.11895818
-0.26061323 -0.085805096 0.18003729 -0.3868165 -0.04611094 -0.3537579 -0.17637184 -0.043923818
-0.16063313 0.09348918 -0.16470486 -0.42509463 -0.14249602 -0.12165196 -0.4726399 -0.6384321

gnn1_pool.conv3.lin_root.weight f4 [50, 64]
00000000: 01f0 d5bd bf80 0bbe a3b3 e13d 1991 8cbe
00000010: f0bd e03b e938 f8bd e6e2 1b3c 480d 393e
00000020: e658 703e d802 843c b557 b33c 9fe3 2cbe
00000030: 326d 453e 6c18 d63d a834 3a3e f6a5 923e
00000040: aabe 843e 0741 96bd e742 8a3d 6caa 173e
00000050: 6041 d53d 1e16 713c 445d 763e e8bf eebd
00000060: 9486 dabd 8b5d e1bd 6677 14be 5d99 9ebc
00000070: ce85 2c3e bc29 ac3d 1f25 1cbe cae7 82be
00000080: ad78 8a3e bc03 40ba 6934 7dbe cabd eabc
00000090: 0b2d 423e b336 3d3e 8cd5 51bc 460e 14bc
000000a0: de58 91bd 34c9 7a3b dcef a7bd 6e7d 6f3e
000000b0: e29d c43c 73b1 53be 8972 92be 08f6 5b3e
000000c0: 493c afbd 27bd 33bd bcd7 febd 721e 91be
000000d0: f97e 89be 14e2 983c 8a46 b23e 9eab 13be
000000e0: b056 0c3d 8c38 f2bb 0aac 2fbd f652 e5bc
000000f0: ad09 e1bb f71b 6cbe d42a 4ebd 47e3 52be
00000100: 2ad9 813e 71bc c8bd f4cd d03c ea45 babc
00000110: eeb6 8c39 bee1 0d3d 73fe 133e cffe fd3d
00000120: cce2 ccbd 27da 843e d462 c7bd ef9f fe3d
00000130: 2611 4dbe 2bf7 423e fc71 f1be 387b 0c3d
00000140: 5301 333e 54b1 8ebd fd91 4cbd ad94 22bd
00000150: ca9b 1d3d 1d56 073d d390 ba3e 2288 6d3d
00000160: 2819 123e 1d77 173c c3fb 253d 4dec 2d3e
00000170: 7c02 3c3e d3d5 203e f0b0 fbbd 3279 3f3d
00000180: a3bf 3a3e 3b12 8c3e 222d 81bd 0ab7 213e
00000190: 45e6 ee3b da67 3dbe 8313 fe3d 46fc 8e3d
000001a0: 363d 003e adc6 303e ca81 a33e 7d28 a83e
000001b0: f98b 3d3d 0f34 523d 06c5 9a3e 7e83 413d
000001c0: 55eb a1bd c140 5ebd 4b5d ad3d 88a3 4d3d
000001d0: 45e9 29be 3372 803d 92b7 113e fa9b aa39
000001e0: f223 113e baf1 b1bc 5f9b e63d 5742 2e3e
000001f0: 395c a3be e9a1 b0be 78a5 0ebb 75e2 d83e
00000200: ff97 863d 57ac 3cbe 757d a13c 2cfc 62be
00000210: b243 0dbc 6f30 5bbd e15e b9bb 50bb 26be
00000220: a84b 00be f43d b1bd 3b39 fc3c 6c60 51bd
00000230: 2501 41be 76e8 853d d2bb cdbb 07c7 4cbc
00000240: d0db 3f3c c775 3abd 8a0a 3d3e b31b 86bd
00000250: 99fe 8a3d 9fa0 34be 0a3d ce3e 3783 153e
00000260: 450c 193c d564 07be dd99 a6bd 72a1 5c3d
00000270: 8e6b ddbd 88a9 5ebb d7e5 5ebe 7cc3 cbbe
00000280: bdeb 12be d4c7 b23d dbbd 71be 3311 313e
00000290: 38e9 5d3c 060a 333c 3266 083c 5afa 1b3d
000002a0: 858d 75be 6d49 3f3e d5c5 113e 2187 243f
000002b0: db46 d7bd f2df 24be a2db 14be 8231 973d
000002c0: acc0 cdbe 1105 263c 97a3 e1bd 9675 abbe
000002d0: 08eb 2cbe ba95 383e 6185 ae3e 6876 68be
000002e0: 590d 343e e7b8 4abe a88a 0c3e b9e0 043e
000002f0: 100d e5bd a02c 40be 1d00 9bbd 6ef2 a9bc
00000300: 4816 c43d 1ecf 14bd 0947 9cbd 4421 013e
00000310: bab8 1fbe 9e01 5e3e f5b4 703e d0b3 71bd
00000320: f361 21bd d01b 83be 0698 c3bb 3312 433e
00000330: 765f fcbd ee68 d9be a772 9bbc c9e7 ec3d
00000340: 2921 72be f4d6 1bbd 946a 76be c168 2ebe
00000350: be28 e6be c691 473d 72c6 62be 26ac 003e
00000360: 8815 3ebc fe36 2dbb 54d8 e7bc 10f1 2b3e
00000370: 0146 e4bd e275 5bbe 7afc fcbd 40a8 17be
00000380: 61f6 28be 4a0d c93b 772a 4a3d ed49 193e
00000390: 3d8c ba3d f97d a5bd 33bb 1c3e c89b 74be
000003a0: c4fe 07be 7034 043e 9a98 f63d baf2 f4be
000003b0: 4e58 f53d e0a2 dcbd 8134 6f3e 8558 13be
000003c0: fa17 70bd 6d86 9b3c fc38 c0bd 1ca7 c83d
000003d0: e6a5 4d3d f7bb f13d 1871 bcbe 7917 0e3e
000003e0: 783d 153e 41ad 9b3d 38a3 a7bd 9bcc 4b3e
000003f0: 6861 af3c 79ee 7abd 5c13 2ebc 2cc8 863e
-0.10446168 -0.13623331 0.11020591 -0.2745445 0.00685858 -0.1212023 0.009514546 0.18071473
0.23471412 0.016114637 0.021892408 -0.16883706 0.19279936 0.10453877 0.1818415 0.28642243
0.25926715 -0.07336622 0.06751042 0.14811105 0.1041286 0.014714746 0.24059016 -0.11657697
-0.106702 -0.1100417 -0.14498672 -0.019360239 0.16847917 0.08406398 -0.15248536 -0.25567466
0.27045193 -0.0007324775 -0.24727024 -0.028654952 0.18962495 0.18477897 -0.012807261 -0.009036606
-0.07097028 0.00382669 -0.082000464 0.23387691 0.024001066 -0.2067316 -0.28603008 0.21480572
-0.0855642 -0.04388156 -0.12443492 -0.2834354 -0.26854685 0.01866249 0.34819442 -0.14420936
0.03426236 -0.007391995 -0.04288868 -0.02799366 -0.0068676085 -0.23057543 -0.050333813 -0.20594512
0.25360996 -0.09801567 0.025488831 -0.022738416 0.00026839174 0.034639113 0.14452533 0.124021165
-0.100041956 0.25947687 -0.09735647 0.12432849 -0.20026073 0.190396 -0.47157276 0.034297198
0.17480974 -0.069674164 -0.049943913 -0.03969257 0.03847865 0.03304111 0.36438617 0.057991154
0.14267409 0.009244707 0.0405233 0.16984673 0.18360323 0.15706567 -0.122896075 0.04674644
0.18237166 0.2735766 -0.063074365 0.1579248 0.007290634 -0.18496647 0.12406065 0.06981711
0.1252335 0.17263289 0.3193496 0.3284339 0.046276066 0.05131918 0.30228442 0.04724454
-0.07906214 -0.054260973 0.0846506 0.050204784 -0.16592892 0.06271782 0.14230183 0.00032541138
0.14173868 -0.02172171 0.112601034 0.17017494 -0.31906298 -0.34498528 -0.0021766108 0.42360273
0.0657196 -0.18425117 0.019713143 -0.22166508 -0.008622097 -0.053512987 -0.0056570624 -0.16282392
-0.1252886 -0.08654395 0.030789008 -0.051117346 -0.18848093 0.06538479 -0.0062784934 -0.012498624
0.011710122 -0.045522477 0.18461052 -0.06548252 0.06786842 -0.17639397 0.40280944 0.14600836
0.009341304 -0.13222058 -0.08134816 0.053864904 -0.1081153 -0.003397556 -0.21767364 -0.3979758
-0.1434774 0.087295204 -0.2360758 0.17291717 0.013544373 0.010927683 0.0083251465 0.03808055
-0.23979767 0.18680353 0.14235623 0.6426869 -0.105115615 -0.16101053 -0.14536908 0.0738249
-0.4018606 0.010133044 -0.110175304 -0.33488148 -0.16886532 0.18025866 0.34086135 -0.22701418
0.17583217 -0.19797097 0.13724768 0.1297635 -0.11184132 -0.18767023 -0.07568381 -0.020745482
0.09574562 -0.036330335 -0.076307364 0.12610346 -0.15597811 0.21680304 0.2350653 -0.059009373
-0.039400052 -0.25607157 -0.0059690503 0.19049911 -0.12322895 -0.42462867 -0.018975569 0.11567647
-0.23645462 -0.038046792 -0.24064094 -0.17032148 -0.4495296 0.048723005 -0.22146013 0.1256567
-0.011601813 -0.0026430483 -0.028301395 0.16791177 -0.11146165 -0.21431687 -0.123528436 -0.14810276
-0.16500236 0.0061356174 0.049356904 0.14969607 0.091087796 -0.08080668 0.15305786 -0.23887551
-0.13280779 0.12910628 0.12040825 -0.47841436 0.119797334 -0.107732534 0.23359872 -0.14389236
-0.058616616 0.018984998 -0.09385869 0.097974986 0.05020704 0.118034296 -0.36805034 0.13876142
0.1457423 0.07601405 -0.081854284 0.1990227 0.021408752 -0.06126258 -0.010624733 0.26324594

gnn1_pool.conv3.lin_root.bias f4 [50]
00000000: 6c61 83bd 8079 83be 9e02 d4bd bd12 933d
00000010: e12c 03be 1a91 eebd e9f2 273e d951 9d3e
00000020: 4d90 88be 616e eebe e20b 99be b082 01bd
00000030: b62b 8abe def5 f1be 5cfc 883d e6d0 88be
00000040: d217 8fbe 9fc5 f53c 9c3e eebd bb56 823e
00000050: 503f 4fbe 5c1e 42be 18b8 72be 9428 09bf
00000060: 23c2 09bf cfc3 ea3c f0b9 e0be de57 edbe
00000070: 8974 97be f25c f3bb 7048 f7be 435c a63e
00000080: 90fa 82be cd05 a5be 9e4e dc3c ff72 0c3d
00000090: 751a de3d e20d c83d fef4 0bbf d620 e23e
000000a0: a99a 24be 62a5 5dbe cd42 59be 1cc5 a8be
000000b0: eb86 95be 3b79 ddbe eca9 1c3d d560 e4be
000000c0: 833e 373e 4327 29be
-0.06415066 -0.25678635 -0.10352062 0.071813084 -0.12810089 -0.1164877 0.16401257 0.30726507
-0.26672593 -0.46568587 -0.29891878 -0.031618774 -0.26986474 -0.47257894 0.06688759 -0.26721877
-0.2794786 0.03000146 -0.116330355 0.25456795 -0.20238996 -0.18956894 -0.23703039 -0.5357754
-0.53811854 0.028657822 -0.4389186 -0.463561 -0.29581097 -0.0074268514 -0.48297453 0.32492265
-0.2558179 -0.32230988 0.026892956 0.034289356 0.1084489 0.09768273 -0.54670703 0.44165677
-0.16074623 -0.2164512 -0.21216889 -0.32962883 -0.29204497 -0.43256554 0.038247988 -0.44605127
0.1789494 -0.16518883

gnn1_pool.bn3.weight f4 [50]
00000000: b722 803f a251 653f 15ca 5f3f 3bc4 773f
00000010: e248 213f 1efc 2b3f 47a0 173f 5a59 523f
00000020: 0b10 433f 04b6 773f 9144 7a3f d5b2 083f
00000030: fb51 6c3f 4c17 9b3f 9d8f 513f 22ab 6c3f
00000040: f74b 5f3f 5766 793f 96ad 453f 22a0 5a3f
00000050: 17af 663f e62a 5b3f 1a6e 873f 8539 753f
00000060: 542e 483f 9668 f73e 4e25 3f3f a598 523f
00000070: d4a7 8b3f acce 073f 4ddd 323f c145 5a3f
00000080: 49d7 643f 564d 8e3f 17d6 2c3f c1ba 313f
00000090: 7b6c 683f 9a27 963f bf82 843f f772 c83e
000000a0: ce9c 8d3f f87a 473f a6b6 6c3f 8c68 723f
000000b0: dd5e 263f 1d57 623f 9f58 6c3f 7cbd 763f
000000c0: 506b 7f3f 719e 733f
1.0010594 0.89577687 0.8741773 0.967838 0.63001835 0.67181575 0.5922894 0.8216759
0.76196355 0.9676211 0.97760874 0.53397876 0.9231259 1.2116485 0.8185976 0.9244863
0.8722529 0.97421783 0.77217996 0.85400593 0.90110916 0.8561233 1.0580475 0.9579089
0.7819569 0.4832198 0.746663 0.8226417 1.0910592 0.5304973 0.6986893 0.85262686
0.89391 1.1117351 0.67514175 0.6942559 0.9079053 1.1730835 1.03524 0.3915021
1.1063478 0.7792201 0.924662 0.94690776 0.649885 0.88414174 0.92322725 0.9638288
0.9977312 0.9516364

gnn1_pool.bn3.bias f4 [50]
00000000: 503f 723d c058 213e fb9a 993b a556 b4bc
00000010: cedd 153e 9b37 2a3e 5358 d2bb 8898 23be
00000020: db0a 833e 37f2 5f3d bd8b 5b3e 7fdb dbbb
00000030: 3cbd 9b3e 8765 4e3e 9158 d43d 73f9 863e
00000040: e421 823e afc6 5c3e 5b49 89be 0515 533c
00000050: c597 d53c eb39 dcbd 143f 9a3e 7f60 723e
00000060: a12e e4bc ec6a 6e3e ce9a 4ebd f7a1 543e
00000070: b7da c83c 286c 36be f1d8 893e 3b1a 6e3d
00000080: 3229 2fbe 1ea9 933e 5e21 743e ba4b a93e
00000090: ad8d f13d 88d7 a7bd 9c26 783d 4429 10bc
000000a0: ab49 a13e 8c73 603e f7aa 18be 8815 ff3d
000000b0: 8795 253e d4a0 3a3e 9c65 98bc 9c1b 0ebe
000000c0: c543 cc3d de43 ae3d
0.05914241 0.15756512 0.0046876646 -0.022013972 0.14635393 0.16622774 -0.0064192205 -0.15976155
0.2559422 0.054674353 0.21440025 -0.0067095156 0.30417812 0.20155917 0.10368455 0.2636219
0.25416481 0.21560167 -0.26813778 0.012883429 0.026073346 -0.107532345 0.3012625 0.23669623
-0.027854266 0.23282975 -0.050440602 0.2076491 0.024518354 -0.17814696 0.26923326 0.058130484
-0.17105559 0.28839964 0.23840854 0.33065587 0.11794601 -0.08195406 0.060583696 -0.008798901
0.31501517 0.21919078 -0.14908968 0.12455279 0.16170321 0.18225414 -0.018603139 -0.1387772
0.099738635 0.085090384
