model/BA200_p0.1_m50_diff_pool.pt (torch, 793665 bytes, 113 tensors)

gnn1_pool.conv1.lin_rel.weight f4 [64, 2]
00000000: 8000 1f3f b191 84bc 31b2 d8be 903a d03e
00000010: abcb c8be 2754 98be b08a 37bf cb0b 203f
00000020: 06e5 d9bd 7f65 37be 8eaf 47bf 3940 e23f
00000030: f1c2 24be 0484 b8be 1b80 1abf ee7d 5a3f
00000040: 0c71 303f 3cf1 eabd 3379 cc3e c0fe f33e
00000050: 0798 993e bafb c23e 1316 0b3f c1d3 0c3f
00000060: 393c 9a3d 49ff 44bf c135 413e e22d 343e
00000070: ba4d 7f3e 59e7 5cbf 720f 13bf 7975 2abf
00000080: fb2d 263e dedb 3a3f 85f1 4abd d961 783e
00000090: f1e4 f9bd 32b2 833d fe3e 4a3f 42fa 0dbd
000000a0: d046 ef3d ac0b 0d3f e374 cb3e e28a 203f
000000b0: 8205 a1be d9b6 1fbf 9083 513f 56b6 a33e
000000c0: 52ed b4be e56b 743f 8b76 6cbe 5ff8 3bbe
000000d0: 7539 5ebe 2553 763f ac02 72be 54d8 acbb
000000e0: 1ed0 b83d 697b 8dbe 4ad5 abbe 55b4 793e
000000f0: fc1f 143f f38d 543f 6d69 76bf 7508 043f
00000100: 9898 a83e 8550 29be f4e9 a93e efdc f23e
00000110: 27ce 05be 769f 213e 5247 d2be 1c47 2cbf
00000120: f723 4abf f39e 0e3f 6063 e73e eaed 38bf
00000130: 9c7d 8b3e 0fae 963d 26a6 1ebf 627c 8fbd
00000140: 6b34 ea3e ffd8 0b3f 6f68 983f 11ea 91be
00000150: 2ad1 b4be c408 b2be b1e0 753e a58b 703e
00000160: 72c4 c73e efd0 cb3e 81fc a2be 108b 8a37
00000170: 12a2 17bf fdb5 863e 3b4d 263e 49e1 823e
00000180: d254 26bf 5b1e c9be 0fa9 1ebe 7671 19bf
00000190: 2a2c 3cbf c129 433f ae0a fe3e 1e5c d4bf
000001a0: 15ae 893e 5649 ab3e 56a6 923d 73d6 51bf
000001b0: d3ea abbe 7aa1 e7be 009f 713e 84ae 343e
000001c0: 92ad 32be c2cc cebd 1559 a8be 1221 5c3f
000001d0: 9d33 f03e a606 26bf 7119 0e3f 0c44 1fbd
000001e0: 5486 1dbf cedc 5c3f 2fd8 083e 6b6e 233e
000001f0: 8714 223f cfdc 123d 68c6 17bf 8025 f8bd
0.6211014 -0.016182752 -0.4232345 0.4066968 -0.39217886 -0.29751703 -0.71695995 0.62517995
-0.10639386 -0.17909811 -0.7800225 1.7675849 -0.16089989 -0.3603822 -0.60351723 0.85348403
0.68922496 -0.11471793 0.39936218 0.47655296 0.299988 0.38082677 0.5433056 0.5501061
0.07531018 -0.76952034 0.18868162 0.17595628 0.24931994 -0.8629051 -0.5744544 -0.665855
0.16228478 0.7299174 -0.049546737 0.24256076 -0.1220187 0.064304724 0.7900237 -0.034662493
0.11683428 0.55095935 0.39737615 0.6271192 -0.31449515 -0.6238838 0.81841373 0.3197505
-0.3533731 0.95477134 -0.23092096 -0.18356465 -0.21701606 0.9622062 -0.23633832 -0.0052748118
0.0902407 -0.27633217 -0.33561164 0.24385197 0.57861304 0.830291 -0.96254617 0.51575404
0.3292892 -0.16534622 0.33186305 0.47434184 -0.13066922 0.15783486 -0.41070038 -0.67296004
-0.7896113 0.5571129 0.45193005 -0.7223803 0.2724427 0.07357418 -0.6197227 -0.07006146
0.45743117 0.54627985 1.1906871 -0.2849889 -0.3531583 -0.34772313 0.24011494 0.2349077
0.39017063 0.3980784 -0.3183327 1.6515638e-05 -0.59231675 0.2631072 0.16240399 0.25562504
-0.64973176 -0.39280972 -0.15494178 -0.5993875 -0.7350489 0.76235586 0.49617523 -1.6590612
0.26890627 0.33454388 0.07160632 -0.8196785 -0.33577594 -0.45240384 0.2359581 0.17644697
-0.17449024 -0.10097648 -0.32880464 0.8598796 0.46914378 -0.64853895 0.5550757 -0.038883254
-0.61533093 0.8627442 0.13363717 0.1596009 0.6331257 0.03585511 -0.5928712 -0.121165276

gnn1_pool.conv1.lin_root.weight f4 [64, 2]
00000000: 35f5 573f d25e eebd ab2f 923e 0814 33be
00000010: 2f07 2dbf a3bb 1abf 213d babe 41b1 b73e
00000020: 7119 46bf f2cd d33f 5354 203e c2a0 f63e
00000030: c5f6 bdbe 1f03 f13e 8bb3 a43e 45ea 0a3e
00000040: 6cef 3c3f 09cb 66be bb5d 2f40 0ee1 38bf
00000050: 09cd 5340 95a2 78bf 9f24 a1be dbc8 b8be
00000060: 29a7 56bd a03c cc3e 0b9f 813f 3849 11bf
00000070: 5994 db3e 5960 633e a9b4 24bf 562e 093f
00000080: d41e 123f 3d03 28bf 3fca 02bf dca6 1dbf
00000090: 515f 7e3f 078c d0be cf4d 30bf c18d 153f
000000a0: 8667 7f3e 205b 17bf d9ce 8bbf cd47 dc3f
000000b0: 02f5 34bf bc4d 833d fdcf b5be 28db 083f
000000c0: 9e60 dabe 2bc4 c93e ce58 b93f 052f 99be
000000d0: c489 f23d 760f 063e 6949 dcbe 97d1 3d3f
000000e0: fab8 2dbf 9574 2ebf fab6 2a3e 1a93 0ebf
000000f0: 0672 3b3f 44ac 32bf 904c 543d 90d8 dd3e
00000100: debc 9dbe 1234 55be 64b9 803f 56ee 9bbf
00000110: 4bff dd3e edc6 6abf 7cb4 983e d932 5a3e
00000120: b4b2 943e a968 9f3e 7724 c93d fa88 00bf
00000130: cf55 5c3f 5f6c 1fbf 9d0a adbe 8625 67bc
00000140: 8ea6 843f 7651 15bf bf82 203f c9b3 47bf
00000150: 5979 f6bd ae94 a0be 7af9 d33f bba8 ffbe
00000160: 4b1e 1dbf f047 5c40 e042 3c3f e475 bfbe
00000170: 5a1e 4bbf ae11 80be a54c 35bf ba42 9b3f
00000180: 013a f0bd 2311 b93e d5f8 263f 5b0f 38bd
00000190: 068b 3dbe 1a26 d23d b513 93be feed c5be
000001a0: 388d 1b3f c66e 28bf 9ac0 9e3e cbb0 b2be
000001b0: b206 f2be 4f4f 28bf 46c4 4cbf 8e42 283f
000001c0: 0d90 ca3f c1fa 31bf 2711 37bf 6897 28bc
000001d0: af0f f63e 1773 823e 69f5 0c3e 82f5 163e
000001e0: 9d5d 263f 4ede 90be 3fe5 eb3f 87dc 42bf
000001f0: afa0 7c3d 4263 92bf a184 b0bd 29bc 2c3e
0.8435853 -0.11639179 0.28551993 -0.1748811 -0.67589086 -0.6044256 -0.36374763 0.35877421
-0.7738257 1.6547225 0.15657167 0.48169523 -0.37102333 0.47072694 0.3216823 0.13565929
0.7380283 -0.2253839 2.7400959 -0.72218406 3.3093894 -0.9712308 -0.31473252 -0.3609074
-0.05240551 0.39890003 1.0126661 -0.5675235 0.42886618 0.22204722 -0.64338166 0.5358633
0.5707829 -0.6562994 -0.51089853 -0.6158273 0.9936419 -0.40731832 -0.68868726 0.58419424
0.24941835 -0.5912342 -1.09225 1.7209412 -0.7068635 0.06411311 -0.35510245 0.53459406
-0.42651838 0.39407477 1.4480226 -0.29918686 0.11842683 0.13091835 -0.43024758 0.74147934
-0.67860377 -0.6814664 0.16671363 -0.5569321 0.7322086 -0.69794106 0.05183083 0.43329287
-0.30808157 -0.20820644 1.0056577 -1.2182109 0.43358836 -0.91709787 0.298252 0.2130846
0.2904259 0.31134537 0.09821408 -0.5020901 0.86068434 -0.62274736 -0.3379716 -0.014108067
1.0363328 -0.58327425 0.626995 -0.78008705 -0.12034864 -0.31363434 1.6560509 -0.4993342
-0.6137435 3.4418907 0.73539543 -0.3739463 -0.7934319 -0.2501349 -0.70820075 1.2129738
-0.11729813 0.36145887 0.6522344 -0.04493652 -0.18510064 0.102611735 -0.28725973 -0.38658136
0.6076236 -0.65794027 0.31006318 -0.34900507 -0.47270733 -0.65746015 -0.7998699 0.65726554
1.5825211 -0.69523245 -0.7151055 -0.010290004 0.4805884 0.25478432 0.13765492 0.14742091
0.6498659 -0.28294605 1.8429335 -0.7611775 0.061676677 -1.1436541 -0.08619047 0.16868652

gnn1_pool.conv1.lin_root.bias f4 [64]
00000000: 25f3 02bf 0760 93be db2d debe d59b c3be
00000010: 9e02 773f 1029 2e3f 75ca 0ebf 4179 253b
00000020: d33b e8be 62cb 5e3e bbb4 143f 2d8f e8be
00000030: ddee 85bd ee8d d23e 918c 9dbe ba48 163d
00000040: 09b1 cb3e bde4 cebe 65ab aa3e 12b4 a83e
00000050: 6e63 f13e 5c87 ea3e 0074 aabd 00ec d2be
00000060: bcf3 10bf 10c2 f33e a24f c0be fb9a 403f
00000070: 52cb 0abf 2c24 eabe 44e8 1fbe 3633 29bf
00000080: e691 c1be 7d90 633f 6c73 443f b08d 28bf
00000090: 2e2e 2abd 6917 abbd 7c75 0a3f 7315 22bf
000000a0: 30d3 163d 7fe1 09be 2371 31be 48b5 a13e
000000b0: 713e 9c3e 7a17 bc3e 6f44 f43e 431b e63e
000000c0: 49e6 23bf 58a2 453f cf7e ad3e 1a99 b1bd
000000d0: 7d6e c83e 0d5a 80bc 083c 21be ab53 273f
000000e0: 78ef 4a3f 0f16 da3d 0d4e 13bf fc86 40bf
000000f0: ade0 18bf 3a00 113f ac51 053f efd3 bfbe
-0.5115226 -0.287842 -0.4339436 -0.38204828 0.9648837 0.68031406 -0.55777675 0.0025249275
-0.45358142 0.21757272 0.5808827 -0.45421734 -0.065397 0.4112391 -0.30771306 0.03669045
0.39783505 -0.40408888 0.3333389 0.32949883 0.4714617 0.45806396 -0.083229065 -0.4119568
-0.5662191 0.47608995 -0.37560755 0.7523648 -0.5421649 -0.45730722 -0.15615946 -0.66093767
-0.37806624 0.88892347 0.7673862 -0.658412 -0.041547947 -0.083540745 0.54085517 -0.6331398
0.036822498 -0.13464926 -0.17328314 0.3158362 0.3051639 0.3673666 0.4770846 0.44942674
-0.6402326 0.7720084 0.3388581 -0.0867178 0.39146796 -0.01566794 -0.15745556 0.6536204
0.7927165 0.106487386 -0.5754097 -0.7520597 -0.5971783 0.5664097 0.52077746 -0.3746638

gnn1_pool.bn1.weight f4 [64]
00000000: 14e8 513f b395 793f 0000 803f 00d6 da3f
00000010: 1405 0d3f 16fe 3db9 0000 803f fd5a 653f
00000020: aa34 403f c8c8 163f 308a 503f 0000 803f
00000030: 8ea2 823f efc4 3c3f 1950 783f 1ecb 803f
00000040: 2c49 5b3f 0000 803f 6971 403f ce09 583f
00000050: af62 203f 0c70 2d3f 0000 803f 258b 533f
00000060: 5cec cc3f 3ba9 1a3f b97d 4b3f 740e 4b3f
00000070: 0000 803f 0000 803f 3fc1 3a3f ceb8 9f3f
00000080: 0000 803f 466a 273f a766 2c3f 0000 803f
00000090: 7c78 843f 2b53 0f3f 3267 3b3f 0000 803f
000000a0: 6372 253f 6e5e 493f 0000 803f 7b22 263f
000000b0: a678 3d3f 486a 2a3f 1638 c13f 8ad2 4c3f
000000c0: 0000 803f 0c3a c83e 941d 723f 92c6 a33f
000000d0: 8a08 363f f6d0 da3e 0000 803f 1c69 043f
000000e0: 65b2 f83e ceeb 513f 9c89 463f 52fc 7f3f
000000f0: c6c2 b13f 8604 cd3e 9617 b83e 0000 803f
0.8199475 0.9749405 1.0 1.7096558 0.55085874 -0.00018119099 1.0 0.8959196
0.7508036 0.5890012 0.8146086 1.0 1.0205858 0.73737997 0.9699722 1.0061986
0.85658526 1.0 0.7517305 0.8438996 0.6265058 0.67749095 1.0 0.8263419
1.6009631 0.60414475 0.7948871 0.7931893 1.0 1.0 0.7295112 1.2478273
1.0 0.65396535 0.67344135 1.0 1.0349269 0.5598628 0.7320434 1.0
0.64627665 0.78659713 1.0 0.64896363 0.7401222 0.6656842 1.5095241 0.8000876
1.0 0.39106786 0.9457638 1.2794974 0.7110678 0.4273755 1.0 0.51722884
0.48573604 0.82000434 0.77553725 0.99994385 1.3887565 0.40042514 0.35955495 1.0

gnn1_pool.bn1.bias f4 [64]
00000000: 1ab1 633d d227 933e 0443 503c 4b3b 973e
00000010: 6b8a 8d3e fb20 093c 55cc 5d3c a1d7 97bd
00000020: 134b 073e 3f89 9ebe b7f9 11be b6a5 403b
00000030: 7949 6d3e 5d44 d7bc 3a42 373e db6a 83bb
00000040: eff3 c8bd c83a a8bb a10a cdbd 020b 113e
00000050: 13cf 8fbd 3cf2 c03e 4dff 763a 7c26 b53d
00000060: 1b30 023f 01b5 a7be e012 c03e eb6c 143c
00000070: 616e 16bb 6d6f 593b 579a 9dbe 50ae 703e
00000080: ca5c 9039 c1b3 f8bd b74b 8dbe adbb 803b
00000090: c7ca d33d eef7 413e 9f15 8d3c eae9 dc3b
000000a0: 0084 b9be 184a ae3d d418 0b3c c3e1 07be
000000b0: 9546 0f3e c0c2 77be 2a13 9c3e e83d c23d
000000c0: bd7e aabb a01c 1dbd 8cb8 bd3e f56e 02be
000000d0: 2566 c0be 300d 503e 3c9e e23a 70b9 903e
000000e0: b3bf 87be e8b1 533e 44cf 8c3e 58b2 6d3b
000000f0: 2eb4 fa3e 41e6 5dbe 9282 c4bd d58d 0e3b
0.05558882 0.28741318 0.01271129 0.29537424 0.27644667 0.00836968 0.013537486 -0.07414175
0.13212232 -0.30964085 -0.14255415 0.0029395646 0.23172559 -0.026277715 0.17896357 -0.004010541
-0.09812152 -0.0051339604 -0.10011793 0.14164355 -0.07021918 0.3768481 0.0009422198 0.08845231
0.50854653 -0.32755283 0.375144 0.009059171 -0.0022953975 0.0033177987 -0.30781814 0.23503995
0.00027534954 -0.1214366 -0.27596828 0.0039286227 0.10341411 0.18942234 0.017222224 0.006741752
-0.3623352 0.08510226 0.008489806 -0.13269715 0.13991769 -0.24195385 0.3048337 0.09484464
-0.0052030967 -0.038357377 0.3705486 -0.12737639 -0.3757793 0.2031753 0.0017289589 0.28266478
-0.26513442 0.20673335 0.2750188 0.0036269631 0.4896559 -0.21669866 -0.09595217 0.002175202

gnn1_pool.bn1.running_mean f4 [64]
00000000: a214 1c3f 023a 923c 0000 0000 9cba bf3c
00000010: 6acd 153f 9094 733f 0000 0000 a8df 683e
00000020: 39fc 163f 0fa3 2940 fd6c 5340 0000 0000
00000030: 0841 8d3c f5ad a13f 6243 df3d 0400 0000
00000040: 9d86 863f 0000 0000 6658 7c3f 65bc e93e
00000050: d5fc 4b3f b8de 143f 0000 0000 0347 223e
00000060: fefe 313d 70c2 ab3f b618 ac3d d678 d43e
00000070: 0000 0000 0000 0000 7743 763f 595a bc3b
00000080: 0000 0000 e658 e53f d558 673f 0000 0000
00000090: bb6e c63d 7e33 223e 8822 a53f 0000 0000
000000a0: c1ab 9c3f c63c 803f 0000 0000 ad5c df3f
000000b0: 4fd2 753f 0eb5 2f3f da62 d13c 3c06 cf3e
000000c0: 0000 0000 19ef 793f 96f0 223e d0b0 d23c
000000d0: c632 823f 5325 013e 0000 0000 7a77 c43e
000000e0: 446d df3f 2145 ac3d b30c de3d 0400 0000
000000f0: f454 773d cd30 0040 b2f0 523f 0000 0000
0.60968983 0.017849926 0.0 0.023404412 0.5851656 0.95148563 0.0 0.22741568
0.5897861 2.6505773 3.303527 0.0 0.017242923 1.2631212 0.10901524 6e-45
1.0509831 0.0 0.98572385 0.45651546 0.79682666 0.5815234 0.0 0.15847401
0.04345607 1.3418713 0.08403151 0.4149844 0.0 0.0 0.96196693 0.005748075
0.0 1.7917755 0.9036992 0.0 0.09689089 0.15839955 1.2901163 0.0
1.2239915 1.0018547 0.0 1.7450157 0.9602403 0.6863564 0.025559831 0.40434444
0.0 0.9763046 0.15912089 0.025719076 1.0171745 0.12611894 0.0 0.38372403
1.745522 0.08411623 0.10842266 6e-45 0.060383752 2.0029786 0.8239852 0.0

gnn1_pool.bn1.running_var f4 [64]
00000000: 09e3 f33d 4270 6d3b 0400 0000 34d9 113c
00000010: 3f11 7c3f 6f41 fd3e 0400 0000 2d69 9c3d
00000020: f549 fb3d 1232 f73f c0fb 3f40 0400 0000
00000030: 9e2c 4e3b 711f d93e 0b5e b53c 0400 0000
00000040: 3a1e 633e 0400 0000 1292 893e f38e 613e
00000050: c93d d53d 93a9 9c3f 0400 0000 8d9c a53d
00000060: 37ff a23c 2b6d fd3e faef df3c aacc 823e
00000070: 0400 0000 0400 0000 d4b1 833e e144 cf3a
00000080: 0400 0000 1fee 4f3f c057 693e 0400 0000
00000090: 50f7 133d 2160 073d 066e ca3e 0400 0000
000000a0: a100 d33e 48af ba3e 0400 0000 5cec 483f
000000b0: c5e7 3140 e225 093e 3307 f13b e86e 173f
000000c0: 0400 0000 6b62 f13d e5c1 9b3d 02fb 213b
000000d0: 7933 883e a474 a33c 0400 0000 825f b53e
000000e0: bc6f 563f 4d23 293d 5229 b53c 0400 0000
000000f0: c8ef cd3c 2122 8d3f 461f 4e3e 0400 0000
0.11908538 0.003623024 6e-45 0.008901883 0.98463815 0.49463984 6e-45 0.07637248
0.122699656 1.9312155 2.9997406 6e-45 0.00314597 0.424068 0.02213957 6e-45
0.221795 6e-45 0.26869255 0.22027187 0.10412175 1.223925 6e-45 0.080865
0.019897087 0.4949735 0.02733611 0.2554677 6e-45 6e-45 0.2572161 0.0015813374
6e-45 0.8122272 0.2278738 6e-45 0.036124527 0.03305066 0.39537066 6e-45
0.41211417 0.36461854 6e-45 0.78485656 2.779771 0.13393357 0.0073555945 0.59153605
6e-45 0.1178635 0.07605342 0.0024716263 0.2660177 0.01995308 6e-45 0.3542443
0.83764243 0.04129343 0.02211443 6e-45 0.02513875 1.102604 0.20129117 6e-45

gnn1_pool.conv2.lin_rel.weight f4 [64, 64]
00000000: a980 963d 97f7 aebe 53be 123d ea62 8d3f
00000010: 65da 9bbe ee3d d83d ad9d eebd 0d4f 373e
00000020: c861 873e db28 4b3e 9f7a 873e 478f 373c
00000030: 009d 3fbf ee4e 3f3e 1ab2 d93d 7198 193d
00000040: f1fc db3d 8471 7d3c f54d 0d3e bf52 b0be
00000050: 17b0 a53e 7c43 d0be 495f e13c 8067 97be
00000060: c74b 663f 1795 c63e 6a53 1e3e b08c c63d
00000070: 0b07 783d d8de 0bbd f907 da3d f0fa 2f3f
00000080: 75bc 7bbd d24b 193e 3b5e 993d 8735 da3d
00000090: 3a77 8b3e 7751 c33d 0ca5 8dbd 2ac2 25be
000000a0: 60d1 823e 3632 753e 8310 71bd 3dbe 103d
000000b0: 3cd8 3ebe e62e 21bd a2ef 6d3f 81da 3ebe
000000c0: 6981 8fbd ebcf 5cbd ef3e 373e b4ab 073f
000000d0: 51a3 d23e 69f4 133e f1e0 b2bc 78d5 6bbe
000000e0: fd52 ae3e 69b2 583e c45c ba3b b4af 6d3d
000000f0: e693 c5be 61b4 973e e09c 4d3e 46fa 253d
00000100: a736 c9bd fab4 7ebe fb35 26bd d6f4 a03e
00000110: 23bb 30bd 9684 efbc 10c8 01bf 6595 b3bd
00000120: 590c e6bc cd38 cbbd 702d 053c 8343 db3e
00000130: df9d 423e 5fe3 d53d 59ef a8be f722 fbbc
00000140: 132f 8b3d 9cfa 563d caef 80bd 1a73 87bd
00000150: cf19 4d3c 7b29 593d d06f fc3e ac70 8bbc
00000160: 210a 5f3e 5b73 f6bd 9673 efbd 5fbb d83d
00000170: 2c35 88be 51c1 eebd dde4 0bbe ad8c 5e3f
00000180: 9bbb f73e b2e4 06be 535a 06be b3ff f7be
00000190: 8d79 a63d e5ac 6cbe cef0 96bd 2fe1 5ebb
000001a0: 1385 05be 72ad b8bc 0625 26bd bb16 b8ba
000001b0: 43fe ca3b 90b1 9ebc 4e86 033e 74f2 22bd
000001c0: a7b2 99bd b457 de3c 1bba 4abe 5531 783e
000001d0: 3e17 7abd 13a0 90be e5ef 07bd cfe0 f53d
000001e0: e3ed 09bc e790 54be 4097 afbe da29 bbbe
000001f0: 76a7 68be e20b ad3c 7229 e6bd dc0e 8cbe
00000200: 29ff 57be 8960 a9be 5999 6ebe 4027 853e
00000210: aaee 8bbc e203 0dbe ff9d 28be 7be6 a53d
00000220: d03e 5ebe c31f acbd 2d16 42be 5ce3 0cbe
00000230: ba3f 903c 1ec6 08be 4c24 6d3d 8d36 b23d
00000240: 9ecb 1fbe 167a 003d 8c9e a9bc 02f6 123e
00000250: a0ac 25bd 923f abbd d9bb 64bc d96a a03d
00000260: d770 173d e049 9abc b2a3 253e 4108 8c3e
00000270: fbcd 3dbd 3e0e 7fbe 9607 6a3d b7b7 f2bd
00000280: 06ed 5ebe 26d6 61be 49ff 993d 5378 483d
00000290: 8661 013e b3f2 cebd ee99 a8be 0df9 ab3c
000002a0: 969e a83d b770 f4bd 39b4 1cbe ac24 ecbd
000002b0: b2c7 953d 5504 0b3e 0f87 433e 830d 4d3e
000002c0: 5ca5 cfbc 995a c3bd d1a0 6f3b a5f6 a43e
000002d0: 3e54 073e 652d 263c ee67 203d c19d 8c3d
000002e0: 146c 683d 00c9 4d3e b822 463e c058 cd3d
000002f0: 8ae4 e63d 4934 c83c 2dd7 1cbe 040e 1d3e
00000300: e195 0bbe c903 973e f392 873e 31bd b4be
00000310: 2746 a83d e178 553e 9909 f53d 66c3 6e3d
00000320: 449a cabd cb98 e33d ef21 17bd 2fef 13be
00000330: 6173 053e 6cad 093e a6fe d0be e024 18bc
00000340: f440 183e 3c5b 1abd 542a 793e 3b36 a7bd
00000350: 048d 323e 23d1 733d 93f5 1cbd 6abd 0a3e
00000360: 5ad2 fbbd 4839 eb3d 50d6 3c3e 25ff 94bd
00000370: 3278 4a3a f416 d93d a9cb 1d3e 0db1 103e
00000380: 603a ccbc b236 0e3e 3b4c 723e a997 423d
00000390: 121b d8bd b0df 37be fb5f 513b 45c7 4c3e
000003a0: 5aa9 183e 1538 05be e1ba 89bd 6854 babd
000003b0: f65e 6dbd 5b25 e03d 4b2b 31be ea1c d6bd
000003c0: a1f0 2ebe 9107 873d ffe9 30be 78fb 19bf
000003d0: 3488 7fbc c971 c6be 6181 103e efbe 293c
000003e0: 070a 053e 6e99 c5be 9088 74be 4629 f5bc
000003f0: 0de8 8d3e 3051 fbbd 126e 3cbd 0b0f 013e
0.07348759 -0.3417327 0.03582604 1.1045811 -0.3044006 0.10558687 -0.11651168 0.17901249
0.2644179 0.19839804 0.2646074 0.011203594 -0.7484894 0.18682453 0.10629673 0.037498895
0.10741604 0.015468959 0.1379927 -0.3443813 0.32360908 -0.40676486 0.027511256 -0.29571152
0.8995938 0.38785622 0.15461507 0.09694803 0.06055359 -0.034148067 0.10646052 0.68742275
-0.061459024 0.1497033 0.07488676 0.10654741 0.272394 0.095370226 -0.06916246 -0.16187349
0.25550365 0.23944935 -0.058853637 0.035337675 -0.18637174 -0.039351366 0.92943776 -0.1863804
-0.07007105 -0.053909224 0.17895101 0.52996373 0.41140226 0.14448704 -0.021835776 -0.2303065
0.3404769 0.21161808 0.005687328 0.05802889 -0.385894 0.29629806 0.20079374 0.040521882
-0.09824877 -0.24873725 -0.040578824 0.31436795 -0.043147217 -0.029238027 -0.50695896 -0.08768729
-0.02808206 -0.09922943 0.008128509 0.42824945 0.19005536 0.10443758 -0.32995108 -0.030656321
0.06796088 0.052485093 -0.06295736 -0.06613751 0.01251836 0.053018074 0.49304056 -0.0170215
0.21781208 -0.12033721 -0.11691968 0.10582613 -0.26603067 -0.11657966 -0.13661523 0.86933404
0.4838532 -0.13173178 -0.13120393 -0.4843727 0.08128653 -0.23112829 -0.073701486 -0.0034008732
-0.13039045 -0.022543643 -0.040562652 -0.001404486 0.006194861 -0.019371778 0.12844202 -0.039782003
-0.07504778 0.02714143 -0.19797556 0.24237569 -0.06105732 -0.28247127 -0.033187766 0.120057695
-0.008418533 -0.20758401 -0.34295082 -0.36555368 -0.22720131 0.02112383 -0.11238374 -0.27355087
-0.2109343 -0.33081463 -0.23300685 0.26006508 -0.017081577 -0.13771012 -0.1646652 0.08100601
-0.21703649 -0.084044956 -0.18953772 -0.13758606 0.017608512 -0.13356826 0.057895944 0.08701811
-0.15605018 0.03136643 -0.020705484 0.14351657 -0.04044783 -0.083617344 -0.013960802 0.078328796
0.036972847 -0.018834054 0.16175726 0.27350047 -0.046339016 -0.24907777 0.05713614 -0.11851447
-0.21770105 -0.22054347 0.07519395 0.048942875 0.12634858 -0.10104885 -0.3292994 0.02099278
0.08233373 -0.11935561 -0.15303124 -0.11530432 0.073134795 0.13575871 0.1909449 0.20024686
-0.025347404 -0.095387645 0.003656436 0.32219425 0.1321573 0.010142659 0.039161615 0.06866027
0.056743696 0.20096207 0.19349182 0.10026693 0.11274059 0.024438994 -0.15316458 0.15337378
-0.13631393 0.29495075 0.264793 -0.35300592 0.082165055 0.20846893 0.11964721 0.058291815
-0.09892705 0.11113127 -0.036897596 -0.1444671 0.13032295 0.13445061 -0.4081928 -0.009286135
0.14868528 -0.037684664 0.24332553 -0.081646405 0.17436606 0.05952562 -0.038320135 0.13548818
-0.12295981 0.11485535 0.18441129 -0.072752275 0.0007723599 0.10600081 0.15409721 0.1413004
-0.02493018 0.13888052 0.23661892 0.047507916 -0.10552038 -0.17956424 0.0031948078 0.1999789
0.14908352 -0.13009675 -0.067250974 -0.090981305 -0.05795189 0.10944625 -0.17301671 -0.10454734
-0.1708398 0.0659324 -0.17276762 -0.60149336 -0.015596438 -0.38758686 0.14111854 0.0103604635
0.12992106 -0.3859362 -0.2388022 -0.029926907 0.27716103 -0.12271345 -0.04600341 0.12603395

gnn1_pool.conv2.lin_root.weight f4 [64, 64]
00000000: 085c 05be ed1b 3fbe 129b 9ebd f2bd 773e
00000010: 99ff 013a eacb f3bd 5e8f 85be 2571 03be
00000020: 5593 1cbe d82b 41bd 83f4 02be 0a0c 0f3d
00000030: 8857 9d3c 7e6b 52be 40a6 29bc 1f7b 5e3c
00000040: 28fb 02be 51e1 37be b52f 43be 8e70 143d
00000050: cfef 913d 9677 e03d 9236 3b3c aa7d cabc
00000060: 7eed 43bd 5e34 a53c 38e6 63bd cf3b df3d
00000070: 6fd9 7bbd 329e d3bd 5d62 10be c70b b9bc
00000080: b5d0 473d 5a3c 54be 0eae 46be cc2d 00be
00000090: c25f 083e 42e8 b13d 01cb 15be 261d 13be
000000a0: 8370 93bd badd d2bd b83a b7bd ef9f e4bd
000000b0: 7a67 e53d 8b83 40be 9545 ad3d b42f 3e3e
000000c0: 4df3 8b3d 5852 943c 9d72 14be 6c2e 2f3e
000000d0: 8576 b1bd 56aa 2d3d cf0a a23d 2cbd ebbd
000000e0: a040 5dbd 11a6 323d c497 f53c 3782 8d3d
000000f0: ca0e 48bf 2396 fe39 80d3 e3ba dfdd 85bb
00000100: 24ff c93d 5f2d 8ebd 50c1 d4ba 2856 89bf
00000110: 727d 43bf ad2f b7bb 6aa9 08bf ba0d 82be
00000120: 34e9 9e3e 55ca 393f 7ab4 9f3f d836 d33e
00000130: d50b 99bf 3023 633f 02a5 983e d588 abbb
00000140: c331 8f3e d4cd 243e 6dd2 073f 1af5 9cbd
00000150: efd9 933c 2350 f33d 7913 c73e acab a1bf
00000160: db17 9ebd 6890 68bc 8614 083d e0b9 c2be
00000170: d006 b7be ba57 08bc c843 953e 4925 923f
00000180: 9aa6 b73e eeea 613f 7523 863d aa8b bfbe
00000190: ee91 b93d 605b a93d 65a0 5c3f c3df bb3d
000001a0: 25ff afbe 49b7 413e e9e0 0ebc 9680 483f
000001b0: ee98 91bf 89ae 243d 2d9f 95bf 846f 87bf
000001c0: ba1f 1c3e b250 ac3e fbd0 87bd b37d 69be
000001d0: 3257 6fbd 4786 023e 83e3 943d 0587 f53d
000001e0: d890 52bd 553c 47bf 14a0 653e ec93 f5be
000001f0: 8e3d 813d efdd 3cbf 5437 2c3e 20a7 18be
00000200: 0283 4ebc cebe 1cbf b517 b8be 3040 273f
00000210: c808 9dbd 2ee2 a2be 4b6d 96be bc1e 613e
00000220: 5c74 a2bc 5524 0dbe 2c71 60bd 691c a2bc
00000230: 6a69 97be c0f5 22be c6d0 263e b7c9 173d
00000240: e521 923c 1acb b53d 72f9 19be 0cdb c7bd
00000250: 0d93 d1bd 900d 39bc f06e 283e f49e a1bd
00000260: fea7 6e3f bc04 b8bc 14ba 013e 8e5f 433e
00000270: 9f17 83bb 000e 78bd fb7c 14bd f9e2 0d3f
00000280: ff43 2abd 3ec6 ebbd ea6e f7bd 1cff a83c
00000290: 6c73 ff3d 0210 833e 6662 3abe fdcb 66bd
000002a0: 037c babc 7c1c 8bbd 66e2 acbd 1b4e 00be
000002b0: 7038 993d 0446 0bbe 7e33 413f 93f9 e33d
000002c0: 58ee 0d3d dcbf 37be 6df0 f73e a972 473e
000002d0: 49cb 0cbd e386 633e 6cbe a53d 0075 203d
000002e0: 2aab 6f3d d5d6 1a3f 3346 713e c21d 9d3e
000002f0: ffbc 39bf 2df3 e9bc 5e1f 3abd 0056 623d
00000300: cacf b03e f784 0fbf ed97 113e 58f9 b1be
00000310: bc89 90be 36f8 a3be 02f6 003e f987 babe
00000320: 4d51 af3e a452 923e e364 d13e 35a0 803d
00000330: 51f2 9abe 9000 813e 025f bf3a 2a8e c23d
00000340: 3e73 503e 0228 dc3d c852 8f3e 09a3 22bc
00000350: 9949 763d f7ee 7ebd a20d c83d ab16 8fbe
00000360: a06f 06be f539 a1bc 952c 61be ba8e bcbe
00000370: 1a33 eb3d 6789 293d 808f 4e3e 5dd5 8a3c
00000380: cc31 44bd dce4 bb3e daea 0f3d 43cd dd3d
00000390: ef59 febe 6593 6b3e 1fa5 ff3e 5671 5b3e
000003a0: f7b9 e2bd f57d 8e3e 378f f23c 1aae ed3e
000003b0: ccda cabe 908f 04be ab61 92be a35d d3be
000003c0: bce7 e7bd 3bcb bc3e 45b2 fabe 8898 02bd
000003d0: d8ab 89bd f3db b53d a340 ad3c e680 193c
000003e0: 96f9 09be 3502 5ebe 0b03 223e a588 f73c
000003f0: 0bcc dfbe 876b a2bd a950 a03e 84c9 863b
-0.13023388 -0.18662997 -0.07744421 0.24193552 0.00049590465 -0.11904128 -0.26085943 -0.1283613
-0.15290578 -0.047160953 -0.12788586 0.03492359 0.019206777 -0.20548818 -0.0103545785 0.013579159
-0.12791121 -0.17957045 -0.19061168 0.036240153 0.07125818 0.10960309 0.011426585 -0.024718124
-0.047833912 0.020166572 -0.055639476 0.109000795 -0.061486658 -0.10332908 -0.14100023 -0.022588624
0.048783023 -0.20726147 -0.19402334 -0.1251747 0.13317779 0.08686878 -0.14628221 -0.14366588
-0.07199194 -0.10296197 -0.089467466 -0.111633174 0.11201377 -0.1880018 0.08460537 0.18572885
0.06833515 0.01810567 -0.14496846 0.17107552 -0.08665184 0.042398773 0.07912218 -0.11510691
-0.05401671 0.043615405 0.029979594 0.06909602 -0.78147566 0.00048558516 -0.0017381757 -0.004085287
0.09863117 -0.069422476 -0.0016231928 -1.0729418 -0.7636329 -0.0055904 -0.53383505 -0.25401098
0.31037295 0.7257436 1.2476952 0.4125278 -1.1956736 0.88725567 0.2981339 -0.0052348175
0.27967653 0.16094142 0.5305546 -0.07663937 0.018048255 0.11880519 0.38882044 -1.2630515
-0.07719394 -0.014194585 0.033222698 -0.38032436 -0.35747385 -0.008321697 0.29153275 1.1417629
0.35869294 0.882491 0.06549732 -0.37411243 0.09061037 0.082693815 0.8618224 0.091735385
-0.34374347 0.18917574 -0.008720615 0.78321207 -1.1374795 0.040205512 -1.1689202 -1.0580907
0.15246478 0.33655316 -0.06631657 -0.22801857 -0.058432765 0.12746535 0.07269957 0.119886436
-0.051407665 -0.77826434 0.22424346 -0.47964418 0.06310569 -0.73776144 0.16817981 -0.14907503
-0.012604477 -0.61228645 -0.35955587 0.6533232 -0.076676905 -0.31813186 -0.2938026 0.2198438
-0.019830875 -0.13783391 -0.05479543 -0.019788938 -0.29572612 -0.15914059 0.16290578 0.037057605
0.017838428 0.08876629 -0.15036562 -0.09758577 -0.10233126 -0.011294737 0.1644857 -0.07891646
0.93225086 -0.022463195 0.1266864 0.1907942 -0.0040006186 -0.060560226 -0.036252003 0.5542446
-0.041568752 -0.11512421 -0.12081702 0.020629458 0.12473187 0.2559815 -0.18201599 -0.056346882
-0.022764212 -0.06792542 -0.084416196 -0.12529795 0.07481468 -0.13600928 0.75469196 0.11131587
0.03465113 -0.17944282 0.48425618 0.19477333 -0.034373555 0.22219424 0.08092961 0.03917408
0.058512844 0.6048406 0.23561935 0.30686766 -0.7255401 -0.028558338 -0.04544007 0.055257797
0.3453353 -0.56062263 0.14218111 -0.34760547 -0.28230083 -0.32025307 0.12593845 -0.36431864
0.34241715 0.28578675 0.40897283 0.06280557 -0.30262998 0.25195742 0.0014600458 0.09499772
0.20356461 0.107498184 0.27992845 -0.009926566 0.060128782 -0.062239613 0.09768225 -0.27946982
-0.13128519 -0.019680956 -0.21989663 -0.36827642 0.11484356 0.041390803 0.20171928 0.016947443
-0.047899053 0.36698043 0.03513608 0.10830166 -0.4967799 0.23005445 0.49930665 0.21429953
-0.11070626 0.27830473 0.029609306 0.4642189 -0.39620054 -0.1294539 -0.2859014 -0.41282377
-0.11323497 0.36873803 -0.48964134 -0.031883746 -0.0672223 0.088798426 0.021148985 0.009369111
-0.13474116 -0.2168053 0.15821473 0.030216524 -0.4371036 -0.079306655 0.3131154 0.004113378

gnn1_pool.conv2.lin_root.bias f4 [64]
00000000: 75fe 07bf c73b af3f 18ff c3be 2eff 6f3e
00000010: 8c1e 2cbe e088 50be bafb 723e e2a4 7ebe
00000020: 0e50 02be 96d2 dcbe 3201 9cbe b06d 2ebe
00000030: f66d 923e a81f b1be b3c8 24be 647e 67be
00000040: 9508 8abe d1e2 73be 3f38 ddbe 11a5 9ebe
00000050: 9b75 ce3e 133e c0be 5e18 9bbe 7064 1b3f
00000060: a5a6 a13e 0690 8fbe 1fc5 d63e 7498 7c3e
00000070: 1534 c73e 2ef7 053e 0187 b2be f4aa aabe
00000080: 8d1b a43e 44f9 c2be 7435 483e ce98 873e
00000090: c8ed 65be b2c5 a9bc 7d44 7ebe f598 81be
000000a0: 7203 82be fad1 66be f356 d5be c00c a33e
000000b0: 20c0 39be 6ee9 3fbe 247e a13e 638a adbe
000000c0: 6b58 4abe f305 85be 5f09 b5bd d20e 663c
000000d0: 771b f5bc 0bd6 9abe 583b 74be 33ae 24be
000000e0: 8875 823d 9a46 a03d 4610 77be 605e efbd
000000f0: c9d9 c73d 664d c9be fb07 4fbe 000d 013e
-0.53122646 1.3690118 -0.3828056 0.23437187 -0.16808528 -0.20364714 0.23728839 -0.24867585
-0.12725851 -0.43129414 -0.30469662 -0.1703403 0.2859952 -0.34594464 -0.16092186 -0.22606808
-0.26959673 -0.23816992 -0.43206975 -0.3098531 0.403241 -0.3754736 -0.30292028 0.6070013
0.31572452 -0.2803957 0.41947266 0.24667531 0.38906923 0.13082573 -0.34868625 -0.33333552
0.3205227 -0.380808 0.19551641 0.26483768 -0.22453988 -0.020724151 -0.24830814 -0.2531201
-0.25393254 -0.22541037 -0.416679 0.31845665 -0.18139696 -0.1874139 0.3154155 -0.33894643
-0.19760291 -0.259811 -0.08839678 0.014041619 -0.029920323 -0.30241427 -0.23850763 -0.16082077
0.063700736 0.07825966 -0.24127302 -0.116879225 0.09758336 -0.39316863 -0.20217888 0.12602615

gnn1_pool.bn2.weight f4 [64]
00000000: edc4 6a3f 0f22 793d 2fda 003f 6575 543e
00000010: 9aad 3d3f 9e07 7d3f c8fa 153f 1167 613f
00000020: bc7a 2c3f fc1f 563f 2789 3b3f c950 d73e
00000030: 78e0 7c3f bd84 513f b725 623f 6549 0d3f
00000040: f194 303f a264 0b3f 7bde 0e3f 2d13 6c3f
00000050: cdc8 5e3e 5c55 813f b4fe 253f fbb1 a03e
00000060: 6b6b aa3e 36d8 3f3f 21ef a73a a41d fc3e
00000070: f6bd d83e 650f ce3e ce51 5f3f d389 963d
00000080: 4c35 a43e 4d0c 7f3f f02a 033f b15a 053f
00000090: 0186 1b3e 7c6d 433f a78a 2c3f 85e9 453f
000000a0: a3de 8b3e 4fba 753f cab3 5b3f 7c14 af3d
000000b0: 9117 463f 041a ea3e 9394 f33e 6695 573f
000000c0: 4e85 813f 24d3 313f 9999 2e3f c369 483f
000000d0: cdec 673f 405a 1a3f 0fb4 443f 5352 763f
000000e0: 02cd 5a3f 1fc9 f93e db4d 953f eeb6 0a3f
000000f0: d1c9 cd3e a89b 2f3f 186c 063f 2c57 3d3f
0.91706735 0.060823496 0.5033292 0.20747907 0.7409302 0.9883975 0.58585787 0.8804789
0.6737478 0.83642554 0.7325615 0.42053822 0.9878001 0.8184317 0.883388 0.55190116
0.68977267 0.5445043 0.5580823 0.9221676 0.21756287 1.0104175 0.6484177 0.31385788
0.33285078 0.74939287 0.0012812355 0.49241364 0.4233243 0.4024612 0.872342 0.07350507
0.32071912 0.99628145 0.5123739 0.5209151 0.15187837 0.76338935 0.67399067 0.7730945
0.27318296 0.9598741 0.8582121 0.08548829 0.7737971 0.45722973 0.4757429 0.8421234
1.0118806 0.694628 0.6820312 0.7828638 0.90595704 0.6029396 0.7683725 0.96219367
0.8546907 0.48786256 1.1664385 0.5418538 0.40193036 0.6859689 0.5250869 0.7396114

gnn1_pool.bn2.bias f4 [64]
00000000: 3c03 be3e 005c 24bd 380b 343e bf80 adbd
00000010: 5c29 6a3e 35ff e13d f40d 73be 6148 b83c
00000020: ea68 813e 9aef 8f3e 751e 91bc 762c 313c
00000030: 5889 98be aaa1 c6bd b527 8a3c 4443 253e
00000040: df87 343e 3304 923e 7c5a 223e 4415 933e
00000050: 8876 e3bc 2547 ea3e 947a 30bd 9200 aebd
00000060: 5b25 b23d c3fa b03e 1d35 bdbb ec10 d1bd
00000070: 9d2e 503e 20a7 223e 2065 7cbc 4fe0 343d
00000080: adc8 063e a55e 7cbe 305d 8abe 4977 46bd
00000090: 8283 3b3d 07eb cb3e 14d0 953e 1f8e c43e
000000a0: f497 b83d 46d3 323d 8068 0e3e 58f0 d539
000000b0: 6db6 cabd eb51 983e e0db 6e3e 7467 2b3e
000000c0: 6133 053f ab44 023e c4e3 a93e 3e25 a93d
000000d0: 077c 96bc a354 4dbe 4ae1 f03e e037 803e
000000e0: d21f 6b3e c668 f03d 251f 66be a591 083e
000000f0: 4fa1 7a3e 9ca1 afbb ce1f 0a3e 9ada 353e
0.37111843 -0.0401268 0.17582405 -0.08471822 0.2286734 0.11035005 -0.23735791 0.02249545
0.25275356 0.2811249 -0.017714718 0.010813823 -0.29792285 -0.09698804 0.016864637 0.16138941
0.17629956 0.2851883 0.1585483 0.28727162 -0.027766481 0.45757404 -0.04308565 -0.084962025
0.08698531 0.34566316 -0.005774154 -0.10208306 0.20330282 0.15884066 -0.015404969 0.04415923
0.13162489 -0.24645479 -0.2702422 -0.048453603 0.045779712 0.3982775 0.29260314 0.3838968
0.09013358 0.043658517 0.13907051 0.00040805596 -0.09898076 0.29749998 0.23326063 0.16738683
0.52031523 0.12721507 0.33181584 0.082590565 -0.018369688 -0.20051818 0.47046882 0.2504263
0.22961357 0.11738734 -0.22472818 0.13336809 0.24475597 -0.0053598415 0.13488695 0.17759171

gnn1_pool.bn2.running_mean f4 [64]
00000000: 1c53 6b3f 800f 8a40 0cf8 0d40 8e19 c33f
00000010: 5877 5740 ef3e 653e d53c 2340 4880 0a40
00000020: 6250 043f 4e69 af3e 6777 673f 47f6 0740
00000030: 001d 2e40 77ad 7840 32dc 3b3f b113 b63f
00000040: 7429 2240 cea8 183f 01a5 4f3f 2c51 453e
00000050: 8fd0 4540 1ece a13f fbff 0240 809f 5240
00000060: 517b 8d3f b282 f83f 5af4 3740 9886 c63f
00000070: fdf5 813f b48d ab3f 25ca 333f b9db eb3d
00000080: d02b 843f d1e6 043f 0022 753f 8fd4 7c40
00000090: 3c1a ab40 705e 7a40 bb0b 0140 2dc3 7c3f
000000a0: a341 963f b947 2240 4dad 503d 165a 1c40
000000b0: f2df 6140 1331 893f e841 643f c5d9 d43f
000000c0: ff3a 0040 adb3 4340 80fc 2a40 d167 9b40
000000d0: 34f4 a540 c4fd 0c40 8b0d de3e 1449 f83d
000000e0: 31a8 6a40 af69 9c3f 13a3 1d3f 0510 8d3f
000000f0: b5a9 973f 8a62 3340 e83f 1a3f a2ec 113f
0.9192369 4.314392 2.2182646 1.5242174 3.3666592 0.22387289 2.550588 2.1640797
0.51685154 0.3426003 0.9041657 2.1244066 2.72052 3.8855875 0.73382866 1.4224759
2.53378 0.59632576 0.8111115 0.19269246 3.0908544 1.2641027 2.0468738 3.290985
1.1053258 1.9414885 2.874289 1.5509825 1.0153195 1.3402619 0.70230323 0.11516518
1.032587 0.519147 0.95755005 3.9504735 5.3469524 3.912014 2.016341 0.98735315
1.1738781 2.5356276 0.050946523 2.4429984 3.5292935 1.0718101 0.89163065 1.6628958
2.0036008 3.0578415 2.6716614 4.856423 5.18606 2.2029886 0.43369707 0.121233135
3.6665156 1.2219752 0.61576957 1.1020514 1.1848665 2.8028893 0.60253763 0.570017

gnn1_pool.bn2.running_var f4 [64]
00000000: 4f9a b640 27dc aa40 66dc 3642 f142 0940
00000010: 4a97 3842 8b68 e83e e02a 6a40 ee41 9341
00000020: 6f8d 7f3f 2915 913f 7de8 4540 60e4 4741
00000030: ed9a 8940 45bd 5f42 5c37 0340 c5a9 2641
00000040: 17dd dc41 8ef2 ad3f 81a7 0341 c87b eb3e
00000050: dbbd a340 8970 0141 1d0f 4041 b4f9 6d40
00000060: 8e71 0240 d42d 9841 3271 5f40 7834 d43f
00000070: 86df e93f 32b1 5e40 7402 f03f 61a1 bf3d
00000080: 68d3 f23f 2a66 993f c5aa 8b3f 7063 1241
00000090: 9d5b 3042 2d43 7542 9a16 b941 f3e5 8040
000000a0: f92f f940 7b1f ca41 9c48 e93d b633 8240
000000b0: d552 3942 c780 5740 302e bf3f 718b 4b41
000000c0: c430 8841 5a52 1d42 110f d841 b343 b042
000000d0: 4bd4 c542 8133 3341 b595 233f 2746 803e
000000e0: 7a19 5142 677d 5940 e408 623f f1d9 8140
000000f0: aae0 6340 5641 fe41 15f8 e43f 2abc 133f
5.7063365 5.339374 45.715233 2.1447108 46.147743 0.4539226 3.658867 18.407192
0.99825186 1.1334583 3.092315 12.493256 4.300162 55.934834 2.0502539 10.416448
27.607954 1.3589647 8.2283945 0.45992875 5.1169257 8.089974 12.00369 3.7183657
2.0381808 19.022377 3.491284 1.6578512 1.8271339 3.4795651 1.8750749 0.093569525
1.8970766 1.1984303 1.091149 9.149277 44.089466 61.3156 23.136036 4.02807
7.787106 25.265371 0.11390802 4.0688124 46.33089 3.367235 1.493597 12.721543
17.023811 39.33042 27.007357 88.132225 98.914635 11.200074 0.6390031 0.25053522
52.27488 3.398279 0.88294816 4.057854 3.5605874 31.781902 1.7888209 0.5770899

gnn1_pool.conv3.lin_rel.weight f4 [50, 64]
00000000: e7aa adbe 2cac d53d e0cb 5b3e d9d6 b53e
00000010: 2d47 84bd 7f95 223e e337 993e d96e 87be
00000020: f8f3 41be f163 73bd 3572 c3be 0cff 223e
00000030: 236e 6f3f 7270 dabd 5304 c4be 2e2d ca3e
00000040: 90c7 04be f3b2 bcbe 7c05 a5bd f048 69be
00000050: 4634 873e 8320 09bf c12c be3d 6381 ab3e
00000060: 4bef d83e acc7 9fbd eaf0 483d d251 cf3e
00000070: 1464 be3e c8cd 943e 1108 3abe dd37 b8be
00000080: 166f 7f3e 7470 55be 9f57 8e3e 313a 8e3e
00000090: 5ca3 c8bd becd 283d 568e 40bf 5aaf 21bf
000000a0: 29fa 8f3d 7843 2e3c 378d 203f f5a8 093f
000000b0: 081a 4dbd 4181 2abe bf1f ec3e 4116 9abe
000000c0: 10c9 90be f4ce 833d 5c7e b33d d8dc 18be
000000d0: 2113 8fbd 09a0 34bc 2ad2 08be 5ddf 313d
000000e0: 6684 26be c0de 253d 3d3e b2be 0a2f 00be
000000f0: 3758 823d 8bd5 06be b248 ac3e 157b 963e
00000100: 89f6 4fbe 6d13 4f3d 847e fe3c b9a5 10be
00000110: fb60 2abe faf0 d93d c5ef 143e 2cce 13be
00000120: 79a0 91be ca75 06be 977e 4cbe c1ad 683e
00000130: 1e43 dfbd 1af5 533c c7df 7cbe a102 583d
00000140: 74d9 02bd 5a93 85be 301b c23d 4f2b cc3c
00000150: a553 5c3e 9aa9 33be 2021 013e 9812 4c3e
00000160: aa39 a2be fcf4 20be 063e dabd 10db 91be
00000170: e8e2 7bbe 9916 9cbe 6ad1 e6bd 26da 9abe
00000180: 5a3a 9abe 4159 a53d 1179 0cbe aad7 123e
00000190: dc40 4bbd ab73 01be 55d0 6fbe 4034 00be
000001a0: bfe8 233e 429e 86bb 99f1 9e3e a022 433e
000001b0: 8d78 423d 1f8d aabe 0a78 05be 9f62 42be
000001c0: b8e0 7fbd 802c eabd f07a 37bc bffc 28bd
000001d0: 6a68 f03c 3863 98bb d857 6abe a911 d63c
000001e0: de78 d7bc cdf4 98bd 5a52 f83d e9fb 75be
000001f0: 6ac1 d7be 5b7a 833d 9278 3dbd d635 58be
00000200: 1b34 a83d f74c f6bd 5863 293e fb63 97be
00000210: ff26 4ebc d02f 3d3e 53be 843d ab99 883d
00000220: bacc 013e fa29 7b3e 6309 9b3e 8142 a73e
00000230: f726 393e 3dd9 ba3e 036c a03e c3b3 e73e
00000240: f162 373d db7d c23d aaed b0b9 1b34 b13e
00000250: 3efa c5bd 907e 4cbd 7a58 e93e 2cec 6f3d
00000260: ea65 36bd 42d6 ff3d 4f8d 9c3d 5122 71bd
00000270: 5cb5 a3bc 014d abbc 6e54 023e 27a4 883e
00000280: 89db 90bd 8a55 813e ff8f 25be 8efb 903e
00000290: 7749 8a3e 1154 093e 8c3a 08be 6b07 c7bc
000002a0: 0671 d33e 8a48 3d3e 56e4 703e 1306 8d3e
000002b0: 688f 4b3e 831a d53d 1992 d5bd eb4a 183e
000002c0: 8f40 bb3d 53f4 233e 2338 623e 3b61 1b3e
000002d0: c93a 833e 0c6d f03e 4c1b 31bd 4aa7 01be
000002e0: c925 413e 93b8 1abc 31b2 1a3c c188 9f3d
000002f0: 5183 0a3d 7ded d23e 7eed 8d3e 3ff3 82bd
00000300: fb83 8b3e ba70 debd 9615 ffbd ab3a d0be
00000310: dd36 903e b9ff fdbe 7512 673e fd46 b03e
00000320: 7a23 483d ad77 ea3d e3a3 583d 4860 983e
00000330: 0eb9 273e b075 203f 4044 8eb9 4746 203f
00000340: 4413 a73d c9c6 22bd 664c 733d 1ca0 013e
00000350: ee6c 90bd 3b82 753e a453 9a3e 7bbc c0bd
00000360: 9e56 1cbd 4d9e ca3d 82b2 1d3d 905c 2abd
00000370: 7852 5fbe 91c7 1dbe 9256 8ebd 80ff 04be
00000380: ecdd 8fbe e431 bf3e 741e 92be e148 b93d
00000390: 9b87 483e 42a3 1f3d b589 d33d 4e47 e0bc
000003a0: 95df c53e 59f4 663e 73ff 153f fe15 f73c
000003b0: 347a 0b3f 9afd d9bd 456b 74be c93c 8e3e
000003c0: d2ed 573e 8c66 ae3e 603c 7d3e d36e 653e
000003d0: 9c2a 8b3e 7f04 ad3e de2a f1bd 641e a0be
000003e0: f9c0 e83d 0d99 08bd a1fc 003d c46b 00bd
000003f0: 73ae c4bd bcc4 9a3e 92cd c3bd d2f9 7abd
-0.3391945 0.1043323 0.21464491 0.35515478 -0.06458888 0.1587734 0.2992545 -0.26451758
-0.18940723 -0.059421483 -0.3817307 0.15917605 0.9352743 -0.106659785 -0.3828455 0.39487594
-0.12966752 -0.36855277 -0.08057687 -0.2278173 0.2640707 -0.53565234 0.0928588 0.33497152
0.42370066 -0.07801756 0.04905788 0.4049211 0.3718573 0.2906325 -0.1816714 -0.3598012
0.2494472 -0.20843679 0.27801225 0.27778772 -0.09796783 0.041211836 -0.7521719 -0.6315819
0.07030136 0.010636203 0.62715477 0.5377343 -0.050073653 -0.16650869 0.4611797 -0.30095103
-0.282784 0.064359576 0.087643355 -0.14927995 -0.069860704 -0.0110244835 -0.13361421 0.043425906
-0.16261443 0.040495634 -0.3481311 -0.12517944 0.06364482 -0.13167398 0.33649212 0.2939078
-0.2030889 0.050555635 0.031066187 -0.14125718 -0.16638558 0.10641666 0.1454459 -0.14434117
-0.28442743 -0.1313087 -0.19970165 0.22722532 -0.109014735 0.012936855 -0.2469474 0.052736882
-0.03194566 -0.26088983 0.09477842 0.024922995 0.21516283 -0.17545167 0.12610292 0.19928968
-0.3168462 -0.15718454 -0.10656361 -0.28487444 -0.24598277 -0.3048599 -0.11270411 -0.3024456
-0.30122644 0.080736645 -0.13718058 0.14340082 -0.0496224 -0.1264178 -0.23419316 -0.12519932
0.16006754 -0.0041082213 0.310437 0.19056177 0.047478247 -0.33310792 -0.13034073 -0.18982933
-0.062470168 -0.11434269 -0.011198744 -0.041256662 0.029346664 -0.0046504997 -0.22885072 0.026131468
-0.026302751 -0.07468567 0.12125082 -0.24021877 -0.4213975 0.06419822 -0.046257563 -0.21114287
0.08213063 -0.12026399 0.16541803 -0.29568467 -0.01258254 0.1847527 0.06481614 0.06669935
0.12675753 0.24527732 0.302806 0.32667926 0.1808127 0.36493865 0.31332406 0.45254335
0.044772092 0.09496661 -0.0003374641 0.34610066 -0.096668705 -0.049925387 0.45575315 0.05857484
-0.044530787 0.12492038 0.0764414 -0.058870617 -0.01998394 -0.020910742 0.1272752 0.26687738
-0.07073123 0.25260574 -0.16168211 0.2831692 0.27009174 0.13410975 -0.13303584 -0.02429553
0.41297168 0.18484703 0.23524603 0.27543697 0.19878924 0.10405447 -0.104282565 0.14872329
0.09143173 0.16011171 0.22091727 0.15173809 0.25630787 0.46958196 -0.043238923 -0.12661472
0.1886207 -0.00944342 0.009441898 0.077897556 0.03381664 0.41196814 0.27720255 -0.06394052
0.2724913 -0.10861345 -0.12455289 -0.4066976 0.28166857 -0.49609163 0.22565635 0.3442916
0.048861958 0.114486076 0.05289067 0.29760957 0.16379187 0.62679577 -0.000271352 0.62607235
0.081579715 -0.039740358 0.05939903 0.12658733 -0.07052027 0.2397546 0.30141938 -0.0941095
-0.038168542 0.09893475 0.038500316 -0.04159218 -0.21808803 -0.1540816 -0.06950106 -0.1298809
-0.28099 0.3734275 -0.2853886 0.09047104 0.1958298 0.038974054 0.10329 -0.02737775
0.38647142 0.22554149 0.5859291 0.030161854 0.5448334 -0.10644074 -0.23869045 0.2778075
0.21086815 0.34062612 0.24730062 0.22405557 0.27180946 0.33792493 -0.117757544 -0.31273186
0.113649316 -0.033349086 0.031490926 -0.031352773 -0.09603586 0.3022822 -0.09560694 -0.061273403

gnn1_pool.conv3.lin_root.weight f4 [50, 64]
00000000: 61a9 003f c1c9 20be 1019 bd3e 0f36 e0bc
00000010: 6a5c 8abc adb6 803d bcaf 15be 737d 53be
00000020: a75c 563e 0edd 4ebe 5f23 c53e a3e9 0cbe
00000030: 1b29 67be 2ee1 60be 5ea4 013f 63ee abbd
00000040: b186 bebd 0e0d 143e d9e5 ea3e 91f6 51be
00000050: 1413 1f3e 5998 debc 17a8 83bb 6aad 37bd
00000060: 0a14 b23c 8e4b 6b3c 29d3 983d 5922 50be
00000070: 5c16 7bbd 142d 223b bb53 953e 5039 ffbd
00000080: 5a46 a43d 17b3 39be 1bc9 05be 6e0d 5cbe
00000090: b0cd 44bc 7b15 933e 92d6 a43e 744e 443e
000000a0: 7055 1bbe 04ac 45be 2341 aabd e49e 1dbe
000000b0: 263d cfbb 5e14 b8bd 9749 16bc 462e 5dbd
000000c0: 8e4c 353f a64b 3bbe 3495 28be 4f88 e2bd
000000d0: 7d09 41be 2d3b 98bd e8e5 a7bc 594d 43bd
000000e0: b25d 4fbe c2da 163d dc46 6ebd 7f1b bcbd
000000f0: 2143 9f3c f2dc 3abe f925 2fbe dbc9 a5bd
00000100: d554 0bbe 37a1 4abf 2e78 0bbe 818d e7be
00000110: cf66 bd3e b542 05bf 2aaf c0be b662 b23e
00000120: 2afd 153e b761 173d 1957 ea3c 5768 edbe
00000130: 27b7 12bf b20d e23e e154 083e d33b 74be
00000140: 538e 583e 1840 453d 608c 46bd c4df c33d
00000150: 2329 1ebf c2e1 743b 0bf3 cdbe 4dfd 68bf
00000160: ce89 01be e51c 37be 4f9c 2abe 861d 54be
00000170: 69e7 3ebe 1aa6 a2bd 84d0 193d c52a edbd
00000180: 152a 34be 4393 1cbe 8ec8 cdbe 10ad 11bf
00000190: 9c24 2a3d 5758 d13e e141 d4bc 24c6 7d3d
000001a0: 781b c6be e7c7 843e 1b8c 1bbe c49a 5ebf
000001b0: e56c b63e 637e 92bd c982 88be c9dd 3a3c
000001c0: 2d71 0ebe 21c4 813d 6c7e 5f3e ee7f 0e3f
000001d0: bc55 5f3f e6dc 8dbe 9a37 0fbe acf2 3cbe
000001e0: 6d4a e33e dbb3 d8bd f896 91be a733 89bc
000001f0: 454f 10be 24d2 2e3e d951 9bbd 73bc 6ebc
00000200: a14e 9b3e 3689 84be feed 7f3e 62bd 8e3d
00000210: 38bf d83e ea1c 9bbe 3e36 91be 4ada f43e
00000220: 782f 10be 1707 12be e0c6 f7bd 8bfb 93be
00000230: 86d3 a3be 0131 063f 31a4 293d 5bf8 b8be
00000240: 0eaa 0a3f 7f55 aa3d 5503 423e 4b30 d8bd
00000250: 1dbf 13be 52b6 5b3e 156a 5abe 8098 aabe
00000260: 4f0e 0cbe 3de0 c03e 526f fe3d 8033 fcbc
00000270: 3e1e 8a3d a9bf 23bc df9e fc3d 7d8d b8be
00000280: 8422 4e3e b58f 10be 554a 823e 3004 d4be
00000290: 4b74 bc3d 9053 a03e c2a5 8f3e fbdc 603e
000002a0: 881d 51be 6a6a d13e ff29 acbe 031f 08bf
000002b0: 42e9 cf3e 43ce 023e 7a9a 7b3d 2877 9f3e
000002c0: e1e9 5a3e 7476 1b3f 0082 de3e 373d 833e
000002d0: f737 a83e e85c c5be 6af7 73be eab2 58be
000002e0: 419e d73e 5926 813e c529 a2be 679d 1a3e
000002f0: 5ca9 863d 43e9 203f 8243 34be 85a3 a6ba
00000300: fdc7 20bf 43e0 cbbe 9541 37bd 5e3a 443d
00000310: 180e 11be 356a 26be f7dd 883d fc37 10bd
00000320: e44c 9a3e 7416 81be 9a55 933e 1e5e 323f
00000330: fba5 673d 2557 f73d 472b 813e ef0b 0c3e
00000340: 0432 36bc 9655 8c3d 79b6 a73d 592b 88be
00000350: 1248 5bbe aea8 39bf ae89 e33e 4d13 1bbe
00000360: f2cf e9bc 582f e1be cc22 823d f0c9 423e
00000370: ae88 13be cda6 03be 7ef8 0f3e b622 9f3d
00000380: b375 4bbd 1793 023d 24b4 543e 20bc ac3e
00000390: 8426 e83e c136 b5bd 7e36 9abe b4a6 64bf
000003a0: 90f5 9a3e 89a5 d2bd 76b5 9cbd acdb 44be
000003b0: 4e07 013c 2504 903e ce62 3fbe b1e5 83be
000003c0: 3f3b 2ebf 4d7f 49bd 3547 65be 2218 7abd
000003d0: a514 993d 8b13 613f f904 b13e 25dc 7bbd
000003e0: e915 3abe 10db a4bb f2dd 443e 74b6 d13c
000003f0: 755b ac3d b994 bc3d d005 f13e 45a7 22bc
0.5025845 -0.15701963 0.36933184 -0.027369527 -0.01688977 0.06284843 -0.14617819 -0.20653324
0.20933782 -0.20201513 0.38503549 -0.13761 -0.22574274 -0.21960899 0.5064143 -0.08395078
-0.09303034 0.14458105 0.45878485 -0.20504214 0.15534621 -0.027172254 -0.0040178406 -0.044843115
0.021738071 0.014361275 0.074621506 -0.20325603 -0.06130062 0.0024746107 0.29165444 -0.12462103
0.08021231 -0.18134724 -0.13064997 -0.21489498 -0.01201193 0.28727326 0.32194954 0.19170552
-0.1516931 -0.193039 -0.08313205 -0.15392643 -0.006324428 -0.0898826 -0.009172819 -0.053999208
0.7081994 -0.18290576 -0.16463166 -0.11061155 -0.18851276 -0.07433162 -0.02049537 -0.047681186
-0.20250586 0.036829717 -0.058173046 -0.09184932 0.01944119 -0.18248346 -0.17104329 -0.080951415
-0.1360658 -0.79152244 -0.13620064 -0.45225146 0.369925 -0.5205491 -0.3763364 0.34840935
0.14647356 0.036958423 0.028605985 -0.46368667 -0.5731072 0.44151074 0.13313629 -0.23850946
0.21148042 0.048156828 -0.048473716 0.09564164 -0.6178152 0.0037366007 -0.4022449 -0.91011506
-0.12650225 -0.17882116 -0.1666119 -0.20714387 -0.18642963 -0.079418376 0.03755237 -0.11580423
-0.17594178 -0.15290551 -0.40192074 -0.569047 0.04153882 0.4088771 -0.02591032 0.06195654
-0.38692832 0.25933763 -0.15190165 -0.86954904 0.35629955 -0.071530126 -0.2666228 0.011405417
-0.1391036 0.06336237 0.2182557 0.55663955 0.87240195 -0.27707595 -0.13986054 -0.18451947
0.4439272 -0.1058118 -0.28435493 -0.016748263 -0.14092739 0.1707235 -0.075839706 -0.014571297
0.30333427 -0.25885934 0.2499313 0.06969716 0.42333388 -0.30295497 -0.28361696 0.4782279
-0.14080608 -0.14260517 -0.12098479 -0.2890285 -0.31997317 0.52418524 0.04141635 -0.3612698
0.5416573 0.08317088 0.18946584 -0.10556086 -0.14428373 0.21456268 -0.2132953 -0.33319473
-0.13677333 0.3767108 0.124235764 -0.030786276 0.067440495 -0.009994426 0.1233499 -0.36045447
0.20130354 -0.1411732 0.25447336 -0.41409445 0.092018686 0.31313753 0.2805615 0.21959297
-0.20421422 0.409015 -0.3362579 -0.5317232 0.4060765 0.12773995 0.061426617 0.31145597
0.2137828 0.6072762 0.43458557 0.2563264 0.32855198 -0.38547444 -0.2382485 -0.21162
0.42112926 0.2522457 -0.31672493 0.15099107 0.065752715 0.6285593 -0.17603877 -0.0012713528
-0.6280516 -0.39819536 -0.04474028 0.047907226 -0.14165533 -0.16251452 0.066829614 -0.03520964
0.30136788 -0.25212443 0.28776246 0.6967486 0.056554776 0.120771684 0.2522833 0.13676427
-0.011120323 0.06852262 0.08189101 -0.26595572 -0.21414211 -0.7252301 0.4444098 -0.15144081
-0.028541539 -0.43981433 0.06354293 0.19022346 -0.14407608 -0.12856598 0.14059636 0.077702925
-0.049672794 0.031878557 0.20771843 0.33737278 0.45341885 -0.08848334 -0.301197 -0.8931687
0.30265474 -0.102854796 -0.076517984 -0.19224423 0.007875277 0.28128162 -0.18690035 -0.25761178
-0.6805915 -0.04919367 -0.22390445 -0.06105817 0.07474641 0.87920445 0.34574106 -0.061489243
-0.1817242 -0.005030997 0.1922529 0.025599696 0.084158815 0.09208054 0.47074747 -0.0099275755

gnn1_pool.conv3.lin_root.bias f4 [50]
00000000: 2d13 34bc 08a1 9d3d 1e10 c0bd 428a 10be
00000010: 94d1 d8bd 87c6 02bd 3ef5 09bf ee92 743c
00000020: a5b9 3b3e 94f1 5f3c 7c3a 6ebe 6cc7 0dbe
00000030: 1bc6 85be 99ff 77be 27e5 49bd a25a 993b
00000040: 8765 44be a422 eebd eeed 90bd bee0 00bf
00000050: a118 5cbe d274 c9bd bad7 b83d baca 2fbe
00000060: c2d7 f13c 862d 883d fdb5 27be 8904 31be
00000070: 40c5 0abe 2799 a3be 7593 043e 70b9 cdbe
00000080: 066b 9b3d 52d0 67bd 8f62 83be 07b1 84be
00000090: b3f0 31be f56c b1be b09f f6bd 81fb efbd
000000a0: 7eff bebe 3eb2 1dbf 26b1 533e b9ea 55be
000000b0: baa7 86be d62e afbc 83e9 8abe fb43 8ebe
000000c0: b81b c83e 8ddc c0be
-0.0109909 0.0769673 -0.09378074 -0.14115241 -0.10586849 -0.03192761 -0.53889835 0.014927609
0.18332537 0.013668437 -0.23264498 -0.13845605 -0.26127705 -0.24218597 -0.049290802 0.0046799937
-0.19179355 -0.11627701 -0.070766315 -0.5034293 -0.2149377 -0.09836735 0.090255216 -0.17167178
0.029521827 0.06649308 -0.16378017 -0.17286886 -0.13551807 -0.31952783 0.12946875 -0.4018054
0.075887725 -0.056595154 -0.25661132 -0.2591631 -0.17376976 -0.3465344 -0.12042177 -0.117178924
-0.373043 -0.616001 0.20673046 -0.20890321 -0.2629984 -0.021384638 -0.2713128 -0.2778624
0.39083648 -0.37668267

gnn1_pool.bn3.weight f4 [50]
00000000: 07df 153f a423 3d3f 3221 133f 1929 243f
00000010: 578f 743f 5e70 353f 3145 5a3f ebe7 503f
00000020: 13ee 513f c1d5 173f c324 523f 6815 7d3f
00000030: 9ac2 303f 607b 403f edcc 043f 8e35 473f
00000040: 81dc 353f 1772 4b3f 1c08 273f 4b48 443f
00000050: 6176 503f 69d6 2e3f 0588 533f 93b2 013f
00000060: a85f 3d3f c955 0f3f 38f2 6e3f 1e31 5b3f
00000070: 3b79 303f 4e82 533f c5ce 0d3f 8ff6 8e3f
00000080: bda6 963e 379b 3c3f 67c1 453f ed1c 6b3f
00000090: 1145 103f ba8d 1a3f 747e 3d3f b388 613f
000000a0: 4407 2a3f 6beb 243f bbe7 3a3f 3bb8 e33e
000000b0: f614 4e3f 81fe 1a3f 8351 0d3f 955e fb3e
000000c0: cf53 0c3f 796c 1f3f
0.5854344 0.7388251 0.5747253 0.6412521 0.9553122 0.70874584 0.8526183 0.8160388
0.820039 0.5931054 0.82087344 0.9886079 0.6904694 0.75188255 0.5187519 0.7781609
0.7103959 0.7947096 0.6524675 0.7667281 0.8143063 0.68295914 0.82629424 0.5066311
0.73974085 0.5599027 0.93338346 0.8562182 0.68934983 0.82620704 0.5539363 1.1168994
0.29424086 0.7367434 0.77248234 0.9184101 0.56355387 0.6037251 0.7402108 0.8809921
0.66417336 0.6442172 0.7300984 0.44476494 0.80500734 0.6054459 0.552025 0.49095598
0.5481538 0.6227489

gnn1_pool.bn3.bias f4 [50]
00000000: 7ab9 02bd a34f 803e 73df 8e3e 35b9 833b
00000010: eb5d a93c 0b3e c43e 2bc8 393e 15e2 f73a
00000020: 31bf 1d3e d474 c4bd 7c7c d8bc 7e00 da3c
00000030: 094c 843d 20df 813d fc63 923d 552d dd3e
00000040: 8942 9b3e 49a7 6a3e d16c 613e 0dad cc3e
00000050: 5573 5b3e 5a23 be3e 727b a73e c68e 573e
00000060: df91 493e 3e44 cc3d 395d 613e 4b7a 54bd
00000070: bea3 943e c517 1e3e 174f f83d 9c73 d63d
00000080: e529 293d 7b8c 3c3e aadc fb3d 2317 903d
00000090: a07b 263e 29cc 943e f4dd f23e 8d0b 6c3c
000000a0: bbaa aa3d 09b9 2e3e b906 34be e742 253e
000000b0: c796 053e 9556 0d3e c59f 183e 13d5 e03d
000000c0: aa6d 03be d0d1 0e3e
-0.031915165 0.25060758 0.27904853 0.004019881 0.020674666 0.38328585 0.18142764 0.0018911982
0.15404965 -0.09592596 -0.026426546 0.026611563 0.06459815 0.06341386 0.07147977 0.43198648
0.303242 0.22915377 0.22014166 0.39975777 0.21430714 0.37136346 0.3271137 0.21050557
0.19684552 0.09973954 0.22008218 -0.05187444 0.29031175 0.15438755 0.1212446 0.104712695
0.04129972 0.18412964 0.12297948 0.07035663 0.16258097 0.29062012 0.47434962 0.014407051
0.083333455 0.17062773 -0.1758069 0.16138802 0.13045798 0.1380256 0.14904697 0.10978141
-0.12834802 0.13947225
