model/dolphins_p0.1_m50_topk_pool.pt (torch, 453103 bytes, 18 tensors)

conv1.lin_rel.weight f4 [128, 2]
0.61390334 0.6376641 0.35805044 -0.44297916 0.62254876 0.8386571 0.024638858 -0.6721227
0.24226709 -0.28491476 -0.43280262 0.2888915 -0.5793183 -0.4588088 0.028139517 0.6708056
-0.3462134 -0.45698375 -0.04242817 -0.21119435 -0.44248915 -0.008398349 0.55825245 0.79598236
-0.25032315 0.76833093 -0.30488542 -0.16134636 0.2855207 -0.4096122 0.15264963 0.4736645
0.019782268 0.79705316 0.4717535 -0.32339647 -0.26167765 -0.1882746 0.42813826 0.78734595
0.3265713 0.6511591 -0.18318343 0.4472394 -0.101767905 0.65428495 -0.2062166 -0.5453963
0.25861982 -0.16720311 0.6817424 0.25702992 -0.36968732 0.7329902 -0.2888569 0.24988565
-0.1015678 0.5588426 -0.07308803 0.48959842 0.6976324 -0.4060025 -0.5483927 -0.027616153
0.5667917 0.08929596 -0.30451715 0.8060819 -0.55093986 -0.4571704 0.6611953 -0.25023666
0.59278834 0.1030237 -0.3263647 -0.6635038 0.2162737 0.8380848 0.3583632 0.17919469
0.5448399 0.34899858 -0.0757577 -0.52288914 0.34351555 -0.52454424 -0.2544486 0.747479
-0.22068876 0.26706907 -0.19213593 -0.18574496 -0.15110989 -0.26658952 -0.20497268 -0.5261564
-0.4535709 0.44935778 0.15255933 0.85503864 0.63366646 -0.17533045 0.4824726 0.41362262
-0.5316883 -0.07705101 0.5474431 -0.13605586 -0.19993706 0.37749013 -0.09962334 0.7567934
0.04099998 0.18622506 -0.54459983 -0.10198278 0.39720517 0.07142389 0.22632007 0.4235233
0.23627707 0.23151644 0.6951045 0.50153244 0.08263244 0.23946404 -0.036314905 -0.6975513
0.38432425 -0.48209155 0.6109398 0.5366731 -0.58723414 0.6331109 -0.44274813 -0.06894549
0.1731539 0.25614288 0.55713755 -0.20546225 0.3007826 -0.1183738 0.365858 -0.81140244
-0.61191237 -0.4196254 0.6412374 -0.74175805 -0.16828023 -0.47776225 -0.09479259 0.69196767
-0.54843146 -0.23387429 0.41662034 -0.16991904 0.20768623 -0.79738235 0.3646855 0.7048475
-0.025243273 0.2810014 0.41092 0.018618755 0.50180286 0.1340731 0.43502048 0.3647203
-0.625567 0.70658207 0.670828 -0.448211 -0.22644877 -0.3336862 0.002253239 -0.41323745
0.30052125 -0.6398579 -0.08313323 0.4016618 -0.034054413 0.43798542 -0.47653183 -0.28353006
-0.21170774 -0.11687641 0.23437601 -0.31715158 0.010756219 0.28319776 0.014218741 0.5208702
-0.23916921 -0.15422799 -0.53786534 -0.28189102 0.49758214 -0.41946182 -0.20432885 -0.37501836
0.556894 -0.51448554 -0.6112523 0.683693 -0.0950178 0.669799 0.12252149 0.16368094
-0.116227366 0.1913764 0.25501138 -0.16102304 0.2049158 0.21168418 0.28034753 0.22028346
0.14014065 -0.06356412 -0.0256496 0.57791275 0.039751343 0.8318074 0.38600233 0.60590285
0.41033062 0.05144998 0.027114144 0.28253946 -0.30114812 0.24150306 -0.031636633 0.3303626
-0.62457126 -0.22266045 0.53235465 -0.045868937 0.1561505 -0.026610794 0.12000754 0.33778977
0.596156 -0.09120878 -0.056900524 0.32343158 0.60829914 -0.612067 -0.3194252 0.8212736
0.08678143 -0.3410974 0.637138 0.09808664 -0.50162697 -0.5868506 0.6542507 0.18756774
00000000: c528 1d3f f43d 233f 6352 b73e 2ace e2be
00000010: 5b5f 1f3f 3bb2 563f 6ed7 c93c 3c10 2cbf
00000020: dd14 783e 59e0 91be 4e98 ddbe 96e9 933e
00000030: 344e 14bf fde8 eabe d884 e63c eab9 2b3f
00000040: e242 b1be c6f9 e9be 29c9 2dbd 5543 58be
00000050: f08d e2be 3b99 09bc a2e9 0e3f 80c5 4b3f
00000060: 5b2a 80be 56b1 443f f119 9cbe fb37 25be
00000070: c52f 923e b1b8 d1be 2f50 1c3e 2784 f23e
00000080: 6c0e a23c ad0b 4c3f ad89 f13e 3994 a5be
00000090: 9dfa 85be 0fcb 40be f034 db3e 818f 493f
000000a0: 5a34 a73e 5db2 263f 7094 3bbe 90fc e43e
000000b0: b16b d0bd 387f 273f 722a 53be 189f 0bbf
000000c0: d169 843e 4b37 2bbe ac86 2e3f 6d99 833e
000000d0: a847 bdbe 3fa5 3b3f 0de5 93be 06e2 7f3e
000000e0: c702 d0bd 4f10 0f3f 2daf 95bd a5ac fa3e
000000f0: 0998 323f 8fdf cfbe 7763 0cbf 453b e2bc
00000100: 4319 113f cde0 b63d ace9 9bbe 625b 4e3f
00000110: 650a 0dbf 3d12 eabe 1844 293f 051f 80be
00000120: fac0 173f 17fe d23d 4619 a7be 63db 29bf
00000130: da76 5d3e ba8c 563f 627b b73e d07e 373e
00000140: a17a 0b3f f1af b23e da26 9bbd 10dc 05bf
00000150: 45e1 af3e 8848 06bf 1647 82be c95a 3f3f
00000160: 3cfc 61be 47bd 883e 48bf 44be ed33 3ebe
00000170: 8dbc 1abe 6c7e 88be 5ce4 51be 30b2 06bf
00000180: 723a e8be 3912 e63e 8338 1c3e d0e3 5a3f
00000190: f737 223f d389 33be a606 f73e 58c6 d33e
000001a0: b91c 08bf eccc 9dbd 3b25 0c3f 3a52 0bbe
000001b0: 4dbc 4cbe 6346 c13e 5207 ccbd 36bd 413f
000001c0: 98ef 273d c8b1 3e3e e56a 0bbf 59dc d0bd
000001d0: 7a5e cb3e b046 923d 73c0 673e 0cd8 d83e
000001e0: 9ef2 713e a512 6d3e 5ef2 313f 6e64 003f
000001f0: 323b a93d 1036 753e f0be 14bd b992 32bf
00000200: 26c6 c43e b4d4 f6be 8d66 1c3f 6963 093f
00000210: fa54 16bf 8e13 223f e2af e2be 4b33 8dbd
00000220: 424f 313e 2925 833e 91a0 0e3f b264 52be
00000230: 2d00 9a3e f66d f2bd bd51 bb3e 12b8 4fbf
00000240: 4aa6 1cbf 24d9 d6be 2228 243f dbe3 3dbf
00000250: a751 2cbe 419d f4be 9e22 c2bd cb24 313f
00000260: 0166 0cbf be7c 6fbe 434f d53e 42ff 2dbe
00000270: b3ab 543e 4021 4cbf 0fb8 ba3e e370 343f
00000280: fbca cebc 6adf 8f3e 1b64 d23e 5c86 983c
00000290: 2776 003f 754a 093e 01bb de3e 9fbc ba3e
000002a0: 2925 20bf 90e2 343f 62bb 2b3f ea7b e5be
000002b0: 30e2 67be ebd8 aabe 14ab 133b dc93 d3be
000002c0: ecdd 993e bacd 23bf c141 aabd 9ea6 cd3e
000002d0: a47c 0bbd a03f e03e fbfb f3be da2a 91be
000002e0: eac9 58be e65c efbd 4400 703e b161 a2be
000002f0: da3a 303c 4cff 903e b9f5 683c c057 053f
00000300: c6e8 74be f1ed 1dbe 8bb1 09bf 0554 90be
00000310: 16c3 fe3e b3c3 d6be 953b 51be 6802 c0be
00000320: 9b90 0e3f 53b5 03bf 087b 1cbf 8106 2f3f
00000330: b198 c2bd f277 2b3f 8cec fa3d fa9b 273e
00000340: 9d08 eebd 2df8 433e da90 823e 39e3 24be
00000350: 73d5 513e bdc3 583e b689 8f3e fd91 613e
00000360: 0881 0f3e e82d 82bd 1c1f d2bc 17f2 133f
00000370: 4ed2 223d 54f1 543f 19a2 c53e 731c 1b3f
00000380: db16 d23e 37bd 523d 7b1e de3c 03a9 903e
00000390: 1630 9abe 944c 773e 6a95 01bd 4925 a93e
000003a0: e7e3 1fbf 1a01 64be 6548 083f 11e1 3bbd
000003b0: ebe5 1f3e e1fe d9bc 83c6 f53d c8f2 ac3e
000003c0: ae9d 183f abcb babd 8610 69bd d398 a53e
000003d0: 7eb9 1b3f 6cb0 1cbf b38b a3be fd3e 523f
000003e0: 76ba b13d 52a4 aebe 7a1b 233f a6e1 c83d
000003f0: a06a 00bf d73b 16bf f97c 273f c211 403e

conv1.lin_rel.bias f4 [128]
0.48422396 -0.08865591 0.6817789 0.5482742 -0.56703913 0.5456591 0.71915066 0.066683516
0.4856651 0.26886803 -0.18528362 0.6975917 0.32976383 0.7053263 0.48953357 -0.6343974
0.41911468 -0.09487838 -0.62228596 0.12530991 -0.5143518 0.748711 0.6150836 -0.07270896
-0.31759605 0.13174845 0.33989358 0.7694507 0.0015148749 0.59249175 -0.18689698 0.59281164
-0.030183066 -0.21471085 -0.66296935 0.616099 -0.18357636 -0.43040368 0.19641206 -0.29467824
0.1349884 -0.6838909 -0.60633564 -0.4740727 -0.104631126 -0.64095837 0.0020429431 -0.14515619
0.28988093 0.2448822 0.35560825 0.08597914 -0.61612254 -0.24447964 -0.5225977 0.4247579
0.28407702 0.46593893 -0.45520967 -0.31071436 -0.5989971 -0.696247 0.15410946 -0.5353462
0.5881063 0.6437804 0.25922987 0.7680583 0.31973934 -0.5505757 -0.6085153 -0.48938867
-0.5249486 0.2905274 -0.09525517 0.12143577 0.53663296 -0.53965616 0.15043637 -0.034799766
-0.13294858 -0.21563919 -0.61901236 0.36010253 0.45158187 -0.29653898 -0.47432905 -0.7076284
0.40792322 0.15392107 0.41179967 0.7541316 -0.47978875 -0.48296997 0.40150988 -0.2532714
0.14248674 -0.447218 -0.5510906 -0.14060307 -0.056617472 0.003990661 4.5973284e-06 0.5892933
0.0675622 -0.24459521 0.3807644 -0.45429242 0.21395013 0.16459668 0.3907129 0.13190754
0.309881 0.24294095 0.37535062 -0.58565325 -0.25789446 -0.20434964 -0.34511486 -0.62420666
0.61893326 -0.2589258 0.2416124 0.36818305 0.54691 -0.099717624 0.5462643 -0.07319363
00000000: 34ec f73e 3b91 b5bd 1089 2e3f b35b 0c3f
00000010: 7a29 11bf 51b0 0b3f 421a 383f 5e91 883d
00000020: 19a9 f83e 12a9 893e fdba 3dbe 5f95 323f
00000030: ced6 a83e 4490 343f 25a4 fa3e de67 22bf
00000040: 3396 d63e 994f c2bd 224e 1fbf 3e51 003e
00000050: 8fac 03bf 86ab 3f3f 1e76 1d3f 6fe8 94bd
00000060: f39b a2be 11e9 063e 8806 ae3e b9fa 443f
00000070: c48e c63a 8aad 173f ec61 3fbe 81c2 173f
00000080: 7a42 f7bc 29dd 5bbe 5cb8 29bf aab8 1d3f
00000090: 71fb 3bbe df5d dcbe 3e20 493e 11e0 96be
000000a0: 663a 0a3e 7913 2fbf d038 1bbf a8b9 f2be
000000b0: d848 d6bd d915 24bf e6e2 053b d3a3 14be
000000c0: 466b 943e 66c2 7a3e 4912 b63e d515 b03d
000000d0: 35ba 1dbf df58 7abe f6c8 05bf de79 d93e
000000e0: 8b72 913e 8c8f ee3e 3e11 e9be f415 9fbe
000000f0: e057 19bf 3e3d 32bf dfce 1d3e 730c 09bf
00000100: 228e 163f cbce 243f c7b9 843e 789f 443f
00000110: e0b4 a33e 87f2 0cbf a9c7 1bbf 2791 fabe
00000120: 0863 06bf 02c0 943e 2415 c3bd 51b3 f83d
00000130: c760 093f e826 0abf fe0b 1a3e 338a 0ebd
00000140: ac23 08be 85d0 5cbe 9877 1ebf 5c5f b83e
00000150: bd35 e73e f5d3 97be 42db f2be 2327 35bf
00000160: 50db d03e 7c9d 1d3e 68d7 d23e c50e 413f
00000170: dfa6 f5be d747 f7be b492 cd3e caac 81be
00000180: 0be8 113e c2f9 e4be 4614 0dbf 40fa 0fbe
00000190: b9e7 67bd 17c4 823b c042 9a36 eddb 163f
000001a0: 0d5e 8a3d 2b77 7abe 8df3 c23e 0499 e8be
000001b0: be15 5b3e 088c 283e 850b c83e c512 073e
000001c0: b9a8 9e3e 83c5 783e f52d c03e 5fed 15bf
000001d0: be0a 84be 0841 51be e5b2 b0be 02cc 1fbf
000001e0: 6972 1e3f ec91 84be 3e69 773e 7d82 bc3e
000001f0: 4b02 0c3f c138 ccbd fad7 0b3f 8be6 95bd

conv1.lin_root.weight f4 [128, 2]
0.21034938 0.88804835 -0.27873644 0.39066684 0.09827181 0.7010705 -0.07409811 -0.44334775
0.46368033 0.21437661 0.40003717 0.48137608 0.45254815 0.4321466 0.01262458 -0.38314304
0.7723737 -0.29464447 0.4273279 -0.30103883 -0.086618766 -0.08873201 0.14504276 -0.29748514
0.66121864 -0.26542795 0.38465008 0.05692964 0.26160267 -0.6547981 -0.4310258 -0.12714992
-0.4143252 0.20787041 0.3624009 -0.43603703 -0.16536856 -0.42342392 0.08686605 -0.50207084
-0.38128364 -0.46619415 0.046723124 0.8085979 0.51658213 0.067332104 -0.47037348 -0.3450849
0.3781498 -0.5608571 -0.39927173 0.6780474 0.06949676 -0.37104288 0.13297233 -0.51187485
0.67960346 -0.13048275 -0.44252557 -0.06454578 -0.40130267 -0.26071635 0.5149808 1.171774
-0.026437946 0.6879749 0.27226913 0.83437896 0.646389 -0.096178345 -0.2828858 0.3184497
-0.34767005 -0.037028342 0.17317617 -0.33570293 0.2443787 0.26826337 0.112510666 -0.3240973
0.0075895013 -0.0930955 0.10257017 -0.59411824 -0.36438042 0.4177189 0.58084786 0.5310558
0.52349776 0.30364242 0.039162092 0.69634265 0.5873005 -0.43449867 -0.059551727 0.107329816
-0.113333285 0.65104645 -0.0031742344 0.31039673 0.264377 0.18526599 0.4377857 -0.46319127
-0.56661475 0.1593499 -0.5515286 0.64998573 0.80161184 0.6119571 0.37707904 0.8017378
0.13739207 -0.20725064 0.79751515 0.70781755 0.04165855 0.36939427 0.53312325 0.82662475
0.52636707 -0.570419 0.6463238 0.74963653 0.04735742 0.5467532 0.29730445 -0.15621316
0.31724703 0.13133655 0.12439845 0.019930135 0.51481444 -0.3427585 0.6126508 0.104954995
0.28898364 0.7186912 0.59931 0.40536246 -0.48447773 0.24199612 -0.3897233 0.56163615
0.46619666 -0.5025846 -0.68397427 -0.51762533 0.03527927 0.3155032 -0.20420031 0.32107034
-0.6043841 -0.34244415 0.63898367 0.517981 0.18355778 0.27462497 -0.10042281 -0.2530511
0.50951624 -0.7732497 0.45047837 0.3939508 -0.2985648 0.13499337 -0.0016341738 -0.19306879
0.0060575507 0.49559927 -0.44527304 -0.6656577 0.32258987 -0.55618066 0.6662199 -0.41272867
-0.34883595 0.58788204 0.5308652 0.5097342 -0.605275 -0.5767075 0.8358673 0.58400834
0.49697775 -0.025690021 -0.39117616 0.2790503 -0.8121794 1.0056615 0.011612897 0.5898227
0.74419945 -0.6006241 0.57429826 0.5119586 0.13479227 -0.7306102 0.10478726 -0.353989
0.09362896 0.42863062 -0.020923354 0.3732843 -0.59792525 0.7477594 0.30526888 0.34877223
0.6412573 0.3032434 0.69920486 -0.46302393 -0.036557242 0.47432294 0.56305474 0.7558537
0.05500196 0.5030667 -0.7064887 -0.26182917 -0.1149103 0.8336895 -0.09724157 -0.4273024
-0.6716007 -0.28007057 0.5747363 -0.09097107 0.40439716 0.10625607 0.44624573 0.6854809
0.058606625 0.4224988 0.6795505 -0.44569445 0.15899225 -0.11225653 -0.30084208 -0.02544537
-0.6195847 0.46677306 0.7060641 -0.66576755 -0.5068099 0.034555335 -0.098782465 -0.33209124
-0.32269055 0.09765865 0.4001055 -0.51055783 -0.58553076 -0.19169508 0.45748627 0.31367484
00000000: d465 573e 2357 633f 8bb6 8ebe 7c05 c83e
00000010: bb42 c93d 5b79 333f c0c0 97bd 7afe e2be
00000020: 8267 ed3e 8b85 5b3e acd1 cc3e ed76 f63e
00000030: 64b4 e73e 5242 dd3e 54d7 4e3c 532b c4be
00000040: 48ba 453f a4db 96be b9ca da3e c321 9abe
00000050: 2e65 b1bd 21b9 b5bd 1786 143e f94f 98be
00000060: a045 293f 2ce6 87be dbf0 c43e 0e2f 693d
00000070: c9f0 853e d9a0 27bf 6aaf dcbe 9733 02be
00000080: 6f22 d4be fbdb 543e 9c8c b93e 3f40 dfbe
00000090: 6056 29be 05cb d8be d4e6 b13d b787 00bf
000000a0: 9c37 c3be 00b1 eebe bf60 3f3d 4600 4f3f
000000b0: ba3e 043f 6ae5 893d cbd4 f0be f8ae b0be
000000c0: da9c c13e 5594 0fbf 586d ccbe 8494 2d3f
000000d0: 5154 8e3d 55f9 bdbe e629 083e 3b0a 03bf
000000e0: 7efa 2d3f 459d 05be b692 e2be 9430 84bd
000000f0: 8b77 cdbe 9d7c 85be c8d5 033f b1fc 953f
00000100: 6494 d8bc 1f1f 303f dc66 8b3e dc99 553f
00000110: c079 253f 27f9 c4bd 68d6 90be d70b a33e
00000120: cf01 b2be 08ab 17bd 1855 313e 41e1 abbe
00000130: 693e 7a3e d159 893e fe6b e63d 15f0 a5be
00000140: 5ab1 f83b daa8 bebd 4f10 d23d 2218 18bf
00000150: 1290 babe 40df d53e 72b2 143f 46f3 073f
00000160: f303 063f 0577 9b3e 6e68 203d 8343 323f
00000170: 5359 163f 9c76 debe 83ec 73bd bccf db3d
00000180: 481b e8bd fbaa 263f d106 50bb 52ec 9e3e
00000190: 6c5c 873e 5eb6 3d3e 7325 e03e 6827 edbe
000001a0: aa0d 11bf 9f2c 233e fa30 0dbf 7765 263f
000001b0: 6f36 4d3f 38a9 1c3f 8110 c13e b03e 4d3f
000001c0: 82b0 0c3e 8339 54be f429 4c3f 8833 353f
000001d0: 28a2 2a3d 3f21 bd3e c47a 083f ae9d 533f
000001e0: febf 063f fb06 12bf 7a75 253f 2ee8 3f3f
000001f0: dbf9 413d 05f8 0b3f 4a38 983e 58f6 1fbe
00000200: 346e a23e 177d 063e 9dc4 fe3d 8644 a33c
00000210: e1ca 033f 0b7e afbe afd6 1c3f a5f2 d63d
00000220: aaf5 933e 25fc 373f 616c 193f ab8b cf3e
00000230: 770d f8be d5cd 773e d089 c7be 63c7 0f3f
00000240: 54b1 ee3e 62a9 00bf f018 2fbf 1883 04bf
00000250: ff80 103d a389 a13e e319 51be 5563 a43e
00000260: ebb8 1abf d754 afbe 6f94 233f 679a 043f
00000270: 92f6 3b3e a59b 8c3e 79aa cdbd ea8f 81be
00000280: a86f 023f b1f3 45bf 1aa5 e63e ebb3 c93e
00000290: 7cdd 98be b43b 0a3e c631 d6ba d3b3 45be
000002a0: 6b7e c63b 30bf fd3e d4fa e3be 8b68 2abf
000002b0: 802a a53e db61 0ebf 638d 2a3f 2c51 d3be
000002c0: a09a b2be 707f 163f c8e6 073f f17d 023f
000002d0: 4df3 1abf 1aa3 13bf 66fb 553f 9281 153f
000002e0: de73 fe3e e173 d2bc 3e48 c8be aedf 8e3e
000002f0: fdea 4fbf 84b9 803f 0544 3e3c 9ffe 163f
00000300: db83 3e3f 80c2 19bf 3605 133f b80f 033f
00000310: fc06 0a3e 4509 3bbf b49a d63d 0c3e b5be
00000320: 8ac0 bf3d 7975 db3e 7467 abbc 1f1f bf3e
00000330: a111 19bf 296d 3f3f 344c 9c3e 4692 b23e
00000340: 7029 243f b842 9b3e 17ff 323f 7911 edbe
00000350: 0cbd 15bd 75da f23e 5b24 103f a17f 413f
00000360: bc49 613d fbc8 003f 72dc 34bf 790e 86be
00000370: 1756 ebbd ad6c 553f 9726 c7bd 61c7 dabe
00000380: 06ee 2bbf 6965 8fbe eb21 133f 0a4f babd
00000390: 250d cf3e c89c d93d 527a e43e ad7b 2f3f
000003a0: 800d 703d c351 d83e 06f7 2d3f 1032 e4be
000003b0: ddce 223e c0e6 e5bd f907 9abe cf72 d0bc
000003c0: 1a9d 1ebf e1fc ee3e 9ec0 343f be6f 2abf
000003d0: 4bbe 01bf e589 0d3d 764e cabd dd07 aabe
000003e0: b237 a5be 4201 c83d a1da cc3e ebb3 02bf
000003f0: 58e5 15bf b74b 44be a43b ea3e fd99 a03e

pool1.weight f4 [1, 128]
-0.023864347 0.014975049 -0.08501338 0.057916526 -0.0011478274 -0.043318793 -0.0005934967 -0.06416017
-0.0661663 0.07125272 -0.028377688 -0.06421627 -0.07482476 -0.05289975 0.039875153 -0.10538286
-0.05435135 0.07721593 -2.2488372e-11 -0.030789655 -0.032165177 -0.098525696 -0.07091595 0.002193548
0.05997495 -0.062767185 -0.011442556 -0.050383452 -0.08760585 -0.057200894 0.022216853 -0.022468545
-0.008066501 -0.01416991 -0.015231715 0.08205506 0.012702778 -4.5633053e-10 -0.09203974 -0.0662785
0.022805281 -3.5985699e-09 0.007194465 -0.02726637 -0.02404946 4.5073007e-20 -0.05233037 -9.441933e-16
-0.02454059 -0.05676635 0.048426628 0.05617969 0.008820311 -0.07460696 -0.014558274 -0.05786787
0.014250175 -0.024290934 0.00605153 -0.059064984 -0.06350171 -0.061225187 -0.06194193 0.012097058
0.016842864 0.07584492 0.014143274 -0.08948872 -0.061821796 0.08779487 0.08678883 0.0153447585
0.020899693 0.026239788 -1.9501455e-10 0.0014137339 0.0052821357 0.03868301 0.079304285 -0.085828155
-0.050582085 -0.025789004 0.03728836 0.07269089 -0.02443099 0.012671318 1.1209446e-20 -0.010920079
0.04392715 -0.1334425 0.004985979 -0.1252217 0.0034483753 0.006720048 -0.05309874 -0.0635998
-0.06628204 -0.0040794895 0.03626571 0.0007688513 0.0033707072 -0.0048311376 -0.035183776 0.009502146
-0.046388455 0.071589716 -0.0403775 -0.055548165 0.049663924 0.008023269 -0.032071844 -0.04982021
0.010277437 -0.080385014 -0.05794641 -0.014187693 0.000104609 0.029224373 -0.06999816 -0.010576319
-0.013336494 -0.09408054 0.083078854 -0.017493727 -0.034510054 -0.060190108 -2.335495e-07 -0.01652214
00000000: 2a7f c3bc e859 753c 7f1b aebd e139 6d3d
00000010: b272 96ba 0c6f 31bd e494 1bba 6866 83bd
00000020: 3282 87bd f2ec 913d 5378 e8bc d283 83bd
00000030: b93d 99bd 69ad 58bd 2154 233d f8d2 d7bd
00000040: 859f 5ebd 6323 9e3d 50cf c5ad 963a fcbc
00000050: a2bf 03bd d7c7 c9bd 623c 91bd a1c1 0f3b
00000060: 4ba8 753d 158c 80bd 8f79 3bbc e15e 4ebd
00000070: b26a b3bd 7c4b 6abd 1e00 b63c f40f b8bc
00000080: 5b29 04bc e928 68bc 718e 79bc 7c0c a83d
00000090: 501f 503c d0de faaf 557f bcbd 06bd 87bd
000000a0: 24d2 ba3c b64a 77b1 8cbf eb3b b95d dfbc
000000b0: 6003 c5bc ecd9 541f 5f58 56bd 9612 88a6
000000c0: 5909 c9bc d583 68bd 005b 463d ad1c 663d
000000d0: 1183 103c 89cb 98bd d485 6ebc dc06 6dbd
000000e0: 9179 693c c8fd c6bc ea4b c63b 20ee 71bd
000000f0: 2f0d 82bd 43c7 7abd d2b6 7dbd bd32 463c
00000100: 0cfa 893c 9554 9b3d 31b9 673c dd45 b7bd
00000110: da38 7dbd cccd b33d 58be b13d 9568 7b3c
00000120: d535 ab3c d3f4 d63c b76b 56af 0a4d b93a
00000130: c415 ad3b 1372 1e3d 496a a23d acc6 afbd
00000140: 292f 4fbd 7643 d3bc aebb 183d f6de 943d
00000150: 8023 c8bc 5c9b 4f3c 8ebd 531e 22ea 32bc
00000160: f5ec 333d 27a5 08be 6c61 a33b 1e3a 00be
00000170: 23fe 613b d933 dc3b 107e 59bd 9d40 82bd
00000180: e1be 87bd 3dad 85bb 5a8b 143d bd8c 493a
00000190: 15e7 5c3b 854e 9ebb dd1c 10bd e4ae 1b3c
000001a0: d201 3ebd a19d 923d e162 25bd 7986 63bd
000001b0: 666c 4b3d 0774 033c c45d 03bd 4710 4cbd
000001c0: b262 283c e6a0 a4bd 3759 6dbd 7f73 68bc
000001d0: 8761 db38 f467 ef3c 325b 8fbd 4c48 2dbc
000001e0: 4f81 5abc 4cad c0bd 3f25 aa3d 014f 8fbc
000001f0: 6a5a 0dbd e789 76bd 99c5 7ab4 7059 87bc

conv2.lin_rel.weight f4 [128, 128]
0.0485032 -0.036727373 0.023595028 -0.063027844 -0.049813773 0.25982556 0.040966153 -0.00036921538
0.04594558 0.028051991 -0.06477503 0.060223598 -0.12155017 -0.04203576 0.03816692 0.21787639
0.10518948 -0.10570022 -0.025458487 -0.040279843 0.08643087 -0.011605175 0.08746145 0.027118957
0.013515812 0.080449305 0.08103711 0.0037429132 -0.1450303 -0.020551242 0.025691036 0.25412646
-0.0685199 0.105536826 -0.0064084493 0.0058113667 0.04818661 0.02407546 0.033728484 -0.0009365543
-0.043160208 0.0051213372 -0.009317363 0.0021714454 0.07603306 -0.014738711 0.053581532 0.07004814
0.16309096 -0.039698936 0.07152092 0.03931427 0.0036368514 0.0031009312 0.1347084 0.09274403
0.081092246 -0.04737792 0.001484889 -0.04494351 -0.10584383 0.016728505 -0.018902583 -0.0078061125
-0.00826927 -0.070799656 0.3074052 0.025133781 0.042805284 -0.038882855 0.07892752 0.03345113
-0.006906815 -0.009074333 0.04717442 0.15322603 0.011156714 -0.075748205 -0.07293727 -0.0421596
-0.08215025 -0.018511588 -0.09383893 0.03968339 0.18103047 0.06618519 -0.003061642 0.019460896
0.05942801 0.09061966 0.12934764 0.02590652 0.048568003 0.005333049 0.13907984 0.15920825
-0.050708245 -0.07224624 0.013855768 0.034796584 0.010778042 0.17781952 0.16562867 0.06656565
0.06801243 0.022981824 0.07072114 -0.04112991 -0.039008975 0.18929301 0.13292825 -0.08820657
-0.0055283923 -0.058262732 0.11519749 0.07713619 -0.07494944 -0.035776053 -0.026178112 0.11363322
0.035291437 0.025945071 -0.08157164 0.122122355 -0.0577829 -0.001560901 0.08332446 0.056114394
0.054838978 0.0448203 -0.033237945 0.06485739 -0.05630529 0.03354822 -0.0019796507 0.038831767
-0.1570695 0.0054875487 0.07269643 0.016954735 0.016598249 -0.1478709 0.07928472 -0.12094623
0.051475823 0.012747207 -0.0061898967 0.031205645 -0.048522614 0.016991876 0.11905596 0.0013871265
-0.020606065 0.04950736 0.10178758 -0.03177496 -0.05591816 0.002379633 0.028312279 0.085605405
0.03803969 -0.057184543 0.066526994 -0.04467811 0.004910588 -0.022189293 -0.0045945533 0.0015498027
-0.045817602 -0.050893173 0.03163643 0.03862531 0.15328076 0.078321815 -0.034223333 0.052137874
0.037168924 0.05441707 0.056913037 -0.07670372 -0.014607802 -0.0388746 0.18127787 -0.019416954
0.054283623 -0.057548255 0.057190057 0.076861106 0.040209826 -0.005308674 0.020487845 0.053228993
0.036715355 -0.028769424 0.11552642 -0.13738729 0.0103527475 0.05433287 -0.10373145 -0.0421176
-0.032164324 -0.08649836 0.06905752 0.027610505 0.081779376 0.032310784 -0.0071182568 -0.047340516
0.09777528 0.027164262 -0.02544924 0.08139428 0.020406686 -0.010535074 -0.037961204 -0.039294254
0.0556234 -0.040694248 -0.0270302 -0.04029855 -0.08476836 0.026149608 0.10207138 0.071611494
-0.055945683 -0.015935587 -0.07210831 -0.061546694 0.06847372 0.15757687 -0.027002512 0.008902199
-0.034811653 -0.035864018 0.047113262 0.05603618 -0.019137148 0.0010232407 0.087336786 0.07130419
0.043518648 -0.06462534 -0.0165717 0.06870496 -0.02324798 -0.035289202 0.08239541 -0.10103486
-0.018083831 0.044400267 0.023053803 0.10085339 0.058513816 -0.0119460905 -0.035242584 0.025356956
00000000: 4bab 463d 716f 16bd 5c4a c13c be14 81bd
00000010: 8709 4cbd db07 853e 20cc 273d 4093 c1b9
00000020: 6f31 3c3d 4acd e53c c5a8 84bd 05ad 763d
00000030: 4cef f8bd b02d 2cbd eb54 1c3d fd1a 5f3e
00000040: 956d d73d 5b79 d8bd 518e d0bc 7afc 24bd
00000050: ab02 b13d a223 3ebc fd1e b33d 9328 de3c
00000060: 6d71 5d3c 9bc2 a43d c9f6 a53d aa4b 753b
00000070: d382 14be 145b a8bc 0276 d23c dd1c 823e
00000080: 2954 8cbd b123 d83d f8fd d1bb 476d be3b
00000090: 535f 453d e639 c53c e126 0a3d 1883 75ba
000000a0: c2c8 30bd e4d0 a73b daa7 18bc cf4e 0e3b
000000b0: 39b7 9b3d a27a 71bc 4f78 5b3d 6675 8f3d
000000c0: 5101 273e 5a9b 22bd 8f79 923d 0008 213d
000000d0: 3e58 6e3b fe38 4b3b 00f1 093e 95f0 bd3d
000000e0: b113 a63d 5a0f 42bd 9ba0 c23a b016 38bd
000000f0: a6c4 d8bd 380a 893c 97d9 9abc 6bca ffbb
00000100: d57b 07bc 69ff 90bd 3764 9d3e 5ce5 cd3c
00000110: 9854 2f3d a143 1fbd c0a4 a13d 0d04 093d
00000120: 9052 e2bb 83ac 14bc f739 413d 49e7 1c3e
00000130: a6ca 363c e021 9bbd 2360 95bd 8baf 2cbd
00000140: 643e a8bd 9da5 97bc a02e c0bd 0d8b 223d
00000150: 0d60 393e 1a8c 873d d4a5 48bb 756c 9f3c
00000160: c96a 733d cd96 b93d b573 043e e939 d43c
00000170: 3eef 463d dcc0 ae3b f26a 0e3e 7d07 233e
00000180: 73b3 4fbd d6f5 93bd 4e03 633c dd86 0e3d
00000190: 6296 303c 5216 363e 909a 293e 9253 883d
000001a0: 1a4a 8b3d 6144 bc3c 3fd6 903d d677 28bd
000001b0: e0c7 1fbd 07d6 413e 581e 083e a5a5 b4bd
000001c0: 8427 b5bb e7a4 6ebd a9ec eb3d 94f9 9d3d
000001d0: 187f 99bd e989 12bd 7b73 d6bc 89b8 e83d
000001e0: c18d 103d c28a d43c 080f a7bd 491b fa3d
000001f0: c3ad 6cbd 2597 ccba 04a6 aa3d 35d8 653d
00000200: d69e 603d 7e95 373d 8324 08bd f4d3 843d
00000210: 60a0 66bd dc69 093d 07bd 01bb 0f0e 1f3d
00000220: d4d6 20be e5d0 b33b dee1 943d a8e4 8a3c
00000230: 0df9 873c 786b 17be 0760 a23d a8b2 f7bd
00000240: 50d8 523d a9d9 503c 9ed4 cabb fba2 ff3c
00000250: a6bf 46bd 8c32 8b3c 9cd3 f33d 3ed0 b53a
00000260: 0dce a8bc 3bc8 4a3d 0276 d03d 7626 02bd
00000270: 710a 65bd 9ef3 1b3b 27ef e73c e351 af3d
00000280: 82cf 1b3d 573a 6abd 4e3f 883d 6500 37bd
00000290: ffe8 a03b 52c6 b5bc e88d 96bb c022 cb3a
000002a0: 3dab 3bbd 5c75 50bd 3495 013d 9335 1e3d
000002b0: a2f5 1c3e 3067 a03d c42d 0cbd 868e 553d
000002c0: 713e 183d 6fe4 5e3d a51d 693d d716 9dbd
000002d0: 9055 6fbc f93a 1fbd e8a0 393e 4e10 9fbc
000002e0: 8158 5e3d b8b7 6bbd 1f40 6a3d 5b69 9d3d
000002f0: 0fb3 243d 63f4 adbb 20d6 a73c a506 5a3d
00000300: d762 163d dbad ebbc 1e99 ec3d 41af 0cbe
00000310: 929e 293c 258c 5e3d 2871 d4bd 8183 2cbd
00000320: bdbe 03bd 0d26 b1bd 076e 8d3d 6d2f e23c
00000330: f27b a73d 5058 043d 4440 e9bb 21e8 41bd
00000340: 683e c83d 9687 de3c ed7a d0bc 0bb2 a63d
00000350: ec2b a73c 4e9b 2cbc 357d 1bbd 03f3 20bd
00000360: 5dd5 633d 03af 26bd 706e ddbc 1810 25bd
00000370: 099b adbd b437 d63c cd0a d13d 0ca9 923d
00000380: 4d27 65bd 598b 82bc 86ad 93bd 6318 7cbd
00000390: f33b 8c3d d55b 213e 5f34 ddbc 87da 113c
000003a0: aa96 0ebd 26e6 12bd d6f9 403d 3286 653d
000003b0: 82c5 9cbc 431e 863a a1dd b23d ee07 923d
000003c0: 9c40 323d 4a5a 84bd 60c1 87bc 30b5 8c3d
000003d0: 8c72 bebc 698b 10bd edbe a83d 5deb cebd
000003e0: 8b24 94bc 0edd 353d 54db bc3c 398c ce3d
000003f0: 2fac 6f3d 89b9 43bc 875a 10bd 64b9 cf3c

conv2.lin_rel.bias f4 [128]
-0.10155168 0.080345854 0.051325914 0.027017506 -0.10510379 -0.015821204 -0.0626528 0.015566714
0.089336835 -0.0073209926 0.037432566 -0.037038673 -0.08814617 -0.026788486 -0.025509011 0.0010266674
-0.08376901 -0.010843663 -0.057592865 -0.086348325 0.08956933 0.0026381216 0.031572256 0.06081292
0.032789286 0.0147394 0.05753632 0.03299704 0.01714692 -0.027327845 0.06734676 0.0024604674
0.039209455 0.10043909 -0.07049476 -0.053027205 -0.05166248 0.05385618 0.08558169 0.016058527
0.011650581 0.1573435 0.000768283 0.020045036 -0.1713605 0.029089805 0.03805119 0.08926588
0.10656472 -0.019499674 0.02622751 0.042965252 0.1539734 -0.08703667 0.23609395 -0.13067962
-0.044205703 0.018262587 0.03936147 0.10209269 0.02380376 -0.04542622 -0.012083215 -0.014238272
-0.016023932 -0.11851138 -0.13312352 0.09266192 0.11537607 -0.038066186 -0.0048791855 -0.043580692
0.08785901 0.09358816 -0.048070777 0.026491685 0.07003552 -0.0165646 0.10955777 -0.00093115657
-0.045807566 -0.008571757 -0.10887685 0.052785873 -0.021087216 0.015715491 0.089509286 0.08547914
-0.11193877 0.035032768 0.046420988 -0.0812742 0.13540554 0.08339406 -0.039616924 0.097187504
-0.20719324 0.012843275 -0.04320422 0.033195984 0.051422868 0.07377937 0.0010903042 0.07430334
-0.12971248 0.032748055 -0.0053740633 -0.042217426 0.009188134 0.030896189 0.082197 -0.06492446
0.09002187 -0.047794428 0.047954902 -0.0160345 -0.14878857 -0.08158764 -0.12114591 0.020407524
-0.0794058 -0.046736147 -0.012292505 0.031554926 -0.06518917 0.07329709 -0.0945776 0.034646645
00000000: 54fa cfbd 5e8c a43d 1f3b 523d d153 dd3c
00000010: a840 d7bd 789b 81bc 1c50 80bd 880b 7f3c
00000020: 3bf6 b63d f0e4 efbb e452 193d ddb5 17bd
00000030: fb85 b4bd 8773 dbbc 46f8 d0bc 3e91 863a
00000040: 168f abbd 9ea9 31bc 7fe6 6bbd 64d7 b0bd
00000050: 2070 b73d 56e4 2c3b e951 013d f816 793d
00000060: 0f4e 063d 867d 713c 34ab 6b3d e727 073d
00000070: b377 8c3c a5de dfbc 19ed 893d cb3f 213b
00000080: 189a 203d 02b3 cd3d 8f5f 90bd 0e33 59bd
00000090: 099c 53bd 4c98 5c3d 7445 af3d 2c8d 833c
000000a0: 14e2 3e3c a81e 213e 9966 493a 7d35 a43c
000000b0: 2079 2fbe be4d ee3c 91db 1b3d 08d1 b63d
000000c0: 9b3e da3d c8bd 9fbc 13db d63c 55fc 2f3d
000000d0: 34ab 1d3e 4840 b2bd 9dc2 713e e1d0 05be
000000e0: 0a11 35bd 6c9b 953c 7e39 213d f915 d13d
000000f0: 1a00 c33c d810 3abd adf8 45bc a447 69bc
00000100: 9f44 83bc 18b6 f2bd 8851 08be 88c5 bd3d
00000110: 4a4a ec3d 4aeb 1bbd 93e1 9fbb ab81 32bd
00000120: 6def b33d 26ab bf3d dde5 44bd 1705 d93c
00000130: c86e 8f3d 7cb2 87bc d35f e03d dc18 74ba
00000140: b7a0 3bbd 8e70 0cbc d3fa debd 0036 583d
00000150: 19bf acbc c6bd 803c a550 b73d b00f af3d
00000160: 2740 e5bd 857e 0f3d ef23 3e3d 1673 a6bd
00000170: c0a7 0a3e 81ca aa3d 5b45 22bd 3e0a c73d
00000180: 772a 54be 9a6c 523c e8f6 30bd 83f8 073d
00000190: c9a0 523d a319 973d 8ae8 8e3a 592c 983d
000001a0: 59d3 04be d322 063d e918 b0bb 2eec 2cbd
000001b0: d489 163c 011a fd3c e756 a83d 1ef7 84bd
000001c0: 635d b83d 17c4 43bd 5c6c 443d c95a 83bc
000001d0: 085c 18be 6c17 a7bd 591b f8bd ae2d a73c
000001e0: 829f a2bd 676e 3fbd 8166 49bc bd3f 013d
000001f0: e681 85bd c91c 963d e7b1 c1bd a4e9 0d3d

conv2.lin_root.weight f4 [128, 128]
-0.14825277 0.061109584 0.020172285 -0.015958205 -0.03788419 -0.17121023 0.081336476 -0.058978964
0.15447706 -0.0016895254 -0.06773574 -0.054683134 -0.07670881 0.045157965 -0.10072041 0.13815913
-0.14705932 -0.088883586 0.040911797 0.029443571 0.04291378 -0.200573 -0.047787953 0.07917706
-0.10034806 0.043918185 -0.3053984 -0.15353346 -0.1341871 -0.11229009 -0.07948162 -0.28596577
-0.086654164 -0.2559426 -0.056483507 -0.017474562 0.024491763 -0.063132375 -0.08318543 0.013996268
-0.13142456 -0.07390398 0.050349932 -0.2158082 -0.10466342 -0.028877271 0.053527057 -0.029602533
-0.32802582 -0.082255505 -0.09569097 -0.006018016 -0.08707815 -0.08729858 -0.27965027 -0.11410434
-0.13914603 -0.031664975 -0.0053804987 -0.07708907 -0.065928474 -0.07412131 -0.028951079 0.02395395
-0.04176815 -0.031408608 -0.11957224 0.07106375 -0.027658628 -0.030668613 0.08339597 0.069200605
-0.010520739 -0.09028837 0.015884725 -0.11809351 -5.893183e-05 -0.057518885 -0.07355306 -0.0074231024
-0.0062548886 -0.032233916 -0.00372775 -0.08977422 -0.31669343 -0.07122738 -0.065211415 -0.08729125
-0.04881469 -0.10005181 -0.13195029 0.09130666 0.062016632 -0.002349055 -0.23828068 -0.16463642
0.09474434 -0.056355476 0.019973392 -0.019739255 0.023122696 -0.17262122 -0.16530369 -0.14023902
-0.088204905 -0.058239195 -0.112563744 -0.089080855 -0.11441322 0.032102365 -0.17877932 -0.027283477
-0.069920756 -0.07765268 -0.13961646 -0.14519207 -0.03426824 -0.10856911 -0.008249573 0.11277498
-0.04194261 -0.1717852 -0.047621965 -0.12891862 -0.0518876 -0.0014257709 0.005463032 -0.08816414
-0.06533803 -0.06511797 0.054748382 0.017595759 0.02555458 0.16849363 0.049232624 -0.03244299
0.0502471 0.06682356 -0.08418658 0.030142823 0.07082009 0.0410217 -0.06548567 -0.018701276
-0.12478555 -0.028841402 -0.07910879 0.00456274 -0.075282715 -0.03204197 -0.042388063 -0.08242711
-0.07693408 -0.097252265 0.08491555 0.13369928 0.08316442 0.031885423 -0.035659634 0.06740897
-0.04350999 -0.07360746 0.04066098 -0.059331402 -0.09407055 -0.003940056 -0.07973953 -0.016462876
0.01822119 -0.009715607 -0.027466005 0.0063125337 0.06495451 -0.05177147 0.006520783 -0.085445724
-0.033004757 -0.07477602 0.02512054 -0.014976657 0.037955027 -0.09761309 -0.013228 0.020284839
0.07626259 0.13150388 -0.08062951 0.023480607 -0.082860745 0.011227417 0.042359408 -0.03502991
-0.08717963 -0.033923663 0.008618853 -0.026176466 -0.046009608 -0.10250611 -0.009565322 -0.11841132
0.028657107 0.018516919 0.012565661 -0.05990873 -0.034038384 -0.10331361 -0.020922173 -0.06814551
-0.015397788 -0.10830247 -0.08706465 0.015911154 -0.015120381 -0.06611556 0.05123471 -0.08157208
-0.09719041 0.020669209 0.007086288 0.061037976 0.049631327 -0.037206396 -0.12525353 -0.09528408
0.021861805 -0.07051771 -0.07371278 -0.03140624 -0.06668386 -0.11036168 -0.14340948 0.068271056
0.005646374 -0.06040644 0.0322643 -0.08937023 0.022050617 -0.0014901486 0.02353053 0.04250075
0.035803873 -0.07666694 0.14180124 -0.083984554 0.006644777 -0.07117344 -0.0844314 -0.09011762
-0.037049036 -0.050104257 -0.09699755 0.09058113 -0.04301813 -0.048103046 0.047352552 -0.06924564
00000000: 93cf 17be 0b4e 7a3d 5940 a53c c8ba 82bc
00000010: 742c 1bbd bc51 2fbe bd93 a63d ed93 71bd
00000020: 3c2f 1e3e 1173 ddba 09b9 8abd 6cfb 5fbd
00000030: 8219 9dbd 8ff7 383d 8146 cebd 9679 0d3e
00000040: b896 16be 9908 b6bd 2193 273d a533 f13c
00000050: 5cc6 2f3d 0263 4dbe 4dbd 43bd 9527 a23d
00000060: 4983 cdbd 8ee3 333d 2e5d 9cbe e037 1dbe
00000070: 5868 09be 59f8 e5bd 42c7 a2bd 1b6a 92be
00000080: bd77 b1bd e90a 83be 405b 67bd d026 8fbc
00000090: f3a2 c83c 8c4b 81bd 1f5d aabd 9a50 653c
000000a0: 2994 06be f85a 97bd bb3b 4e3d d3fc 5cbe
000000b0: c659 d6bd 0790 ecbc 303f 5b3d 0381 f2bc
000000c0: 00f3 a7be 9375 a8bd a1f9 c3bd c732 c5bb
000000d0: 0756 b2bd 99c9 b2bd 522e 8fbe 89af e9bd
000000e0: 4c7c 0ebe 22b3 01bd e54e b0bb e0e0 9dbd
000000f0: 8205 87bd eacc 97bd d02a edbc 133b c43c
00000100: 1415 2bbd 50a6 00bd 4ae2 f4bd df89 913d
00000110: 5994 e2bc be3c fbbc 82cb aa3d 0cb9 8d3d
00000120: 2d5f 2cbc 1ce9 b8bd af20 823c 03db f1bd
00000130: 922d 77b8 ec98 6bbd fda2 96bd 7f3d f3bb
00000140: cff5 ccbb b607 04bd 444d 74bb 8cdb b7bd
00000150: a425 a2be a9df 91bd 908d 85bd c1c5 b2bd
00000160: eaf1 47bd f7e7 ccbd fa1d 07be fcfe ba3d
00000170: 2705 7e3d 9af2 19bb daff 73be 7396 28be
00000180: 5209 c23d 00d5 66bd 3d9f a33c 38b4 a1bc
00000190: cf6b bd3c 9ec3 30be 5f45 29be d19a 0fbe
000001a0: c6a4 b4bd 398c 6ebd d287 e6bd 0670 b6bd
000001b0: 7a51 eabd c57d 033d ed11 37be 9981 dfbc
000001c0: 9d32 8fbd 5e08 9fbd 9ef7 0ebe 3bad 14be
000001d0: db5c 0cbd 7b59 debd 3829 07bc 92f6 e63d
000001e0: 04cc 2bbd 76e8 2fbe 400f 43bd 3e03 04be
000001f0: 1888 54bd efe0 baba 3c03 b33b 678f b4bd
00000200: f2cf 85bd 925c 85bd d73f 603d fb24 903c
00000210: d757 d13c 9889 2c3e 26a8 493d f1e2 04bd
00000220: e7cf 4d3d cada 883d 036a acbd 15ee f63c
00000230: 200a 913d 5f06 283d 5a1d 86bd 6b33 99bc
00000240: 918f ffbd ce44 ecbc ca03 a2bd 0a83 953b
00000250: d32d 9abd 713e 03bd 1b9f 2dbd 8bcf a8bd
00000260: 9d8f 9dbd 322c c7bd 34e8 ad3d 77e8 083e
00000270: 1c52 aa3d 4a9a 023d d60f 12bd b70d 8a3d
00000280: 8837 32bd 82bf 96bd 218c 263d 7c05 73bd
00000290: 0fa8 c0bd 961b 81bb 7b4e a3bd 27dd 86bc
000002a0: 9b44 953c 362e 1fbc 6300 e1bc 5fd9 ce3b
000002b0: df06 853d 520e 54bd 4bac d53b 2bfe aebd
000002c0: ff2f 07bd 2c24 99bd 97c9 cd3c a760 75bc
000002d0: bb76 1b3d 5fe9 c7bd 41ba 58bc 642c a63c
000002e0: 902f 9c3d f4a8 063e 1621 a5bd 675a c03c
000002f0: e5b2 a9bd 33f3 373c 0f81 2d3d 867b 0fbd
00000300: 3c8b b2bd 8af3 0abd 1736 0d3c 0770 d6bc
00000310: 9274 3cbd b9ee d1bd deb7 1cbc a281 f2bd
00000320: 4fc2 ea3c cbb0 973c 34e0 4d3c db62 75bd
00000330: d56b 0bbd 1696 d3bd fa64 abbc e08f 8bbd
00000340: 0147 7cbc afcd ddbd f44e b2bd 1c58 823c
00000350: 79bb 77bc 9867 87bd 7ddb 513d 430f a7bd
00000360: c40b c7bd 7952 a93c 1834 e83b f502 7a3d
00000370: 384a 4b3d bc65 18bd 7642 00be 4d24 c3bd
00000380: 8717 b33c 976b 90bd baf6 96bd d4a3 00bd
00000390: 8c91 88bd 4e05 e2bd efd9 12be b2d1 8b3d
000003a0: 3805 b93b be6c 77bd 9227 043d bd07 b7bd
000003b0: 7fa3 b43c 1751 c3ba 19c3 c03c 4415 2e3d
000003c0: 15a7 123d 8e03 9dbd 5834 113e 1800 acbd
000003d0: 6ebc d93b 61c3 91bd 5fea acbd 968f b8bd
000003e0: bbc0 17bd 1f3a 4dbd a7a6 c6bd 9982 b93d
000003f0: c733 30bd b307 45bd c0f4 413d a8d0 8dbd

pool2.weight f4 [1, 128]
-0.047011603 -0.033556946 -0.12782107 -0.09163966 0.0012578893 -0.033865552 0.07510303 0.06825827
-0.09159606 0.01233862 0.02967684 0.059809834 -0.07557561 -0.017621677 -0.04246212 -0.07918735
0.10202945 -0.06208384 -0.07091613 -0.069915764 -0.08209967 -0.009313197 -0.03769193 0.029668443
0.027011907 -0.01581189 0.030347489 0.04338529 -0.06761071 0.0862903 -0.038800627 -0.071174584
-0.019470187 -0.103665635 -0.036867447 0.053172726 -0.010720555 0.07853213 -0.006604139 -0.07758386
0.008593039 -0.043472443 -0.10069512 0.029931933 0.059584692 -0.13359587 -0.08729958 -0.14759256
-0.031091867 -0.09169478 -0.0018784805 0.14237607 -0.1240252 -0.06539185 -0.00025009754 -0.011748902
-0.008207001 -0.04341395 -0.124764696 -0.11291767 -0.047670275 -0.06736622 -0.03389641 -0.003987395
-0.0746337 0.032927863 -0.03414227 0.05898776 -0.07235219 -0.015242147 0.03397362 -0.015947513
-0.1235831 -0.062571384 0.087808356 -0.06151657 0.028463943 -0.0993598 0.03199662 -0.08222471
0.020203972 -0.088231236 -0.016529959 -0.03625339 0.0751668 0.082709104 -0.03851134 -0.1181388
0.04245535 -0.064034246 0.058304384 0.0021151532 -0.02808225 -0.0047760922 -0.042152923 0.10009486
-0.01662327 -0.010100243 0.03864499 -0.03302158 -0.034863308 0.0953384 -0.021878546 -0.062336173
0.038562395 0.049846224 0.025073862 -0.07887521 0.03148024 -0.036440987 0.0042872834 0.07369771
-0.07667117 -0.03969162 -0.08302263 -0.046466365 0.06890884 -0.04172927 -0.056689557 -0.06865306
-0.04271118 -0.029826082 -0.06621077 0.01870455 -5.360805e-05 -0.09143668 0.022959 0.05338364
00000000: 3d8f 40bd 0273 09bd 87e3 02be 93ad bbbd
00000010: c3df a43a 9bb6 0abd 9ecf 993d feca 8b3d
00000020: b796 bbbd ec27 4a3c d81c f33c 28fb 743d
00000030: 63c7 9abd 565b 90bc c3ec 2dbd fa2c a2bd
00000040: d1f4 d03d a04b 7ebd 7a3c 91bd ff2f 8fbd
00000050: df23 a8bd 6196 18bc da62 1abd 3c0b f33c
00000060: 1348 dd3c f087 81bc 4c9b f83c c6b4 313d
00000070: 7c77 8abd f8b8 b03d 68ed 1ebd fbc3 91bd
00000080: f17f 9fbc a64e d4bd 5202 17bd a5cb 593d
00000090: 44a5 2fbc 74d5 a03d 8967 d8bb 49e4 9ebd
000000a0: d1c9 0c3c 2910 32bd 3e39 cebd d033 f53c
000000b0: 140f 743d 5bcd 08be 1fca b2bd 8122 17be
000000c0: 5fb4 febc 79ca bbbd 5937 f6ba 08cb 113e
000000d0: ed00 febd 2aec 85bd 861f 83b9 777e 40bc
000000e0: a876 06bc d3d2 31bd a284 ffbd 6141 e7bd
000000f0: e841 43bd 4df7 89bd f6d6 0abd b2a8 82bb
00000100: 8ed9 98bd 5edf 063d c4d8 0bbd 269d 713d
00000110: 632d 94bd 33ba 79bc ec27 0b3d 5ca4 82bc
00000120: 2319 fdbd 6d25 80bd ded4 b33d cdf8 7bbd
00000130: 372d e93c 277d cbbd e30e 033d 6e65 a8bd
00000140: cd82 a53c 94b2 b4bd d669 87bc 6f7e 14bd
00000150: 0df1 993d 6463 a93d 11be 1dbd c1f2 f1bd
00000160: a9e5 2d3d 6324 83bd 94d0 6e3d 629e 0a3b
00000170: bf0c e6bc c480 9cbb 8ba8 2cbd 89fe cc3d
00000180: 862d 88bc 7d7b 25bc 364a 1e3d a341 07bd
00000190: d4cc 0ebd c740 c33d a33a b3bc 3754 7fbd
000001a0: 9af3 1d3d 8e2b 4c3d b367 cd3c 5389 a1bd
000001b0: 6df1 003d 2543 15bd 577c 8c3b d3ee 963d
000001c0: c605 9dbd ae93 22bd c507 aabd 8453 3ebd
000001d0: 1420 8d3d 50ec 2abd 4f33 68bd fa99 8cbd
000001e0: ebf1 2ebd d455 f4bc 8399 87bd 493a 993c
000001f0: 35d9 60b8 2743 bbbd 8314 bc3c cea8 5a3d

conv3.lin_rel.weight f4 [128, 128]
0.044148937 0.12663437 -0.017907891 -0.00015863855 0.0014821586 0.027557416 -0.08346457 -0.098814696
0.13759206 -0.011774111 -0.033210017 0.057343397 0.09069478 -0.04501189 -0.066571645 0.092157245
-0.049879465 0.1124355 -0.023191279 0.037642974 0.0275422 0.07008308 0.02648165 0.15784714
-0.06351977 -0.058406573 0.0072705536 -0.0567295 -0.03958591 -0.07531084 0.03603614 0.03519274
0.012224869 -0.0051374505 -0.036972407 0.08193479 0.08700868 -0.0015591038 0.03011821 0.08595627
0.0466832 0.074455656 0.11466958 0.04145925 -0.06031375 0.06717989 0.060703747 0.12524036
-0.07213771 -0.018695163 0.03627668 0.07717036 0.0881022 -0.013868567 0.101999424 -0.06184843
0.010970111 0.06530436 0.036185555 0.12524429 -0.0008088347 0.0371907 0.036185067 -0.030049948
0.13018642 0.00021223245 0.081560895 0.055666205 0.009694272 0.051828664 -0.03838589 0.07076071
0.053829994 -0.049023032 -0.08023649 0.027185613 0.084025554 0.097000666 0.03642804 0.011700237
-0.075720266 -0.010605687 0.073859274 0.08262303 0.05494293 -0.019985849 0.084190086 0.051639374
-0.05036692 0.13147032 0.13116951 -0.077009305 0.013402287 0.10691384 0.102677315 -0.103002675
-0.05203127 0.051521834 -0.022910977 -0.0106205 0.01256697 -0.07896302 0.012743075 -0.046468712
-0.07956033 0.03148357 -0.049724758 0.05504121 0.16231473 -0.01466739 -0.0039512767 -0.09643998
0.02216682 -0.07954419 0.077251546 0.014797449 0.10097142 -0.04112344 0.11291758 0.013638912
0.07616218 -0.04026091 0.037276104 0.067560665 0.02253171 -0.02069883 0.10682298 -0.09403313
0.08840032 0.15489124 0.07266322 0.03227674 0.06261316 0.10106355 -0.05813136 0.05059712
0.10224539 0.06058949 -0.026858445 -0.027655523 0.03151981 0.026788957 -0.045754395 0.07724957
0.055048354 0.06695734 -0.039678343 -0.0057272865 -0.02991332 0.10376888 0.040109612 0.022334632
0.020139908 0.02269777 0.06162058 -0.049620975 0.04857635 -0.05879027 -0.0013627339 0.061832223
0.08840304 0.048745442 -0.040326003 -0.009146117 0.07649484 -0.03251378 0.07646254 0.1024433
0.08418548 0.08130566 -0.023890693 0.03742124 0.111083806 0.02580495 -0.044611964 -0.07260032
-0.05194387 -0.010709859 0.008629093 0.08743049 0.0046312185 0.062456094 0.10756748 0.02021277
-0.0018582768 0.07323023 -0.030435879 0.035111252 0.022730593 -0.015480642 0.00101749 -0.030864477
0.048938386 0.03386045 0.04106618 -0.06669246 -0.07401557 0.06765071 0.011208733 -0.019819252
0.031108085 0.06676322 -0.021504877 0.02949867 0.08919529 0.050547775 0.020143578 -0.059262536
0.14708348 0.0318069 0.0036736862 -0.058721453 -0.080337375 0.073683806 0.023335634 -0.017568946
0.044204913 -0.02828413 -0.03572961 -0.04022796 0.07437495 -0.04074818 0.09490065 -0.08324393
-0.054358047 0.13295256 -0.06799059 0.032588296 0.08696889 -0.044299386 -0.043220174 0.08732283
-0.06965068 0.07141492 0.003925159 0.0033369549 0.10511012 0.19023317 0.06424841 0.033767186
0.07420152 0.03825715 0.07286951 0.08004748 -0.06973048 0.07404741 0.16366656 -0.028673641
-0.04112243 0.03540886 -0.09759141 0.009448548 -0.0041130367 0.017808 0.05302281 -0.016406722
00000000: 84d5 343d 71ac 013e 92b3 92bc 3658 26b9
00000010: fd44 c23a 17c0 e13c 79ef aabd 5c5f cabd
00000020: efe4 0c3e 33e8 40bc 3a07 08bd e9e0 6a3d
00000030: 2fbe b93d 635e 38bd b756 88bd f0bc bc3d
00000040: 694e 4cbd 9544 e63d a3fb bdbc 852f 1a3d
00000050: 2ea0 e13c b887 8f3d 0cf0 d83c aea2 213e
00000060: a716 82bd bb3b 6fbd d33d ee3b 315d 68bd
00000070: d624 22bd 923c 9abd a29a 133d 4326 103d
00000080: d14a 483c 0f58 a8bb 6170 17bd 6dcd a73d
00000090: 9b31 b23d d85a ccba 77ba f63c d709 b03d
000000a0: e236 3f3d 357c 983d e2d7 ea3d 2dd1 293d
000000b0: 8d0b 77bd 9c95 893d 7ea4 783d 023f 003e
000000c0: f0bc 93bd 9926 99bc db96 143d 7e0b 9e3d
000000d0: ed6e b43d fc38 63bc 13e5 d03d c854 7dbd
000000e0: fbbb 333c 4bbe 853d 4e37 143d 0a40 003e
000000f0: fa07 54ba 4755 183d cb36 143d 4f2b f6bc
00000100: 974f 053e b78a 5e39 6609 a73d 3f02 643d
00000110: b9d4 1e3c 4b4a 543d 863a 1dbd feea 903d
00000120: d77c 5c3d 60cc 48bd 0753 a4bd 5db4 de3c
00000130: 9715 ac3d 49a8 c63d 9235 153d 5ab2 3f3c
00000140: 3a13 9bbd 7ac3 2dbc 8843 973d 4336 a93d
00000150: d60b 613d 5db9 a3bc da6b ac3d cf83 533d
00000160: 8b4d 4ebd 28a0 063e 4d51 063e 0eb7 9dbd
00000170: 4495 5b3c a5f5 da3d 7c48 d23d 11f3 d2bd
00000180: be1e 55bd 8f08 533d cdaf bbbc 9b01 2ebc
00000190: b1e5 4d3c 5db7 a1bd 55c8 503c fa55 3ebd
000001a0: 87f0 a2bd eaf4 003d 30ac 4bbd e472 613d
000001b0: d535 263e 7e4f 70bc b679 81bb 5382 c5bd
000001c0: 3197 b53c 10e8 a2bd 0f36 9e3d 0071 723c
000001d0: 1bca ce3d 0d71 28bd 5541 e73d be75 5f3c
000001e0: ebfa 9b3d a0e8 24bd d4ae 183d 3f5d 8a3d
000001f0: 6c94 b83c 9890 a9bc 02c6 da3d 7194 c0bd
00000200: 3a0b b53d cf9b 1e3e 74d0 943d 9d34 043d
00000210: 543b 803d 68fa ce3d 261b 6ebd ed3e 4f3d
00000220: 0866 d13d af2c 783d 3e06 dcbc d68d e2bc
00000230: eb1a 013d 8474 db3c f668 3bbd 0635 9e3d
00000240: 627a 613d ee20 893d c285 22bd f6ab bbbb
00000250: c70c f5bc c784 d43d fa49 243d 1ef7 b63c
00000260: 73fc a43c acf0 b93c dc65 7c3d 5d3f 4bbd
00000270: fff7 463d 11ce 70bd c39d b2ba c943 7d3d
00000280: a70c b53d 4da9 473d e12c 25bd 98d9 15bc
00000290: 54a9 9c3d 2b2d 05bd 6498 9c3d cbcd d13d
000002a0: 7069 ac3d 9583 a63d 6ab6 c3bc 0447 193d
000002b0: e87f e33d e764 d33c 09bb 36bd 7aaf 94bd
000002c0: 18c3 54bd 6878 2fbc 0a61 0d3c c20e b33d
000002d0: 7ac1 973b f6d1 7f3d 574c dc3d 4095 a53c
000002e0: 6c91 f3ba bbf9 953d aa54 f9bc d1d0 0f3d
000002f0: 8235 ba3c 85a2 7dbc 4d5d 853a 80d7 fcbc
00000300: 9e73 483d 41b1 0a3d 0335 283d 0e96 88bd
00000310: 7a95 97bd 758c 8a3d d5a4 373c fc5b a2bc
00000320: 62d6 fe3c 28bb 883d ff2a b0bc 32a7 f13c
00000330: 05ac b63d 2f0b 4f3d 2504 a53c 46bd 72bd
00000340: 0d9d 163e f447 023d 3ac2 703b e885 70bd
00000350: ec87 a4bd 89e7 963d 5f2a bf3c c0ec 8fbc
00000360: 3610 353d 1fb4 e7bc 3659 12bd 13c6 24bd
00000370: e551 983d 90e7 26bd 465b c23d cb7b aabd
00000380: 8ba6 5ebd b724 083e a73e 8bbd 4e7b 053d
00000390: bf1c b23d 4673 35bd a307 31bd 50d6 b23d
000003a0: 04a5 8ebd fc41 923d 9f9e 803b d0b0 5a3b
000003b0: f943 d73d 7ccc 423e ac94 833d 764f 0a3d
000003c0: f7f6 973d 88b3 1c3d 9c3c 953d efef a33d
000003d0: dbce 8ebd 2ba6 973d 3598 273e fce4 eabc
000003e0: fe6f 28bd e108 113d 01de c7bd 15ce 1a3c
000003f0: a7c6 86bb 15e2 913c 722e 593d 6467 86bc

conv3.lin_rel.bias f4 [128]
0.16877528 0.07174331 -0.03920608 -0.009328749 0.07447891 0.05578651 0.12175924 0.016967468
0.12415018 0.16191468 0.09678647 0.005990623 0.05163215 0.09918944 -0.049130846 -0.010117504
-0.014460097 0.06054089 0.030340878 0.076783665 0.118608855 0.013387121 0.021227084 0.026221493
0.027690424 -0.017074103 -0.07909903 -0.020147609 0.0349261 0.11323371 -0.0026339781 0.044351324
0.03564493 0.092873484 0.11587472 0.0975866 0.09932127 -0.011978622 -0.016505277 -0.0004551706
0.110245705 0.16393192 -0.01838386 0.0029970342 0.10763849 0.08408397 0.015607876 0.046240233
-0.0015479549 -0.059798878 0.11253129 0.01471124 0.020621015 0.12504277 -0.16656226 0.15862985
0.048496284 0.007366781 -0.074327745 -0.080306046 0.048165154 0.12985656 -0.016908493 -0.061334446
-0.051985957 -0.042187482 0.056363896 -0.08473041 0.054254286 -0.006038769 0.061709687 -0.016954135
0.14374568 0.0626004 0.04165261 0.1377471 -0.05447335 -0.07774398 0.09822742 0.17070995
-0.09615763 0.08907398 -0.056856304 0.05730836 0.15006556 -0.0052156574 0.135995 0.036014035
-0.020549623 0.1727303 0.01462468 -0.05782473 -0.011255485 0.018057631 -0.025031116 -0.17611204
0.034321446 -0.09604621 -0.012540282 0.10840565 -0.014585409 0.056113552 0.07992072 -0.02691511
-0.06489964 0.09547377 0.06318174 0.09885652 0.03710823 0.014061117 -0.0071305265 -0.084610574
-0.0036752066 0.025334677 0.14980564 0.10118549 -0.10924848 0.004777033 0.035339553 0.014466101
0.03519921 0.056258388 -0.07377581 -0.03305839 0.038784437 0.042904135 0.014400614 -0.06927352
00000000: 6dd3 2c3e 28ee 923d 8e96 20bd 9cd7 18bc
00000010: 6688 983d 6580 643d e95c f93d 5cff 8a3c
00000020: 7342 fe3d f6cc 253e fc37 c63d fd4c c43b
00000030: 3c7c 533d d523 cb3d 6d3d 49bd e3c3 25bc
00000040: 0bea 6cbc b9f9 773d 6f8d f83c c140 9d3d
00000050: 33e9 f23d a855 5b3c 6ce4 ad3c 75ce d63c
00000060: 07d7 e23c fdde 8bbc acfe a1bd 990c a5bc
00000070: ac0e 0f3d 13e7 e73d d29e 2cbb bca9 353d
00000080: 6b00 123d 7434 be3d ba4f ed3d 7cdb c73d
00000090: f368 cb3d fb41 44bc 1336 87bc f7a3 eeb9
000000a0: 80c8 e13d c5dd 273e c099 96bc e469 443b
000000b0: 9271 dc3d 3734 ac3d 2db8 7f3c 6666 3d3d
000000c0: bfe4 caba abef 74bd ce76 e63d 6a07 713c
000000d0: 67ed a83c 360b 003e 4c8f 2abe dd6f 223e
000000e0: 0aa4 463d 0a65 f13b 2539 98bd 7f77 a4bd
000000f0: d348 453d 1ef9 043e ae83 8abc d439 7bbd
00000100: 3aef 54bd c8cc 2cbd d4dd 663d 2387 adbd
00000110: be39 5e3d dee0 c5bb 4cc3 7c3d 66e3 8abc
00000120: 1132 133e a334 803d ed9b 2a3d 930d 0d3e
00000130: 731f 5fbd 3c38 9fbd 752b c93d 97ce 2e3e
00000140: 4bee c4bd 6b6c b63d 28e2 68bd 2cbc 6a3d
00000150: c9aa 193e 1be8 aabb 4642 0b3e 7483 133d
00000160: af57 a8bc 36e0 303e 5b9c 6f3c a0d9 6cbd
00000170: ed68 38bc 99ed 933c 0e0e cdbc b756 34be
00000180: a594 0c3d e0b3 c4bd c175 4dbc c803 de3d
00000190: a4f7 6ebc 53d7 653d 79ad a33d 147d dcbc
000001a0: 1aea 84bd c087 c33d 6e65 813d 4a75 ca3d
000001b0: cdfe 173d 9960 663c 31a7 e9bb 4f48 adbd
000001c0: bcdb 70bb ab8a cf3c a666 193e 573a cf3d
000001d0: abbd dfbd a888 9c3b 35c0 103d 3a03 6d3c
000001e0: 0c2d 103d 326f 663d c617 97bd 3c68 07bd
000001f0: 6edc 1e3d 3fbc 2f3d 8ef0 6b3c 46df 8dbd
