model/dolphins_diff_pool.pt (torch, 703361 bytes, 113 tensors)

gnn1_pool.conv1.lin_rel.weight f4 [64, 2]
-0.59188074 -0.27787888 -0.23155871 -0.003924276 0.33817425 0.12421027 0.61461514 -0.8289504
0.37557444 0.38610786 -0.8892061 0.36504495 -0.34778243 0.40918612 -0.19262876 -0.23072794
0.3774547 0.68133074 -0.8735789 0.46875483 -0.260507 -0.25691736 -0.032322243 0.71669054
0.44283783 -0.796081 0.70364076 -0.047709763 0.49002436 -0.12979054 -0.32140723 0.45473692
0.622838 -0.6405152 0.03248154 -0.05000598 0.4575476 0.029773232 -0.24734774 0.6656904
0.38341382 -0.46277642 -0.06393019 0.5874828 0.7947899 -0.24736305 0.20322184 -0.22575484
-0.63404346 -0.26583695 0.31104222 -0.5816868 -0.5945141 0.28453997 -0.3613348 0.55010074
-0.7741575 -0.29663894 0.47804767 -0.07115402 -0.23189028 -0.5379333 -0.42772126 -0.45685992
0.07125272 -1.0436702 0.434609 -0.4676975 -0.27794704 0.22633271 -0.8273431 0.35010004
0.8613219 -0.1491086 -0.084078856 -0.8483538 -0.015128144 -0.8316034 0.640065 -0.54610944
-0.1369742 0.66242915 0.5842633 -0.057426717 0.17777675 -0.57852334 -0.070548095 -0.09963591
-0.64590454 -0.6486686 -0.41506526 0.5032438 0.44810313 -0.20562534 0.9884201 -0.055987813
-0.5455957 -0.31564194 -0.30327684 -0.21661262 0.781789 0.13108878 0.6078977 -0.34055367
-0.043085426 0.7331538 0.68509054 -0.64147127 -0.49586877 0.4495504 0.84306973 0.20661953
-0.6644965 0.13775034 0.1866431 0.20675187 0.10452183 0.30527005 0.014754939 0.95953465
-0.12537464 -0.16728565 -0.13035396 -0.05370048 -0.4766015 -0.4031863 -0.72452295 0.60213226
00000000: 7f85 17bf 2446 8ebe ba1d 6dbe 3797 80bb
00000010: 2d25 ad3e f461 fe3d 6b57 1d3f 1836 54bf
00000020: 4b4b c03e eeaf c53e 03a3 63bf 2ce7 ba3e
00000030: 8a10 b2be d880 d13e 7940 45be f243 6cbe
00000040: be41 c13e b16b 2e3f dea2 5fbf a200 f03e
00000050: 2c61 85be ac8a 83be 5464 04bd 0879 373f
00000060: a4bb e23e f7cb 4bbf cd21 343f 506b 43bd
00000070: 79e4 fa3e d0e7 04be 7d8f a4be 47d3 e83e
00000080: 5072 1f3f cef8 23bf 5d0b 053d 12d3 4cbd
00000090: ae43 ea3e fee6 f33c ba48 7dbe b06a 2a3f
000000a0: d14e c43e 08f1 ecbe d5ed 82bd 4665 163f
000000b0: 5a77 4b3f bd4c 7dbe 6319 503e 472c 67be
000000c0: ac50 22bf c81b 88be ed40 9f3e 6de9 14bf
000000d0: 1332 18bf 39af 913e e000 b9be 67d3 0c3f
000000e0: 302f 46bf 0fe1 97be aac2 f43e 33b9 91bd
000000f0: a574 6dbe ffb5 09bf 48fe dabe 8be9 e9be
00000100: f2ec 913d fc96 85bf 1285 de3e 0c76 efbe
00000110: 134f 8ebe c3c3 673e c2cc 53bf 5040 b33e
00000120: 987f 5c3f edaf 18be 8931 acbd b72d 59bf
00000130: 09dc 77bc f6e3 54bf 4ddb 233f d4cd 0bbf
00000140: f742 0cbe f594 293f 4892 153f 4738 6bbd
00000150: 1c0b 363e 1b1a 14bf 857b 90bd e90d ccbd
00000160: 005a 25bf 250f 26bf 6f83 d4be 96d4 003f
00000170: c66d e53e 738f 52be 1a09 7d3f 7a53 65bd
00000180: 29ac 0bbf d29b a1be 1a47 9bbe b3cf 5dbe
00000190: 5323 483f 233c 063e 2f9f 1b3f 0d5d aebe
000001a0: 587a 30bd f8af 3b3f 1862 2f3f 7637 24bf
000001b0: 83e2 fdbe 782b e63e 6bd3 573f 1294 533e
000001c0: 711c 2abf 6d0e 0d3e 5e1f 3f3e c3b6 533e
000001d0: 8b0f d63d 5b4c 9c3e b3be 713c 10a4 753f
000001e0: 3662 00be ee4c 2bbe 827b 05be 09f5 5bbd
000001f0: 1d05 f4be 6f6e cebe 567a 39bf 5725 1a3f

gnn1_pool.conv1.lin_root.weight f4 [64, 2]
0.019102637 -0.35778028 -0.6133883 0.40539536 0.24775055 -0.35893974 -0.54442406 0.078479275
-0.22693506 0.08816522 -0.113593936 0.0774264 0.25073808 -0.54461527 0.7628206 0.4300361
-0.5630789 0.6202486 -0.34357965 0.42707574 0.18948686 0.47979516 0.26277348 -0.15837437
-0.69652 -0.15803123 0.28561348 -0.20281245 -0.6782453 -0.055965703 0.41749367 0.33022106
-0.41658244 -0.23655894 0.46390903 0.3490276 0.52707994 -0.13377377 -0.2303173 -0.1172573
-0.29549152 0.37947288 -0.47465494 -0.5830222 0.4034093 0.33230275 0.68158704 0.538973
-0.4055641 -0.37670726 0.2500656 -0.34421372 0.401896 0.3488922 -0.58744574 -0.5858558
-0.039241582 0.6626319 0.07729253 -0.6320949 0.048382137 0.1035908 0.35765037 0.3735269
-0.11113977 -0.6994886 -0.026109865 0.5400564 -0.5922699 0.03057104 0.3409674 0.4993378
0.09144066 -0.31718612 0.24979973 0.5113527 -0.2104226 0.11657397 0.6159195 0.64572525
-0.16609432 -0.0057053193 -0.082877465 -0.08703901 0.1925526 -0.6142061 -0.21619697 -0.5806846
0.009738024 -0.6862108 0.53048223 0.2937057 -0.21124928 0.38248533 0.42774022 -0.3267289
-0.072517276 0.6238637 0.2666916 -0.31916562 -0.19752571 -0.3017353 0.22655202 -0.19128217
-0.68259794 0.4559095 0.32622826 0.58522725 -0.35602605 -0.05795464 0.40501183 0.09198888
-0.5219179 0.6340346 0.16347986 -0.22041334 0.39165133 0.028456097 -0.56449676 -0.3081897
0.02479811 -0.06827587 -0.37725046 -0.15375389 0.3237882 0.27768075 -0.5471573 0.5351445
00000000: 227d 9c3c fa2e b7be 0407 1dbf fb8f cf3e
00000010: 52b2 7d3e f3c6 b7be 605f 0bbf beb9 a03d
00000020: aa61 68be f88f b43d f0a3 e8bd bb91 9e3d
00000030: be60 803e e86b 0bbf 3648 433f b12d dc3e
00000040: f025 10bf 9dc8 1e3f ace9 afbe aca9 da3e
00000050: d808 423e b6a7 f53e 3f8a 863e e42c 22be
00000060: 224f 32bf f0d2 21be ee3b 923e 11ae 4fbe
00000070: 7ca1 2dbf 4b3c 65bd bbc1 d53e bc12 a93e
00000080: 4b4a d5be 823c 72be 7c85 ed3e bfb3 b23e
00000090: b6ee 063f fefb 08be 4cd8 6bbe 9824 f0bd
000000a0: aa4a 97be 454a c23e f905 f3be f140 15bf
000000b0: aa8b ce3e 9623 aa3e 7d7c 2e3f 22fa 093f
000000c0: 19a6 cfbe c6df c0be 9908 803e c83c b0be
000000d0: 50c5 cd3e 00a2 b23e d862 16bf a5fa 15bf
000000e0: c8bb 20bd 3fa2 293f 8c4b 9e3d f9d0 21bf
000000f0: 592c 463d 6a27 d43d f31d b73e eb3e bf3e
00000100: 3f9d e3bd af11 33bf 5be4 d5bc 2341 0a3f
00000110: 009f 17bf 1e70 fa3c 4793 ae3e 34a9 ff3e
00000120: 3e45 bb3d 3866 a2be 80cb 7f3e 03e8 023f
00000130: 0679 57be 55be ee3d e6ac 1d3f 404e 253f
00000140: a114 2abe b0f3 babb a9bb a9bd 8241 b2bd
00000150: 822c 453e 9c3c 1dbf bd62 5dbe bfa7 14bf
00000160: 3c8c 1f3c 83ab 2fbf afcd 073f 9860 963e
00000170: bb51 58be 1ed5 c33e c400 db3e 0349 a7be
00000180: f083 94bd 88b5 1f3f cd8b 883e ad69 a3be
00000190: 2e44 4abe 0d7d 9abe 41fd 673e 79df 43be
000001a0: bdbe 2ebf f86c e93e 6407 a73e 74d1 153f
000001b0: 0c49 b6be d861 6dbd b65d cf3e aa64 bc3d
000001c0: 699c 05bf 1750 223f 4467 273e 09b4 61be
000001d0: 8686 c83e c31c e93c dc82 10bf 0acb 9dbe
000001e0: 6825 cb3c 38d4 8bbd f926 c1be a971 1dbe
000001f0: 91c7 a53e 2c2c 8e3e 8012 0cbf 3bff 083f

gnn1_pool.conv1.lin_root.bias f4 [64]
-0.42174497 0.3668321 0.76499104 -0.5486655 -0.6015485 0.36039266 -0.5545326 -0.62266064
-0.12805766 0.4613056 -0.2482015 0.72032267 0.18380336 0.40221593 -0.44320548 0.40439823
0.5749935 0.8290065 -0.3337024 -0.07813295 -0.17312132 -0.43974546 0.0867294 0.7859718
-0.052556444 -0.0069905818 0.2814864 0.25420296 -0.10330637 0.149535 -0.6321216 0.40677303
0.17378095 -0.4690305 -0.013997588 -0.24905883 0.14098756 -0.29946715 -0.0019658422 0.6328498
-0.27336064 0.67112297 -0.54049015 -0.34354696 0.60555583 0.5550489 -0.3410247 0.8083185
-0.34373719 -0.40179282 0.66981775 0.575208 -0.48060426 0.49219534 -0.28420728 -0.08678646
-0.37977055 -0.5914448 0.37566248 0.5916222 -0.5750886 -0.20555887 0.74125314 -0.36652365
00000000: f5ee d7be 6bd1 bb3e 74d6 433f 5875 0cbf
00000010: 15ff 19bf 6385 b83e d9f5 0dbf b066 1fbf
00000020: 8c21 03be 3f30 ec3e 8928 7ebe 1167 383f
00000030: f336 3c3e 3fef cd3e d4eb e2be 490d cf3e
00000040: c632 133f c539 543f 0adb aabe 2b04 a0bd
00000050: b746 31be 5126 e1be 2f9f b13d 7335 493f
00000060: 6d45 57bd 4011 e5bb fc1e 903e e426 823e
00000070: 4a92 d3bd b41f 193e b9d2 21bf 8e44 d03e
00000080: a2f3 313e c424 f0be 2456 65bc 4709 7fbe
00000090: 0b5f 103e c253 99be 5cd5 00bb 7202 223f
000000a0: edf5 8bbe b7ce 2b3f 905d 0abf 63e5 afbe
000000b0: b505 1b3f af17 0e3f ca9a aebe f6ed 4e3f
000000c0: 52fe afbe cab7 cdbe 2d79 2b3f d540 133f
000000d0: c311 f6be 0701 fc3e 9e83 91be 19bd b1bd
000000e0: 4971 c2be ed68 17bf d556 c03e 8d74 173f
000000f0: 0239 13bf 067e 52be c4c2 3d3f fda8 bbbe

gnn1_pool.bn1.weight f4 [64]
1.0 0.45192996 0.5255945 1.2977457 1.0 0.9184314 0.91601276 0.5923747
0.78785354 0.7388899 1.0469227 0.6347504 1.1297972 0.5650496 1.0 0.86012435
0.73619324 0.54386586 0.46196944 0.93816996 0.63135487 1.0 0.7930153 0.73163587
1.0 0.59314805 0.73568887 0.8811116 0.7213347 0.19780476 1.0 0.22487246
1.1871336 0.88975567 0.56368524 1.0733361 0.60971117 1.1460378 1.2582908 0.5897586
1.1116518 0.66714257 1.0 1.0 0.7305074 0.6169133 0.4081559 0.7722029
1.2372038 1.0 0.8164511 0.48100123 0.67677957 0.7738572 1.0819411 0.7892301
1.2628512 1.0 0.6392681 0.84759617 1.0 1.0 0.46081087 1.0878094
00000000: 0000 803f 5d63 e73e 5c8d 063f 881c a63f
00000010: 0000 803f 521e 6b3f d07f 6a3f dea5 173f
00000020: c5b0 493f e327 3d3f 9001 863f 017f 223f
00000030: 329d 903f 17a7 103f 0000 803f 1c31 5c3f
00000040: 2977 3c3f cb3a 0b3f 4287 ec3e e82b 703f
00000050: 79a0 213f 0000 803f 0d03 4b3f 7d4c 3b3f
00000060: 0000 803f 8dd8 173f 1b56 3c3f 8890 613f
00000070: 64a9 383f 558d 4a3e 0000 803f f744 663e
00000080: fef3 973f 07c7 633f ad4d 103f 1463 893f
00000090: 0816 1c3f 5eb1 923f ac0f a13f 6bfa 163f
000000a0: 9b4a 8e3f dbc9 2a3f 0000 803f 0000 803f
000000b0: 8802 3b3f 08ee 1d3f cff9 d03e 17af 453f
000000c0: b25c 9e3f 0000 803f f002 513f cb45 f63e
000000d0: 6d41 2d3f 811b 463f 0c7d 8a3f fc0a 4a3f
000000e0: 1ca5 a13f 0000 803f 13a7 233f 10fc 583f
000000f0: 0000 803f 0000 803f 67ef eb3e 573d 8b3f

gnn1_pool.bn1.bias f4 [64]
0.0061738594 -0.016830977 -0.24043779 0.09552187 0.0030434607 -0.066041246 0.09324791 0.1505781
-0.025800465 0.027793773 0.082717136 -0.3009974 -0.09883628 -0.16995886 -0.006598328 -0.105588384
-0.061352372 -0.38272157 0.022338562 0.008617436 -0.007792419 0.0055849887 -0.074642174 -0.21509932
-0.005836977 0.065123156 -0.20966782 0.060811844 0.032850236 0.021893559 -0.0013214974 -0.13699023
0.012412923 -0.085914366 0.1132753 -0.14225963 0.0072936392 0.09328103 0.13447271 -0.30955446
0.009509698 -0.229869 -0.00479089 0.005270034 0.20458373 -0.31029817 -0.042678412 -0.0045510763
0.09339066 0.0027161164 -0.13099201 -0.15186493 0.10751913 -0.16124924 0.18406549 -0.06736647
0.09117461 0.0020682618 -0.2926722 -0.0833657 0.0011686564 0.004137055 -0.32285655 0.07719652
00000000: 164e ca3b 1ee1 89bc 5335 76be f8a0 c33d
00000010: cc74 473b a240 87bd c3f8 be3d 2531 1a3e
00000020: 7f5b d3bc c4af e33c 9a67 a93d 551c 9abe
00000030: ad6a cabd b209 2ebe c936 d8bb b93e d8bd
00000040: a04c 7bbd 15f4 c3be 5cff b63c 2530 0d3c
00000050: 8c57 ffbb 4802 b73b ffdd 98bd ff42 5cbe
00000060: 1d44 bfbb 4a5f 853d 29b3 56be d715 793d
00000070: f88d 063d 1f5a b33c 1836 adba 2b47 0cbe
00000080: 935f 4b3c dff3 afbd e1fc e73d 82ac 11be
00000090: 7bff ee3b 200a bf3d 37b3 093e ec7d 9ebe
000000a0: 90ce 1b3c c762 6bbe e6fc 9cbb 40b0 ac3b
000000b0: 667e 513e 67df 9ebe 8fcf 2ebd 3221 95bb
000000c0: 9a43 bf3d df00 323b c522 06be 7b82 1bbe
000000d0: fd32 dc3d 851e 25be aa7b 3c3e 6ff7 89bd
000000e0: c1b9 ba3d ad8b 073b 21d9 95be a3bb aabd
000000f0: 9a2d 993a 2290 873b 744d a5be 3619 9e3d

gnn1_pool.bn1.running_mean f4 [64]
0.0 0.058360234 0.57855165 0.0012032609 0.0 0.065812156 0.0018598968 0.010682679
0.086780876 0.09451576 0.0011569348 0.5079307 0.0050432472 0.53252006 0.0 0.33570963
0.2626077 0.64275455 0.22057573 0.0234986 0.012200472 0.0 0.4801854 0.76887757
0.0 0.1803961 0.16722514 0.009975929 0.012370562 0.23709014 0.0 0.20118007
0.041276373 0.007799499 0.008736985 0.03767716 0.36620775 0.0021414324 0.0014043094 0.7890305
0.017497879 0.48183215 0.0 0.0 0.046595167 0.43031847 0.010293531 0.87655675
0.0013957719 0.0 0.49715054 0.5379631 0.03539995 0.5996717 0.0031239092 0.43053997
0.015312162 0.0 0.4141404 0.12489352 0.0 0.0 0.33554253 0.031144474
00000000: 0000 0000 240b 6f3d f61b 143f bcb6 9d3a
00000010: 0000 0000 86c8 863d c8c7 f33a 6706 2f3c
00000020: 2cba b13d 7b91 c13d 4aa4 973a bf07 023f
00000030: d341 a53b 3c53 083f 0000 0000 22e2 ab3e
00000040: 8474 863e 908b 243f 9bde 613e 2380 c03c
00000050: 7de4 473c 0000 0000 dcda f53e 29d5 443f
00000060: 0000 0000 c1b9 383e 113d 2b3e 1472 233c
00000070: e6ad 4a3c c2c7 723e 0000 0000 2602 4e3e
00000080: 6a11 293d f192 ff3b 9225 0f3c 5e53 1a3d
00000090: 957f bb3e 4657 0c3b ce10 b83a e7fd 493f
000000a0: b657 8f3c b4b2 f63e 0000 0000 0000 0000
000000b0: 93da 3e3d b452 dc3e 33a6 283c 0666 603f
000000c0: 55f2 b63a 0000 0000 848a fe3e f3b7 093f
000000d0: 8aff 103d 1684 193f 80ba 4c3b bc6f dc3e
000000e0: dddf 7a3c 0000 0000 360a d43e 2cc8 ff3d
000000f0: 0000 0000 0000 0000 3bcc ab3e b222 ff3c

gnn1_pool.bn1.running_var f4 [64]
6e-45 0.037629295 0.3738263 0.0001744288 6e-45 0.029869337 0.00019735441 0.0013949706
0.084489256 0.08016229 0.0002686898 0.2772514 0.0020018031 0.36845717 6e-45 0.1413152
0.12105193 0.4151693 0.082726076 0.008473968 0.0047065145 6e-45 0.3109137 0.60638463
6e-45 0.059313886 0.07537877 0.0020353424 0.0034702935 0.096385576 6e-45 0.05317651
0.0035107362 0.0028203612 0.0017625431 0.014085396 0.23075911 0.00036185948 0.00014823434 0.700036
0.0051096417 0.26580012 6e-45 6e-45 0.02653499 0.22080971 0.0032913333 0.94563913
0.00039108392 6e-45 0.2998351 0.38164967 0.019318646 0.44042614 0.00032820302 0.2553198
0.0048929057 6e-45 0.17819418 0.08606199 6e-45 6e-45 0.1276066 0.018812286
00000000: 0400 0000 2d21 1a3d 2966 bf3e e0e6 3639
00000010: 0400 0000 8ab0 f43c ecf0 4e39 72d7 b63a
00000020: b408 ad3d 202c a43d efde 8c39 e5f3 8d3e
00000030: af30 033b 6ba6 bc3e 0400 0000 efb4 103e
00000040: 13ea f73d 1291 d43e 4a6c a93d 66d6 0a3c
00000050: 1b39 9a3b 0400 0000 1530 9f3e 063c 1b3f
00000060: 0400 0000 1ef3 723d 2f60 9a3d 6163 053b
00000070: dd6d 633b cd65 c53d 0400 0000 9dcf 593d
00000080: 6114 663b cfd5 383b 2205 e73a 6fc6 663c
00000090: 1e4c 6c3e f5b7 bd39 5a6f 1b39 8f35 333f
000000a0: c86e a73b f416 883e 0400 0000 0400 0000
000000b0: e85f d93c f11b 623e 69b3 573b 6815 723f
000000c0: 650a cd39 0400 0000 fc83 993e 9667 c33e
000000d0: 2342 9e3c 897f e13e aa12 ac39 47b9 823e
000000e0: ab54 a03b 0400 0000 8978 363e 4541 b03d
000000f0: 0400 0000 0400 0000 4eab 023e 391c 9a3c

gnn1_pool.conv2.lin_rel.weight f4 [64, 64]
0.14870964 -0.12253425 -0.13020168 0.037363704 -0.10790265 0.6027153 0.09988613 -0.057204388
0.04250604 0.048496265 0.074209645 0.14131862 0.16822319 -0.20579652 -0.13900203 0.11370083
-0.5084305 -0.014262484 -0.09779183 0.5582581 -0.049849913 0.03905549 -0.433316 -0.14928143
0.025248483 -0.1259397 0.2492496 0.20551531 -0.008162829 -0.090954654 -0.014988372 -0.08087027
0.016868316 -0.53086364 0.014859583 0.63017005 -0.32257324 0.22415712 0.19114529 -0.24035299
0.49142787 -0.17757656 -0.122471996 -0.01440948 0.10468314 0.23981628 -0.20337145 -0.005722781
-0.06324406 -0.00429193 -0.13913956 -0.13127284 -0.0637586 -0.16200444 0.03669621 -0.11007177
0.33165526 0.1293646 0.081728995 0.17345932 0.012883655 -0.027729034 -0.02523981 0.28460807
-0.064198345 -0.27352688 0.1425893 -0.2386044 0.11747839 -0.13411346 0.05911111 -0.024263792
-0.13392673 0.007887181 0.067798525 -0.15276642 -0.25651 0.20005406 0.03702674 -0.118376344
0.25167128 0.062928155 0.08760355 0.06091755 -0.56439614 0.11135613 0.020366644 -0.10251321
-0.051493134 0.34629694 -0.24880561 0.2648127 0.018621368 0.14621495 0.00975118 0.07803451
0.040528227 -0.31840703 0.0670508 0.10202238 0.05029496 -0.23609471 -0.11637378 0.013849669
0.14116633 0.035696495 -0.01777471 0.035979595 0.03946431 -0.098771065 -0.44342205 0.10973442
0.042541295 0.047090374 0.048000764 0.07516952 -0.15080558 0.21049339 0.25493795 -0.032498807
0.118350714 0.10941508 -0.03621891 -0.22405262 -0.07620372 -0.0022814688 -0.08587605 0.132526
-0.03626004 -0.09700604 0.2540883 0.0016147736 -0.06943696 0.100175925 -0.21792689 -0.09667878
-0.13497137 -0.019283973 -0.122280136 -0.009632536 -0.045875896 0.1793529 0.050270267 0.07435907
0.024120294 0.022597251 0.23625925 0.22613281 -0.11539259 -0.06801391 0.26164937 0.050479338
0.124753214 0.15912338 -0.007608075 -0.23118016 0.14809065 0.31237856 -0.111872524 0.012612576
0.2506749 -0.33683664 0.17013617 0.07336293 0.08404101 0.05978806 0.1453555 0.09518067
-0.045818068 0.03407229 -0.1286546 -0.038131136 0.07376391 -0.034361713 -0.108330175 0.17849667
-0.17846487 -0.056841735 0.28623116 0.23110963 0.021962356 0.2326746 -0.07423722 0.31077725
0.12885429 -0.0727706 0.23477466 0.07461593 -0.045441072 -0.033860352 0.11855777 0.19433916
-0.07143425 -0.13959904 -0.18318039 0.021627024 0.10797864 0.16139552 0.30397367 0.16627641
-0.0068933014 0.06901843 0.20514879 -0.100066654 0.35492757 -0.49227732 0.01267504 -0.064981334
-0.5227481 -0.012764242 -0.14031719 0.11423579 -0.23825018 0.08241029 -1.0344588 -0.16080892
-0.025708014 -0.09474464 0.015775627 0.3063795 0.09590424 -0.24686529 0.1322886 -0.10060941
0.25727007 -0.057182536 -0.09431416 0.44787318 -0.3370316 -0.06169549 -0.1362131 -0.6303548
0.28228706 -0.44294375 0.04926768 -0.124957636 -0.08497419 0.11619601 -0.17600432 -0.84580827
0.116276756 0.038582508 -0.36737698 -0.37302715 -0.15441813 -0.43098757 0.17444451 -0.76421124
0.34534752 -0.07661672 -0.105412066 -0.02547605 -0.008512653 -0.11794877 -0.043490812 0.10180959
00000000: 5747 183e 3df3 fabd 9753 05be af0a 193d
00000010: 11fc dcbd 8d4b 1a3f 1991 cc3d 264f 6abd
00000020: d01a 2e3d 05a4 463d 3afb 973d d4b5 103e
00000030: b342 2c3e 53bc 52be 8c56 0ebe fbdb e83d
00000040: 8028 02bf 32ad 69bc 1547 c8bd 01ea 0e3f
00000050: 6c2f 4cbd a6f8 1f3d 98db ddbe 3bdd 18be
00000060: e8d5 ce3c 56f6 00be 4a3b 7f3e 9b72 523e
00000070: 63bd 05bc 6f46 babd ca91 75bc 509f a5bd
00000080: 6c2f 8a3c aee6 07bf 9c75 733c d352 213f
00000090: 5228 a5be 7289 653e 97bb 433e 181f 76be
000000a0: 6f9c fb3e a1d6 35be 99d2 fabd bd15 6cbc
000000b0: 1d64 d63d 6692 753e 9b40 50be 2b86 bbbb
000000c0: 1a86 81bd 51a3 8cbb 9a7a 0ebe 636c 06be
000000d0: de93 82bd 7ee4 25be c44e 163d 4f6d e1bd
000000e0: b8ce a93e 2778 043e 8861 a73d 529f 313e
000000f0: f715 533c 0028 e3bc b8c3 cebc 26b8 913e
00000100: 6c7a 83bd b70b 8cbe ee02 123e b654 74be
00000110: 8398 f03d 0a55 09be 7e1e 723d dcc4 c6bc
00000120: 1724 09be 3c39 013c f4d9 8a3d cd6e 1cbe
00000130: 4755 83be f9da 4c3e 5aa9 173d 4c6f f2bd
00000140: 0fdb 803e 7ae0 803d 7d69 b33d ae84 793d
00000150: 447c 10bf af0e e43d f3d7 a63c 72f2 d1bd
00000160: 77ea 52bd d54d b13e e6c6 7ebe 8895 873e
00000170: d78b 983c 5fb9 153e 6ac3 1f3c 8fd0 9f3d
00000180: ed00 263d 3f06 a3be ee51 893d 1cf1 d03d
00000190: 1702 4e3d d0c2 71be 6055 eebd b9e9 623c
000001a0: e88d 103e 7d36 123d 459c 91bc 575f 133d
000001b0: 54a5 213d 7c48 cabd 3708 e3be 71bc e03d
000001c0: c83f 2e3d d6e1 403d 739c 443d 7af2 993d
000001d0: c76c 1abe 948b 573e 3a87 823e 781d 05bd
000001e0: dc61 f23d 0315 e03d 485a 14bd 0d6e 65be
000001f0: b210 9cbd b284 15bb c8df afbd e5b4 073e
00000200: 6885 14bd 1aab c6bd dd17 823e d0a6 d33a
00000210: f734 8ebd 0929 cd3d 3a28 5fbe 86ff c5bd
00000220: ef35 0abe 6cf9 9dbc 026e fabd c9d1 1dbc
00000230: 5de8 3bbd 49a8 373e 32e8 4d3d 9149 983d
00000240: ec97 c53c df1d b93c f2ed 713e 5c8f 673e
00000250: f352 ecbd e04a 8bbd e8f6 853e 6cc3 4e3d
00000260: 9d7e ff3d 3df1 223e 294d f9bb 7eba 6cbe
00000270: 13a5 173e 15f0 9f3e 6c1d e5bd faa4 4e3c
00000280: 7658 803e da75 acbe 2d38 2e3e 4e3f 963d
00000290: b11d ac3d 53e4 743d 12d8 143e 15ee c23d
000002a0: baab 3bbd 638f 0b3d 08be 03be 652f 1cbd
000002b0: 8811 973d debe 0cbd 36dc ddbd d5c7 363e
000002c0: 7fbf 36be e1d2 68bd e48c 923e 01a8 6c3e
000002d0: 66ea b33c 4042 6e3e af09 98bd 321e 9f3e
000002e0: 61f2 033e c108 95bd c568 703e 3dd0 983d
000002f0: 6b20 3abd 27b1 0abd 6bce f23d d800 473e
00000300: 1f4c 92bd 0df3 0ebe a493 3bbe 282b b13c
00000310: e823 dd3d de44 253e 70a2 9b3e 5d44 2a3e
00000320: 34e1 e1bb 8959 8d3d 8612 523e bfef ccbd
00000330: 11b9 b53e c60b fcbe f9aa 4f3c ef14 85bd
00000340: d2d2 05bf 1c21 51bc 4faf 0fbe 74f4 e93d
00000350: dbf7 73be bac6 a83d 2569 84bf 18ab 24be
00000360: 9d99 d2bc 7a09 c2bd e33b 813c c6dd 9c3e
00000370: 7169 c43d 41ca 7cbe aa76 073e 4e0c cebd
00000380: e7b8 833e 3c38 6abd c827 c1bd a24f e53e
00000390: 688f acbe 69b4 7cbd 727b 0bbe ef5e 21bf
000003a0: ee87 903e 86c9 e2be e8cc 493d cae9 ffbd
000003b0: f306 aebd 2cf8 ed3d 7a3a 34be e486 58bf
000003c0: 8222 ee3d b108 1e3d d618 bcbe 6afd bebe
000003d0: c91f 1ebe 67aa dcbe 95a1 323e 59a3 43bf
000003e0: 64d1 b03e 3ae9 9cbd 48e2 d7bd 26b3 d0bc
000003f0: a878 0bbc 208f f1bd 6c23 32bd 8c81 d03d

gnn1_pool.conv2.lin_root.weight f4 [64, 64]
0.0046855905 -0.023975031 0.010853497 0.23160225 0.06754878 -0.16455288 0.050042924 -0.15393385
-0.08899161 -0.13738431 -0.08988995 0.066830054 0.045070097 0.15562314 -0.08906192 0.013379933
-0.06524271 0.09592391 0.20815353 -8.046207e-06 0.039397046 0.045766447 -0.04494199 -0.10781426
0.04392467 0.20519052 -0.14093865 0.043199934 -0.06791806 0.21530974 0.06515242 -0.033291638
0.039212327 0.18349956 0.030847048 0.047706053 0.16388543 0.3281381 0.16538616 -0.025800567
-0.061614923 -0.13230394 -0.10348473 0.009089565 0.04486932 0.04983245 -0.13789372 0.012070934
0.03449154 0.07518514 -0.023882965 0.17564075 -0.10721556 0.024196528 0.035018638 0.109996885
0.16393855 -0.016503923 0.04949606 -0.2026157 0.024879867 -0.03156207 -0.04127544 0.04527475
0.019077925 0.147063 -0.124435656 -0.048261598 0.06782417 0.14510377 0.024031356 -0.07188463
0.076017216 0.14826745 0.057237007 -0.18994996 0.25868434 0.023411809 0.033824585 -0.16295572
0.05256311 -0.13277811 0.06766621 0.045580335 0.08610698 0.0331388 0.013702445 -0.0031725254
0.018109739 0.10152812 -0.1353688 0.15167725 0.0062148105 -0.04905256 -0.0789035 -0.09617941
0.2463493 0.103975356 0.27693662 0.09412427 -0.0149153415 0.041007522 -0.011508782 -0.011887949
0.05739003 -0.016838148 -0.0022828833 0.17272666 0.11650529 -0.25392893 0.10422743 0.06660835
-0.08550692 0.005824787 0.033124585 -0.09183596 0.12276604 -0.058063272 0.21759471 -0.037308075
0.12590538 0.16267575 -0.20123145 -0.17338794 0.06957929 0.063617855 -0.1661699 0.26672912
0.03616149 -0.026046215 0.07950646 -0.2346645 0.06541286 0.17948405 0.13461322 -0.04926386
0.1548526 -0.029205285 -0.19975773 0.12972133 -0.24586257 0.04640041 0.026511755 0.06522035
0.037383378 0.07167686 0.16324511 -0.076262005 -0.069081195 -0.20450811 0.21509536 0.24760497
0.044429805 0.29914847 0.04572963 -0.05923981 0.16044484 -0.005876203 -0.19097295 0.12600788
0.22474429 -0.33710223 0.058282193 0.07813417 0.15346506 -0.3306575 -0.23482466 0.39354756
0.06958437 0.15816228 0.03858224 0.13434613 0.06906729 -0.069910645 -0.00451893 0.30883673
-0.09413673 -0.070426755 0.22209528 0.20105034 0.16605593 0.34452066 -0.24669874 0.13575056
0.08867632 0.08837274 0.07103066 -0.07701873 0.04912085 -0.040664364 0.025593687 0.18262404
-0.09523783 -0.07245445 -0.1290766 -0.0474806 0.1037391 -0.094035946 -0.018700426 0.0068748184
-0.19028585 -0.18517621 -0.11409268 -0.13306077 0.10411487 0.017708585 -0.07381178 -0.02944702
-0.28562665 -0.18063161 -0.04354365 0.088680536 -0.24448173 0.111240834 -0.26671338 -0.27864262
0.11129163 0.122003764 0.03986664 0.10255113 -0.04110602 -0.0295981 -0.06317539 0.12895268
0.17886883 -0.15856385 0.08761467 0.13781235 0.14799656 0.043823868 0.063281074 -0.2609338
0.08217697 -0.062413264 0.046257395 -0.054203518 0.07377578 0.0004268511 -0.12136981 -0.1692418
-0.14935891 0.0034274661 -0.2493485 -0.0762002 -0.06348239 -0.17250346 -0.14262141 -0.22183059
0.09904572 -0.07993215 -0.10186625 -0.060163513 0.009355872 0.05108919 0.0941372 0.17206548
00000000: 9589 993b 4967 c4bc ded2 313c 2429 6d3e
00000010: 0457 8a3d 8d80 28be cff9 4c3d d6a0 1dbe
00000020: 3c41 b6bd 79ae 0cbe 3918 b8bd 32de 883d
00000030: 6c9b 383d ac5b 1f3e 1966 b6bd 8237 5b3c
00000040: f89d 85bd c173 c43d 3326 553e 32fe 06b7
00000050: cc5e 213d 9975 3b3d 1815 38bd b9cd dcbd
00000060: 5bea 333d 771d 523e 3952 10be 6af2 303d
00000070: a018 8bbd 287a 5c3e a26e 853d d05c 08bd
00000080: 1b9d 203d 4fe7 3b3e f3b2 fc3c 6c67 433d
00000090: 95d1 273e b801 a83e fd5a 293e b65b d3bc
000000a0: ee5f 7cbd af7a 07be cdef d3bd 66ec 143c
000000b0: e4c8 373d 1c1d 4c3d 0334 0dbe 2bc5 453c
000000c0: 0047 0d3d abfa 993d 35a6 c3bc 2bdb 333e
000000d0: d593 dbbd cc37 c63c b46f 0f3d 0c46 e13d
000000e0: 82df 273e 3c33 87bc 61bc 4a3d 7d7a 4fbe
000000f0: ddd0 cb3c 3b47 01bd 7010 29bd 0472 393d
00000100: 4f49 9c3c af97 163e 1fd8 febd f4ad 45bd
00000110: 66e7 8a3d 1596 143e 68dd c43c 4038 93bd
00000120: eaae 9b3d 6cd3 173e 5a71 6a3d 3e82 42be
00000130: 4672 843e 1fca bf3c a68b 0a3d dddd 26be
00000140: 6a4c 573d fcf6 07be 9594 8a3d 72b2 3a3d
00000150: db58 b03d 8dbc 073d 3880 603c 25ea 4fbb
00000160: e05a 943c faed cf3d 1e9e 0abe 4851 1b3e
00000170: 9ca5 cb3b 56eb 48bd 2998 a1bd b6f9 c4bd
00000180: fe42 7c3e 08f1 d43d a3ca 8d3e 3ac4 c03d
00000190: 7a5f 74bc 81f7 273d 558f 3cbc acc5 42bc
000001a0: cf11 6b3d 28f0 89bc 6d9c 15bb 42df 303e
000001b0: 539a ee3d f902 82be 3175 d53d f569 883d
000001c0: 411e afbd dbdd be3b a5ad 073d 7e14 bcbd
000001d0: c36c fb3d c1d3 6dbd 26d1 5e3e 5ad0 18bd
000001e0: 57ed 003e 7994 263e 9e0f 4ebe 9c8c 31be
000001f0: 967f 8e3d 144a 823d 7128 2abe b890 883e
00000200: 121e 143d df5e d5bc 48d4 a23d e44b 70be
00000210: 2df7 853d abca 373e 0cd8 093e e7c8 49bd
00000220: ae91 1e3e ec3f efbc 4a8d 4cbe abd5 043e
00000230: 66c3 7bbe 5b0e 3e3d 2e2f d93c 3f92 853d
00000240: 501f 193d 51cb 923d ba29 273e 412f 9cbd
00000250: 717a 8dbd 936a 51be f541 5c3e 288c 7d3e
00000260: 07fc 353d fd29 993e fe4e 3b3d 71a5 72bd
00000270: a74b 243e 2a8d c0bb 6a8e 43be 3608 013e
00000280: 5e23 663e aa98 acbe 4fb9 6e3d cf04 a03d
00000290: f225 1d3e f14b a9be e075 70be 117f c93e
000002a0: 4082 8e3d 4bf5 213e 6908 1e3d 0892 093e
000002b0: 2773 8d3d 502d 8fbd 8813 94bb d91f 9e3e
000002c0: c2ca c0bd e73b 90bd f26c 633e 24e0 4d3e
000002d0: 910a 2a3e 0365 b03e 989e 7cbe 3202 0b3e
000002e0: ee9b b53d c4fc b43d 8678 913d ffbb 9dbd
000002f0: f232 493d ad8f 26bd daa9 d13c cc01 3b3e
00000300: 0d0c c3bd 0063 94bd a82c 04be 057b 42bd
00000310: 2a75 d43d eb95 c0bd a331 99bc 2846 e13b
00000320: 4bda 42be d59e 3dbe 6ca9 e9bd 1541 08be
00000330: 2d3a d53d 9811 913c a12a 97bd e03a f1bc
00000340: a83d 92be 7ef7 38be d45a 32bd 249e b53d
00000350: 6b59 7abe 3cd2 e33d a88e 88be 3faa 8ebe
00000360: deec e33d 1cdd f93d 344b 233d 5406 d23d
00000370: c95e 28bd b777 f2bc 1962 81bd 2c0c 043e
00000380: 6429 373e 905e 22be 526f b33d ae1e 0d3e
00000390: 698c 173e a880 333d 8299 813d 1d99 85be
000003a0: 664c a83d 0da5 7fbd 6578 3d3d 8204 5ebd
000003b0: c217 973d fcca df39 bc90 f8bd b94d 2dbe
000003c0: 8bf1 18be 579f 603b 3755 7fbe da0e 9cbd
000003d0: 0e03 82bd bfa4 30be 590b 12be 8f27 63be
000003e0: 7cd8 ca3d 78b3 a3bd 419f d0bd 046e 76bd
000003f0: 5f49 193c e642 513d 01cb c03d ef31 303e

gnn1_pool.conv2.lin_root.bias f4 [64]
0.06811642 0.045231152 0.29607752 -0.12060504 -0.21635212 -0.12516853 -0.06563087 -0.018689416
-0.24989969 0.03986152 -0.19048275 -0.025832398 0.049697265 -0.0400454 0.15968943 -0.001694422
-0.013433218 -0.06540165 -0.12347549 -0.15398774 -0.32380694 -0.11383822 -0.038664475 -0.041529402
0.27853143 0.05294097 -0.050889056 -0.17967659 -0.08951678 -0.08658719 -0.07236522 0.18046309
-0.072909355 0.084836714 -0.13686849 -0.14015742 -0.056297045 -0.14243883 -0.029874558 -0.06767407
-0.09821202 -0.11147645 -0.05738123 -0.07358517 0.0064922073 -0.07486972 -0.074662924 0.15460622
-0.12003781 -0.091453455 -0.19069713 0.04128675 0.059265506 -0.17546655 0.031627357 -0.028446363
-0.0014095464 -0.14862022 -0.13939957 -0.08062359 -0.09960169 0.06995656 -0.22367713 -0.07274124
00000000: 9f80 8b3d 4d44 393d 7997 973e c6ff f6bd
00000010: 698b 5dbe 2e2c 00be 7a69 86bd 8c1a 99bc
00000020: b4e5 7fbe d545 233d e90d 43be 779e d3bc
00000030: 5c8f 4b3d a506 24bd a085 233e 5e17 deba
00000040: 0017 5cbc 4df1 85bd b8e0 fcbd f6ae 1dbe
00000050: 06ca a5be 0324 e9bd a45e 1ebd bc1a 2abd
00000060: ac9b 8e3e a1d8 583d 0b71 50bd 24fd 37be
00000070: 9354 b7bd a054 b1bd 3734 94bd 51cb 383e
00000080: 8051 95bd dfbe ad3d 4127 0cbe 6d85 0fbe
00000090: bb97 66bd 7cdb 11be 7dbb f4bc b498 8abd
000000a0: 6223 c9bd c44d e4bd 9508 6bbd d2b3 96bd
000000b0: 95bc d43b 4c55 99bd e0e8 98bd 1851 1e3e
000000c0: 62d6 f5bd f34b bbbd 1c46 43be 4c1c 293d
000000d0: 63c0 723d 81ad 33be b08b 013d 5908 e9bc
000000e0: 87c0 b8ba e62f 18be c3be 0ebe fb1d a5bd
000000f0: f9fb cbbd 6345 8f3d 9e0b 65be 5cf9 94bd

gnn1_pool.bn2.weight f4 [64]
0.88503414 0.67155087 0.20778595 1.0453079 0.5120571 0.7536282 0.50615156 0.46588406
1.1815628 1.0175375 0.9388383 0.66953015 0.6338933 0.98610914 0.5083897 0.5722555
0.286994 0.57937247 0.95229965 0.67819065 0.9557323 0.9046367 0.7649656 0.6001163
0.70602304 0.7826307 0.7894917 1.0101658 1.0253214 1.2000703 1.0491812 0.78061897
0.8846512 0.72367877 1.0509343 0.94287443 0.9010047 0.44115114 0.7225119 0.76242125
0.72364056 0.9884256 0.8863507 1.0122244 0.5327987 0.8700969 1.0114182 0.6666641
0.46987578 0.69478875 0.798756 0.3232007 0.46403924 1.0330197 0.77715635 1.026433
0.9357931 0.52068067 0.68959606 0.9061738 0.9477337 1.1744192 0.662592 0.78938985
00000000: 9991 623f c2ea 2b3f d7c5 543e a6cc 853f
00000010: 2d16 033f c7ed 403f 2693 013f 5b88 ee3e
00000020: 733d 973f ab3e 823f b557 703f 5466 2b3f
00000030: d546 223f a671 7c3f d425 023f 567f 123f
00000040: e1f0 923e c151 143f e9c9 733f e79d 2d3f
00000050: dfaa 743f 4596 673f c9d4 433f 39a1 193f
00000060: edbd 343f 7c5a 483f 211c 4a3f 1d4d 813f
00000070: bb3d 833f e79b 993f 924b 863f a5d6 473f
00000080: 8078 623f 0343 393f 0485 863f 3860 713f
00000090: 3ea8 663f 90de e13e 8af6 383f 0a2e 433f
000000a0: 8240 393f 7609 7d3f e1e7 623f 9290 813f
000000b0: 7f65 083f acbe 5e3f 2776 813f 80aa 2a3f
000000c0: 8f93 f03e addd 313f 467b 4c3f 907a a53e
000000d0: 8d96 ed3e fd39 843f b8f3 463f 2862 833f
000000e0: 2390 6f3f 544b 053f 5e89 303f 02fb 673f
000000f0: ad9e 723f 5e53 963f a19f 293f 7415 4a3f

gnn1_pool.bn2.bias f4 [64]
0.104310766 0.39127985 0.037484627 0.07117324 0.14678603 0.06549346 0.032470204 0.054925013
0.13192202 0.009740357 0.08177929 0.13020426 0.07957775 0.097480744 -0.07164103 0.27628827
0.01144509 0.08143746 0.08763422 0.41826203 0.06841996 0.043376587 0.02103241 0.09961469
-0.013874002 0.08275827 0.031850703 0.07665544 0.10227072 0.14238031 0.027499935 0.13048388
0.08423432 -0.017482057 0.14303905 0.0730148 0.103926644 0.092299424 0.08392359 -0.07929459
0.21276113 -0.13638818 0.0665172 0.011300949 0.12714614 -0.05814886 0.10460337 -0.0069515123
0.17161228 0.052460156 0.08252523 0.028913537 -0.02130477 0.14063942 -0.058270786 -0.017638763
0.03108271 -0.0983944 0.09528185 -0.0367751 0.0023365521 0.072268166 0.068163276 0.09793775
00000000: e2a0 d53d d555 c83e 7b89 193d 47c3 913d
00000010: 144f 163e 6f21 863d 7aff 043d 0df9 603d
00000020: 9116 073e 0596 1f3c e77b a73d 4454 053e
00000030: a9f9 a23d fca3 c73d 88b8 92bd a875 8d3e
00000040: 3084 3b3c afc8 a63d 9279 b33d 7126 d63e
00000050: c41f 8c3d a6ab 313d 294c ac3c c902 cc3d
00000060: c84f 63bc 2b7d a93d e275 023d 87fd 9c3d
00000070: 5073 d13d 25cc 113e 8b47 e13c 919d 053e
00000080: 0b83 ac3d 8836 8fbc d478 123e c988 953d
00000090: 7ed7 d43d 7b07 bd3d 22e0 ab3d 3465 a2bd
000000a0: 0ede 593e 58a9 0bbe 2b3a 883d 9e27 393c
000000b0: 9932 023e 802d 6ebd 4b3a d63d 83c9 e3bb
000000c0: 21bb 2f3e 76e0 563d fd02 a93d 15dc ec3c
000000d0: 5787 aebc c803 103e 59ad 6ebd 2b7f 90bc
000000e0: 2ba1 fe3c 0183 c9bd 2123 c33d 7da1 16bd
000000f0: d720 193b 5501 943d 3099 8b3d 9693 c83d

gnn1_pool.bn2.running_mean f4 [64]
0.649883 0.69547397 1.9576019 0.3231398 0.4812708 0.57211804 1.9412562 0.22783591
0.10953999 6e-45 0.29623073 0.50859 1.850533 0.23394169 1.23018 1.0110106
1.0232062 0.22700608 0.19005124 0.6236669 0.13750139 0.036841225 0.054603107 1.6619322
1.2783846 1.088166 0.5160508 0.32332605 0.61561304 0.13275985 0.34398055 1.2997832
0.06438225 0.28715008 0.15468395 0.04336015 0.9196618 0.4651119 0.12990871 0.18359974
1.4103423 0.4459128 0.018035164 0.88366926 1.0808402 0.881419 0.054755766 1.1156949
1.0060987 0.19247124 0.029792795 0.2360087 0.4142967 0.026583713 0.17229636 0.58524746
1.1173527 0.5059236 0.10082123 0.1755288 0.320832 0.37402943 0.100098565 1.3731462
00000000: bb5e 263f 950a 323f b392 fa3f 9472 a53e
00000010: 2069 f63e 5476 123f 157b f83f d14d 693e
00000020: 8156 e03d 0400 0000 8eab 973e f432 023f
00000030: 44de ec3f 698e 6f3e 8a76 9d3f cc68 813f
00000040: 6cf8 823f 4874 683e cb9c 423e a2a8 1f3f
00000050: 2acd 0c3e d3e6 163d 82a7 5f3d 32ba d43f
00000060: 1ba2 a33f 0649 8b3f e81b 043f fe8a a53e
00000070: d198 1d3f 33f2 073e 381e b03e 4c5f a63f
00000080: d7da 833d 5605 933e 7865 1e3e 6a9a 313d
00000090: f56e 6b3f 2623 ee3e ca06 053e 9201 3c3e
000000a0: 1986 b43f af4e e43e 7bbe 933c 2638 623f
000000b0: f958 8a3f ada4 613f 9547 603d 17cf 8e3f
000000c0: d8c7 803f 2e17 453e 0510 f43c 44ac 713e
000000d0: b21e d43e 16c6 d93c 756e 303e c7d2 153f
000000e0: 6a05 8f3f 3684 013f 5c7b ce3d d2bd 333e
000000f0: 1844 a43e c980 bf3e 7a00 cd3d 41c3 af3f

gnn1_pool.bn2.running_var f4 [64]
6.7423687 2.0302868 6.41334 2.5827315 4.2871475 5.06471 8.1385 1.5796965
1.4610871 6e-45 2.408766 5.384569 8.277736 0.8562606 6.3865848 2.994946
11.738854 1.4388902 0.90639526 1.089562 1.2542489 0.016618345 0.21890987 6.7570596
11.50977 2.8087385 3.6116362 2.6029854 3.6139648 1.7607094 3.16462 3.457018
0.52463686 3.0948093 1.8133135 0.38489166 1.8732634 4.942664 1.1009688 0.94891477
5.3577285 0.5303622 0.06646799 1.7557824 3.6025736 1.7401922 0.3660773 5.783513
2.7829998 0.8630157 0.13529918 0.5891337 3.938184 0.08036915 0.3673732 3.987305
2.8777537 3.8440182 0.4149734 1.0597963 2.775887 0.56828773 1.5026982 4.0860496
00000000: 7cc1 d740 38f0 0140 153a cd40 794b 2540
00000010: 5030 8940 1b12 a240 4c37 0241 7f33 ca3f
00000020: e704 bb3f 0400 0000 3929 1a40 644e ac40
00000030: 9b71 0441 e533 5b3f e75e cc40 32ad 3f40
00000040: 59d2 3b41 8e2d b83f 8509 683f c576 8b3f
00000050: 3a8b a03f 3223 883c e929 603e d539 d840
00000060: 0528 3841 5fc2 3340 0c25 6740 5097 2640
00000070: 334b 6740 ed5e e13f 2289 4a40 c83f 5d40
00000080: 9a4e 063f 5b11 4640 a81a e83f 8510 c53e
00000090: 18c7 ef3f 4e2a 9e40 8cec 8c3f 14ec 723f
000000a0: 8372 ab40 d1c5 073f 5f20 883d 7abd e03f
000000b0: 9190 6640 9ebe de3f 7c6e bb3e 8a12 b940
000000c0: ab1c 3240 99ee 5c3f de8b 0a3e 77d1 163f
000000d0: 350b 7c40 9598 a43d 5718 bc3e 0130 7f40
000000e0: 1e2d 3840 6504 7640 6577 d43e 68a7 873f
000000f0: 22a8 3140 4e7b 113f 6a58 c03f ebc0 8240

gnn1_pool.conv3.lin_rel.weight f4 [16, 64]
-0.09715625 0.039467517 -0.13097283 -0.19004148 -0.05867446 -0.18365657 0.05800332 -0.3118748
-0.42703393 -0.03547064 -0.13631745 -0.23847882 0.1944596 -0.6548665 0.018509459 -0.12995477
0.049229667 -0.12515268 -0.14020428 -0.22687578 -0.24471691 0.065978676 -0.036032844 0.009410398
0.06317831 0.18227643 0.027952012 -0.2551396 -0.44811928 -0.62975943 -0.265567 0.099536486
-0.5382416 -0.14081168 -0.7649417 -0.35824388 -0.27591568 -0.1677526 -0.19952722 -0.13969712
0.23668168 -0.26090413 -0.27443844 -0.18421024 0.04285548 -0.28737023 -0.5125541 -0.014628804
0.032612193 -0.08692209 -0.27266756 0.21509193 -0.22419067 0.048270147 0.13788654 -0.2773489
0.10623045 -0.19613035 -0.1302662 -0.092834465 -0.293183 -0.35189605 -0.18875584 0.01214481
0.3505898 -0.34501308 -0.056236073 0.16496643 0.11518073 0.054823164 -0.02810119 0.47314373
0.21949981 0.09502312 0.14096199 0.40831187 -0.12122339 0.23410578 0.045460638 -0.195485
-0.24274607 0.22334258 0.15640803 -0.27452037 0.19857593 -0.08212117 0.03493749 -0.009105732
0.09546106 -0.37267706 0.5388041 0.14891315 0.24250922 0.22343642 0.27400622 -0.06203772
0.24973966 -0.18466675 0.07750736 0.09537801 -0.32737577 -0.25364473 0.07875991 0.075448185
-0.15854084 -0.42346218 0.25623217 -0.2201346 0.0041468693 -0.29195657 0.04348659 0.22044799
-0.08094526 -0.29575694 -0.00093162473 -0.00043375342 -0.012446127 -0.24936537 -0.22781838 0.033412687
-0.16104065 -0.121131495 0.187585 -0.043598216 0.20150357 0.11379536 -0.055369254 0.070532754
-0.13938673 0.1709533 -0.06058153 -0.018913783 0.009337282 -0.007089296 -0.03466295 0.05226044
-0.08245206 0.11979628 0.03545296 -0.118531965 0.03122855 0.031314354 -0.13438386 0.05560865
-0.19024241 0.14771882 0.0886053 -0.01452057 -0.13963766 0.09369076 -0.0139614595 0.012143366
-0.21174736 0.15301807 -0.020081831 -0.0106421625 0.04210955 0.049496517 0.102461256 -0.06335061
-0.13677524 0.01148918 0.092105724 0.06867109 0.011377723 -0.20446527 0.1084357 0.29030934
0.14516045 -0.004888804 0.13303973 0.16801044 -0.23691356 0.036236368 -0.12667133 0.010449991
0.072875194 -0.036069557 -0.05530704 0.11736506 0.07243949 -0.0133275995 -0.017105902 0.013724611
-0.03116755 -0.03824647 -0.021300491 0.009425271 -0.026351264 -0.100127436 -0.010424976 -0.1479181
0.038756426 -0.24720687 -0.03548647 0.12571599 0.046101097 0.19920804 -0.23876853 0.15677696
0.07709906 0.18390548 0.14979316 0.08255887 -0.124868415 0.117272764 0.1197919 0.045693185
-0.19750808 0.41419575 -0.099983014 -0.115313254 0.12881982 -0.020995663 0.17337216 -0.11749906
-0.15097448 -0.08269312 0.16062473 0.23469137 0.12084421 0.119660646 0.23144792 -0.13975926
0.15228796 -0.19636181 0.092268065 0.40377754 -0.1564508 0.053996418 0.27611864 0.25862226
-0.05525004 -0.11835857 0.11319226 -0.0574317 -0.005102014 -0.12039914 0.23383656 -0.04182435
0.014852921 -0.13427523 0.2657548 0.019160097 0.22011189 -0.22344466 -0.028475465 0.54851866
-0.078745954 -0.018758582 0.17978036 0.08109442 0.3973498 -0.242086 0.13721779 0.083655015
00000000: dbf9 c6bd b1a8 213d be1d 06be 3c9a 42be
00000010: a154 70bd 7810 3cbe e494 6d3d 0eae 9fbe
00000020: 31a4 dabe a949 11bd cd96 0bbe cb33 74be
00000030: 6b20 473e 55a5 27bf 26a1 973c dd12 05be
00000040: 0ca5 493d 0628 00be b691 0fbe 2052 68be
00000050: 1297 7abe d41f 873d 2d97 13bd 122e 1a3c
00000060: a163 813d aca6 3a3e 9efb e43c a8a1 82be
00000070: e46f e5be ea37 21bf 66f8 87be c9d9 cb3d
00000080: 34ca 09bf f030 10be 38d3 43bf be6b b7be
00000090: d244 8dbe 56c7 2bbe dd50 4cbe c30c 0fbe
000000a0: af5c 723e 3a95 85be 3283 8cbe 9ca1 3cbe
000000b0: 3a89 2f3d 3122 93be bf36 03bf a7ad 6fbc
000000c0: 5d94 053d 3504 b2bd 159b 8bbe 0f41 5c3e
000000d0: 3d92 65be ebb6 453d 2132 0d3e ad00 8ebe
000000e0: 5a8f d93d 65d6 48be 8164 05be ff1f bebd
000000f0: 151c 96be b82b b4be 3649 41be 06fb 463c
00000100: 8280 b33e 8ea5 b0be cc57 66bd f6ec 283e
00000110: e0e3 eb3d 418e 603d 7834 e6bc e53f f23e
00000120: 8fc4 603e 7b9b c23d 5758 103e 410e d13e
00000130: f843 f8bd 6db9 6f3e ef34 3a3d 382d 48be
00000140: 6d92 78be ebb3 643e 6d29 203e ef8d 8cbe
00000150: 7d57 4b3e 252f a8bd 9d1a 0f3d 3530 15bc
00000160: 1781 c33d 87cf bebe 11ef 093f b07c 183e
00000170: 5654 783e 84cc 643e 8b4a 8c3e 441b 7ebd
00000180: c1bb 7f3e 4819 3dbe 2ebc 9e3d 8c55 c33d
00000190: cc9d a7be b9dd 81be e04c a13d 9484 9a3d
000001a0: 8858 22be 09d0 d8be dd30 833e f76a 61be
000001b0: 76e2 873b 557b 95be ff1e 323d 1ebd 613e
000001c0: a1c6 a5bd 746d 97be 4738 74ba 6669 e3b9
000001d0: d7ea 4bbc a359 7fbe 3949 69be bedb 083d
000001e0: d7e7 24be ca13 f8bd 4816 403e 0b94 32bd
000001f0: f456 4e3e 8b0d e93d dfca 62bd 7a73 903d
00000200: 65bb 0ebe 620e 2f3e 5724 78bd 14f1 9abc
00000210: 66fb 183c 534d e8bb bdfa 0dbd 0b0f 563d
00000220: a0dc a8bd c157 f53d 1f37 113d e3c0 f2bd
00000230: 04d3 ff3c 7b43 003d ec9b 09be e5c5 633d
00000240: e8ce 42be 9a43 173e b276 b53d afe7 6dbc
00000250: 2dfd 0ebe f1e0 bf3d 9bbe 64bc f8f4 463c
00000260: 4dd4 58be c5b0 1c3e a782 a4bc 775c 2ebc
00000270: 107b 2c3d dcbc 4a3d 35d7 d13d f7bd 81bd
00000280: cf0e 0cbe 1d3d 3c3c eda1 bc3d 6ea3 8c3d
00000290: a169 3a3c 585f 51be 8913 de3d 6da3 943e
000002a0: f1a4 143e 4332 a0bb 913b 083e ee0a 2c3e
000002b0: 7899 72be 966c 143d 21b6 01be 7036 2b3c
000002c0: 973f 953d acbd 13bd a389 62bd 185d f03d
000002d0: 285b 943d 015c 5abc ad21 8cbc 31dd 603c
000002e0: 1753 ffbc 55a8 1cbd 5e7e aebc 746c 1a3c
000002f0: 9bde d7bc 9d0f cdbd 85cd 2abc d877 17be
00000300: 0fbf 1e3d cc23 7dbe 435a 11bd b1bb 003e
00000310: 81d4 3c3d 31fd 4b3e bd7f 74be 248a 203e
00000320: 1de6 9d3d b851 3c3e 6163 193e a014 a93d
00000330: 03bb ffbd b42c f03d 7555 f53d c728 3b3d
00000340: 8f3f 4abe 7711 d43e e5c3 ccbd 5b29 ecbd
00000350: 58e9 033e 19ff abbc 7988 313e 59a3 f0bd
00000360: 0e99 1abe 035b a9bd cf7a 243e ef52 703e
00000370: 2b7d f73d a410 f53d af00 6d3e 0d1d 0fbe
00000380: 60f1 1b3e 1213 49be 0af7 bc3d eebb ce3e
00000390: a334 20be 592b 5d3d 6c5f 8d3e 236a 843e
000003a0: de4d 62bd fa65 f2bd 58d1 e73d 813d 6bbd
000003b0: cc2e a7bb d393 f6bd da72 6f3e 0250 2bbd
000003c0: aa59 733c 727f 09be 0311 883e a3f5 9c3c
000003d0: 0365 613e adce 64be 6145 e9bc b86b 0c3f
000003e0: 8f45 a1bd 99ab 99bc 5818 383e d514 a63d
000003f0: 6f71 cb3e 64e5 77be d282 0c3e 5253 ab3d

gnn1_pool.conv3.lin_root.weight f4 [16, 64]
0.031242039 0.1288013 -0.12547855 -0.056014173 0.04385633 -0.06967693 -0.17061442 0.11131702
0.32814035 -0.090662114 0.018432353 0.0987794 -0.11151656 0.14739445 0.020422738 -0.23995738
-0.008248273 0.06760721 0.112183675 -0.047358785 0.15195778 0.057301976 0.15435547 -0.057177216
0.110211425 0.06067539 0.041510615 -0.07914224 0.21367739 0.26587653 -0.01081319 -0.112162456
-0.01730214 0.11611698 0.08841036 -0.37750813 -0.1672881 0.15823032 0.011844556 -0.14875099
-0.060242053 -0.33208415 -0.30831102 0.0046959436 -0.059003994 -0.0801822 0.20469531 -0.109903894
-0.18185519 0.089655064 -0.0017208197 -0.0071751955 -0.034434438 0.062826514 0.16681471 -0.00883279
-0.22636235 0.016608601 -0.15403448 0.2476498 0.10069073 0.10287031 0.094275504 -0.12243214
0.1137205 0.058575355 -0.014344317 -0.06406252 0.04648746 0.02771233 0.010054055 0.10756572
-0.15803221 0.08359171 0.10977778 -0.046456568 -0.1661689 0.1623054 -0.035920367 0.010453735
-0.1905291 0.12878782 0.13236107 0.023989184 -0.065654315 -0.033959538 -0.1716982 0.10820809
-0.06521106 0.1516446 0.1808364 0.1044358 0.077086926 -0.12584527 0.15649833 0.07025067
0.02056659 -0.16557996 -0.049621318 -0.12692149 -0.06981038 0.01759509 0.058790553 -0.02337842
-0.041738845 -0.064473756 0.10578734 -0.14580941 0.01755651 0.030621639 0.017232843 -0.10432357
-0.02493855 0.034409393 -0.339069 0.14472435 0.12108692 0.16990279 -0.02943928 -0.21602443
0.060786698 0.06564728 0.07704948 -0.05570038 0.15891236 0.016498987 0.06502284 0.11764411
-0.009738891 -0.011722839 0.016618649 0.1280098 -0.20990607 -0.08406092 0.19029897 -0.03925903
0.07087506 -0.12274936 -0.07437218 -0.12771626 0.035687983 -0.02215923 0.03400898 -0.12786944
-0.2012116 0.04260381 -0.07311466 0.015676163 0.12688729 0.07835314 0.028021447 -0.065888435
-0.067087844 -0.01654501 -0.06597314 0.04111045 0.06667036 -0.06604467 -0.04740427 -0.10085623
-0.0081735235 -0.02550194 0.04323046 -0.06796142 -0.036937356 -0.17267266 -0.12681156 0.15210332
0.00084309356 -0.049218904 -0.10224658 0.07347449 -0.26675844 0.06570958 -0.07390916 -0.012791789
-0.058222014 0.06554653 -0.08479061 0.2697136 0.13180488 -0.036939044 0.083804876 0.073806
-0.22822356 -0.01098731 -0.035189662 -0.14829259 -0.14533734 -0.018342968 0.074859336 -0.02924819
0.23599267 0.082361884 -0.20919804 0.27005702 0.095064186 0.14644416 0.09525122 0.1423427
-0.14009623 0.015183367 0.23075858 0.04251876 -0.14809097 0.19123854 -0.025618004 0.06494441
-0.046683446 0.23759864 0.3060631 0.17277321 0.063964434 0.05048021 0.07809411 0.025642332
-0.046473905 0.025725672 -0.13133195 0.33463758 0.016246684 -0.18190837 0.07544325 -0.1515684
-0.093853734 0.090351164 0.017911583 0.31924668 -0.083812945 0.060384646 0.13030091 0.20314327
0.19757362 -0.020033734 0.17071632 0.054689635 -0.30140963 0.023785718 -0.080549344 -0.031081999
-0.15915515 0.04970981 0.20898397 -0.08646545 0.094428115 0.023343138 -0.13826458 -0.08723888
-0.1698799 0.06142531 0.18077756 -0.115132734 0.28730938 0.13422212 0.24107079 -0.0862527
00000000: 4eef ff3c 7de4 033e 737d 00be 1e6f 65bd
00000010: b2a2 333d c7b2 8ebd 8cb5 2ebe 2efa e33d
00000020: 0302 a83e 0fad b9bd 72ff 963c db4c ca3d
00000030: cb62 e4bd 92ee 163e 964d a73c 63b7 75be
00000040: c423 07bc a675 8a3d 8ec0 e53d 49fb 41bd
00000050: d29a 1b3e 7ab5 6a3d 5c0f 1e3e a832 6abd
00000060: 87b6 e13d c286 783d 0907 2a3d 5415 a2bd
00000070: 3fce 5a3e f820 883e ce29 31bc 6eb5 e5bd
00000080: 38bd 8dbc bdce ed3d 7e10 b53d bf48 c1be
00000090: 924d 2bbe 2107 223e ab0f 423c 2e52 18be
000000a0: 5fc0 76bd ef06 aabe f1da 9dbe 6ee0 993b
000000b0: 2cae 71bd 9136 a4bd a69b 513e 4b15 e1bd
000000c0: 3f38 3abe 139d b73d 218d e1ba e71d ebbb
000000d0: 200b 0dbd 30ab 803d 7ad1 2a3e 68b7 10bc
000000e0: 88cb 67be c30e 883c 37bb 1dbe e997 7d3e
000000f0: f136 ce3d abad d23d 8413 c13d b4bd fabd
00000100: 4be6 e83d b6ec 6f3d 6d04 6bbc 3633 83bd
00000110: a369 3e3d f804 e33c c3b9 243c 6b4b dc3d
00000120: 32d3 21be 2132 ab3d 2cd3 e03d 3e49 3ebd
00000130: 2e28 2abe 6333 263e 3c21 13bd 2446 2b3c
00000140: 0f1a 43be f4e0 033e a989 073e f784 c43c
00000150: c575 86bd 2819 0bbd a7d1 2fbe 349c dd3d
00000160: 608d 85bd b948 1b3e 2d2d 393e 70e2 d53d
00000170: c0df 9d3d 95dd 00be 1941 203e 95df 8f3d
00000180: 447b a83c cb8d 29be b93f 4bbd b5f7 01be
00000190: bff8 8ebd 9423 903c 5dce 703d 1a84 bfbc
000001a0: 5af6 2abd d10a 84bd 08a7 d83d 104f 15be
000001b0: acd2 8f3c 3bda fa3c e42b 8d3c 99a7 d5bd
000001c0: ee4b ccbc ddf0 0c3d 749a adbe 9f32 143e
000001d0: 6bfc f73d fffa 2d3e a52a f1bc 8235 5dbe
000001e0: 79fb 783d 1572 863d 1ecc 9d3d 1526 64bd
000001f0: ecb9 223e e228 873c b22a 853d 65ef f03d
00000200: df8f 1fbc 2711 40bc d523 883c 0015 033e
00000210: 9ef1 56be 2228 acbd bcdd 423e 14ce 20bd
00000220: f226 913d 0464 fbbd 7150 98bd 0dc8 02be
00000230: 902d 123d 4687 b5bc 004d 0b3d 35f0 02be
00000240: 6a0a 4ebe 5581 2e3d 24bd 95bd 4c6b 803c
00000250: beee 013e 9c77 a03d 3c8d e53c 84f0 86bd
00000260: 5a65 89bd 6789 87bc ed1c 87bd 6e63 283d
00000270: 788a 883d 6e42 87bd fb2a 42bd b68d cebd
00000280: 3eea 05bc 72e9 d0bc 6c12 313d 5b2f 8bbd
00000290: a04b 17bd 1ad1 30be e4da 01be f9c0 1b3e
000002a0: 0d03 5d3a c399 49bd a866 d1bd cb79 963d
000002b0: 9094 88be bf92 863d b05d 97bd a794 51bc
000002c0: 357a 6ebd 423d 863d b3a6 adbd e717 8a3e
000002d0: dcf7 063e 654d 17bd e4a1 ab3d 9a27 973d
000002e0: 70b3 69be 1e04 34bc 0923 10bd 03da 17be
000002f0: 50d3 14be fe43 96bc da4f 993d e699 efbc
00000300: 10a8 713e 59ad a83d 0338 56be ea44 8a3e
00000310: 03b1 c23d 75f5 153e 1213 c33d 49c2 113e
00000320: 6375 0fbe a8c3 783c fa4b 6c3e 2728 2e3d
00000330: 29a5 17be 09d4 433e d9dc d1bc 9301 853d
00000340: 2437 3fbd 0f4d 733e 4db4 9c3e 76eb 303e
00000350: c9ff 823d 56c4 4e3d ceef 9f3d de0f d23c
00000360: 6c5b 3ebd a5be d23c e27b 06be 9e55 ab3e
00000370: c417 853c 3046 3abe fe81 9a3d bf34 1bbe
00000380: 6336 c0bd 080a b93d 50bb 923c 4d74 a33e
00000390: 1fa6 abbd e455 773d 9a6d 053e ca04 503e
000003a0: bd50 4a3e c91d a4bc 42d0 2e3e 3d02 603d
000003b0: 5d52 9abe 44da c23c 0ef7 a4bd ad9f febc
000003c0: 91f9 22be 849c 4b3d e5ff 553e cc14 b1bd
000003d0: 8763 c13d 1c3a bf3c 3b95 0dbe 4caa b2bd
000003e0: fff4 2dbe 1b99 7b3d c11d 393e b6ca ebbd
000003f0: 371a 933e 8671 093e 43db 763e 41a5 b0bd

gnn1_pool.conv3.lin_root.bias f4 [16]
-0.0053513297 -0.0021828336 -0.12584367 -0.29921705 0.09106807 -0.10845153 -0.024611637 -0.07151997
-0.17947677 -0.32660496 -0.34945974 -0.41756624 -0.38450095 -0.30347237 -0.18222792 -0.3705049
00000000: 355a afbb df0d 0fbb 2add 00be fa32 99be
00000010: e581 ba3d d61b debd 589e c9bc 1079 92bd
00000020: c2c8 37be c438 a7be 63ec b2be 3ecb d5be
00000030: 4fdd c4be bb60 9bbe f599 3abe d1b2 bdbe

gnn1_pool.bn3.weight f4 [16]
0.9071632 0.7784475 0.66175085 0.6670742 0.75007963 0.65844506 1.0768735 1.0001391
0.59688807 0.94515306 0.85609674 0.98251265 0.7871113 0.79919684 0.88336205 0.8649427
00000000: d93b 683f 5648 473f 8168 293f 60c5 2a3f
00000010: 3805 403f db8f 283f fed6 893f 8f04 803f
00000020: a8cd 183f 8df5 713f 2829 5b3f f385 7b3f
00000030: 2080 493f 2a98 4c3f 0424 623f e36c 5d3f

gnn1_pool.bn3.bias f4 [16]
0.012558182 0.07020957 -0.04632788 0.06631 0.14490914 0.10100809 -0.081089824 -0.095679335
0.0840247 -0.13090332 0.036407568 0.09849303 0.10180066 0.008441399 -0.054291666 0.004542559
00000000: d5c0 4d3c 09ca 8f3d 4ec2 3dbd 8acd 873d
00000010: 1063 143e 54dd ce3d 6c12 a6bd 87f3 c3bd
00000020: 2415 ac3d 850b 06be 1a20 153d b7b6 c93d
00000030: dd7c d03d cb4d 0a3c f060 5ebd bfd9 943b

gnn1_pool.bn3.running_mean f4 [16]
0.24499644 0.8401279 0.0767644 0.9441579 0.7997553 0.5209692 0.16653655 0.6413318
0.4442171 0.056529332 0.19714923 0.0696716 0.24747065 0.33208296 0.79977804 0.049661107
00000000: 59e0 7a3e 9f12 573f a736 9d3d 55b4 713f
00000010: c3bc 4c3f 3d5e 053f 8f88 2a3e 522e 243f
00000020: 6c70 e33e 4d8b 673d 7de1 493e fcaf 8e3d
00000030: f268 7d3e c706 aa3e 41be 4c3f 7269 4b3d

gnn1_pool.bn3.running_var f4 [16]
2.8750231 11.401296 0.07205289 16.878727 6.324502 4.8860793 1.134177 1.0729815
3.7755868 0.13247637 0.9917242 0.60814416 5.2262936 3.427055 13.12227 0.22034116
00000000: 6100 3840 b56b 3641 7790 933d a207 8741
00000010: 5262 ca40 c35a 9c40 b62c 913f 7557 893f
00000020: 37a3 7140 e3a7 073e a3e1 7d3f 56af 1b3f
00000030: cc3d a740 de54 5b40 d1f4 5141 1da1 613e
