model/high67_p0.1_ob0.5_m50_diff_pool.pt (torch, 706945 bytes, 113 tensors)

gnn1_pool.conv1.lin_rel.weight f4 [64, 2]
000000 6f d8 1f 3f 5f 7f aa 3c c5 c8 1f bf 20 e8 f5 3c
       0.62439626 0.020812688 -0.62415725 0.030017912
000010 7e 1e 1e 3f 60 fb 77 3e ef 28 d2 3e 29 8f 32 be
       0.6176528 0.24216986 0.41046855 -0.17437424
000020 2d 39 f1 3d c2 fc f0 bd 01 2b 5a bd d7 76 82 3e
       0.117784835 -0.1176696 -0.053263668 0.25481293
000030 0d a7 10 3d bc 79 c0 be b1 6d 14 bf 03 5c 27 bf
       0.035315562 -0.37592876 -0.57979876 -0.65374774
000040 7f 2c e5 3e 90 d5 15 bf 96 93 a8 bd 32 01 14 3f
       0.4476051 -0.58528996 -0.08231275 0.57814324
000050 7d 42 0d bf 51 13 16 be 1f 82 29 3f 86 03 88 3e
       -0.5517958 -0.14655806 0.66214174 0.26565188
000060 ce b1 e1 be ab 1d d2 be 3d eb 88 3d 04 f0 ac be
       -0.44080967 -0.4103826 0.06685493 -0.33776867
000070 63 5b 67 3e aa a0 0b 3f b8 94 a5 be 5a 5b 6b be
       0.22593455 0.5454203 -0.32340026 -0.22984067
000080 53 cc 16 be f9 6c 9a be 28 6d 25 be cc 47 ed be
       -0.14726381 -0.30161265 -0.16154921 -0.4634384
000090 f0 34 69 bd 92 3c 2e bf bd b1 f5 be e5 47 fa 3e
       -0.05693525 -0.6806117 -0.47987166 0.48882976
0000a0 15 d0 a3 3e 8a de 27 bf 84 af c8 3e db da e7 ba
       0.31994691 -0.6557394 0.39196408 -0.0017689125
0000b0 5e cf cb 3e 2a 35 e5 3e 3b b0 c7 3e 61 f2 3a be
       0.39806646 0.44767123 0.3900164 -0.18256523
0000c0 5f c5 f0 3e ab 2b c9 be b1 d6 59 3e eb 04 e8 3e
       0.47025582 -0.3929113 0.21273305 0.45316252
0000d0 90 fd 05 bf 4d 3b 0b bf d1 e2 0a 3f 69 be 18 be
       -0.5234003 -0.5438736 0.54252344 -0.14916386
0000e0 7c 21 75 be 71 eb ec be 62 33 91 3e 13 33 0c 3f
       -0.23938555 -0.46273378 0.28359514 0.54765433
0000f0 35 a3 f7 3d e4 08 05 3f 80 74 92 be 81 b2 af 3e
       0.12091676 0.5196669 -0.28604507 0.34315875
000100 84 77 d8 be 4a 53 5e 3e 67 a4 9e bd 4f 32 25 be
       -0.42278683 0.2171146 -0.07746201 -0.16132472
000110 6f 8d 25 3f 03 31 1b 3f 36 5d 04 3f b4 24 17 3e
       0.64668936 0.6062166 0.5170473 0.14760095
000120 47 61 7c bd 8f b7 15 bf 17 b3 86 3c 72 b4 ec be
       -0.06161621 -0.58483213 0.016442819 -0.4623142
000130 13 4d 72 bd ea 1e 6e be 7e 3e 2c 3f 54 ef 1e 3f
       -0.059155535 -0.2325398 0.67282856 0.62083936
000140 aa 10 a6 3e 77 fb be be 40 8a 2d 3f 8a e4 55 bd
       0.3243459 -0.37301227 0.6778908 -0.052219905
000150 d3 97 a3 3d 8c a6 ec 3e f0 23 1b 3f 49 ca 21 bf
       0.079879425 0.46220815 0.6060171 -0.6319929
000160 ed 5b 2a bf 66 7e bf be bf 4c 5a 3e 69 aa f2 be
       -0.6654652 -0.37401122 0.21318339 -0.47395638
000170 1a a5 d2 be 9a 74 96 3c e8 9a 14 bf 33 04 1e 3f
       -0.41141587 0.018366147 -0.5804887 0.6172516
000180 d7 40 25 3f 6b 2b ec be 51 c6 ba 3e af 69 99 bd
       0.6455206 -0.46126875 0.36479428 -0.07490861
000190 08 f9 5e 3e 66 6f 37 be 3c 8b 2a 3f 2f 3b 38 bf
       0.21774685 -0.17913589 0.66618705 -0.71965307
0001a0 08 2f 0a be ba 81 29 3f bf 9f 8c 3e 3c cc 12 be
       -0.13494503 0.6621357 0.27465627 -0.14335722
0001b0 35 d5 ba be 04 26 20 bf be 24 8c be 67 05 2c 3f
       -0.3649079 -0.6255801 -0.27371782 0.67195743
0001c0 af ec 03 3f 77 fc 02 bf 73 14 99 3e 64 93 41 be
       0.51533026 -0.5116648 0.29898414 -0.18903881
0001d0 d5 83 d2 be 2e e5 f0 be eb e3 b4 bd b2 02 e4 be
       -0.41116205 -0.4704985 -0.088325344 -0.44533306
0001e0 d0 a2 ea 3e 49 53 2b 3f 17 a9 1f 3f b9 e7 d6 3e
       0.4582734 0.6692396 0.62367386 0.41973665
0001f0 39 8d ff 3e 22 e1 9f 3e 57 59 02 3f a6 6b b1 3e
       0.49912432 0.3122645 0.5091757 0.34652442

gnn1_pool.conv1.lin_root.weight f4 [64, 2]
000000 b5 db 8e be 26 21 75 be f3 26 54 be 30 5c 2c bf
       -0.27901998 -0.23938426 -0.20717983 -0.67328167
000010 a2 8f fd be a5 b4 95 be 96 81 44 3d 92 ba 01 3f
       -0.49523646 -0.29239383 0.047975145 0.5067531
000020 ee 9d a2 3e 54 40 04 bf 4c 81 03 bf 45 d7 80 be
       0.31761116 -0.51660657 -0.51369166 -0.25164238
000030 08 12 c8 3d ca 9a d9 be 12 b0 18 bf 9f 77 ad 3e
       0.09769064 -0.42500907 -0.5964366 0.33880326
000040 1c 41 69 bc 1e 18 5e be 94 8f 0a 3f 09 db fe 3e
       -0.014236715 -0.21688887 0.5412533 0.49776486
000050 0f 8d 50 3e 79 de 07 3f fa f9 0c bf 2f 56 1a bf
       0.2036631 0.5307384 -0.55068934 -0.60287756
000060 44 17 b2 be b2 85 fd be 0e 5b 31 bf 40 ce 85 bd
       -0.34783375 -0.49516064 -0.69279563 -0.0653348
000070 33 3e 25 be 00 da 2f 3e 3f 1e fb be 6d 4a 3d be
       -0.16137008 0.17173004 -0.49046513 -0.18485422
000080 e2 76 62 3e eb b3 19 bf 26 12 85 bd e2 a8 cb be
       0.22115663 -0.6004016 -0.06497602 -0.39777285
000090 28 9e 9c 3e c4 67 15 bf b7 f1 ba 3e cd da 0c 3e
       0.30589414 -0.5836146 0.3651254 0.13755341
0000a0 5a d3 1c bf 20 da 49 3d 88 8c f1 3e b7 4e 41 3d
       -0.61259997 0.049280286 0.4717753 0.04719421
0000b0 57 00 87 3c 50 25 4c 3e 15 b4 e7 be 72 bf 18 bf
       0.016479654 0.19936109 -0.4525458 -0.5966712
0000c0 95 67 b7 bd 27 2e 97 be f4 e1 9c be 27 6a 33 3f
       -0.089553036 -0.295274 -0.3064114 0.7008385
0000d0 24 dc f2 be f9 3c ea 3e 69 0e fc 3e 33 27 85 3e
       -0.4743358 0.45749643 0.49229744 0.2600647
0000e0 2f 36 10 3f 47 b6 07 bf 0e 17 f5 be 92 41 8f bd
       0.5633268 -0.5301251 -0.47869152 -0.069949284
0000f0 e2 88 f2 be bf c5 20 3f d2 cd 24 3f 27 5e 08 bf
       -0.47370058 0.62801737 0.64376557 -0.53268665
000100 95 b3 b1 3e 04 84 c4 be c6 a2 b9 3d 91 d3 5d be
       0.34707323 -0.3838197 0.0906425 -0.21662737
000110 57 6c 17 3f 5f 55 15 3f d3 a7 b4 3e dd 4d e1 3e
       0.5914969 0.5833339 0.3528429 0.44004717
000120 2a 16 6a 3e 69 4c 0d bf bc 4d 97 3e 90 57 fa bd
       0.22860017 -0.5519472 0.29551494 -0.122237325
000130 fe e4 e7 be b3 b6 3e 3e 08 8b 06 bf 31 00 e0 be
       -0.45291895 0.18624382 -0.52555895 -0.43750146
000140 8e 81 ad be a1 78 e2 bd 7c e4 25 bf 10 71 1e bf
       -0.33887905 -0.110581644 -0.64801764 -0.6189127
000150 13 91 03 bf 9b c8 96 be d0 89 1a bf 9d 9a f6 3e
       -0.5139324 -0.29449925 -0.60366535 0.48164836
000160 c2 ba 90 bd cf 6a e9 3d 18 62 e9 3e 6e f0 04 be
       -0.07066871 0.11397325 0.45582652 -0.12982342
000170 06 7d 08 3f 43 08 01 3f 30 40 f0 3d 18 39 79 3e
       0.5331577 0.5040323 0.11730993 0.24338186
000180 5e 0a 62 3e 21 4b f6 be f9 08 41 3e b1 26 a2 be
       0.22074267 -0.48104194 0.18851079 -0.31670144
000190 1d 53 65 3e 27 fe fe be f2 ed 7a bd 0e f8 60 3e
       0.22394986 -0.49803278 -0.06126208 0.21969625
0001a0 2b 7e a8 3e 62 4c d6 3e 0f 5d 9d be 18 25 ea bc
       0.3290876 0.4185515 -0.3073506 -0.02858214
0001b0 84 89 51 be cb aa 93 3e de ae b2 be dc e2 f8 3e
       -0.20462614 0.28841242 -0.34899038 0.4861058
0001c0 60 9e 1c bf b4 c1 72 be 72 e9 9a 3d 7d cd 2d bf
       -0.6117916 -0.23706704 0.075640574 -0.67891675
0001d0 d2 45 b8 be 18 ca 99 be 1e 91 b6 be ca 4b 2e 3f
       -0.3599077 -0.30036998 -0.3565759 0.68084395
0001e0 30 bf 98 be d0 22 a9 3e d4 2d 75 3e 25 a3 15 3f
       -0.29833364 0.33034372 0.23943263 0.58452064
0001f0 01 b3 d8 3e 51 ac 1a bf 6a 29 95 3e 4f 2e 3c 3e
       0.4232407 -0.60419184 0.2913316 0.1837704

gnn1_pool.conv1.lin_root.bias f4 [64]
000000 40 2e 11 bc c5 6d 08 bc b9 29 db 3d 60 48 11 3f
       -0.0088611245 -0.008326952 0.10701317 0.5675106
000010 f4 2a 25 3e 5b 73 af be 41 40 0a 3e 83 dc ee bd
       0.16129667 -0.34267697 0.13501073 -0.11663153
000020 b6 f1 10 3f b2 b0 1a bf 31 04 b6 3e c2 83 21 3f
       0.5661882 -0.60425866 0.35550073 0.6309167
000030 d7 9c 35 3f 6c 8f 1b 3f a1 3e f9 3e 2b b1 60 be
       0.70942444 0.6076572 0.48680595 -0.21942584
000040 c5 00 2f 3f 2d 72 f4 be 5e f0 32 bf 4d ef 8a 3d
       0.6836055 -0.4774336 -0.6989802 0.06783924
000050 a0 11 19 bf 3a 48 26 3a ef 38 cb bd 2a f2 2a bf
       -0.5979252 0.000634316 -0.099229686 -0.66775763
000060 cd 96 f8 be 53 6f c1 be 71 3f 26 bf de ba c8 3e
       -0.48552552 -0.37780246 -0.64940554 0.39205068
000070 7d e8 73 3e d9 c2 2e 3f b2 4d 98 3e 0a 2e a8 3e
       0.23819156 0.68266064 0.29746777 0.32847625
000080 76 90 28 bf f0 bc 0b 3e 1d 79 5c 3c 12 d8 5b be
       -0.6584543 0.13646293 0.01345661 -0.21469143
000090 ec 4c b1 3d e8 a5 70 3d 18 6e 82 3c 41 05 f3 3e
       0.0865725 0.05875197 0.015921637 0.47464946
0000a0 55 de 30 3f 02 39 c2 3e 4b 11 a0 bd ce 07 ac be
       0.6908925 0.37934119 -0.07815798 -0.33599705
0000b0 51 07 56 be 3d 6b 02 3f 37 2c c8 bd ae ad a7 be
       -0.20901228 0.5094488 -0.09774058 -0.32749695
0000c0 7b 45 9c bd 4a 43 29 bf b0 e5 99 bd c4 58 91 3e
       -0.0763044 -0.661183 -0.075145125 0.28388035
0000d0 59 15 d2 be 8c 44 c9 3e 9b d6 3c 3d f5 5e 81 be
       -0.41031912 0.3931011 0.0461031 -0.2526776
0000e0 57 f9 7b bd 17 14 1e be d3 23 0a 3c e3 21 28 3e
       -0.061517086 -0.15437351 0.008431393 0.16419177
0000f0 67 ba fe bc e9 89 07 3f 60 b0 4a 3e 3c 97 c2 3e
       -0.031094743 0.5294481 0.19793844 0.38006008

gnn1_pool.bn1.weight f4 [64]
000000 d9 5f 7c 3f 00 00 80 3f ee 7d 7a 3f 9f d3 7b 3f
       0.9858375 1.0 0.97848403 0.98369783
000010 de a5 7b 3f 00 00 80 3f 23 9d 85 3f d1 49 83 3f
       0.9829997 1.0 1.0438579 1.0256902
000020 4b 1f 80 3f 96 8e 81 3f ac e8 7b 3f fc 08 79 3f
       1.000955 1.0121639 0.98401904 0.97279334
000030 d2 dd 81 3f d6 78 7a 3f f0 fd 7d 3f 00 00 80 3f
       1.0145819 0.9784063 0.992156 1.0
000040 ab b8 83 3f 00 00 80 3f 00 00 80 3f 6a e7 77 3f
       1.0290731 1.0 1.0 0.96837485
000050 00 00 80 3f b2 56 7d 3f 2b b2 7d 3f 00 00 80 3f
       1.0 0.9896041 0.9909999 1.0
000060 00 00 80 3f 37 f2 75 3f 00 00 80 3f 19 13 79 3f
       1.0 0.96072716 1.0 0.97294766
000070 13 6c 7a 3f 1b 38 81 3f 49 84 78 3f 49 09 7c 3f
       0.9782116 1.0095247 0.9707685 0.9845167
000080 00 00 80 3f 9b 16 82 3f 8a 50 81 3f 5f 55 7e 3f
       1.0 1.0163149 1.0102704 0.99349016
000090 f9 a9 7a 3f 49 d4 7d 3f 63 87 74 3f 97 ba 76 3f
       0.9791561 0.99152046 0.95519084 0.96378464
0000a0 7e b4 7a 3f b0 8d 7d 3f 44 73 82 3f 7d 6f 77 3f
       0.9793166 0.9904432 1.0191426 0.9665449
0000b0 00 00 80 3f 26 86 81 3f e0 70 78 3f fc 94 83 3f
       1.0 1.0119064 0.97047234 1.0279841
0000c0 a1 35 78 3f 00 00 80 3f 57 3b 81 3f e5 d3 77 3f
       0.9695683 1.0 1.0096234 0.968077
0000d0 35 d7 7a 3f dd 62 79 3f f6 09 84 3f e5 c5 76 3f
       0.9798463 0.9741648 1.031554 0.96395713
0000e0 49 cf 77 3f 8a ae 79 3f 00 00 80 3f 93 68 76 3f
       0.9680067 0.9753195 1.0 0.9625332
0000f0 fe 7d 80 3f 17 56 7c 3f 9d 04 81 3f 92 2e 7f 3f
       1.003845 0.9856886 1.0079533 0.99680436

gnn1_pool.bn1.bias f4 [64]
000000 c3 da 05 3c 74 06 69 bc 0c f1 fd 39 0c 13 83 3a
       0.008169833 -0.01422273 0.00048435514 0.0010000183
000010 f4 41 17 3c 37 60 53 3c 36 79 00 3d 52 2c 09 3d
       0.009232033 0.012901357 0.031365596 0.033489533
000020 82 7b ef 3b 73 18 b2 39 7d 15 b6 bc dd 76 ed bc
       0.0073084245 0.00033969022 -0.022227043 -0.028987342
000030 17 4f 5e 3c 7d ed 4e bb 68 a5 9b bb 16 23 77 bc
       0.013568661 -0.003157466 -0.0047499426 -0.015084049
000040 3c 37 c1 3b 65 04 47 bb 77 2a b9 3b 8d 47 62 bc
       0.005896477 -0.003036761 0.005650814 -0.013811004
000050 0d 44 36 3b b2 71 a9 bc b3 ce 9d 3c 4b f8 9b 3a
       0.0027811558 -0.020684097 0.0192636 0.0011899559
000060 76 23 2c 3b 31 7a 7a bc 8e 12 1e bc eb b7 9c bc
       0.0026266254 -0.015287922 -0.0096479785 -0.019130668
000070 bc eb c4 bb b5 f3 8b 3c 40 b6 e8 3c f6 d5 de ba
       -0.006009547 0.017083982 0.028407216 -0.0017001021
000080 da ad 1d bc 39 a4 34 bb b7 b4 65 3c 69 96 ca 3b
       -0.009623969 -0.0027563705 0.014020137 0.006182481
000090 bb d4 5e bc da 23 70 bc a3 67 c2 3b ef c6 ef bc
       -0.013600524 -0.014656985 0.0059327646 -0.029269664
0000a0 64 11 e4 3a fb f2 80 ba 4c fa 06 bd 3e 9b 91 ba
       0.0017400202 -0.0009838039 -0.032953545 -0.0011108888
0000b0 87 62 71 bc 5c f3 20 3c 84 06 d3 bb 86 29 c7 3c
       -0.014732963 0.009823646 -0.0064399857 0.024311792
0000c0 f8 ad 56 bc 2f 12 4b 3c b3 e8 a5 bc 3c 8e 85 3b
       -0.013103001 0.012394472 -0.020252561 0.0040757935
0000d0 30 21 93 bc b5 40 be bc ca da f3 3c 9c b2 c5 bc
       -0.017960161 -0.023224214 0.029767413 -0.02413302
0000e0 01 6b 98 3c 05 58 6e bc a3 4a ae 3c e3 3f b5 bc
       0.018605711 -0.014547353 0.021275824 -0.02212519
0000f0 29 ce 9b bc 52 0c e3 bb d5 ba d4 3b b9 34 de bb
       -0.019019203 -0.006928959 0.0064919987 -0.0067811874

gnn1_pool.bn1.running_mean f4 [64]
000000 36 30 db 3d 00 00 00 00 bc 95 ab 3d 00 2a e4 3e
       0.10702555 0.0 0.08378169 0.44563293
000010 86 3a 60 3e 00 00 00 00 9b e3 b6 3d f6 34 35 3a
       0.21897325 0.0 0.08930131 0.0006912494
000020 c6 13 b4 3e 85 68 0b 3d 93 30 97 3d 8e 81 96 3e
       0.35171336 0.034035224 0.07382312 0.29395717
000030 65 a2 a1 3b 3c 7f e0 3c d0 b3 9c 3e 00 00 00 00
       0.004932689 0.02740442 0.30605936 0.0
000040 74 d1 93 3e 00 00 00 00 00 00 00 00 a3 0a 94 3d
       0.28870738 0.0 0.0 0.07228591
000050 00 00 00 00 41 34 a7 3e b2 61 23 3e 00 00 00 00
       0.0 0.32657054 0.15955237 0.0
000060 00 00 00 00 8e 35 4f 3d 00 00 00 00 3a 3e 12 3f
       0.0 0.050588183 0.0 0.571262
000070 f4 20 57 3e 42 9d 8d 3e 51 70 df 3d 84 96 9a 3e
       0.21008664 0.2765904 0.109100945 0.3019296
000080 00 00 00 00 0a 2b 64 3d 2d ab 10 3f 10 49 89 3e
       0.0 0.055705108 0.56511194 0.26813555
000090 0f 97 a2 3d 21 66 fc 3d d4 ff 96 3b 79 6c 8e 3e
       0.079389684 0.12324167 0.004608134 0.27817133
0000a0 de 67 86 3e 41 0b 06 3e 56 f4 26 3b fc 62 65 3c
       0.2625112 0.1309023 0.0025475225 0.0140006505
0000b0 00 00 00 00 63 a3 df 3e d0 23 6e 3d 72 66 b5 3c
       0.0 0.43679342 0.058139622 0.022143576
0000c0 a4 ea 7f 3e 00 00 00 00 73 b9 fa 3d 8a 14 9d 3e
       0.24991852 0.0 0.12242403 0.30679733
0000d0 68 b5 36 3d 5a f9 12 3e e6 e1 89 3a 1a 13 2b 3d
       0.044606596 0.14352933 0.0010519593 0.041766264
0000e0 c5 89 20 3b d4 91 85 3d 00 00 00 00 88 5a 29 3d
       0.002449618 0.06521955 0.0 0.041346103
0000f0 5a 5d f3 3d 49 9e 24 3f ee 69 d8 3e e9 ed 03 3f
       0.1188304 0.64304024 0.42268318 0.515349

gnn1_pool.bn1.running_var f4 [64]
000000 10 d0 b5 3c c3 8b 3d 18 69 60 46 3c 1a e1 7a 3e
       0.022193938 2.449824e-24 0.012107947 0.24499932
000010 cc 20 9e 3d c3 8b 3d 18 3e 01 7c 3c ce 39 1f 39
       0.07721099 2.449824e-24 0.015381156 0.00015184956
000020 3f 2f 49 3e 1f 5c 2f 3c bc 00 03 3d e5 a2 e9 3d
       0.19646929 0.010703116 0.031983122 0.11408023
000030 f4 18 da 3a 9a 3d 33 3c da 4d 03 3e c3 8b 3d 18
       0.0016639517 0.01093998 0.12822667 2.449824e-24
000040 5f b3 07 3e c3 8b 3d 18 c3 8b 3d 18 dd 50 09 3d
       0.13252018 2.449824e-24 2.449824e-24 0.033524383
000050 c3 8b 3d 18 9c d2 1d 3e 7d 13 0b 3d c3 8b 3d 18
       2.449824e-24 0.15412372 0.033954132 2.449824e-24
000060 c3 8b 3d 18 d3 ce 04 3d c3 8b 3d 18 58 c1 d5 3e
       2.449824e-24 0.032423805 2.449824e-24 0.41749072
000070 74 09 93 3d 88 ac e2 3d 73 df ec 3d b2 4e 17 3e
       0.071795374 0.11068064 0.11566057 0.14776114
000080 c3 8b 3d 18 43 fb a8 3b 90 5c c1 3e c5 e9 ba 3d
       2.449824e-24 0.005156906 0.37765932 0.09126619
000090 32 1d 5d 3c 46 43 e6 3c d0 8d 15 3a 76 55 c4 3d
       0.01349573 0.02810825 0.00057050306 0.09586613
0000a0 f3 f8 c4 3d 12 01 08 3d 50 98 68 39 a8 d9 fd 3b
       0.09617796 0.033204146 0.00022181985 0.007746894
0000b0 c3 8b 3d 18 42 a6 91 3e fd 34 55 3c 62 21 26 3c
       2.449824e-24 0.28447157 0.013013122 0.010139795
0000c0 2d 70 f8 3d c3 8b 3d 18 7d d8 de 3c 11 60 25 3e
       0.12130771 2.449824e-24 0.027202839 0.16149928
0000d0 d3 99 a0 3c b8 e6 f4 3c 38 52 b8 39 5b 0f ef 3c
       0.0196046 0.029895172 0.00035156473 0.029182127
0000e0 ba df 09 3a 58 66 1f 3c c3 8b 3d 18 09 db b8 3c
       0.0005259473 0.0097289905 2.449824e-24 0.022565382
0000f0 e1 53 54 3d 71 62 fb 3e 24 d3 90 3e cd 6b a1 3e
       0.051837806 0.49098542 0.28286088 0.31527558

gnn1_pool.conv2.lin_rel.weight f4 [64, 64]
000000 f4 26 aa 3d a2 e6 48 3d 04 dd e5 bd 9c 0b fc 3c
       0.08308211 0.049048074 -0.11223796 0.030767255
000010 f5 c6 48 3c c7 d4 18 bb b4 57 bc 3d a2 71 83 3d
       0.012254466 -0.0023320185 0.091964155 0.06418158
000020 ef 2a e5 bd 78 67 8c 3d b5 52 02 be 4c b3 b2 bd
       -0.111898296 0.068556726 -0.12726863 -0.087256044
000030 ad f4 51 bd eb a5 0f 3c 01 7b 93 bd 94 10 19 3e
       -0.05125873 0.008767585 -0.072011955 0.1494773
000040 37 92 3c bd b1 fa cd 3d 2b 50 0b be e3 6c c0 3d
       -0.04603788 0.10057581 -0.136048 0.093957685
000050 ad cb ce bc 44 d2 92 3b d2 9d f8 bd bc 99 86 3d
       -0.025243605 0.004480632 -0.12139477 0.06572291
000060 fe 91 52 bd 60 77 e6 3d 20 c5 9c bd 9d 29 dc 3a
       -0.05140876 0.11253238 -0.07654786 0.001679707
000070 5f 6f af bd ee fe ff bc 59 e6 09 bd b9 20 97 bd
       -0.08566164 -0.03124949 -0.033666942 -0.07379288
000080 62 c7 8b 3c 3e 72 83 bd 5d f2 d2 bd 19 ad 99 bd
       0.017062847 -0.06418274 -0.103001334 -0.07503719
000090 7d 75 b8 bd d7 85 b4 3d ac a7 15 bd b6 19 e1 bd
       -0.09006784 0.088145904 -0.036536857 -0.10991232
0000a0 e1 40 35 bd 1d 7c a2 3d 55 5b 14 bd 8a 5a ca bd
       -0.044251326 0.07933829 -0.036219914 -0.0988055
0000b0 62 99 de bd 2d 5c 2d bd 29 60 bd bd 92 ab f2 bc
       -0.10869099 -0.042324234 -0.09246857 -0.029622827
0000c0 be 47 a4 3d ee fa 27 3d 92 a1 c2 3d 3b 59 b4 3d
       0.08021496 0.04101079 0.09503473 0.08806082
0000d0 36 e6 4d bd f0 7c d6 bd 84 57 fc 3d e3 63 82 3c
       -0.050268374 -0.10473049 0.1232138 0.01591677
0000e0 da ec a4 3d 02 60 62 bc 27 77 d0 3b 16 4e 24 3c
       0.08052988 -0.013816835 0.0063618603 0.010028383
0000f0 e6 e3 a2 bc 26 18 7e 3d 42 91 80 3d 08 a6 97 3c
       -0.019884061 0.06203475 0.06277706 0.018511787
000100 9c 10 95 3d ad d5 fe 3b fe 00 b5 3b 38 30 16 3c
       0.072785586 0.007776937 0.0055238 0.00916677
000110 70 4d 8f 3d 15 53 99 bd d2 2a df bd 82 8e 96 bd
       0.06997192 -0.0748655 -0.10896839 -0.073514
000120 ef 58 10 3d 9b cd 03 3e e3 72 0f bd 88 0e 26 3d
       0.035241064 0.12871401 -0.035021674 0.0405412
000130 06 df e0 3d f4 07 79 3d d7 f3 d7 3d 07 68 07 3e
       0.10980038 0.0607986 0.10544556 0.13223277
000140 d1 d4 cd bd 02 df ec bd db 75 fb bc c7 06 8a 3d
       -0.10050357 -0.11565973 -0.030695846 0.06739574
000150 98 21 70 bd fe 67 a1 bd d7 06 b3 bd c0 2e 00 be
       -0.058625787 -0.07881163 -0.08741539 -0.12517834
000160 bc 5f 63 3c 5a 53 3d 3d 96 a9 9e 3c 9e ac 72 bd
       0.013877805 0.04622207 0.019367974 -0.05924665
000170 1f 14 34 3d 1f 3b 09 bd 96 7c aa 3d d9 68 f6 bb
       0.0439645 -0.033503648 0.08324544 -0.007519823
000180 7f 7a db bd 92 bc 43 bc 57 ad 96 bd 22 64 66 3d
       -0.10716724 -0.011946814 -0.07357281 0.056247838
000190 82 cb d2 bd 2e a0 a9 bd 9b 8b 9f bc 0b 91 b4 bd
       -0.10292722 -0.08282505 -0.019475749 -0.08816727
0001a0 00 c9 82 bd 67 d2 e5 3c ff 3e 1e bd da 1d e3 3d
       -0.06385994 0.02805443 -0.038634297 0.11089678
0001b0 d3 5d a7 bd e3 b4 d2 3d 56 f2 e1 bd 2c ce 89 bd
       -0.081721924 0.10288408 -0.1103255 -0.06728777
0001c0 28 c6 0f be 9d 17 20 3c 1d 4c 03 be e9 9c c4 3d
       -0.14040434 0.009771255 -0.12822004 0.09600241
0001d0 49 61 06 3e 9b 86 d0 bc 76 8a 92 bc 5a 90 f1 bb
       0.13123049 -0.02545481 -0.017888289 -0.0073719444
0001e0 a4 67 cf 3c 41 6e d8 3c 38 ac 98 bd de 67 f5 bc
       0.025317974 0.02641976 -0.07454723 -0.029956754
0001f0 2e e8 31 3b 69 fe cc bd 8f 2f e5 bd 49 55 ba 3d
       0.0027146447 -0.100094624 -0.11190712 0.09098298
000200 a7 4c e4 bd 03 79 ad bd a4 f8 a5 3c 59 20 74 3c
       -0.11147433 -0.08470347 0.020260163 0.01490029
000210 66 8d eb bc 79 8e 17 3d d7 b8 bb bc 23 b9 a7 3d
       -0.028753947 0.037001107 -0.022915287 0.08189609
000220 72 ee f8 bb bf db b0 bd 31 f0 fd bd 9a 15 ae bd
       -0.0075967843 -0.08635663 -0.123993285 -0.08500214
000230 d4 36 01 bd 60 6d f6 3d d6 be e3 3d b5 1d f3 3c
       -0.03154643 0.120325804 0.111203834 0.029677251
000240 cc 6c 45 3d ba 52 f8 3c 1b b0 de bd 8c 8e 94 3d
       0.04819946 0.030312885 -0.10873433 0.07253751
000250 37 c3 4e 3c 5e ae 0b be 84 a8 c1 bd 79 df 89 3c
       0.012619785 -0.13640735 -0.0945597 0.016830193
000260 5f 17 66 3d 16 c9 23 bd b0 1b e2 3d 5b e1 c0 3d
       0.056174632 -0.039986692 0.11040437 0.09417983
000270 75 1e 09 3d 8f 77 93 3b ac b4 dd bd a6 ae 02 be
       0.03347631 0.0045003365 -0.10825476 -0.12761936
000280 f6 df f3 3d af a5 97 3a 49 bb a2 bd 14 32 02 3e
       0.119079515 0.0011569763 -0.07945878 0.12714416
000290 3c 4a 87 3d 92 f4 7a bc 0f 1f 98 3b 6c 55 82 bd
       0.06605956 -0.015317099 0.0046423743 -0.06363949
0002a0 aa bc a6 bd 5d 5d 5a bc e7 05 87 3d f2 09 1c bc
       -0.081414536 -0.013327924 0.06592923 -0.0095238555
0002b0 0d f4 cc bd 86 58 8d 3d d9 92 70 3d e3 e4 ca bc
       -0.100074865 0.0690165 0.058733795 -0.024767345
0002c0 b5 7b 1b 3d 6f f3 64 3c a6 15 be bd 48 55 96 bd
       0.037959773 0.013974055 -0.09281473 -0.07340485
0002d0 99 58 7e bc 85 11 1b bd 99 94 76 bd aa 60 fe 3d
       -0.015524053 -0.037858505 -0.060200308 0.12420781
0002e0 3c b3 26 bd 9a 1f 0e be 1d 41 00 bd 8e a1 0d 3e
       -0.040698275 -0.13879243 -0.031312097 0.1383116
0002f0 52 1c e3 3d 57 9b 92 bd 8f 6a db 3d 56 61 40 bb
       0.11089386 -0.07158535 0.10713684 -0.0029354892
000300 fd f7 e9 bd 5d 87 19 3e 0b 31 01 bc df be 75 3d
       -0.11424253 0.14993043 -0.007885228 0.059996482
000310 74 49 ba bd bb 5e 0f be 62 07 c5 3d 18 b7 fb 3d
       -0.09096041 -0.1400098 0.09620549 0.12290782
000320 1b 24 14 bd 1c 8d e4 bd 8f 85 db 3d 7d 27 25 bd
       -0.036167245 -0.11159727 0.10718834 -0.040320862
000330 be bc f6 3d 05 8a 36 3d 73 0c ec bd 39 86 51 3d
       0.120477185 0.04456522 -0.11525812 0.051153395
000340 7a 97 a7 bd 6e 72 74 3d f4 2b 0e be 04 5f e8 ba
       -0.08183189 0.05967944 -0.13883954 -0.0017728512
000350 64 72 a0 3c b6 35 6f 3d ee 4c ae 3d 1f 71 04 3c
       0.019585796 0.058400832 0.08510767 0.008083611
000360 47 0c c5 3d 40 0f d2 bd ec bf a6 bc 08 a1 11 3d
       0.09621482 -0.10256815 -0.020355187 0.035553962
000370 fa 9b b8 3c fe ea a7 3d 4c 51 20 bd ac 4e 90 bd
       0.022535313 0.08199118 -0.03914003 -0.070462555
000380 c1 57 cc 3c 68 b8 b7 3d 5f 59 16 bd cc d4 85 3d
       0.024944188 0.089707196 -0.036706325 0.065347284
000390 ee 1b 36 3d ec 6b e9 3d 75 1d a5 3d 00 35 42 bb
       0.04446023 0.113975376 0.08062259 -0.0029633641
0003a0 ba 84 16 3c ce d1 da 3d fb 74 e6 3d 4d 57 ab bd
       0.009186918 0.10684548 0.11252781 -0.08366261
0003b0 66 40 22 3d 50 a8 82 3c a0 61 02 3d 5f 3a 8d 3d
       0.039612196 0.015949398 0.031831384 0.06895899
0003c0 2f 84 6b bd aa 0b 09 3d d6 87 b1 3c 43 8f 95 3d
       -0.057499107 0.03345839 0.021671217 0.07302716
0003d0 82 cb 56 bc 69 28 a3 3d ec 32 af 3d 3e ff 3f 3d
       -0.0131100435 0.07966692 0.085546345 0.046874277
0003e0 09 54 a2 3d 65 4b 96 bd 15 1d 00 be 47 8d b4 bb
       0.07926185 -0.07338599 -0.12511094 -0.0055100056
0003f0 eb 56 cd 3d 35 d1 a7 bd 8d 7d fd bb 23 a2 bb bc
       0.10026344 -0.081942 -0.007735914 -0.022904461

gnn1_pool.conv2.lin_root.weight f4 [64, 64]
000000 96 a7 56 bd 37 1c 74 bd db 5f 01 be 41 a8 9a 3d
       -0.052405916 -0.05959722 -0.12634222 0.07551623
000010 8f 48 b8 bd 93 a2 de 3c 5d f3 43 bd 49 7b c5 3c
       -0.089982145 0.02717713 -0.04783951 0.024106639
000020 7d 9d 6b 3d 70 0b df bd e4 c2 87 3d ef 1a a3 3d
       0.05752324 -0.108908534 0.06628969 0.079641216
000030 fe 36 b8 3d e8 4a 75 bd 9c 7e 01 be 6c 17 b4 bd
       0.08994864 -0.05988589 -0.12645954 -0.0879353
000040 01 88 7f bd 50 1f 61 bd a6 97 26 3d ed e8 51 3d
       -0.062385563 -0.054961503 0.040671967 0.051247526
000050 36 60 1a 3e 40 cd db bd 87 aa ba bd 9f cf ab 3d
       0.15075764 -0.10732508 -0.09114557 0.0838921
000060 ff e5 f7 3c 77 98 c2 bd 47 33 3a bd 7d 2c ad 3c
       0.030261038 -0.095017366 -0.045459058 0.021139378
000070 47 b7 0f 3e 86 eb 02 be 5f 6b 46 bd ee 62 41 bb
       0.14034759 -0.12785158 -0.04844224 -0.002950843
000080 73 6b 5f 3b c5 a9 11 bd fe 7c bd bd 02 61 50 bd
       0.0034091144 -0.035562295 -0.09252356 -0.050873764
000090 43 78 13 bd af 3a 9e 3d 25 c6 b0 3c fe 74 9c bd
       -0.036003362 0.07726037 0.021578858 -0.07639502
0000a0 86 e0 3e bd 25 86 ef bd 0c 49 af bd 0d 42 65 3c
       -0.04660084 -0.11695508 -0.085588545 0.0139927985
0000b0 68 86 c8 38 f4 9d c7 bd 59 ed c3 3d 5c 8b dd 3d
       9.561778e-05 -0.09746924 0.09566755 0.10817596
0000c0 c7 7c b9 bc 3f dd b4 bd a1 9f 2f bd 46 bd 0c 3d
       -0.022642506 -0.08831262 -0.042876843 0.034360193
0000d0 63 d8 01 be 82 e6 d1 3d b3 0c de bd 4c 91 7e 3a
       -0.12680201 0.10249044 -0.10842266 0.0009710982
0000e0 5e c8 e6 3c cf c2 cf bc e8 cb 83 bd 59 09 f2 bd
       0.028171714 -0.025361447 -0.064353764 -0.11818189
0000f0 22 47 46 bd c4 c1 da bd 46 cb f2 3c ff b8 d5 3c
       -0.04840768 -0.10681489 0.029637944 0.02608919
000100 ff 2e d1 3d 63 1a 2c 3d 30 c3 c2 3d 19 54 da bd
       0.10214042 0.04201735 0.09509885 -0.106605716
000110 1a d2 49 3d a6 ce 1c 3c 06 39 6c 3d 25 3d 3f bd
       0.049272634 0.009570753 0.05767157 -0.04668917
000120 2b 4d b6 3d 50 49 f8 3d fb cb 37 3d 66 78 cc bd
       0.08901437 0.12123358 0.044872265 -0.09983902
000130 a4 8a 0f 3d a5 f2 93 3d 8c 0d b1 3d 3d 7f 1b 3d
       0.035044327 0.07224015 0.08645162 0.03796314
000140 9a d8 d6 bd 52 f7 95 3d c3 d5 3c bc b4 85 8c 3d
       -0.10490532 0.07322563 -0.011525574 0.06861439
000150 de 5e 86 3d e5 5c 10 be b2 be 1d bd 2e c5 b5 3d
       0.06561063 -0.14097936 -0.03851194 0.088755
000160 48 2d 93 bc 71 8c 9f 3d 73 54 fc 3c 31 9e dd 3d
       -0.017965928 0.07790459 0.030801987 0.10821188
000170 f1 ad 96 bc ca a0 ec bc 65 83 5d bd 40 fa c4 bd
       -0.018393489 -0.028885264 -0.054080386 -0.09618044
000180 5c 20 05 3c 33 65 f1 bd c0 8f db bd 2c b7 e8 bd
       0.008125391 -0.1178688 -0.107207775 -0.11363062
000190 53 9a 1e bc 76 0a 9c 3c a1 10 73 bd 9d c6 28 3d
       -0.009680348 0.019047957 -0.05934203 0.041205037
0001a0 18 83 87 bd b6 f5 5b bd 94 b8 d8 bd 24 45 e7 bd
       -0.06616801 -0.053701125 -0.105820805 -0.112924844
0001b0 68 12 ce 3d 7a 2e e9 bd b4 46 de bd 14 fa c1 3b
       0.100621045 -0.11385818 -0.10853329 0.005919704
0001c0 4e 70 dd 3c a7 82 a9 3d 3a cc 84 bd 06 ba f5 3d
       0.02703109 0.08276873 -0.064842656 0.11998372
0001d0 e1 ba a2 3d b3 0d b1 3d 01 47 2d bd 8a 98 d1 3c
       0.079458006 0.08645191 -0.042304043 0.025585432
0001e0 75 ad e9 bd b9 a1 d6 bd 5f 5f b8 bd 34 32 c7 3d
       -0.114100374 -0.10480065 -0.090025656 0.09726372
0001f0 92 b9 91 3d cb 5d aa bd 17 52 63 3d 08 13 ee 3d
       0.07115473 -0.08318671 0.05549821 0.11624724
000200 ca 6a 5d bd 30 dd 96 3d 7e ed e7 3d 17 72 97 bd
       -0.05405692 0.07366407 0.11324595 -0.07394808
000210 33 89 03 be 2f 7b 09 3c b4 af de bd 5d 85 14 3e
       -0.12845306 0.008391186 -0.108733565 0.14503999
000220 75 0f 9f 3d ff c6 03 3d 36 a9 64 3d 42 c2 3c 3d
       0.0776662 0.0321722 0.055825435 0.046083696
000230 17 b3 80 bc db cf 8a 3d bf e8 94 bd 2c 46 8e 3d
       -0.015710397 0.067779265 -0.07270955 0.06946978
000240 ec 5f 2e be c9 8d 2d bc fb c3 b7 3c 17 8f 6c 3d
       -0.17028779 -0.010592886 0.022432318 0.05775365
000250 d1 d5 a4 3d 51 d4 29 be 24 71 81 bd 22 de 7b bd
       0.08048595 -0.16584899 -0.06320408 -0.06149114
000260 ed 34 39 3c 1f 12 1c bd 13 cf d8 3d 6f 31 f3 bd
       0.011304122 -0.03810322 0.10586371 -0.11874663
000270 24 06 ff bd dd 22 b7 3d cb e8 02 3e 5b 6d c5 3c
       -0.12452343 0.089421965 0.12784116 0.024099996
000280 2b 70 bd bc 20 0d 8b 3d 12 7d 99 3d c5 76 e8 3d
       -0.023124775 0.06789613 0.074945584 0.113507785
000290 6d ee e2 bc dd 84 1c 3d 7a b3 94 3c de c2 8e 3b
       -0.02770158 0.038212646 0.018151987 0.004356726
0002a0 18 dc 84 3c 08 24 a0 3d 58 5d 3a 3d 53 86 2b bd
       0.01621823 0.078193724 0.045499176 -0.04187615
0002b0 b8 c4 de 3d f4 53 b9 bd 53 d6 e5 bc c0 81 d4 3d
       0.10877365 -0.09049216 -0.0280563 0.1037631
0002c0 f3 bc c7 bc f6 db ea 3c 69 45 bb 3c 24 0b b2 3d
       -0.02438209 0.028669339 0.022860246 0.08693531
0002d0 02 44 04 3e 04 57 0f 3e 6a b4 a6 3d cc 46 8c bd
       0.12916568 0.13998038 0.0813988 -0.06849441
0002e0 5e ec 0a 3d 9f 89 24 3d 3f e6 07 3e b3 42 c9 3d
       0.033916824 0.04017031 0.13271426 0.09827175
0002f0 b3 eb 0d 3d 4a b6 86 3d 16 11 0f be 02 cc be bd
       0.03464861 0.06577738 -0.13971362 -0.09316255
000300 59 11 a2 bd ec 3e 04 3e ef f8 ee bd 97 db 5f bd
       -0.07913465 0.12914628 -0.11668574 -0.054652777
000310 81 57 cf bc 1a 22 15 bd 4e ee d5 bd 99 0e 67 bd
       -0.02531028 -0.036409475 -0.10445844 -0.056410406
000320 ab 4f f1 bd ea b7 ce 3d 45 f0 8e 3c fc 2c a4 bd
       -0.117827736 0.100936726 0.017448554 -0.080163926
000330 cc 9f b2 bd aa 8c c2 3c 1c e6 d2 3b 0b a8 77 3d
       -0.08721885 0.023748714 0.0064361226 0.060462993
000340 4e 7e c5 3c 21 d4 c8 3b 79 82 2b bb 65 4c c0 3c
       0.024108078 0.0061288034 -0.0026170297 0.023473928
000350 e7 dc b3 3c 66 fa 2a ba 26 a6 4b 3d 10 2e 4e bd
       0.02195592 -0.00065222976 0.049719 -0.050336897
000360 fa b7 d7 3d da d4 85 3d ff 91 dd 3d 66 cb 3a 3b
       0.105331376 0.06534739 0.10818862 0.0028502583
000370 d9 7d be 3d a0 b4 29 bd d1 ba a5 bd 40 d9 e4 bc
       0.09301347 -0.041432023 -0.08092273 -0.027935624
000380 57 9d c5 3c 79 b2 96 3c 99 b7 f1 bd 91 d2 c4 bd
       0.024122877 0.01839565 -0.118025966 -0.09610475
000390 f5 c5 aa bd 2b c3 da ba 0e 64 be bd 7d 30 d5 bc
       -0.083385386 -0.0016690245 -0.09296428 -0.026024098
0003a0 bf 41 ee 3c c9 44 73 3d 55 a0 99 bd 3f 27 71 bd
       0.029084085 0.05939177 -0.07501284 -0.05887532
0003b0 cd ff 5a bd e1 6d 92 bd 6a af 3d 3d f3 c1 fd 3d
       -0.053466607 -0.07149864 0.046309866 0.123905085
0003c0 9a d2 00 be 74 6f 84 bd 83 30 c7 bd bf 99 9a 3d
       -0.12580338 -0.064665705 -0.0972605 0.07548856
0003d0 ad 78 f7 3c 60 d5 5c bd 22 1f 86 3d f1 4c 20 bb
       0.03020891 -0.053914428 0.06548907 -0.0024459923
0003e0 3a a5 4e 3d 0b 69 f0 bd b3 e1 8f bd 15 75 d2 3d
       0.05045054 -0.11738785 -0.070254706 0.10276238
0003f0 a7 d1 e1 bc fe d7 6f bd fe 3f d8 3d c3 fb 9f 3b
       -0.02756579 -0.058555596 0.105590805 0.0048823073

gnn1_pool.conv2.lin_root.bias f4 [64]
000000 fe ed 87 bd c0 98 09 bc ce 96 d8 bb c1 12 16 bd
       -0.0663719 -0.008398235 -0.006609774 -0.03663898
000010 b5 be 67 3c e5 00 27 bd 36 21 09 3e 3c 48 f8 bd
       0.014144589 -0.040772337 0.13391575 -0.121231526
000020 9b dc e7 3d d0 86 20 3d ae d6 81 3d 5a a6 96 bc
       0.11321374 0.039191067 0.06339775 -0.01838987
000030 f8 7d 44 3d c3 e2 6d 3d bc 4b 2c bd 64 20 f3 3c
       0.047971696 0.058077585 -0.042064413 0.029678531
000040 bc 8b 9b 3d 63 bd 9a 3c 6b 45 06 bc 46 77 97 3d
       0.075950116 0.018889135 -0.0081952615 0.073957965
000050 24 68 39 bd ad f4 41 bc bf 69 ad bd d2 5c 04 3e
       -0.045265332 -0.01183812 -0.08467435 0.12926033
000060 4d 09 df bd 21 f4 35 bd 97 07 eb 3d be 95 4d bd
       -0.10890446 -0.044422273 0.11476057 -0.050191633
000070 f3 ca ac 3d b4 26 15 bd 74 a7 73 3d 68 b9 91 bd
       0.08437147 -0.036413863 0.059485868 -0.071154416
000080 b5 21 0a be 1a bb 1e 3d c5 3d 62 3d 49 28 af bc
       -0.1348942 0.038752653 0.05523469 -0.021381514
000090 a4 ba b0 bd bc 7b df bb 3d a3 bd bd 13 c7 bf 3d
       -0.08629349 -0.00682017 -0.09259651 0.09364142
0000a0 9e 24 04 3d 08 32 87 3d 32 89 59 3d de 0d fd 3c
       0.032261483 0.066013396 0.053109355 0.030890401
0000b0 88 f9 b9 bd 9b 7e f3 3d c8 a7 64 bd 5e 56 37 bd
       -0.090807974 0.118893825 -0.05582407 -0.0447601
0000c0 31 7c f9 3b f6 a3 f5 bd 25 18 b0 bb 45 39 e0 3d
       0.0076136817 -0.11994164 -0.005373972 0.10948423
0000d0 f5 c3 b2 bd f7 05 d6 bd 54 8d cc bd c8 8e 91 3c
       -0.08728782 -0.104503565 -0.09987894 0.017768279
0000e0 77 56 9c 3d 8f b4 04 3e 26 7b 1f bc 6b 32 dd bd
       0.07633679 0.12959503 -0.009733951 -0.10800632
0000f0 c2 01 2c bd b9 a7 ad bc a9 da c1 bd ad 70 ac bd
       -0.041993864 -0.02119814 -0.09465534 -0.08419929

gnn1_pool.bn2.weight f4 [64]
000000 3b 1a 81 3f 4e 04 7d 3f 18 ec 74 3f 86 3e 7a 3f
       1.008613 0.98834693 0.9567275 0.97751653
000010 aa b3 7b 3f f9 a5 81 3f 51 3f 7e 3f 86 32 80 3f
       0.9832102 1.0128776 0.99315363 1.0015419
000020 32 b6 74 3f 0a 10 78 3f cd 6c 75 3f 32 52 79 3f
       0.9559051 0.96899474 0.9586914 0.97391045
000030 86 36 81 3f b2 f4 83 3f da 35 7b 3f 0d 5e 7a 3f
       1.0094764 1.030905 0.98129046 0.9779976
000040 27 c6 7b 3f 81 fb 7b 3f c1 55 74 3f 30 15 7d 3f
       0.9834923 0.9843064 0.9544335 0.98860455
000050 17 c9 7a 3f c2 37 7b 3f 89 5a 7a 3f 5b 40 7a 3f
       0.9796309 0.98131955 0.97794396 0.9775445
000060 82 4a 79 3f 49 e0 7e 3f 64 32 79 3f f4 e7 7b 3f
       0.97379315 0.9956098 0.97342515 0.9840081
000070 3e a8 76 3f 88 07 7e 3f 08 96 77 3f 2a 99 79 3f
       0.9635047 0.9923024 0.96713305 0.97499335
000080 30 de 7e 3f 9a 45 80 3f ad d3 7a 3f e6 70 7a 3f
       0.9955778 1.0021241 0.9797924 0.9782852
000090 24 1a 7c 3f cb 5b 77 3f d2 a8 7a 3f eb d0 7b 3f
       0.9847739 0.9662444 0.9791385 0.9836566
0000a0 4a 3a 80 3f 18 55 7a 3f 94 16 7e 3f f8 80 7e 3f
       1.0017788 0.9778609 0.992532 0.9941554
0000b0 8f 64 80 3f 56 fe 7b 3f 47 cc 7c 3f 3d 8a 73 3f
       1.0030688 0.9843496 0.987492 0.9513281
0000c0 72 75 7e 3f 87 1e 81 3f af ab 74 3f 29 76 7d 3f
       0.9939796 1.0087441 0.9557447 0.99008423
0000d0 53 dd 80 3f 2a c5 77 3f 02 02 7d 3f bc 76 80 3f
       1.0067543 0.96785223 0.9883119 1.0036235
0000e0 61 23 82 3f 6c db 78 3f 29 7b 76 3f 86 40 78 3f
       1.0167047 0.9720981 0.9628168 0.96973455
0000f0 58 23 7b 3f da ed 7e 3f de d2 80 3f 21 f8 79 3f
       0.98100805 0.9958168 1.0064352 0.9764424

gnn1_pool.bn2.bias f4 [64]
000000 c8 ed 74 3c 5d 54 cc 3b 1e ff b0 bc af b2 ed ba
       0.01494927 0.006235643 -0.021606024 -0.0018134917
000010 01 e0 2c bc 5e a0 e1 3b 21 12 8c 3c cb 0e 46 3c
       -0.010551454 0.0068855723 0.017098488 0.012088488
000020 bf 9a aa 3a 29 6c 7d 3c 73 b9 8f bc 02 13 01 ba
       0.0013016089 0.015467682 -0.017544484 -0.0004923792
000030 21 af 91 3c 6a dd af bc 4d 2a 90 bb df 7b 44 bc
       0.017783703 -0.021467883 -0.004399574 -0.011992424
000040 cb 8b e6 bc 44 8e da ba c3 75 59 bc 56 8a a3 39
       -0.02814283 -0.0016674479 -0.0132727055 0.0003119285
000050 61 b2 1f bc b0 f3 7d bc e0 01 10 3c 27 a8 0d bb
       -0.009747119 -0.015499994 0.00878951 -0.002161512
000060 d4 c4 6a bc c2 7f 18 bc fb 04 44 3b af c1 85 bb
       -0.014329154 -0.009307804 0.0029910195 -0.004081927
000070 6b e5 24 3c f7 e6 2e bb ec b7 3e bc 6f d8 9d bb
       0.010064463 -0.0026687959 -0.01164053 -0.0048170607
000080 46 fa 21 bc 4d 0d e5 3c 56 69 65 3a c2 64 92 bc
       -0.00988633 0.027960444 0.0008751353 -0.01787031
000090 49 0c 34 3c 48 0d 4f bb 8e a4 d9 bb cd cb 0d 3c
       0.010989257 -0.003159361 -0.006641931 0.008654547
0000a0 42 b2 93 bc 00 e6 10 bc 80 d0 90 3c 09 be ce ba
       -0.018029336 -0.008843899 0.017677546 -0.0015773188
0000b0 35 06 39 3c 97 37 7b bc 34 ad ab bb 68 0f 57 bc
       0.011292984 -0.015333078 -0.0052391533 -0.013126232
0000c0 33 8c f4 3b bc 25 db 3c 23 10 91 bc cb d7 8e 3a
       0.007463002 0.026751392 -0.01770789 0.0010898052
0000d0 98 28 82 ba 8a 97 b3 bc a9 ce 70 3b 8c 58 f1 bb
       -0.0009930311 -0.021922845 0.0036744273 -0.007365292
0000e0 eb 36 35 3c 03 e0 bc bc 8d d5 5d bb d1 1a a5 39
       0.011060457 -0.023056036 -0.003384921 0.00031491232
0000f0 ad a5 76 bc b1 fd 7f 3c 32 40 99 3b 89 cd 67 bc
       -0.015054149 0.01562445 0.004676842 -0.0141481245

gnn1_pool.bn2.running_mean f4 [64]
000000 0c f8 ac 3c ad 25 01 3e 56 72 6f 3e fd e0 0f 3e
       0.021114372 0.12612028 0.2338346 0.1405067
000010 37 38 cc 3e 2b 38 5c 3c 69 5d fa 3e b1 9c f7 3c
       0.3988664 0.013441126 0.4889939 0.030226083
000020 b3 8e 02 3f 66 56 41 3f 95 e7 1a 3d 46 6c 19 3f
       0.5099899 0.7552246 0.03781851 0.5993084
000030 aa db 8e 1a 8c ac ad 3e d7 2e 96 3c 13 7d 75 3e
       5.908471e-23 0.33920705 0.018332882 0.23973493
000040 4c cf 1b 3f 3b 39 01 3e b2 8c 95 3d f8 0c 97 3e
       0.60863185 0.12619488 0.07302226 0.29502082
000050 b6 ed af 3d ee 1a 9d 3d 7a 5b 8a 3e 03 94 44 3f
       0.08590262 0.07671152 0.27022916 0.7678835
000060 d1 1f 76 3e f0 1f ad 3e 73 3a 3c 3f b7 48 ed 3e
       0.24035574 0.3381343 0.73526686 0.4634454
000070 7f e3 57 3f ea a7 92 11 55 8b 36 3f 02 d0 50 3f
       0.84331506 2.3138223e-28 0.71306354 0.81567395
000080 f8 b5 85 3d c8 c1 a5 3d 81 db 5d 3f ad d8 10 3f
       0.065288484 0.080936015 0.8666306 0.5658062
000090 37 03 67 3c b0 de 12 3f 74 31 3d 3f 94 fa 91 3d
       0.014099888 0.57371044 0.73903584 0.07127872
0000a0 00 2e d8 3c 8d b7 f2 3e 6f f1 66 3c 9d 8c f7 3e
       0.026389122 0.47405663 0.014095648 0.48349467
0000b0 8e cb 9f 3e 47 f9 01 3f d1 f5 e5 3e fe c4 e3 3b
       0.31209987 0.5077099 0.44914106 0.0069509735
0000c0 72 0a e7 3c 28 1d 2d 3e 7f 56 39 3e 75 e8 98 3e
       0.028203223 0.16905653 0.18099402 0.2986485
0000d0 9e ed 5c 3b 91 ba 01 3e 6c 1a f3 3b 0e c3 bc 3e
       0.0033710967 0.12668826 0.007418921 0.36867565
0000e0 aa 66 0b 3c 90 f4 73 3f 36 73 d5 3e f1 ce cf 3c
       0.008508364 0.9529505 0.4168946 0.025367232
0000f0 37 de 1e 3e 70 28 3c 3f 49 2b 3a 3c fc 69 93 3f
       0.15514456 0.734992 0.011362859 1.1516719

gnn1_pool.bn2.running_var f4 [64]
000000 ab b7 0f 3d f6 64 64 3e 71 13 2a 3f 03 5e a5 3e
       0.03508727 0.22304139 0.66435915 0.32298288
000010 52 c4 d2 3e 49 df 62 3d 90 c9 6d 3f 8e c8 08 3d
       0.41165406 0.055388723 0.92885685 0.03339439
000020 5e 88 24 3f 40 60 43 3f a2 13 77 3d 27 6f 3a 3f
       0.6427058 0.7631874 0.060321458 0.72825855
000030 32 fd d1 19 e2 24 96 3e 9d 02 e5 3c 72 ce 10 3f
       2.1712358e-23 0.29325014 0.027955348 0.5656501
000040 2b 9a 58 3f f8 28 79 3e fe a3 f0 3d 17 61 15 3f
       0.8461024 0.24332035 0.11750029 0.5835127
000050 39 56 2b 3e 14 13 11 3e 57 12 2e 3f fd ee 85 3f
       0.1673211 0.14167434 0.67996734 1.0463558
000060 23 f8 3e 3f fe 6e 99 3e 86 eb 38 3f 1a 30 16 3f
       0.74597377 0.29967493 0.7223438 0.5866715
000070 54 cc ad 3f d9 8c 3d 18 44 79 42 3f b5 aa 9d 3f
       1.3577981 2.4498787e-24 0.75966287 1.2317721
000080 24 94 d3 3d 4a 8c e7 3c 95 7b 8a 3f cf 91 35 3f
       0.1033099 0.028265137 1.0818964 0.7092561
000090 b9 3e 1a 3d 50 a0 1a 3f a0 13 9c 3f 7c 2a d8 3d
       0.037657473 0.6040087 1.2193489 0.10554978
0000a0 64 75 2d 3d 30 d5 de 3e fd f2 88 3c b2 fb 13 3f
       0.04234828 0.43522024 0.016717428 0.5780593
0000b0 26 de 34 3f 25 f0 4e 3f 35 f5 f2 3e c6 0f 86 3b
       0.7065147 0.8083518 0.47452703 0.004091236
0000c0 dc d0 c6 3d 76 fd cf 3d b1 20 ac 3e 5f 90 cb 3e
       0.097078055 0.10155766 0.33618692 0.39758584
0000d0 0b d3 8e 3b 86 16 6b 3e 0f e3 97 3b 2b f8 b3 3e
       0.0043586544 0.22957811 0.004635222 0.35150275
0000e0 b4 29 c1 3c 41 77 a5 3f 1e 88 ba 3e 3d 24 13 3d
       0.023579456 1.2927018 0.36431974 0.03592323
0000f0 2c 16 b4 3e a6 53 75 3f aa 85 12 3d 55 cd 0d 40
       0.35173166 0.9583076 0.035772003 2.2156575

gnn1_pool.conv3.lin_rel.weight f4 [17, 64]
000000 3c d1 28 3d 46 44 08 3e 16 17 07 3e 04 4d 35 3d
       0.041215166 0.13307294 0.131924 0.0442629
000010 c3 c0 23 3e aa 00 8f 3d ab 7e f4 3d 02 7b 95 3c
       0.15991502 0.069825485 0.119382225 0.018247131
000020 f3 96 73 bd 26 e3 4f 3c 5a df 38 bd 52 2a ec 3c
       -0.05947013 0.012688434 -0.04513488 0.028828774
000030 92 1e 1d 3d df b2 c0 bd 0c 97 31 3d 74 21 be 3d
       0.038359232 -0.09409117 0.04335694 0.092837244
000040 0e 71 95 bc 4e fc 0d 3e 7d ab 27 bc 37 f7 ce bd
       -0.018242385 0.13865778 -0.010233757 -0.10105746
000050 00 65 9a 3d 53 72 8a bd 54 ce a0 3d 42 3b b1 bc
       0.075387955 -0.06760087 0.07851854 -0.021634702
000060 c4 75 0e 3d 32 0e 17 bd 9b 89 ad 3d e2 fb 7f 3d
       0.03478028 -0.036878772 0.08473512 0.062496074
000070 a3 ed f8 3d cc b6 0d bb fb 27 69 bd ff c0 da 3d
       0.121547006 -0.0021623848 -0.056922894 0.10681342
000080 59 01 04 3e fb b3 83 3d aa fa e0 bd f0 90 bb bd
       0.12891139 0.06430813 -0.109853104 -0.09158504
000090 d5 43 80 bd 20 d9 c7 bd 14 66 30 3e d1 27 bc bd
       -0.06262938 -0.0975821 0.1722644 -0.09187282
0000a0 07 5a ca 3c eb 9e 00 be 80 6b ef 3c eb 4f 17 3e
       0.024701132 -0.12560622 0.029226065 0.1477658
0000b0 fc a4 d9 bd ec bf 12 3d 20 a8 e4 3d b8 ca ba 3d
       -0.106271714 0.035827562 0.1116488 0.09120697
0000c0 5d 29 d2 bd e8 f9 b6 bd 5b bf 88 3d f5 19 29 3d
       -0.10261796 -0.089343846 0.06677123 0.04128452
0000d0 2c 12 b5 3c d5 b2 17 bd 22 80 b9 3d 64 01 35 3c
       0.022103392 -0.037035782 0.090576425 0.011047695
0000e0 79 49 34 3d a9 18 b8 bd a7 58 8d bd 86 a6 f4 bd
       0.04401538 -0.089890786 -0.06901675 -0.11945824
0000f0 8a 29 99 3d ce 58 97 bd e7 ea a5 3d 40 52 0c 3e
       0.07478626 -0.07389985 0.08101445 0.13703251
000100 a9 b3 19 be f2 92 c1 bd 22 b9 cd 3d 2a 4b d9 3b
       -0.15009941 -0.09451856 0.10045077 0.0066312747
000110 01 91 a9 bd bd 86 25 bd 3c 2d 92 bd 78 a8 eb 3d
       -0.082796104 -0.0404117 -0.07137534 0.11506742
000120 12 2e 3a bd c3 df c5 3d a6 4f 0b bd be 87 5e 3c
       -0.045454092 0.0966182 -0.034011506 0.013582168
000130 2b 37 ac bd 2f 80 92 bd cc 70 4e 3d 40 d1 bc bc
       -0.0840896 -0.07153355 0.05040054 -0.023048997
000140 56 a0 87 3d eb fd 1f bd 94 1f 72 3d a1 a8 d1 bd
       0.066223785 -0.039060514 0.059112146 -0.102372415
000150 48 98 bd bd d0 4d cf 3d 99 bd d4 3d b6 02 6c 3d
       -0.09257561 0.101222634 0.103877254 0.057619773
000160 12 8f 89 3d cd 25 0d bc 51 69 3a 3d eb 6b b3 bd
       0.067167416 -0.008614969 0.045510594 -0.08760818
000170 7c ca 19 bc a8 89 b8 3d 92 b5 c2 bc 73 93 84 bd
       -0.009386655 0.09010631 -0.02376822 -0.06473436
000180 ca 09 88 bd 97 02 71 bd 67 02 27 bd 50 ed 62 3d
       -0.06642492 -0.05884036 -0.040773775 0.0554021
000190 7f 36 19 3e 37 86 a2 3d 64 e2 cc 3d 85 06 a4 3d
       0.14962195 0.07935756 0.10004118 0.08009056
0001a0 b9 49 c4 3d 2e 97 42 3d 8b 67 fb bc 06 79 b1 3d
       0.09584374 0.047507457 -0.030689022 0.086656615
0001b0 bf ba 50 bd 8d 91 11 be d2 84 b7 3d 21 8e fd 3c
       -0.050959345 -0.1421568 0.0896088 0.030951561
0001c0 4a 17 ea 3d c5 99 8c bd 1a 2c 45 3d 38 19 17 be
       0.11430223 -0.06865267 0.04813776 -0.14755714
0001d0 e2 34 c2 3b 13 cc b0 bd bd e5 eb bc c9 3b dc 3d
       0.0059267143 -0.08632674 -0.028796071 0.107535906
0001e0 a7 7b 0f 3e 4a da f6 bd 94 8a 66 bd af fc 70 bd
       0.14012013 -0.12053354 -0.056284502 -0.058834728
0001f0 3e 6a b4 3d 40 2d 20 3d bf c4 1e 3c ec 82 a8 ba
       0.088093266 0.039105654 0.009690463 -0.00128564
000200 28 6c be 3b 85 ce 32 bc 15 20 1e bd 58 1b 11 3c
       0.005811233 -0.010913496 -0.038604815 0.008856617
000210 8a 35 3b 3d e1 f3 0a 3e 05 54 82 3c c4 6b 05 3e
       0.045705356 0.13569595 0.015909204 0.1302939
000220 e6 9a b7 bd 83 2c 08 be 36 38 a8 3d f8 de 1e 3e
       -0.089650914 -0.1329823 0.082138464 0.15514743
000230 cf 4b df 3d 55 46 e3 bd 72 2e 6a bb 5b 35 7e 3d
       0.10903131 -0.11097399 -0.003573325 0.062062602
000240 77 6a ab bd 0b 78 03 bb 74 8e fd bd db 6e c3 3c
       -0.08369916 -0.0020060565 -0.123806864 0.023856571
000250 28 21 3a bd d0 60 a6 bd c5 c3 c3 3d c8 65 84 bc
       -0.045441777 -0.08123934 0.095588244 -0.016161814
000260 af 10 55 bb 08 71 c1 3d a8 c2 7f bd 73 2a d9 bc
       -0.0032511165 0.09445387 -0.062441498 -0.0265095
000270 b9 0b 1e bd 36 a5 4c bd ef 24 01 3e 51 53 be 3d
       -0.0385854 -0.049962245 0.12611745 0.09293235
000280 be 62 e6 3d 76 8e b1 3d da 5b fa 3c 2f cb ff 3d
       0.11249302 0.086697504 0.030561376 0.12489926
000290 06 cd 87 3d 19 15 81 3c 9f ee 60 bd 52 76 9c bc
       0.06630902 0.01575713 -0.054915067 -0.019099388
0002a0 12 7b 43 bd 96 73 37 bd 2b b2 e6 bd 3f b4 86 bd
       -0.04772479 -0.044787966 -0.112644516 -0.06577348
0002b0 a0 02 54 bc 26 1f 27 3d 52 6a af bd e2 12 a3 3c
       -0.012940079 0.04080119 -0.08565201 0.019906465
0002c0 55 06 cb 3d c2 df b3 3d 5c f5 4c 3d bd 9d 3b 3d
       0.09913317 0.08782913 0.05003868 0.045804728
0002d0 6c e2 43 bd 7e 7e 9c 3c 8e 2e 4b bc b6 0a 79 3b
       -0.047823355 0.019103285 -0.012401236 0.003800077
0002e0 55 04 9f 3d 22 99 b4 bc 5f f6 8f bc ca 63 a8 3c
       0.07764498 -0.022045676 -0.017573534 0.020555396
0002f0 2d 5b 87 3d cd cc 53 3c 15 5f 0c 3d 2b cd e5 3d
       0.06609187 0.012927246 0.034270365 0.11220773
000300 e0 ff 04 3d 79 e2 c8 bd 79 76 05 3d b5 fa 03 be
       0.032470584 -0.09808821 0.032583687 -0.12888606
000310 80 e2 e5 bc af 8a 99 3c e4 d3 1b bd d5 e6 86 bd
       -0.028062105 0.018742887 -0.03804387 -0.065869965
000320 f1 18 78 bd 9b d6 0b bd 5d fc 05 be b0 48 83 bd
       -0.06057066 -0.03414021 -0.1308455 -0.064103484
000330 4a 93 10 3c 88 de 3c 3d 9d a1 f2 3b d3 83 e9 bd
       0.008824179 0.04611066 0.0074045197 -0.114020966
000340 a4 17 c2 3d df 54 b4 3b 4c 62 75 3d 62 6f 9a bd
       0.09477165 0.0055032815 0.059908196 -0.07540776
000350 73 a1 74 3d 36 ae 52 3d 82 48 59 bc d0 18 6c b9
       0.059724282 0.05143567 -0.013261916 -0.00022515957
000360 37 31 a8 3d 94 e8 21 3d 86 b1 b2 bd e5 14 c7 bc
       0.08212512 0.039528444 -0.08725266 -0.024301955
000370 d6 05 06 be d8 7a ac 3d 0e 3d c8 3c bf 2b 03 3d
       -0.13088164 0.08421868 0.024443176 0.03202414
000380 0b 27 62 3d 6b 5d 9f bd 85 fc e8 3c 49 1e b0 3d
       0.055213016 -0.0778149 0.028440723 0.085995264
000390 e5 9e 1c 3e 9b fb d4 3d 14 76 03 bb 3e 42 46 3d
       0.15294988 0.103995524 -0.0020059394 0.048403017
0003a0 59 74 d0 3d 16 d2 d4 bd cf 8d f6 bd b3 6c 94 3c
       0.101784416 -0.10391633 -0.120387666 0.018118238
0003b0 35 0a 10 be a3 9a ba bd 9b 16 09 3e a7 68 20 3d
       -0.14066394 -0.09111526 0.1338753 0.039162304
0003c0 08 da 8e bd a0 f7 1e bc 52 cc f1 3a 91 0f 22 bd
       -0.0697518 -0.009702593 0.0018447733 -0.039565627
0003d0 af a8 df 3d e2 8a d7 3d ee b0 ea bd ef ee 9e 3c
       0.10920846 0.10524537 -0.11459528 0.019401042
0003e0 bc aa fe 3d 12 53 46 3d 8c 52 aa bd e5 3f cf 3d
       0.12434909 0.048419066 -0.08316526 0.10119609
0003f0 08 4e 98 3d 83 78 35 bd a3 5c 97 3d f7 ee 0e bd
       0.07436758 -0.044304382 0.07390716 -0.034895863
