model/high67_p0.1_m20_diff_pool.pt (torch, 706945 bytes, 113 tensors)

gnn1_pool.conv1.lin_rel.weight f4 [64, 2]
000000 4f 6e f4 bd 39 31 f4 be c8 9b 2d 3d aa d9 ab bd
       -0.11935102 -0.47693804 0.042384893 -0.083911255
000010 03 bb 02 bd 9e d2 a4 be 73 d2 be 3e 03 ff 0d be
       -0.03191663 -0.32191938 0.37269935 -0.1386681
000020 e0 23 e7 3d 8d ce 38 bf 51 a3 0b 3f 37 f4 02 3f
       0.112861395 -0.7219017 0.54546076 0.5115389
000030 0f f0 01 bd f5 a5 04 3f ab c7 00 bf dd bd 04 3f
       -0.03172308 0.5181573 -0.5030467 0.5185221
000040 e3 a6 2b 3e 68 0a 30 3f 6b f3 78 3d c4 2a af 3e
       0.16762881 0.6876588 0.060779016 0.34212315
000050 7f a4 c2 be 77 52 33 3f 9a d5 e7 3d 9a c8 0f 3f
       -0.38016126 0.70047706 0.11320038 0.5616547
000060 c6 ba fc 3d b0 e5 1c 3f 01 f7 55 be a3 6f c0 3e
       0.12340312 0.61287975 -0.20895006 0.37585172
000070 f4 f3 88 3e eb 88 80 be 1e aa 18 3f 97 60 c9 be
       0.2674862 -0.2510446 0.5963458 -0.39331505
000080 e3 fa a5 bd 13 41 33 bf 64 f8 29 bf 6b 45 33 bf
       -0.081044935 -0.7002117 -0.6639464 -0.700278
000090 73 e3 af be f5 1f 14 3f 83 23 04 3f 50 7f 20 3f
       -0.34353217 0.5786126 0.51616687 0.62694263
0000a0 91 ce 8b be e0 12 31 3f 77 c2 0f 3f 6b ea 35 3f
       -0.27306035 0.69169426 0.56156105 0.7106082
0000b0 3f 41 05 3f 6a 82 6c be 50 71 db 3e 89 45 d5 3e
       0.5205268 -0.23096624 0.42859888 0.41654614
0000c0 1d 51 34 3f 29 d7 85 bd 63 ac 6b be 77 87 24 3f
       0.7043627 -0.06535179 -0.23014979 0.642692
0000d0 7c 9e 17 be 07 40 27 3f 28 a7 2c 3f 44 a7 09 3f
       -0.1480655 0.6533207 0.6744256 0.5377085
0000e0 70 72 87 3e 42 5b 99 3e dd a7 a8 be 77 81 9d bd
       0.26454496 0.29952437 -0.3294057 -0.07690709
0000f0 0a d4 09 3f 5f 35 80 bd 32 0c 34 bf 44 d2 bb 3e
       0.5383917 -0.0626018 -0.7033111 0.36683857
000100 c5 d0 b8 be f2 f2 a8 3e 29 42 15 3f 33 76 cf 3c
       -0.3609678 0.32997853 0.5830408 0.025324916
000110 39 b7 87 3c ff 3e 3d bf 9e be 03 3f c6 e0 fa 3c
       0.01656686 -0.7392425 0.51462734 0.030624758
000120 24 b4 2a be 64 ac e5 be b7 9c 02 3e b8 23 ca be
       -0.1667028 -0.44858086 0.12755094 -0.39480376
000130 54 a4 ab bd 95 35 2f bf 84 ce b0 be 40 d8 2d 3f
       -0.083809525 -0.68441135 -0.3453256 0.67908096
000140 02 a6 e7 be 19 a7 93 3d d0 7a 89 3e f4 b8 de be
       -0.4524384 0.07209606 0.2685151 -0.43500483
000150 bf 51 20 bf be 72 0f 3e 5c 27 1e be 98 d3 f7 bd
       -0.62624735 0.14008614 -0.15444702 -0.12100905
000160 01 d1 45 bf fd f6 c5 3d 6a 8a 89 3d 6b b2 8a 3e
       -0.7727204 0.0966625 0.067158535 0.27089247
000170 2a 39 e4 be 35 6d ca 3e df 59 5f be 1b 58 d6 3d
       -0.44574863 0.39536443 -0.21811627 0.104660235
000180 24 51 1f bf 44 b1 04 3f 2c 3e f4 be eb 90 26 bf
       -0.62233186 0.51832986 -0.47703683 -0.6506488
000190 82 bd 26 3f e0 49 c2 be 13 22 d4 be 20 20 10 bf
       0.65132916 -0.37946987 -0.41432247 -0.5629902
0001a0 6a 05 1b bf 2a 41 99 3d 09 7f 2a bf 37 9c 04 3f
       -0.60555136 0.07483132 -0.6660009 0.51800865
0001b0 d4 7d 40 3e 22 dc 05 bf 30 6c 1b bf 5a d2 09 3f
       0.18798 -0.5228902 -0.60711956 0.53836596
0001c0 4d aa 67 be e1 6e 96 3e 90 af 34 bf 76 4a a3 3e
       -0.22623558 0.2938147 -0.7058039 0.31892747
0001d0 cc ff d1 3e c3 8d ec be 3e 1f 98 bd ba 32 2c 3f
       0.4101547 -0.46201906 -0.07427834 0.672649
0001e0 e4 17 be 3d d2 4f 02 3f 87 6f c2 3e 27 aa 49 be
       0.092819005 0.50903046 0.37975714 -0.19693814
0001f0 3e b8 f7 be e5 49 11 bf 38 c1 d0 3e d1 e2 5c bd
       -0.48382753 -0.5675338 0.40772414 -0.053927246

gnn1_pool.conv1.lin_root.weight f4 [64, 2]
000000 26 96 18 3e dd f9 89 3e 74 66 93 3e 24 18 f2 3d
       0.14901027 0.26948443 0.28789103 0.11821011
000010 1e fe 8b bc 82 ae 51 bd 3f 4f 18 3b af 35 89 be
       -0.017088946 -0.051191814 0.0023240594 -0.2679877
000020 ac 46 18 3f a7 df 66 be aa 01 ae be b7 1a 33 bf
       0.59482837 -0.22546254 -0.33985645 -0.6996264
000030 c4 a6 c1 3e a5 d6 a7 3e ca 10 f9 3e 68 22 08 3f
       0.37822545 0.32780948 0.48645622 0.531775
000040 f0 e4 2a bf 74 c4 05 bf 7d 07 a8 3b 57 aa 31 3f
       -0.6675558 -0.5225289 0.005127846 0.6940054
000050 7b da b9 bd 4d 56 06 3f 70 a7 00 3e cc dd 01 bd
       -0.09074875 0.52475435 0.12563872 -0.031705663
000060 16 db b1 3c 3a 0f f9 be d3 33 ad be 65 94 47 bd
       0.021710914 -0.4864443 -0.338286 -0.048725504
000070 2a 5e f3 3e 33 0e 30 bf c5 3e d1 3e 1f ed d8 bd
       0.4753278 -0.68771666 0.40868202 -0.10592102
000080 4d f8 2d 3e 6c 02 1d bf 70 39 2f 3d b4 b6 1f bf
       0.1698925 -0.6133182 0.042779386 -0.6238816
000090 a3 56 25 bf fb 39 39 be ab e8 1e bf 75 00 09 be
       -0.6458532 -0.18088524 -0.62073773 -0.1337908
0000a0 12 b3 8c 3e 1c 79 e3 be 20 3b 80 be cf 3e b0 be
       0.2748037 -0.44428337 -0.2504511 -0.3442292
0000b0 be a8 d2 3e 7c 83 9e be 6d c7 1c bf 38 66 06 bf
       0.41144365 -0.3095969 -0.612418 -0.52499723
0000c0 e3 e0 2d bf fa b2 ca be b3 86 d0 bd 99 d9 b1 3e
       -0.67921275 -0.39589673 -0.10181942 0.34736326
0000d0 dc ac 32 bf 7b cf 25 bf a9 cc 1f 3f d1 f5 b5 3a
       -0.6979501 -0.64769715 0.6242166 0.0013882463
0000e0 df 9b 08 3f 1e 24 26 3e 2d 7f 2b 3e fb b3 5d 3e
       0.5336284 0.16224715 0.16747732 0.21650688
0000f0 e7 1f 10 3f 36 c5 4b be b9 dd 26 be 79 52 20 bf
       0.5629868 -0.19899449 -0.16295518 -0.62625843
000100 f5 51 0f 3d 57 30 01 3f 9b 42 06 bf df eb c3 be
       0.03499027 0.50464386 -0.5244538 -0.38265893
000110 0f 2d f6 3b c8 c2 fb 3e 39 5b cc bd c1 61 19 3d
       0.0075126956 0.49172044 -0.09978337 0.03744674
000120 5b 35 ab be 34 f4 2f bf 84 dc 6a 3e 3e c6 d9 bd
       -0.33439144 -0.68732 0.22935683 -0.10633515
000130 37 05 3d be 9f 52 20 3f 75 0c 6c 3e 69 08 ef 3e
       -0.1845902 0.6262607 0.23051627 0.46686104
000140 37 9f f3 3e e4 73 54 be da 73 04 3f 5c 07 56 be
       0.4758241 -0.20747334 0.51739275 -0.20901245
000150 4b e4 f8 3c 00 34 3c 3f 86 80 1c 3f 0e 1e 18 3d
       0.030382296 0.73516846 0.6113361 0.037138037
000160 7f 6f bf be bf 3c 61 3e cd 88 27 3f a4 97 f2 3e
       -0.37389752 0.21995829 0.65443116 0.47381318
000170 cc 9f 15 3f f9 db 1e be 97 d2 ec 3e e6 6f 1c bf
       0.58446956 -0.155136 0.46254417 -0.61108243
000180 03 a1 95 be 48 aa 60 3e d4 8a 7a 3d c6 5c 24 bf
       -0.29224405 0.21939957 0.061167553 -0.6420406
000190 e5 20 0d 3d 58 7e 2f 3e c3 1e c7 be 73 61 28 bf
       0.0344552 0.1713804 -0.38890657 -0.65773696
0001a0 e9 e6 19 3f 08 1b 90 be 17 ce 36 3e fc e5 22 3f
       0.60117966 -0.28145623 0.17852055 0.6363218
0001b0 69 a8 26 bf 41 91 12 be ab e1 99 3d 1d 56 d1 3d
       -0.65100724 -0.14313222 0.07513746 0.10221503
0001c0 c9 a3 ae 3e a3 01 74 3d 4d b2 00 3f ab 90 f9 be
       0.34109333 0.059571873 0.50272065 -0.48743185
0001d0 86 2f 0a 3f b7 74 4a be b9 20 15 bf 9f 86 f3 be
       0.53978765 -0.19771086 -0.58253056 -0.47563645
0001e0 6d a1 21 3f 1e 0b d6 be 1f ef 81 3e 3f a4 d0 be
       0.6313694 -0.41805357 0.25377747 -0.4075031
0001f0 9b 2f 2b bf b7 5e be be fc 07 54 3e 7c 3b 5a be
       -0.66869515 -0.37181637 0.20706171 -0.21311754

gnn1_pool.conv1.lin_root.bias f4 [64]
000000 96 23 0c bf 7c a0 08 bf aa 7b 1e be a0 1b 4d be
       -0.547418 -0.5336988 -0.15476862 -0.2003007
000010 90 06 b0 be 1e 0f 01 3f 51 69 dc 3e f3 a7 37 bf
       -0.34380007 0.5041369 0.430491 -0.71740645
000020 df db 3d 3f 65 a3 4d bc c5 8c b3 be fb 84 16 bf
       0.7416362 -0.012551163 -0.35068336 -0.5879666
000030 96 43 17 be 58 4d 3e 3e 8c 31 0f bf 3e e2 07 bf
       -0.14771876 0.18584192 -0.5593498 -0.53079593
000040 4c c0 07 bf 89 52 aa be 51 e1 d6 3e b2 d7 0d 3e
       -0.53027797 -0.33266094 0.41968778 0.13851812
000050 58 68 bd 3e f9 e4 00 be 59 f4 0a 3f 7d 17 ad be
       0.3699367 -0.12587346 0.54279095 -0.33806983
000060 56 f5 75 bd e8 5d d0 3e 0d c7 b3 be 2d 8d af be
       -0.060048424 0.40696645 -0.351128 -0.34287396
000070 d4 7a 06 bf f3 2d e3 3e e9 7b fd be 5f 5d 13 3f
       -0.5253117 0.44370994 -0.49508598 0.5756435
000080 0a 08 f6 bc ce 4a 10 3f b3 85 b4 3e d7 d4 20 bd
       -0.03003313 0.5636414 0.35258254 -0.03926548
000090 47 33 18 3f e5 5b 2b bf 17 66 30 3d 5b ef 24 bf
       0.59453243 -0.66937095 0.04306611 -0.6442773
0000a0 39 7a 18 bf 69 ef 3b bf 13 a8 1a 3f 14 52 a4 3e
       -0.59561497 -0.73412186 0.6041271 0.3209387
0000b0 ad 53 e4 3d a9 58 fa 3e 91 b3 df 3e 9c be e4 3e
       0.111487724 0.48895767 0.43691686 0.44676673
0000c0 ac 63 e1 be fa 38 26 3e 26 c9 46 be 10 04 1d bf
       -0.44021356 0.16232672 -0.1941267 -0.61334324
0000d0 86 a9 05 bf 5c 4b 0a 3f 4f 1a e4 3e 3e 43 93 be
       -0.522118 0.5402124 0.44551322 -0.2876224
0000e0 a3 f5 25 3f 30 09 ca 3d 24 c8 17 bf 6c fa b8 be
       0.64827937 0.098650336 -0.59289765 -0.36128557
0000f0 8c 5b 04 be 22 5a 90 3e ff 5a 39 3e 45 9e 24 bc
       -0.12925547 0.28193766 0.18101119 -0.0100475

gnn1_pool.bn1.weight f4 [64]
000000 00 00 80 3f 00 00 80 3f 00 00 80 3f 2a fd 7a 3f
       1.0 1.0 1.0 0.9804255
000010 75 e3 6f 3f 19 56 68 3f 0e 3d 6f 3f 8b 06 71 3f
       0.93706447 0.90756375 0.9345254 0.9415061
000020 81 67 59 3f a4 b6 63 3f d1 ba 5d 3f b4 94 83 3f
       0.8492356 0.8895056 0.86613184 1.0279756
000030 6d 0b 6c 3f 03 8e 62 3f e8 f0 81 3f 16 b6 66 3f
       0.92204934 0.8849794 1.0151644 0.9012159
000040 00 00 80 3f 00 00 80 3f 15 53 65 3f 98 82 62 3f
       1.0 1.0 0.895799 0.8848052
000050 bf ce 78 3f 53 78 6f 3f cb f3 66 3f 00 00 80 3f
       0.9719047 0.93542975 0.9021575 1.0
000060 4f 56 6a 3f 06 37 5a 3f 00 00 80 3f c3 a7 62 3f
       0.91537946 0.8524021 1.0 0.88537234
000070 86 82 61 3f 5e da 71 3f 6e 1c 77 3f 1a 6b 6e 3f
       0.8808979 0.94473827 0.96527755 0.93132174
000080 0f 4b 55 3f db f1 66 3f d7 e3 73 3f ab 18 4d 3f
       0.83317655 0.9021279 0.9526953 0.80115765
000090 bd 11 6d 3f 00 00 80 3f 0d 04 78 3f 1f 5f 70 3f
       0.9260519 1.0 0.9688118 0.93895143
0000a0 00 00 80 3f bd d6 81 3f 7e a0 68 3f 40 ae 5c 3f
       1.0 1.0143658 0.9086989 0.86203384
0000b0 3a 4a 62 3f 1f 07 77 3f d8 a9 73 3f 3b 2e 67 3f
       0.8839451 0.9649524 0.95181036 0.9030492
0000c0 f7 72 70 3f 00 00 80 3f 8b ba 78 3f 00 00 80 3f
       0.9392542 1.0 0.9715964 1.0
0000d0 50 46 89 3f 4a 83 66 3f 98 ed 81 3f 46 be 78 3f
       1.0724583 0.9004408 1.0150633 0.97165334
0000e0 fd dc 64 3f 2d 2b 7c 3f 72 87 61 3f 00 00 80 3f
       0.893997 0.9850338 0.880973 1.0
0000f0 ac b6 5b 3f 20 6c 63 3f 00 00 80 3f bd 5a 53 3f
       0.8582561 0.8883686 1.0 0.8256033

gnn1_pool.bn1.bias f4 [64]
000000 92 ec 4c bb 04 ca c5 3a 14 2c 17 bc 3a bf 52 3c
       -0.0031268937 0.0015090113 -0.009226818 0.012862975
000010 07 62 23 3d 16 14 5e bc 90 d2 97 3d c3 cf da 3d
       0.039888408 -0.013554594 0.074132085 0.10684159
000020 7b f8 40 bc 8d 45 07 3d 66 2e 06 3c 2d 63 5c 3c
       -0.011777992 0.033025313 0.008189773 0.01345138
000030 7f 6f d6 bc 1a d8 80 3d 59 57 97 bd 5c 37 0f 3d
       -0.026176212 0.06291218 -0.07389707 0.034964904
000040 f0 7b 2d 3a d0 b7 09 3b 3e 34 dc 3c d8 28 a0 3d
       0.00066178944 0.0021014102 0.02688038 0.0782029
000050 7e 70 5c 3c 8f e5 04 bd ee 7f 2c bc c4 dd 9e ba
       0.013454555 -0.032445487 -0.010528548 -0.0012120535
000060 90 c0 87 3d 7b 7f 0c 3c cf 56 4c bb fb 5f 85 bc
       0.06628525 0.008575316 -0.0031179672 -0.016281119
000070 5e 37 f6 bc b3 0a 4d 3c 26 ae 46 bb a3 60 15 3d
       -0.030055698 0.012514758 -0.0030316203 0.036469113
000080 17 af 8d 3d b7 15 0e 3b dd 00 28 bd 4b 14 4d 3d
       0.06918161 0.0021680424 -0.04101645 0.05006818
000090 45 a7 bd bc 84 61 e2 39 c3 13 c2 3d f2 cc 8e bd
       -0.02315105 0.00043178734 0.094764255 -0.06972684
0000a0 4d e1 13 bc 0c e7 48 3d cd 7f cd 3c 6a 95 80 3c
       -0.009025884 0.04904847 0.025085354 0.015696246
0000b0 cb 3b 49 3d 70 0e e1 bc 5b df cf 3c c5 ce c4 bd
       0.04912929 -0.027472705 0.025375059 -0.09609751
0000c0 6e 55 88 3d 6c c6 8e ba 6b 4a bb 3c 78 55 ab 3b
       0.066569194 -0.0010892875 0.022862634 0.0052286945
0000d0 02 91 ac bc d1 1f 74 3d 46 f8 99 3d c6 00 55 3c
       -0.021065239 0.059600655 0.075180575 0.013000673
0000e0 cc bd 67 3c 83 51 33 bb 3a 4e 23 3d 48 29 80 bc
       0.014144372 -0.0027361817 0.039869525 -0.015644684
0000f0 b2 9b e1 bb 7c c9 4e bd 06 3f 8a ba db 26 4d 3d
       -0.0068850154 -0.05048512 -0.0010547347 0.050085884

gnn1_pool.bn1.running_mean f4 [64]
000000 00 00 00 00 00 00 00 00 00 00 00 00 e9 8f da 3d
       0.0 0.0 0.0 0.1067198
000010 d6 8b 6d 3e 95 aa 25 3f 33 89 60 3f 78 a3 83 3c
       0.23197874 0.6471341 0.8770935 0.016069159
000020 73 9d bb 3e ad 4f 5b 3e 15 bb 91 3d 7b 7e 80 3a
       0.36643562 0.21417113 0.07115761 0.0009803319
000030 85 40 53 3d 94 de 38 3d cb e2 e7 3d f5 93 9a 3e
       0.051575202 0.045134142 0.11322554 0.30191007
000040 00 00 00 00 00 00 00 00 26 55 96 3d 32 f3 04 3e
       0.0 0.0 0.073404595 0.12983397
000050 e1 f2 ec 3e 59 25 4c 3e e6 b9 9b 3f 00 00 00 00
       0.46279052 0.19936122 1.2166107 0.0
000060 8f 4e 89 3b 89 ed a1 3e 00 00 00 00 0b 81 55 3f
       0.004190273 0.31626537 0.0 0.8340003
000070 44 c9 72 3e a7 81 ad 3e e8 7e e4 3e a6 74 4e 3d
       0.23709589 0.3388798 0.44628072 0.050404213
000080 23 42 b0 3d 96 25 08 3f 68 43 9f 3e 61 5b 99 3e
       0.086063646 0.5318235 0.31106114 0.2995253
000090 3e 03 68 3d 00 00 00 00 9c 6e 0e 3d bc 40 f5 3c
       0.056643717 0.0 0.034773454 0.029938094
0000a0 00 00 00 00 24 6a e8 3c 1d d5 88 3e 93 15 32 3f
       0.0 0.028370924 0.26725093 0.6956417
0000b0 6f 7a be 3c 13 b1 9c 3f bb 0d 22 3f d6 4b 20 3f
       0.02325174 1.2241539 0.633022 0.62615716
0000c0 2f 00 42 3c 00 00 00 00 5a 30 ae 3e 00 00 00 00
       0.011840864 0.0 0.34021264 0.0
0000d0 5e 52 c4 3a 87 f1 b6 3e 1a 00 9b 3c ac 4e 8a 3c
       0.0014978161 0.35731146 0.018920947 0.016883217
0000e0 36 1e 53 3f ab 9c 9c 3d 04 be 67 3e 00 00 00 00
       0.82467973 0.076470695 0.22631079 0.0
0000f0 84 84 0d 3f ab 48 38 3f 00 00 00 00 22 c7 ee 3e
       0.5528033 0.7198588 0.0 0.466363

gnn1_pool.bn1.running_var f4 [64]
000000 04 00 00 00 04 00 00 00 04 00 00 00 a1 93 cb 3b
       6e-45 6e-45 6e-45 0.006212667
000010 9f c4 c6 3c 77 b9 94 3c 79 79 a9 3c 26 a8 81 3b
       0.024263678 0.018154843 0.020687805 0.0039568124
000020 7c b4 05 3d 7f c4 b8 3d 34 80 24 3d 53 0c bd 38
       0.032642826 0.09021854 0.040161327 9.014518e-05
000030 34 18 10 3c 9c 17 6a 3c 96 28 de 3b 25 56 1e 3d
       0.008794833 0.0142878555 0.0067797406 0.038656373
000040 04 00 00 00 04 00 00 00 3c 74 18 3d 35 f3 1a 3d
       6e-45 6e-45 0.037220225 0.037829597
000050 c2 d1 44 3d 70 86 99 3a dd 85 33 3e 04 00 00 00
       0.048051603 0.0011713039 0.17531534 6e-45
000060 c4 a5 4d 3a b6 03 07 3e 04 00 00 00 fe 09 7b 3d
       0.00078448304 0.1318501 6e-45 0.061288826
000070 bb 4d 25 3c 0a 52 db 3b 76 08 47 3d 64 90 80 3c
       0.010089333 0.0066931294 0.048592053 0.01569385
000080 56 12 2c 3d 14 a9 8c 3c bf b5 c2 3c 67 7e 41 3c
       0.042009674 0.017170466 0.023768304 0.011809922
000090 77 5b eb 3a 04 00 00 00 33 a0 3c 3c a3 47 26 3c
       0.0017956336 6e-45 0.011512804 0.010148915
0000a0 04 00 00 00 12 99 3d 3a 35 ff 31 3e 5e 05 23 3d
       6e-45 0.0007232587 0.1738251 0.03980004
0000b0 9d 91 e6 3b 11 01 47 3b 1b 5f 45 3d 1c 11 97 3d
       0.0070364014 0.0030365626 0.048186403 0.0737631
0000c0 a3 7a 46 3b 04 00 00 00 3f 03 1a 3d 04 00 00 00
       0.00302855 6e-45 0.037600752 6e-45
0000d0 f7 b9 5b 39 69 23 4d 3e 64 4c b9 3b b7 06 93 3b
       0.00020954745 0.20033039 0.0056548584 0.0044868845
0000e0 ca 7d 5e 3c f7 c0 d6 3c a0 29 c6 3c 04 00 00 00
       0.013579795 0.02621506 0.02418977 6e-45
0000f0 74 16 79 3d c5 86 c3 3d 04 00 00 00 60 4b 2f 3d
       0.06081243 0.095471896 6e-45 0.042796493

gnn1_pool.conv2.lin_rel.weight f4 [64, 64]
000000 da 78 47 3c 60 b4 75 bd 63 ab 97 3c 67 1e 3f bd
       0.012174809 -0.059986472 0.01851434 -0.046659853
000010 bf 29 0c be 13 b5 43 3c 94 f4 b0 bc 01 08 6d bc
       -0.136878 0.011945027 -0.021600999 -0.01446724
000020 ac 0a 15 bc 60 02 15 bd b2 96 9d bd 88 53 16 3d
       -0.009096783 -0.036379218 -0.076947585 0.036700755
000030 24 eb 24 bd b0 9d ab bd b5 aa c4 3d 23 e8 01 be
       -0.04026331 -0.08379686 0.09602872 -0.1268621
000040 4a 30 08 3e d9 ad 3b 3d 73 c0 b8 3d 91 ac b7 3c
       0.13299671 0.04582009 0.09021082 0.022421153
000050 19 92 c7 bd d9 15 1b be d1 11 e4 bd be 22 fa bd
       -0.09744663 -0.15145053 -0.11136211 -0.12213658
000060 6c 5a f1 3d 22 71 d6 3d 7d 10 cc bd 4b ac 4d 3c
       0.11784825 0.10470797 -0.099640824 0.012553285
000070 c5 27 0b be 3d 38 52 3d f8 3e 18 be a6 4f 07 be
       -0.1358939 0.051323164 -0.1486777 -0.13213977
000080 c6 eb 41 bd 0d e5 a8 3a 3a d9 28 3e 41 70 08 3e
       -0.04734399 0.0012885645 0.16489115 0.13324071
000090 76 76 3d 3d d5 cd a1 bd 79 24 00 3e 4e 9f e5 3d
       0.04625555 -0.079005875 0.12513913 0.112120256
0000a0 a6 8b 54 3b 89 af 87 bd 13 1f ad 3d 59 57 ac ba
       0.003243187 -0.066252775 0.084531926 -0.001314859
0000b0 b1 20 f7 3c 3a d6 7f bd bc 4e f8 bc e0 4e 8f bd
       0.030166956 -0.06246016 -0.030310981 -0.06997466
0000c0 bd f7 0a bc 6d e7 d4 bd 46 7c 9a bd de 56 0c bc
       -0.008481917 -0.103957035 -0.075432345 -0.008565633
0000d0 88 04 64 bd ce ce 5a bd ea 6c 67 3c d1 79 83 bd
       -0.055668384 -0.05341988 0.014125088 -0.06419719
0000e0 b7 3e 28 be 57 18 16 bd c2 c3 0e be 53 26 6f bd
       -0.16430174 -0.036644306 -0.13941863 -0.05838616
0000f0 5b 0e 2c bd 77 9b a8 bd 6c a1 19 be dc a8 e9 3c
       -0.042005878 -0.082327776 -0.15002984 0.028522901
000100 14 7d 32 be fe 65 07 3e 3a c8 45 bd 11 e8 1c be
       -0.17430526 0.132225 -0.048286654 -0.15322901
000110 26 57 ae 3c f0 47 2f bc 27 6f d6 3d c5 b5 ae bc
       0.02128179 -0.010698304 0.104704194 -0.021326909
000120 9f 3e c7 3d 01 31 0a bd ef 66 6e 3d f0 24 12 be
       0.09728741 -0.03373814 0.058203634 -0.14271903
000130 27 35 69 3d 7b 1b 9d bd af f5 a9 bc 94 e6 0b be
       0.056935456 -0.07671257 -0.020747034 -0.13662177
000140 93 35 a0 3c 80 1a f4 3d 08 b7 e1 3d 7e 2d c4 3d
       0.019556796 0.11919117 0.110212386 0.095789894
000150 18 b9 6c bc e5 f0 e5 bd a9 d9 90 bd a0 ea f8 3c
       -0.014448427 -0.112275876 -0.070727654 0.030385315
000160 5c 77 91 3c e8 65 78 3c 5d c3 65 3d 0b 80 aa 3c
       0.01775711 0.015161015 0.056094516 0.020813009
000170 86 ca 7d 3b 00 00 83 3d 46 85 2f be ec dc de bd
       0.003872545 0.063964844 -0.17140684 -0.10881981
000180 cb ad 11 bd 94 1b cc 3d 4f 20 2f 3e a8 72 e2 3d
       -0.035566133 0.099661976 0.17102169 0.11057025
000190 c2 c0 eb bd b6 37 e6 3b a7 f2 04 3e e8 65 d3 3d
       -0.11511375 0.007025684 0.1298319 0.103221714
0001a0 5f 03 61 bd cb 41 12 be 64 21 08 3e 28 62 cf bb
       -0.054934856 -0.1428291 0.13293988 -0.00632884
0001b0 c0 c7 70 3d dd 7d e4 b9 3c 4a 03 3d 7f 6e 34 be
       0.058784246 -0.00043581324 0.032053217 -0.17620276
0001c0 46 57 6d 3d 40 f8 03 bc 8c f8 d1 bd d4 a9 10 3e
       0.05794456 -0.008054793 -0.10252485 0.14127284
0001d0 68 e9 22 be 1b 08 42 3d dc 9a 0d 3e ac 45 ea bd
       -0.1590935 0.04737101 0.13828605 -0.1143907
0001e0 1f da 0b 3d 8f bb ca bd 96 b9 39 3a 6e 9e e3 bd
       0.034143563 -0.09899055 0.00070848444 -0.111142024
0001f0 a1 a1 c1 3c 32 3b bb bd cc b5 d1 3d 4f e1 1d be
       0.023636641 -0.0914215 0.10239753 -0.1541798
000200 66 7d 37 bc 95 1c d9 bc aa d7 a1 bd 50 94 8d bd
       -0.011199331 -0.026502887 -0.07902463 -0.06913054
000210 36 24 18 3d 05 7b fd 3d 68 3c ea bd 16 4c 0e 3a
       0.03714391 0.1237698 -0.11437303 0.0005428208
000220 17 a7 99 bd 13 da a3 bc 1a 30 60 3d d9 9c 53 3d
       -0.07502573 -0.020001447 0.054733373 0.051663253
000230 55 d7 c2 bd 65 d3 37 bd 52 e9 a8 bd e7 10 30 bc
       -0.095137276 -0.044879336 -0.08247627 -0.010746217
000240 25 24 40 3d b4 9f b2 3d 66 ee 18 be f6 6d e8 bd
       0.04690947 0.08721867 -0.14934692 -0.113490984
000250 0d 24 47 bd 0b 1e c1 3d 5d 93 0b 3d 08 ac 8b bd
       -0.048618365 0.09429558 0.034076083 -0.06819922
000260 45 98 02 bd 98 35 de bd 9e 2f 0c bc f9 ed 3a bd
       -0.031883497 -0.10850066 -0.008556275 -0.045637105
000270 c1 7c 5a bd 8c c0 94 3d ec 40 d1 3c ba 7e 7b 3d
       -0.05334163 0.07263288 0.025543652 0.061400153
000280 2b 66 ea 3c 2a 14 72 3c 27 7e 2d 3e e1 00 48 bb
       0.02861317 0.014775315 0.16942655 -0.0030518102
000290 aa d9 11 3b c7 fd ee 3c de cf d2 3c 4c 1a 26 be
       0.0022254982 0.029173745 0.025733884 -0.16220969
0002a0 8d 2a d3 bd eb 29 c9 3c 95 50 e8 3c 11 a1 07 3e
       -0.1031085 0.02455612 0.028358737 0.13245036
0002b0 c7 3b 37 bd f2 42 61 3d 2a eb 2b bd e0 35 0d 3d
       -0.044734742 0.054995485 -0.041972317 0.034475207
0002c0 69 49 45 bd 5f 68 aa 3d 2f a6 c2 bc 8e 0d 9b bd
       -0.048165713 0.083206885 -0.023760883 -0.07570945
0002d0 a8 c0 00 bd 02 03 c2 bd a7 74 bd 3c f4 a1 d1 bd
       -0.03143373 -0.0947323 0.023126913 -0.10235968
0002e0 d7 ae b7 3c 90 04 f2 bc fa 28 af 3b f8 08 02 3e
       0.022422237 -0.029543191 0.005345461 0.12698734
0002f0 ae ad e5 bc f7 4f 0f 3e 36 35 51 ba df bf 13 3d
       -0.028036918 0.13995348 -0.00079806463 0.036071654
000300 4a 80 4a bd 9d 82 12 3c 20 f3 cf 3d 11 88 19 3e
       -0.049438752 0.008942273 0.10153794 0.14993311
000310 4f 18 37 3e 2f b2 5f 3d 1d 1f d8 bd 01 d4 d3 3d
       0.17880367 0.05461329 -0.105528094 0.10343171
000320 e8 1c 0a bd 22 3f be bd 72 01 a6 3b e7 e9 14 3e
       -0.033718973 -0.092893854 0.0050660903 0.14542352
000330 bf d6 c8 bd c7 74 d9 3d a5 a1 24 3e c1 75 68 3d
       -0.098065846 0.10617977 0.16077287 0.056752924
000340 85 7e 50 bd 40 57 48 bc a8 25 66 3d 86 48 97 bd
       -0.05090191 -0.012227833 0.056188256 -0.073868796
000350 f1 bb e1 bd 25 ed 3e 3d 1d ce d0 3c 20 52 4f 3c
       -0.11022175 0.046612877 0.025488907 0.0126538575
000360 89 21 5b 3d c2 03 b6 3b 80 6e 11 bd 29 4f d6 3d
       0.05349878 0.005554647 -0.03550577 0.10464317
000370 21 c2 1f 3d 65 40 00 bc 37 fa 53 bc fa 21 3e 3e
       0.039003495 -0.007827853 -0.012938074 0.18567649
000380 d4 37 4d 3c 4c b9 fe 3d 2f 78 27 3c 32 8e 9f 3d
       0.0125255175 0.12437686 0.010221525 0.077907935
000390 a0 61 69 3d 24 76 53 3d a6 17 c4 bc ed 09 eb 3b
       0.056977868 0.05162634 -0.023937058 0.007172814
0003a0 07 f7 e0 3d f1 47 36 3e 1c 23 c7 bd 3f c5 ba 3d
       0.10984617 0.17800881 -0.097234935 0.09119653
0003b0 d5 53 15 3d e3 af 9c 3c ea 2e 2b bd 8b 20 45 3d
       0.0364569 0.019126838 -0.041792788 0.04812674
0003c0 ba 18 e1 bc 5b c2 ba bc 98 88 31 3e 05 0f 8f 3c
       -0.02747761 -0.022797754 0.17337263 0.017463217
0003d0 4c 8c 13 3e 03 62 11 bd 9d 47 c9 bd 54 3c 6f 3d
       0.14408988 -0.035493862 -0.09828112 0.058407143
0003e0 ac 76 94 bd ce 4b ae bd 22 cd 47 3e c8 00 f0 3d
       -0.07249197 -0.08510552 0.19511846 0.11718899
0003f0 db 78 16 3d f2 3e 76 bb 33 3f 12 be d6 0d 84 3d
       0.03673635 -0.003757414 -0.14281921 0.064479515

gnn1_pool.conv2.lin_root.weight f4 [64, 64]
000000 9d e7 25 bd 7c 83 3c 3c 3a bb 18 3e d2 dd 29 3d
       -0.040504087 0.011505958 0.14915171 0.04147131
000010 d3 55 a0 bd b2 8e 3b 3d 57 f1 a7 3d a9 8d cf 3d
       -0.0782887 0.04579038 0.08200329 0.101344414
000020 21 e4 a5 bd ac 85 8c 3c 16 43 c8 3c bc 51 16 bd
       -0.08100153 0.017153583 0.024446052 -0.03669904
000030 21 e8 d8 3d b4 d8 be bb e1 f2 53 bd b5 3d 88 bd
       0.1059115 -0.005824173 -0.0517453 -0.06652395
000040 46 5f 8c bd b3 17 20 3d 35 a9 e0 3d ba 81 63 3d
       -0.068541095 0.0390851 0.10969774 0.05554364
000050 bb b0 03 3d 6c ff d7 3c 73 5c 2d bd 3e 09 05 be
       0.032150965 0.026366912 -0.042324495 -0.12991807
000060 fd a9 a4 3d 16 f1 8d bd 3d ce 10 3c 5d f4 04 3e
       0.08040235 -0.06930749 0.008838234 0.12983842
000070 08 e1 cb bd bd 79 35 3e a6 1f c2 bd 29 d2 80 3d
       -0.09955031 0.1772222 -0.09478693 0.06290085
000080 3a 37 bb 3d ca 80 3e be 02 e5 5f bc 5b 6e 48 be
       0.09141393 -0.18603817 -0.01366544 -0.19573347
000090 1c c5 8b bd c0 15 d8 bd 28 13 69 3d de f3 67 3d
       -0.06824705 -0.105510235 0.056903034 0.056629054
0000a0 93 9c 59 3d 6f 9d 6b bc 72 c3 24 bd 80 b7 c3 3b
       0.053127836 -0.014380797 -0.040225454 0.0059728026
0000b0 6b 12 d4 3d 2c 85 9f bd 4a 88 c6 3d d7 fd c7 3d
       0.103550754 -0.077890724 0.09693964 0.09765213
0000c0 85 54 04 3e f6 da 4e bc db ba 08 be af 62 75 bd
       0.12922867 -0.012625447 -0.1335253 -0.059908565
0000d0 c9 62 9a 3d af 78 ab bb 61 18 a3 bd 34 36 15 3d
       0.07538373 -0.0052328925 -0.07963634 0.036428645
0000e0 b9 31 f3 3d f4 24 09 3e e3 dc 86 bd 75 21 c0 bd
       0.11874718 0.13393003 -0.065850995 -0.093813814
0000f0 2f 01 87 3d cd aa 2c 3d 4d a4 f2 bb 9c b6 98 bd
       0.06592023 0.042155076 -0.00740484 -0.07456705
000100 22 1a e2 bd cc f7 32 bd 9d 4d 87 3d 1b a9 39 be
       -0.11040141 -0.04369335 0.066066004 -0.18130915
000110 b1 85 db bc 00 a4 a4 3d 3a e2 4d 3d 9c ac cc 3d
       -0.026797147 0.08039093 0.050264575 0.0999386
000120 7d 5b bb bb 7f c6 af 3b dd e1 81 3d 0f 3f 16 bd
       -0.0057176934 0.0053642388 0.06341908 -0.03668123
000130 3a 14 53 bd b1 cb 97 3c fe ad c9 bd fb ed 94 bc
       -0.05153296 0.018529745 -0.098476395 -0.018179884
000140 e0 f2 04 3e fd a7 3c 3e 75 dd 87 bc 83 75 47 bc
       0.12983274 0.18423457 -0.016585091 -0.012174013
000150 95 29 19 bd 76 8e e4 bc e5 24 90 3c b0 f6 d2 bb
       -0.03739317 -0.027899962 0.017595718 -0.006438099
000160 b6 01 80 3d c7 8f 00 bd b0 43 16 be 00 18 46 3d
       0.06250326 -0.031387117 -0.14674258 0.048362732
000170 54 f5 cc 3c 49 d2 03 3d c1 41 d3 bb 7b 83 a5 ba
       0.025019325 0.032182965 -0.0064470475 -0.0012627685
000180 28 49 a4 bd 90 ce 11 be 8f 1c 85 bd f9 cf 66 bc
       -0.08021766 -0.14238954 -0.06499588 -0.0140876705
000190 83 18 58 bc 0d bc 7b 3d 26 0d 84 bb 79 5e 31 3d
       -0.013189438 0.061458636 -0.0040298877 0.043302987
0001a0 d0 c2 10 be 17 32 ed bd ec 2d 8a bc 63 be 5e 3d
       -0.14136815 -0.115818195 -0.0168676 0.054380786
0001b0 fb 13 d1 bd 7b d2 47 3d e5 a7 e3 3d 35 3a b3 bd
       -0.10208889 0.048784714 0.11116008 -0.087513365
0001c0 0c 71 f4 3d 3b 01 95 3d 65 5a 22 be 60 c6 13 3e
       0.119356245 0.07275625 -0.15854795 0.14431143
0001d0 27 b5 a7 3d 1e 89 3e 3d ad 23 5e 3d 50 a9 26 bd
       0.08188849 0.046517484 0.05423324 -0.040688813
0001e0 b7 30 00 3e 6f 4e d1 3d 63 f4 c9 bd ef e6 b4 bd
       0.12518583 0.10220038 -0.09861066 -0.088331096
0001f0 37 32 1b bc 94 6e 90 3c 78 b7 3c bd a4 4e e3 bd
       -0.009472421 0.017630853 -0.046073407 -0.11098984
000200 1c 84 80 bd 65 70 7b 3c a6 4a ca 3d f1 87 b0 bd
       -0.06275198 0.015346621 0.09877519 -0.08619679
000210 1a 87 4c 3d 20 86 99 bd eb 09 b8 bd 86 d2 ed bd
       0.04993353 -0.074962854 -0.08986267 -0.1161242
000220 65 90 1f bd 35 02 f6 3d a1 5a a1 ba 8a 1c d5 3d
       -0.038956065 0.1201214 -0.0012310335 0.10405834
000230 00 61 3c 3d 4c 9d ff bc a1 48 90 3c 13 fc c4 bd
       0.045990944 -0.031202935 0.017612757 -0.09618392
000240 c7 6b 71 3d e9 c2 1b 3e 34 af af 3d ce 4c ae bd
       0.058940675 0.15211071 0.08578339 -0.08510743
000250 a0 f8 30 be c7 d5 ce bc bf e8 e1 bd 81 95 17 bd
       -0.17282343 -0.025248421 -0.11030721 -0.037007812
000260 ce 67 03 bd 89 8b 9d 3c 6e 70 d4 bc a0 c1 21 bd
       -0.032081418 0.019231575 -0.025932517 -0.039491296
000270 de c8 28 be 9c 9e 85 3d 4c 4a 19 bd 89 ec 2d be
       -0.16482875 0.06524393 -0.03742437 -0.16984762
000280 e1 bc 24 3d bc 9a 21 bd 12 83 84 3d e4 74 8c bc
       0.04021919 -0.039454207 0.06470312 -0.017145582
000290 3b fc 0a be 6d 06 8b 3d 05 d3 f0 3d 0a 61 97 bd
       -0.13572781 0.06788335 0.11758999 -0.073915556
0002a0 26 50 fe 3d 52 34 16 3d 2c 06 bc 3d 96 04 9e bd
       0.12417631 0.03667099 0.09180865 -0.077157184
0002b0 a1 33 93 bc f7 26 66 be d9 11 53 be 8c 71 22 be
       -0.017968955 -0.22475801 -0.20612277 -0.15863627
0002c0 2e 47 7b 3d 41 87 43 3b 88 af ec 3d af 2e 53 bd
       0.06134718 0.0029835256 0.115569174 -0.051558193
0002d0 8c 42 ac 3d 2b 8a a5 bd 28 ab 1d 3e 6e d6 9c 3d
       0.0841113 -0.08082994 0.15397322 0.07658087
0002e0 ac 25 43 be 03 29 eb 3d 6b 19 fc 3b 9f b6 38 3c
       -0.1905734 0.11482432 0.0076934597 0.011274009
0002f0 62 43 28 3d 77 b3 16 be 67 af c2 3d 49 41 0a 3d
       0.041079886 -0.14716898 0.095061116 0.033753667
000300 df ce e8 b9 38 e3 f3 3b 8b 5a 34 3d 95 56 8d 3d
       -0.0004440462 0.007442858 0.04403166 0.0690128
000310 45 ba 99 3d 2c 3e 1e 3d a6 fb df bd 73 aa 69 bc
       0.07506231 0.03863351 -0.1093667 -0.01426183
000320 e8 1c 3c 3d 11 db ac 3d 8c 2e 05 bd 7c be da bd
       0.045926005 0.08440221 -0.032515094 -0.10680863
000330 d8 60 a6 3d 74 6a 41 3d 87 00 4e bc e1 05 03 bc
       0.0812394 0.047220662 -0.012573368 -0.007997007
000340 b3 ce f8 3c f2 e4 58 bd 21 9a 55 3d eb 25 d3 bc
       0.030372 -0.052952714 0.052148942 -0.025774917
000350 d6 f0 7c bd 0e 69 01 3e 86 88 b3 3d ce a0 1a 3d
       -0.061753117 0.12637731 0.08766274 0.03775101
000360 6e 1f 34 bd b1 30 65 3d 6b 0e d0 bd 28 64 54 bd
       -0.043975286 0.05595464 -0.10159 -0.05185333
000370 65 aa 16 3d c4 4a d7 bd 29 0e fb bd 18 a2 41 3d
       0.036783595 -0.10512307 -0.1225856 0.047273725
000380 33 39 4a bd 70 a9 68 3d 3a 6b 51 3c f1 44 a0 3b
       -0.049370956 0.056802213 0.012781912 0.004891031
000390 d5 65 0c 3c ff 30 fb bd 9b 33 18 3d 52 18 c1 3c
       0.0085692005 -0.12265205 0.03715859 0.023571167
0003a0 b8 7d 47 3d f5 e0 0b bb 24 f0 96 bd 05 40 e2 bd
       0.04870388 -0.0021343802 -0.07370022 -0.11047367
0003b0 2d e3 aa bd 29 0c d0 3d c5 b5 fc bc 93 c6 10 be
       -0.083441116 0.10158569 -0.030848393 -0.1413825
0003c0 75 09 63 bd 12 37 23 3d 36 a4 e0 bd 67 3d c8 bd
       -0.05542894 0.03984744 -0.10968821 -0.097773366
0003d0 ab ee 66 3d 23 bf 0b bd bf fe 93 bc a9 eb 8c 3d
       0.056379955 -0.03411783 -0.018065808 0.06880886
0003e0 1e e1 e4 3d 09 e9 27 bd 38 0d 11 bd 82 63 cd 3d
       0.1117575 -0.040993724 -0.035412997 0.10028745
0003f0 b3 98 78 bd b7 21 58 3d df 2d a6 3d 3f 41 12 3d
       -0.0606925 0.052766528 0.08114218 0.035706755

gnn1_pool.conv2.lin_root.bias f4 [64]
000000 fb e4 a3 bd cb 5a 25 3e 14 c3 09 be 36 4d c2 bd
       -0.08002659 0.16147916 -0.13453323 -0.09487383
000010 7d 91 03 be 68 3b 20 3e 8c d2 b1 3c 5f 3e 58 3d
       -0.12848468 0.15647662 0.021706842 0.052793857
000020 6f e2 87 bd 70 ec 6c bd 5b 90 1c 3e 59 32 77 bb
       -0.06634986 -0.057842672 0.15289442 -0.0037719219
000030 ef 25 e3 3c 6d f5 28 3c bb a9 94 3c 0b 3b 4b bd
       0.02772805 0.01031242 0.01814734 -0.049616855
000040 f0 27 55 3c a4 b5 dd 3c 4b 98 24 bd 0d ef a3 bd
       0.01301001 0.027064152 -0.0401843 -0.0800458
000050 b1 6f 6c bd 4e 79 86 3d ec 29 84 bc f5 2a ad 3d
       -0.057723705 0.06566106 -0.016133271 0.08455459
000060 97 3f a8 bd 6f 5d 64 bd fd d1 f6 bc df 14 85 bd
       -0.08215254 -0.055753168 -0.030129427 -0.064981215
000070 9e 27 a1 3d fb 72 cf 3d 9a 06 86 3d 1b ad 15 be
       0.078688845 0.10129353 0.06544228 -0.14616816
000080 a3 69 d2 bd 96 6f e9 bc 66 26 1e bd 48 a4 a3 bd
       -0.10274055 -0.028495591 -0.03861084 -0.079903185
000090 90 e9 92 bd 1c 19 9d 3d a9 fa 80 bd 26 b2 36 be
       -0.07173455 0.07670805 -0.0629781 -0.17841396
0000a0 58 29 25 be cb d0 85 3c 90 b5 b2 3d f7 2a 6b bd
       -0.16129053 0.016334912 0.087260365 -0.05741402
0000b0 95 a5 33 3d a4 6d dc 3c 85 db b0 3c 13 61 cc 3d
       0.043859083 0.02690775 0.02158905 0.09979453
0000c0 25 c5 a4 bd 07 c1 94 bd fb 58 81 3c 71 74 96 3c
       -0.08045415 -0.072633795 0.0157895 0.01836607
0000d0 dc 57 38 bd 73 f9 5c be 22 37 b1 3c 25 c3 18 be
       -0.045005664 -0.21579532 0.021632735 -0.14918192
0000e0 ae 74 9a 3c e6 24 a7 bd 58 2a 24 3d 29 7f 03 be
       0.018854465 -0.08161335 0.040079445 -0.12841477
0000f0 1a 86 54 be 71 8a f2 bd b2 10 b8 bd 2b 22 0b be
       -0.2075428 -0.11842812 -0.089875594 -0.13587253

gnn1_pool.bn2.weight f4 [64]
000000 15 da 5c 3f fa f0 53 3f 24 3c 60 3f 68 ea 82 3f
       0.86270267 0.82789576 0.8759177 1.0227785
000010 d6 f6 54 3f 6f e2 57 3f f6 05 65 3f 87 83 5d 3f
       0.8318914 0.84329885 0.8946222 0.8652882
000020 0d c0 58 3f d6 c0 66 3f 9a 13 5f 3f f4 79 65 3f
       0.84668046 0.90137994 0.87139285 0.8963921
000030 83 3a 6e 3f 5c 8f 6a 3f 61 5b 6e 3f 56 3a 57 3f
       0.9305803 0.91625 0.93108183 0.8407339
000040 84 4b 59 3f ce 9c 70 3f 50 46 64 3f c6 43 61 3f
       0.8488085 0.93989265 0.8916979 0.8799404
000050 d0 c0 72 3f b2 07 50 3f d7 2a 68 3f 6d cf 6e 3f
       0.9482546 0.8126174 0.9069037 0.93285257
000060 e4 e4 78 3f 15 9e 71 3f 1d 13 69 3f af f2 66 3f
       0.9722426 0.9438184 0.9104479 0.90214056
000070 db a1 5e 3f 21 1d 68 3f 46 65 5a 3f 09 99 6d 3f
       0.8696572 0.9066945 0.8531078 0.9281164
000080 d1 56 60 3f 29 67 5f 3f 81 09 60 3f 44 2d 5c 3f
       0.8763247 0.87266785 0.875145 0.8600657
000090 8a 94 6f 3f fb 5a 5b 3f bb b0 60 3f af 07 6d 3f
       0.9358603 0.856857 0.8776967 0.9258985
0000a0 24 cb 7b 3f 66 b3 5b 3f 3d d7 67 3f e1 7f 66 3f
       0.98356843 0.85820615 0.905628 0.9003888
0000b0 b6 49 6e 3f 41 5c 62 3f 9e 38 58 3f 4e bc 68 3f
       0.93081224 0.8842202 0.8446139 0.9091233
0000c0 57 a7 5f 3f e2 d2 6b 3f d7 e7 68 3f 1e 00 70 3f
       0.87364715 0.92118657 0.9097876 0.9375018
0000d0 7b ed 64 3f a4 57 68 3f 0d 7c 50 3f db be 73 3f
       0.89424866 0.9075873 0.81439286 0.952131
0000e0 b7 05 7d 3f 7c 07 67 3f 48 c2 64 3f 0a fd 61 3f
       0.98836845 0.90245795 0.8935895 0.8827673
0000f0 80 10 78 3f ad 8a 5c 3f d0 02 6c 3f 47 d9 78 3f
       0.96900177 0.861491 0.9219179 0.9720654

gnn1_pool.bn2.bias f4 [64]
000000 e0 19 5d b8 9b c9 b0 3c 7e 8f ee 3c 16 f7 30 3d
       -5.2714604e-05 0.021580508 0.029121157 0.04320439
000010 d2 f7 d2 3c ec 2b 3b 3c 32 71 72 bd b3 01 71 3d
       0.025752936 0.011424046 -0.059189983 0.05883951
000020 14 d2 2f 3d f6 18 e5 3d ca d3 4e bd 0b 0b ac 3d
       0.042924955 0.111864015 -0.050494947 0.08400544
000030 7d 0d 02 3d 10 0e 56 bd d4 b4 05 3d 1f 71 31 bd
       0.031751145 -0.052259505 0.032643154 -0.04332077
000040 d2 f8 77 3c 40 ba a9 bc 19 2a 68 bc 5a d3 c5 3d
       0.015135007 -0.020718694 -0.014170193 0.09659453
000050 3a 8f 54 3d f7 b7 a1 bc c5 2b 2f 3d 68 87 60 3d
       0.051894404 -0.019741042 0.04276635 0.054816633
000060 f3 26 66 bd cc 8a cf 3d c6 47 e2 3b d1 77 86 3c
       -0.05618949 0.10133895 0.0069055287 0.016414555
000070 6a 84 4c bc 3d d1 82 3c bb 7c 89 bb 74 f4 92 3d
       -0.012482742 0.015968913 -0.0041957772 0.07175532
000080 e8 16 39 3d 06 8f de 3b d8 40 a0 bc e7 20 04 bd
       0.04518786 0.006791952 -0.01956217 -0.03225794
000090 6c 74 b1 3d 79 9e 3c 3d 46 7f 83 3b 56 07 4a bb
       0.08664784 0.04604957 0.004012975 -0.0030827126
0000a0 46 62 ae 3c 47 bc fb 3c 78 c1 3d 3d 54 23 06 3c
       0.021287095 0.030729426 0.046327084 0.008187134
0000b0 af ce 31 3c 2d 74 19 3d 58 1b 59 3b f6 c7 b7 bb
       0.0108525 0.03746431 0.003312787 -0.005608554
0000c0 0c 2e b6 bc b7 d1 27 bc 8b 27 e1 bc 46 95 73 bd
       -0.022238754 -0.010242871 -0.027484676 -0.05946853
0000d0 74 b0 20 3d 0c 9d 40 3c aa f9 4f 3d d9 25 3d 3d
       0.03923078 0.011756193 0.050775208 0.046178672
0000e0 2c 4f ba 3d 24 75 5e 3d 42 00 65 3d 17 23 94 3c
       0.09097132 0.054310933 0.05590845 0.018083138
0000f0 5c ff 73 bd 08 77 d1 3d a8 e2 fd 3d 59 f4 92 3b
       -0.0595697 0.102277815 0.12396747 0.004484695

gnn1_pool.bn2.running_mean f4 [64]
000000 7c 25 6f 3f f9 8f 98 3f 22 3d b0 3e 8e ae fa 3e
       0.9341657 1.1918937 0.3442164 0.489613
000010 5e 20 da 3e c5 41 8d 3f 03 c8 86 3f d4 c4 98 3f
       0.4260282 1.1035696 1.0529789 1.1935067
000020 e3 ec 17 3f a4 69 29 3f 8a 78 8e 3f 6d a0 7a 3e
       0.59345835 0.6617682 1.1130536 0.2447526
000030 35 5e 54 3f ac c1 61 3f f6 65 e7 3e 42 bd ab 3e
       0.8295625 0.88186145 0.45194978 0.3354283
000040 2e 24 5a 3f de 60 13 3f 42 b3 1a 3f e9 d0 12 3f
       0.85211456 0.5756968 0.60429776 0.5735002
000050 42 03 0f 3f d9 c6 9d 3f 4c e0 9b 3f ae 56 f5 3e
       0.55864346 1.2326308 1.2177825 0.47917694
000060 27 a2 40 3f da 13 da 3e 0d fa 32 3f 4c 58 4f 3f
       0.75247425 0.4259327 0.699128 0.80994105
000070 bf 4b 36 3f ec d5 9d 3f ab 40 1b 3f f1 54 83 3e
       0.7120933 1.2330909 0.6064555 0.25650743
000080 0d 02 37 3f ee 73 3e 3f 69 0f be 3e 9b e6 99 3e
       0.71487504 0.74395645 0.37121132 0.3005875
000090 6d 28 ee 3e a0 e3 ce 3e ab 94 b8 3f da a6 18 3f
       0.46515217 0.4040804 1.442037 0.59629595
0000a0 96 94 00 3f a0 47 5a 3f 7a 03 09 3f 2a 28 c5 3e
       0.50226724 0.8526554 0.5352093 0.38507205
0000b0 ae 41 40 3f 9d d6 3e 3f 2f f8 4c 3f 45 ab f7 3e
       0.7510022 0.74546224 0.800662 0.48372856
0000c0 09 91 ac 3e e8 18 75 3e ac ab 8c 3f 1e d5 44 3f
       0.33704403 0.23935282 1.098989 0.7688769
0000d0 ec 4a 69 3f a2 64 9f 3d 4e e1 6b 3f 41 24 7c 3e
       0.91129947 0.07782866 0.9214066 0.24623205
0000e0 2f 61 c6 3e 85 cd ea 3e 61 10 19 3f 16 ee 3a 3f
       0.3874602 0.45859924 0.5979062 0.7301954
0000f0 60 c2 71 3e 29 95 2a 3f 3c 00 f6 3e a7 40 3c 3f
       0.23609304 0.6663385 0.48047054 0.7353615

gnn1_pool.bn2.running_var f4 [64]
000000 67 77 38 40 19 ac 45 40 05 1b 87 3f b2 cc a4 3e
       2.8822877 3.088629 1.0555121 0.3218742
000010 dd 07 69 3f d5 13 89 40 e1 4e 3c 40 be 58 89 40
       0.91027623 4.283671 2.9423144 4.292083
000020 d8 91 a0 3f 71 23 04 3f 64 dc 67 40 eb b8 45 3f
       1.2544508 0.5161658 3.6228266 0.7723529
000030 f9 11 27 3f 34 b9 31 3f fd 07 94 3f d6 93 18 3f
       0.652618 0.6942322 1.1564938 0.5960058
000040 14 41 22 40 0c 83 8c 3f de 20 57 3f c2 59 80 3f
       2.535222 1.0977492 0.84034526 1.0027392
000050 a5 97 a5 3e a0 f2 88 40 9a 6e b0 40 12 aa 8f 3f
       0.32342258 4.2796173 5.513501 1.1223776
000060 97 7c 03 3f 38 05 b3 3e f2 64 a8 3f 66 f5 fc 3f
       0.51361984 0.3496492 1.3155806 1.976239
000070 56 b6 10 40 a0 c8 88 40 a1 ac 5d 3f 52 18 33 3f
       2.261129 4.2744904 0.86591536 0.69958985
000080 4b a3 f5 3e 3f 71 fa 3e ee c1 42 3e c1 d8 c7 3e
       0.47976145 0.48914525 0.19019291 0.39032558
000090 9a 32 95 3e 15 d5 52 3e a9 50 a9 40 a1 62 ce 3e
       0.29140168 0.20589097 5.291096 0.40309623
0000a0 94 a1 b4 3e 29 99 6a 40 94 7b 83 3f 5d 17 a4 3f
       0.35279524 3.6655982 1.0272088 1.281963
0000b0 b1 e0 02 3f ec 06 03 40 39 2d e1 3f d6 fb 5d 3f
       0.511241 2.0472975 1.7591926 0.86712396
0000c0 31 e7 18 3f 94 15 d3 3e 33 7b 80 3f b4 c7 a5 3f
       0.5972777 0.412274 1.0037597 1.295157
0000d0 41 39 34 40 fe b9 68 3e e5 88 3c 40 fe 78 1c 3f
       2.8159945 0.227272 2.9458554 0.6112212
0000e0 5f 9f 1f 3e 0b 5c 80 3f f8 6c b9 3e 86 ba da 3f
       0.15588139 1.0028089 0.3621595 1.7088172
0000f0 f5 80 9a 3e b5 1e db 3e 8e 32 98 3e 79 70 fb 3e
       0.3017651 0.42796865 0.2972607 0.49109247

gnn1_pool.conv3.lin_rel.weight f4 [17, 64]
000000 d1 d4 5b 3b 7e 81 0e bc b1 be de 3d c7 42 2d bd
       0.0033543597 -0.0086978655 0.10876215 -0.042300012
000010 d7 30 e5 bd ec a8 0b bd ec 43 ce 3c 97 c8 30 3d
       -0.11190956 -0.034096643 0.025178872 0.043160047
000020 fb bd 9a bc e5 50 b3 bd 25 c0 a2 3b 07 5e ff 3d
       -0.018889418 -0.08755664 0.004966753 0.12469106
000030 a9 82 ba 3c 34 4e ce bd 50 f8 3f bd 43 e7 90 bd
       0.022767382 -0.1007351 -0.04686767 -0.0707536
000040 04 70 8a bc 1f 82 a1 3d 1e c6 9b 3c 86 0b 7a 3d
       -0.016899116 0.07886147 0.019015368 0.061046146
000050 ff 31 2d 3e 76 51 31 3e 50 1d 0f 3e 53 1e 08 bd
       0.16913603 0.17316231 0.13976026 -0.033232044
000060 01 ba 6d be 3e 9f 88 bc 11 0d cb bd cf fb 51 3e
       -0.23215486 -0.016677495 -0.099146016 0.20506214
000070 d8 4d 12 be 91 15 1f 3e 44 77 41 bd ab 0f 7a bd
       -0.14287508 0.1553557 -0.04723288 -0.0610501
000080 19 bb 6a bc d6 e0 20 be 1d db 15 be 20 10 5b bd
       -0.014326834 -0.15710768 -0.14634366 -0.053482175
000090 90 57 03 3e 3c c5 65 be 18 5e 08 3e 88 8c 33 be
       0.12826371 -0.2243852 0.13317144 -0.17534077
0000a0 d6 dd a6 bc e1 dc ad bd c5 7c 52 bc 04 b0 83 3d
       -0.020369451 -0.08489395 -0.01284713 0.06430057
0000b0 6c 40 4f 3d 35 3b 55 3e e1 80 ce bd a1 2e ad bd
       0.050598547 0.20823367 -0.100831755 -0.084561594
0000c0 e9 22 09 be 63 73 56 3d f5 ae 2d be 6c 14 98 3d
       -0.13392223 0.052356135 -0.16961272 0.0742577
0000d0 f6 63 5a 3e 64 c8 9f bd 57 79 85 bc 38 11 13 3e
       0.21327195 -0.07801893 -0.01629321 0.14362037
0000e0 f8 fb 55 3b 90 1f 19 3e 64 09 a0 bd 07 26 a0 3d
       0.0032651406 0.14953446 -0.07814291 0.07819753
0000f0 d5 26 89 bd e7 5d b0 bc 46 11 c6 3d 54 a4 4c bd
       -0.0669686 -0.021529151 0.096712634 -0.049961403
000100 d2 00 e0 bd 90 c4 20 bc 7e 4b 45 bd c3 be 91 3d
       -0.109376565 -0.009812489 -0.048167698 0.07116463
000110 54 b4 b5 3b cf 1f fb bd 4b 44 58 3c 06 b9 71 3d
       0.0055451784 -0.122619264 0.013199876 0.059014343
000120 82 91 ce bd e3 be ed 3c 72 d0 51 3d 47 c0 30 3d
       -0.10086347 0.029021686 0.05122418 0.04315212
000130 b9 3b 20 3d a5 38 63 3d 72 87 fa bd ef 09 9c 3d
       0.039119456 0.055473942 -0.122328654 0.07619082
000140 08 a2 77 3c 0e 51 2d 3e 95 c7 8e 3c 9e aa bf bd
       0.015114315 0.16925451 0.017429153 -0.093587145
000150 a7 7a 16 3e ad 24 8b bb 75 aa 28 be 84 25 9e 3b
       0.14695226 -0.0042463155 -0.16471274 0.0048262496
000160 49 9b f7 bd ef 13 4d 3e 6f 9a e5 bc 96 f7 7b 3d
       -0.12090165 0.20027135 -0.028027741 0.061515413
000170 f2 f4 70 bd a6 a6 4d 3c 73 91 28 3d de ab 8d bd
       -0.058827348 0.012551939 0.041154336 -0.06917547
000180 ea aa cd 3d 8e a5 b4 3d 7a bb 1a 3e e0 33 ae bc
       0.10042365 0.088206396 0.15110579 -0.02126497
000190 83 81 d1 3b 34 b2 ee bd 25 00 0c be 9c 11 ad 3d
       0.006393613 -0.11655083 -0.1367193 0.08450624
0001a0 2a 19 b3 bd 03 0f ce bc 5b e1 49 bc aa 1c 8e 3c
       -0.08745034 -0.025153643 -0.012321795 0.017347652
0001b0 b1 2d 17 be 54 19 09 3e 97 d7 e8 bd 46 05 01 3e
       -0.14763524 0.13388568 -0.113692455 0.12599668
0001c0 b4 63 0c 3e 94 2b 91 3d ba 86 de 3d 3e fa 41 bd
       0.13709909 0.0708839 0.10865541 -0.04735779
0001d0 08 6e 7f bd b3 9f 85 bd 98 b6 1f be a4 7f 9e 3d
       -0.062360793 -0.06524601 -0.15596998 0.07739189
0001e0 2c e8 b6 bd f6 63 0a 3e 4c 9c 08 be 29 d4 0d 3e
       -0.08931002 0.13514695 -0.13340873 0.13850464
0001f0 41 f0 b5 3d 7a 57 5a 3d 62 b7 91 3c ff ab dc bc
       0.088837154 0.05330608 0.017787639 -0.026937483
000200 31 e9 c1 bc 76 df 1f be ca 4d cd bd 49 23 b9 3d
       -0.023670765 -0.15612587 -0.10024603 0.09039933
000210 9a 21 45 bd 56 1f 4e 3c a8 b6 bd bd fe 1b b4 3c
       -0.048127748 0.012580713 -0.092633545 0.021986004
000220 5a 6b 54 3c 4c 92 e7 3c e3 0d 83 bd d5 ea 0b 3d
       0.012965048 0.028268002 -0.06399133 0.0341595
000230 6e 80 1b 3e d1 9b 72 bd b8 6c 15 3e d0 06 e8 bd
       0.15185711 -0.05923063 0.14592254 -0.113294244
000240 3e 6c fb bd 52 c7 3a be ef 2f 98 bc 9c a0 bc bd
       -0.12276505 -0.18240097 -0.018577544 -0.09210321
000250 65 78 31 bd 7a 0c e0 3b e8 8c 5a bd 19 c7 a2 bd
       -0.043327708 0.006837425 -0.053357035 -0.07948131
000260 51 00 1c 3e 28 f6 02 be 11 1c f6 bd c0 3c 43 3c
       0.15234496 -0.12789214 -0.12017072 0.011916339
000270 76 94 d2 3d 42 31 d6 bb ea 3a eb bd c8 c6 97 bc
       0.10282223 -0.0065366337 -0.11485846 -0.018527403
000280 c0 d2 1e 3d a5 bd b6 bd 6e b7 32 be 61 dd 29 be
       0.038775206 -0.089228906 -0.17452785 -0.16588356
000290 9d e5 11 3e 8c ee 52 bd 5e 2b 9a 3d ab cd 02 3e
       0.14247747 -0.051497027 0.07527803 0.12773769
0002a0 d6 21 b4 bd f0 88 cf bd 16 5d e6 bc 83 c8 cf 3d
       -0.08795516 -0.10133541 -0.028120559 0.101456665
0002b0 a8 49 82 3d 99 69 69 3d 82 5c aa bc 36 9a 10 3d
       0.06361705 0.05698547 -0.020796064 0.035303317
0002c0 80 26 b6 bd e1 f3 a9 3c 78 85 00 3e ee b3 0c be
       -0.08894062 0.020746173 0.12550914 -0.13740513
0002d0 e3 18 4f bd 3b fe 5b 3d ee 44 0e bd b5 17 4d 3d
       -0.050560843 0.05370925 -0.034733705 0.050071437
0002e0 c1 f0 06 3e 96 6d b8 3d 82 b3 82 bc 8b 7b 59 bd
       0.13177778 0.09005277 -0.015954737 -0.053096335
0002f0 a2 a1 81 be 68 2e 18 bd fe 3f 75 bd 85 4d f7 3d
       -0.2531863 -0.03715363 -0.05987548 0.120753326
000300 53 e3 55 bd a8 dd c0 bd 96 4e e7 3b 10 2a 41 bd
       -0.052218746 -0.094172776 0.0070589287 -0.047159255
000310 41 ba 3a bd c6 51 80 3b 2a 3e 17 bd 16 5c 71 bd
       -0.04558778 0.003915998 -0.03692452 -0.05892571
000320 29 aa c7 bd 14 2a 7b bd f4 85 ca bd e6 cf 24 bc
       -0.09749252 -0.061319426 -0.09888831 -0.0100593325
000330 8a d8 4e be c4 37 83 be f3 26 eb 3c 29 4c 34 3d
       -0.2019979 -0.25628483 0.028705096 0.044017944
000340 02 33 6d 3d b2 68 00 3e 88 6c a6 bb 67 71 b0 3d
       0.057909973 0.12539938 -0.005078856 0.0861538
000350 34 2f d9 3d 36 40 8c bd a1 7b d5 bc 0a 7c 1d 3e
       0.106047064 -0.06848185 -0.026059927 0.15379348
000360 b4 51 b5 be 37 cd be 3d f9 44 9f bc 1d 5d 50 3d
       -0.35413897 0.093164854 -0.019442068 0.05087005
000370 8b 7a 03 be 59 b5 02 be 3e 0f 09 3d b6 f9 9e 3d
       -0.12839715 -0.12764491 0.0334618 0.07762472
000380 1a 0b 5e be 64 fa aa 3c d0 db 6f bd 29 47 67 3c
       -0.21683922 0.020871349 -0.05855924 0.014116087
000390 7f f4 36 3c ef 6f 40 be 5c 74 b4 3c 4b f7 00 be
       0.011166691 -0.187927 0.02202814 -0.12594335
0003a0 27 a4 f4 bd 51 fc 33 3d 31 3a 99 bd e1 32 92 bd
       -0.11945372 0.0439418 -0.07481802 -0.07138611
0003b0 96 ce 45 be 88 ea de 3b 05 c6 19 bc e3 9d 84 3c
       -0.19317088 0.0068028606 -0.00938559 0.016188568
0003c0 81 8c ce bc 52 a5 cc bc 07 4c 26 be 39 9a 9e bc
       -0.025213482 -0.024981175 -0.1623994 -0.019360648
0003d0 b7 0e 64 bb 84 b8 da 3d 1f fc 8d 3d 16 eb d8 bb
       -0.003479881 0.10679725 0.06932854 -0.0066198213
0003e0 37 b8 af 3d 76 06 7c 3c f2 64 38 be e4 db 27 bd
       0.08580058 0.0153824 -0.18007258 -0.04098119
0003f0 90 77 e4 3a 87 5e 19 be 32 ec 0c 3e b6 8d c4 be
       0.0017430652 -0.14977466 0.13761976 -0.38389367
