model/p2p2068_p0.1_ob0.1_m10_diff_pool.pt (torch, 814273 bytes, 113 tensors)

gnn1_pool.conv1.lin_rel.weight f4 [64, 2]
-0.042394377 -0.42605472 -0.16498673 -0.004904502 0.69385535 -0.1845942 -0.5157996 -0.6312659
-0.68694854 0.107942715 -0.5469457 0.45492154 0.0249123 0.35015336 0.11409565 -0.4006745
-0.13789758 -0.03411349 0.12225411 -0.6993784 -0.37027684 0.2761881 -0.09736163 0.442957
-0.6918814 0.55143225 -0.11451236 -0.6390377 -0.20589091 0.5206582 -0.6265629 -0.20897882
-0.54713017 -0.57406586 0.17936887 -0.5528327 0.4780555 0.6806954 0.19011492 0.5830665
0.14443164 -0.23466516 0.1411342 0.25227323 -0.6592225 -0.59657997 0.73708814 0.48165888
0.105458245 0.63326687 -0.16647324 -0.6116418 -0.44679934 -0.15577614 -0.23383054 0.14269733
-0.544239 -0.06103285 0.09172656 0.2877246 0.30655965 0.1812531 0.5947159 0.4352741
-0.60300475 0.05372348 -0.5774731 -0.35140753 -0.0933454 0.57223135 -0.17043611 0.68536013
0.2505945 0.7341558 -0.2824347 -0.637934 -0.544233 0.6618064 0.7684853 0.08602602
-0.44414327 -0.11095523 -0.65765226 -0.22396195 -0.5896099 0.629808 -0.4111371 0.14872384
0.63008857 -0.15295956 0.34402028 -0.22934595 -0.6548997 -0.52580863 -0.23135746 -0.55218244
0.10823445 0.5736901 0.26406762 -0.34610593 -0.61753863 -0.30002016 -0.51536006 0.7522487
0.11812042 -0.14694397 0.26720297 -0.2341211 -0.093945496 -0.40652758 0.09105683 0.15937164
0.627166 -0.6266239 -0.7269381 0.115647174 0.022846542 -0.15855451 -0.6000868 0.27381533
-0.66118157 0.57264555 0.10064973 -0.35224625 0.08364891 0.73305815 0.43179917 -0.5936504
00000000: baa5 2dbd d823 dabe 48f2 28be f2b5 a0bb
00000010: 81a0 313f 4306 3dbe 710b 04bf a49a 21bf
00000020: dcdb 2fbf 1211 dd3d a204 0cbf 7aeb e83e
00000030: e114 cc3c 4d47 b33e fbaa e93d 3525 cdbe
00000040: 0635 0dbe 96ba 0bbd 5d60 fa3d 760a 33bf
00000050: ed94 bdbe 8768 8d3e 8965 c7bd 43cb e23e
00000060: 241f 31bf aa2a 0d3f 7585 eabd fa97 23bf
00000070: 11d5 52be db49 053f 6d66 20bf 8bfe 55be
00000080: b910 0cbf fbf5 12bf 79ac 373e 7286 0dbf
00000090: b1c3 f43e 0e42 2e3f 7cad 423e d943 153f
000000a0: e3e5 133e 104c 70be 7c85 103e f529 813e
000000b0: cec2 28bf 77b9 18bf cfb1 3c3f fe9b f63e
000000c0: 7efa d73d c71d 223f f677 2abe 8f94 1cbf
000000d0: e2c2 e4be c883 1fbe 4671 6fbe 401f 123e
000000e0: 3f53 0bbf 95fd 79bd 22db bb3d a450 933e
000000f0: 63f5 9c3e 6a9a 393e 4d3f 183f 3fdc de3e
00000100: 855e 1abf 270d 5c3d 47d5 13bf b0eb b3be
00000110: e02b bfbd c17d 123f ce86 2ebe c373 2f3f
00000120: ec4d 803e a2f1 3b3f 489b 90be a54f 23bf
00000130: db52 0bbf 256c 293f 74bb 443f 692e b03d
00000140: bf66 e3be 7f3c e3bd e65b 28bf 4856 65be
00000150: adf0 16bf 193b 213f 9080 d2be 104b 183e
00000160: 7c4d 213f 6ea1 1cbe 6d23 b03e aad9 6abe
00000170: 82a7 27bf 659b 06bf f8e8 6cbe d45b 0dbf
00000180: 06aa dd3d 5bdd 123f df33 873e cc34 b1be
00000190: 0317 1ebf 3e9c 99be a3ee 03bf 5f93 403f
000001a0: 1ee9 f13d 7b78 16be d4ce 883e 71bd 6fbe
000001b0: 7f66 c0bd 6224 d0be 017c ba3d 5232 233e
000001c0: f38d 203f 6d6a 20bf 9e18 3abf 6dd8 ec3d
000001d0: ac28 bb3c 1d5c 22be 4a9f 19bf 8631 8c3e
000001e0: 3243 29bf e698 123f 7221 ce3d 9f59 b4be
000001f0: 1f50 ab3d b3a9 3b3f c814 dd3e 79f9 17bf

gnn1_pool.conv1.lin_root.weight f4 [64, 2]
0.57979155 0.5215239 -0.20089255 0.42235062 0.14958116 0.3801553 -0.14485784 0.39654922
-0.060132172 -0.61525816 0.34077418 0.10279492 -0.074030526 -0.27288502 -0.6858975 -0.67834914
-0.5551017 -0.617654 -0.7066871 0.4984837 0.27583793 -0.5451839 0.06793038 -0.27676687
0.08270468 -0.45562568 0.5741759 0.025555613 0.21053176 0.679857 -0.505277 -0.1496965
-0.39916638 0.69219446 -0.3450969 0.017738527 0.45202482 0.69471616 -0.1521756 -0.21383275
0.17698382 0.3172018 -0.14600076 0.4261685 -0.22107343 -0.5869488 -0.315829 0.46492442
-0.040294774 0.09505345 0.11122632 -0.5344066 0.73793924 -0.52935904 -0.44577497 -0.6116676
0.64783585 0.0038860482 0.64669263 -0.4560953 -0.3648248 -0.6745857 -0.3437718 -0.69429743
-0.6310841 0.51538485 -0.64620155 -0.33140615 -0.6323826 -0.14695115 0.10420293 -0.12022978
-0.32969606 -0.49704 -0.037331406 0.039408855 0.41613594 -0.33900422 0.38292137 0.2830866
-0.082820244 0.59137595 -0.08757668 -0.26921728 0.32137093 0.2503931 -0.32088858 -0.6261974
0.5107137 0.4836642 0.20152646 0.69722366 -0.2294246 -0.03383119 -0.45498762 0.1061932
0.29978 -0.19900249 -0.15618446 -0.59382236 -0.19231395 -0.28702947 0.2678425 0.13833766
-0.52772075 -0.6096684 -0.24891472 -0.42884478 -0.32552204 -0.55621845 -0.04374902 0.2223699
0.6317874 -0.597016 -0.66738504 0.3680929 0.44126377 0.14617108 -0.04808534 0.10745015
0.30637696 -0.108042695 -0.19321968 0.25410098 -0.11927195 -0.32844812 0.20003998 0.65124625
00000000: 386d 143f 9782 053f c7b6 4dbe 573e d83e
00000010: ce2b 193e b7a3 c23e 9d55 14be 8008 cb3e
00000020: 274d 76bd 8f81 1dbf f479 ae3e 2586 d23d
00000030: 519d 97bd 96b7 8bbe fb96 2fbf 4aa8 2dbf
00000040: 251b 0ebf 931e 1ebf 72e9 34bf 4139 ff3e
00000050: a13a 8d3e 2c91 0bbf 151f 8b3d 63b4 8dbe
00000060: 1261 a93d c547 e9be 31fd 123f 015a d13c
00000070: a395 573e 1c0b 2e3f d559 01bf 0a4a 19be
00000080: 895f ccbe a833 313f 8ab0 b0be 6350 913c
00000090: cc6f e73e ebd8 313f ecd3 1bbe f9f6 5abe
000000a0: 3f3b 353e 4668 a23e 3981 15be c232 da3e
000000b0: 1361 62be 4742 16bf 57b4 a1be 930a ee3e
000000c0: 220c 25bd 62ab c23d a0ca e33d dfce 08bf
000000d0: 96e9 3c3f 1384 07bf 9e3c e4be 3f96 1cbf
000000e0: 92d8 253f 12ad 7e3b a68d 253f 5385 e9be
000000f0: 51ca babe a6b1 2cbf db02 b0be 7abd 31bf
00000100: ba8e 21bf 43f0 033f 776d 25bf 11ae a9be
00000110: d3e3 21bf 5d7a 16be 5968 d53d 083b f6bd
00000120: eccd a8be 077c febe d1e8 18bd 2e6b 213d
00000130: c50f d53e f691 adbe 450e c43e baf0 903e
00000140: a99d a9bd 6a64 173f 675b b3bd d9d6 89be
00000150: bb8a a43e 8633 803e 824b a4be 794e 20bf
00000160: 22be 023f d6a2 f73e f45c 4e3e 407d 323f
00000170: 48ee 6abe 9392 0abd 23f4 e8be d27b d93d
00000180: c47c 993e 4fc7 4bbe d2ee 1fbe be04 18bf
00000190: f3ed 44be 87f5 92be a722 893e 63a8 0d3e
000001a0: b518 07bf 3a13 1cbf 80e3 7ebe 8b91 dbbe
000001b0: d3aa a6be 5564 0ebf 2c32 33bd efb4 633e
000001c0: d2bc 213f 0ad6 18bf bfd9 2abf ac76 bc3e
000001d0: 53ed e13e dfad 153e 22f5 44bd d30e dc3d
000001e0: 71dd 9c3e 7d45 ddbd 61db 45be 8619 823e
000001f0: da44 f4bd 5a2a a8be 48d7 4c3e 13b8 263f

gnn1_pool.conv1.lin_root.bias f4 [64]
0.5914203 0.17138717 -0.43140516 0.24028316 -0.6780729 -0.3428331 0.5649063 0.05722783
-0.6795026 -0.030538792 -0.24494958 0.4735422 0.10554663 0.48949826 0.10094969 -0.14072563
-0.6998522 -0.025250858 -0.3115944 0.27197596 0.2229318 0.24849288 0.27784672 -0.63445705
-0.6093152 0.5175358 -0.07270399 -0.17843205 0.4971803 -0.43766752 0.013269598 -0.54738015
-0.11358166 0.037951298 -0.33678406 -0.5718918 0.22709642 0.03280095 0.21330799 0.1986073
-0.054975778 0.06582411 -0.09682269 -0.35958198 0.4990953 -0.31082267 -0.28259352 -0.046946853
-0.42623854 0.6251761 -0.48720703 0.5478512 -0.06205196 -0.071626134 0.23714632 -0.410645
-0.54956764 0.440299 -0.5526248 -0.33339214 -0.27629167 0.4787345 0.15080473 -0.34527272
00000000: 5267 173f 1e80 2f3e 23e1 dcbe ca0c 763e
00000010: 3096 2dbf d287 afbe b39d 103f bb67 6a3d
00000020: e2f3 2dbf 7d2c fabc 10d4 7abe 2074 f23e
00000030: d528 d83d 849f fa3e b6be ce3d 611a 10be
00000040: 8429 33bf e3da cebc 4d89 9fbe 6f40 8b3e
00000050: 3c48 643e eb74 7e3e ed41 8e3e c76b 22bf
00000060: 15fc 1bbf 3a7d 043f d4e5 94bd e4b6 36be
00000070: 6b8e fe3e f515 e0be ba68 593c 1b21 0cbf
00000080: 809d e8bd d272 1b3d f66e acbe 8067 12bf
00000090: f78b 683e 4a5a 063d 696d 5a3e b65f 4b3e
000000a0: 482e 61bd cace 863d f94a c6bd 211b b8be
000000b0: 6b89 ff3e 2624 9fbe 19b0 90be 584b 40bd
000000c0: f03b dabe 8a0b 203f 3373 f9be fa3f 0c3f
000000d0: 322a 7ebd b9b0 92bd 7cd6 723e 1040 d2be
000000e0: 77b0 0cbf df6e e13e d278 0dbf 60b2 aabe
000000f0: 1a76 8dbe b01c f53e 8e6c 1a3e 96c7 b0be

gnn1_pool.bn1.weight f4 [64]
1.0073628 0.9258374 0.9755925 0.950338 1.0 0.9691314 0.9444137 1.0
1.0 0.93522274 0.89910716 0.9994248 0.89353085 1.0018965 0.8581379 1.0
1.0 1.0152066 0.94606924 0.9898454 0.86695206 0.9706616 0.813118 1.0375316
0.9521841 0.86201197 0.91868776 1.0 0.9209325 0.8603838 1.0 1.0
0.95522773 1.0 0.9478333 0.9963716 0.9361967 1.108126 0.93804455 0.86348957
0.98253644 1.0 0.9048475 1.0 0.9518532 0.9655461 1.0 1.084334
0.92468333 0.9160288 1.0 0.9542331 1.0 0.9670828 1.0 1.0
0.85977477 0.93240774 1.0 0.9518054 1.036447 0.93533736 0.9657787 0.9065005
00000000: 44f1 803f ae03 6d3f 6ec0 793f 5a49 733f
00000010: 0000 803f ff18 783f 19c5 713f 0000 803f
00000020: 0000 803f c26a 6f3f e32b 663f 4eda 7f3f
00000030: 70be 643f 253e 803f edae 5b3f 0000 803f
00000040: 0000 803f 4af2 813f 9831 723f 8266 7d3f
00000050: 92f0 5d3f 477d 783f 8028 503f d6cd 843f
00000060: 56c2 733f d1ac 5c3f 1f2f 6b3f 0000 803f
00000070: 3bc2 6b3f 1d42 5c3f 0000 803f 0000 803f
00000080: ce89 743f 0000 803f 34a5 723f 3612 7f3f
00000090: 96aa 6f3f 13d7 8d3f b023 703f a70d 5d3f
000000a0: 8287 7b3f 0000 803f 16a4 673f 0000 803f
000000b0: a7ac 733f 072e 773f 0000 803f 75cb 8a3f
000000c0: 0cb8 6c3f dd80 6a3f 0000 803f 9f48 743f
000000d0: 0000 803f bd92 773f 0000 803f 0000 803f
000000e0: 331a 5c3f 46b2 6e3f 0000 803f 85a9 733f
000000f0: 4caa 843f 4572 6f3f 463d 773f 6b10 683f

gnn1_pool.bn1.bias f4 [64]
-0.0047257245 0.08355819 -0.019429622 0.07012548 -0.005974143 0.061644904 -0.034150533 -0.002264372
0.006227279 0.044744704 0.04981784 -0.0008630914 0.050846934 -0.058473375 0.12657006 0.0025178196
0.007450269 0.079707325 -0.08155206 -0.023557525 -0.021748595 0.08422747 0.07043453 0.011752674
0.07429159 0.0381734 0.0113335 -0.001316892 -0.003320501 0.013143349 -0.0033804874 -0.008548643
0.060916387 0.0048100958 0.03211441 0.00060417166 -0.022785064 0.049825765 -0.01428835 -0.08333129
0.12573141 0.002551908 0.069203295 -0.0037137447 -0.018038776 0.026941093 -0.0044271783 0.12178652
0.040768884 -0.015060062 0.008748541 0.050713368 -0.0073207584 -0.002593184 0.0029653297 0.010979365
-0.07637891 0.11992162 -0.0040358473 0.039496757 0.11264041 0.02793731 0.045458198 0.006188661
00000000: 40da 9abb 8e20 ab3d df2a 9fbc f39d 8f3d
00000010: bec2 c3bb 5e7f 7c3d 6ee1 0bbd dc65 14bb
00000020: 340e cc3b 3946 373d cb0d 4c3d 1541 62ba
00000030: e044 503d c781 6fbd 959b 013e 0102 253b
00000040: 6321 f43b 983d a33d c404 a7bd b6fb c0bc
00000050: 1c2a b2bc 747f ac3d fb3f 903d 4a8e 403c
00000060: 3026 983d b65b 1c3d 25b0 393c 909b acba
00000070: c39c 59bb 3457 573c 2b8b 5dbb 9c0f 0cbc
00000080: 7683 793d 029e 9d3b 668a 033d 4661 1e3a
00000090: bea7 babc 1a16 4c3d af19 6abc 98a9 aabd
000000a0: bcbf 003e e93d 273b 75ba 8d3d 4c62 73bb
000000b0: 0ec6 93bc 91b3 dc3c dd11 91bb 366b f93d
000000c0: 46fd 263d 7abe 76bc 0a56 0f3c d2b8 4f3d
000000d0: f9e2 efbb 68f2 29bb fa55 423b cbe2 333c
000000e0: 8c6c 9cbd 7799 f53d 243f 84bb 5ac7 213d
000000f0: 04b0 e63d c9dc e43c 6032 3a3d 40ca ca3b

gnn1_pool.bn1.running_mean f4 [64]
1.0984018 0.0770625 0.09535155 0.10982687 0.0 0.049683385 0.5113441 0.0
0.0 0.049282353 0.04612228 0.52948326 0.18366976 0.88426745 0.40046862 0.0
0.0 0.003294227 0.3713907 0.2306262 0.42120898 0.24579929 0.032876533 0.02300583
0.0042667286 0.45209417 0.46179467 0.0 0.92675716 0.22415808 0.0 0.0
0.048510253 0.0 0.0031661098 0.02009291 0.10777181 0.0057891486 0.5125995 0.7493285
0.060797866 0.0 0.25033385 0.0 1.1283987 0.098697275 0.0 0.0047299457
0.04287386 0.43419403 0.0 0.78196454 0.0 6e-45 0.0 0.0
0.18499108 0.09974019 0.0 0.0016032854 0.07850546 0.32810524 0.13121264 0.09674856
00000000: 6e98 8c3f f2d2 9d3d ac47 c33d e9ec e03d
00000010: 0000 0000 ce80 4b3d 72e7 023f 0000 0000
00000020: 0000 0000 4bdc 493d b7ea 3c3d 378c 073f
00000030: ed13 3c3e 5a5f 623f 390a cd3e 0000 0000
00000040: 0000 0000 f5e3 573b ec26 be3e 4629 6c3e
00000050: b4a8 d73e cfb2 7b3e 8ba9 063d b976 bc3c
00000060: eacf 8b3b e378 e73e 5a70 ec3e 0000 0000
00000070: f53f 6d3f b289 653e 0000 0000 0000 0000
00000080: b0b2 463d 0000 0000 827e 4f3b e399 a43c
00000090: 77b7 dc3d e6b2 bd3b b939 033f fed3 3f3f
000000a0: 2f07 793d 0000 0000 c22b 803e 0000 0000
000000b0: 5e6f 903f cc21 ca3d 0000 0000 a9fd 9a3b
000000c0: 809c 2f3d ae4e de3e 0000 0000 d42e 483f
000000d0: 0000 0000 0400 0000 0000 0000 0000 0000
000000e0: 4d6e 3d3e 9644 cc3d 0000 0000 5525 d23a
000000f0: 78c7 a03d 69fd a73e 9b5c 063e 1c24 c63d

gnn1_pool.bn1.running_var f4 [64]
0.020922925 0.038014643 0.0333721 0.026438897 6e-45 0.018276041 0.015676407 6e-45
6e-45 0.021918196 0.0071569425 0.03382894 0.038788583 0.082638055 0.07998693 6e-45
6e-45 0.00054335466 0.0840092 0.037687644 0.012323716 0.05043689 0.00083120086 0.009669598
0.0004985986 0.063496135 0.06388672 6e-45 0.090775706 0.015119568 6e-45 6e-45
0.017966442 6e-45 0.0002746236 0.0039593987 0.03863837 0.0003842183 0.12672769 0.09961465
0.026519854 6e-45 0.058853142 6e-45 0.07622245 0.025105003 6e-45 0.00025648836
0.016937867 0.047883566 6e-45 0.12731197 6e-45 6e-45 6e-45 6e-45
0.0686471 0.07305403 6e-45 7.054577e-05 0.029032145 0.030058054 0.051711567 0.02554361
00000000: 8e66 ab3c 3eb5 1b3d 2fb1 083d 6396 d83c
00000010: 0400 0000 a3b7 953c cf6b 803c 0400 0000
00000020: 0400 0000 ca8d b33c c984 ea3b 3790 0a3d
00000030: c7e0 1e3d 243e a93d 30d0 a33d 0400 0000
00000040: 0400 0000 ea6f 0e3a 040d ac3d 5c5e 1a3d
00000050: 69e9 493c ea96 4e3d f2e4 593a 3c6d 1e3c
00000060: 63b4 023a 430a 823d 0ad7 823d 0400 0000
00000070: 9de8 b93d 11b8 773c 0400 0000 0400 0000
00000080: 5c2e 933c 0400 0000 5bfb 8f39 d8bd 813b
00000090: 4443 1e3d e870 c939 e7c4 013e c402 cc3d
000000a0: 2a40 d93c 0400 0000 fe0f 713d 0400 0000
000000b0: 841a 9c3d 02a9 cd3c 0400 0000 4979 8639
000000c0: 48c1 8a3c 8f21 443d 0400 0000 125e 023e
000000d0: 0400 0000 0400 0000 0400 0000 0400 0000
000000e0: da96 8c3d 5a9d 953d 0400 0000 f9f1 9338
000000f0: d2d4 ed3c 4f3c f63c 82cf 533d d540 d13c

gnn1_pool.conv2.lin_rel.weight f4 [64, 64]
-0.055471182 0.033171296 0.047339916 -0.04954872 0.026433986 0.058854826 -0.009075358 0.10600013
-0.003264303 0.06540781 0.052239545 0.123392776 -0.07766221 -0.015372629 -0.16132678 -0.15048257
-0.11280652 -0.1496145 -0.13296747 0.031483818 0.02217299 -0.13158186 -0.052800402 -0.151856
-0.060071412 -0.05553543 0.05329974 -0.0014473815 0.10810306 0.016242692 0.1085111 0.21724632
0.08724321 -0.041022964 -0.1046874 -0.120854385 -0.083055206 0.08622518 0.03466486 0.029081495
-0.053903207 0.021686856 0.06146662 0.14234187 0.08004913 0.016446734 -0.04546395 -0.04621063
0.030918948 0.0318324 -0.22664754 -0.076223716 0.21777135 0.092872836 -0.19229136 -0.120047465
0.044877823 -0.057581678 -0.0046141413 0.019368693 -0.11777929 -0.10858363 0.019250449 0.042480383
0.02576047 0.030746799 -0.046558294 0.17038487 -0.034732774 0.028006788 -0.0592738 -0.019526755
0.11386423 0.114040494 -0.0421543 -0.17712505 -0.14181425 0.0647228 -0.0018424961 0.054394435
0.047287602 0.026505291 -0.12582871 -0.07195623 -0.061115 -0.1170667 -0.11961995 -0.04379058
-0.013276099 -0.084856994 -0.017572034 -0.02398131 0.104733475 -0.13413166 0.16558588 0.09340605
0.05123403 0.11904574 -0.022794828 -0.0378219 -0.077501364 0.20560819 -0.041457877 -0.103177376
0.017032282 0.007886787 -0.17620344 -0.009702582 0.072958395 0.012499045 0.09681102 0.26040944
0.098836504 0.10014313 -0.145242 -0.013060029 0.15342402 0.10507947 -0.06421537 0.045188
-0.0958228 0.022401646 -0.002930625 -0.17012216 0.06406244 0.016766837 -0.039612878 -0.057633318
-0.11015542 0.001418815 -0.10153942 0.103378914 -0.028471557 0.06515146 -0.030305643 0.12540151
-0.017874518 -0.06789749 -0.053817015 0.13187134 -0.08691718 -0.038596924 -0.06900212 0.09847987
-0.11356688 -0.03295263 0.008600482 0.06453877 0.054821793 -0.13342844 0.057747163 -0.11627965
0.08800473 -0.049276132 0.11930572 -0.08700571 0.03392469 -0.09496445 -0.09880536 0.07780445
0.03858836 -0.12785447 0.042834505 0.13109094 -0.11459651 -0.019037507 0.13523136 0.06729257
-0.11738169 -0.12761955 -0.03738268 -0.09397465 0.111182675 0.0816641 -0.039260127 0.0064253425
-0.014707725 0.099829376 0.014686341 0.030884353 0.15774634 0.06358897 0.014590783 -0.011239559
-0.0073286975 -0.06326607 -0.018803427 -0.04595713 -0.08089456 0.060223863 -0.084688805 0.0005362046
-0.20216735 0.050209686 -0.15598038 -0.080784254 0.11077948 -0.0137119135 0.07483151 -0.080128565
0.09314024 0.028363824 0.112575606 0.1746803 0.078442074 -0.15155406 0.03158243 0.060067065
-0.044108383 0.04446071 0.014901549 0.10769195 -0.30312315 0.032767948 -0.01827423 -0.049448498
0.08904096 -0.0015779354 0.05202728 -0.11340307 0.08270426 -0.07764371 0.06432789 -0.11338597
-0.10416119 -0.074109025 0.04090866 -0.014091266 0.17686842 0.008017471 0.089946486 -0.15399145
0.07123299 -0.09582641 0.112373315 -0.019955782 -0.14638683 -0.13738948 -0.033487163 -0.0033861338
0.17720607 -0.086378664 -0.023254093 0.26582032 -0.081820086 0.029727012 -0.07100462 0.012718338
-0.18292585 -0.09289656 0.0705538 -0.032384936 0.07238326 -0.1642975 0.19649509 -0.19114146
00000000: c035 63bd a0de 073d 80e7 413d 99f3 4abd
00000010: 168c d83c c211 713d cfb0 14bc 9916 d93d
00000020: ebed 55bb 88f4 853d 22f9 553d 5ab5 fc3d
00000030: 5d0d 9fbd 7bdd 7bbc d932 25be 1a18 1abe
00000040: 1b07 e7bd 8b34 19be a028 08be 2df5 003d
00000050: 21a4 b53c 65bd 06be 3c45 58bd 2480 1bbe
00000060: 710d 76bd 1e79 63bd d450 5a3d 10b6 bdba
00000070: 2365 dd3d 650f 853c 113b de3d d275 5e3e
00000080: 91ac b23d b207 28bd 5966 d6bd 8182 f7bd
00000090: d918 aabd d496 b03d befc 0d3d 513c ee3c
000000a0: 9cc9 5cbd a2a8 b13c 6cc4 7b3d 11c2 113e
000000b0: ccf0 a33d 4dbb 863c 6838 3abd 5c47 3dbd
000000c0: bc49 fd3c b162 023d 4b16 68be 2e1b 9cbd
000000d0: 74ff 5e3e 1d34 be3d 07e8 44be 72db f5bd
000000e0: cfd1 373d c4da 6bbd 3932 97bb 18ab 9e3c
000000f0: 4536 f1bd 1861 debd 1eb3 9d3c e9ff 2d3d
00000100: 9f07 d33c b6e0 fb3c e9b3 3ebd 5f79 2e3e
00000110: f443 0ebd 7e6e e53c 16c9 72bd 93f6 9fbc
00000120: a631 e93d 108e e93d fda9 2cbd 4560 35be
00000130: c137 11be 638d 843d e97f f1ba b3cc 5e3d
00000140: a5b0 413d a021 d93c 3ed9 00be ca5d 93bd
00000150: b953 7abd aac0 efbd 4efb f4bd c05d 33bd
00000160: ff83 59bc 81c9 adbd 3af3 8fbc 7474 c4bc
00000170: 817e d63d cf59 09be 588f 293e ac4b bf3d
00000180: c6da 513d 41ce f33d 38bc babc 23eb 1abd
00000190: 09b9 9ebd f48a 523e bccf 29bd a94e d3bd
000001a0: 4987 8b3c 9537 013c ad6e 34be 94f7 1ebc
000001b0: 366b 953d cbc8 4c3c db44 c63d 6354 853e
000001c0: cb6a ca3d d717 cd3d 52ba 14be bbf9 55bc
000001d0: 301b 1d3e e833 d73d 5983 83bd 0d17 393d
000001e0: bf3e c4bd a883 b73c bb0f 40bb 8134 2ebe
000001f0: 2b33 833d 9b5a 893c 1d41 22bd ea10 6cbd
00000200: 2a99 e1bd 88f7 b93a e6f3 cfbd 53b8 d33d
00000210: 2f3d e9bc 216e 853d 8a43 f8bc 4169 003e
00000220: 956d 92bc d70d 8bbd 3b6f 5cbd 4809 073e
00000230: a201 b2bd cf17 1ebd fc50 8dbd d0af c93d
00000240: c195 e8bd 56f9 06bd 09e9 0c3c e72c 843d
00000250: d18c 603d 77a1 08be 4a88 6c3d 0624 eebd
00000260: d33b b43d c5d5 49bd 8f56 f43d 0d30 b2bd
00000270: 9ef4 0a3d b97c c2bd 775a cabd f157 9f3d
00000280: d40e 1e3d 48ec 02be 3c73 2f3d b43c 063e
00000290: 93b1 eabd 8cf4 9bbc 177a 0a3e b0d0 893d
000002a0: d065 f0bd b3ae 02be 951e 19bd c875 c0bd
000002b0: beb3 e33d 823f a73d 3acf 20bd ae8b d23b
000002c0: abf8 70bc 5873 cc3d fb9e 703c 2f01 fd3c
000002d0: 4288 213e ef3a 823d 2e0e 6f3c 2126 38bc
000002e0: 9225 f0bb a491 81bd a509 9abc 8b3d 3cbd
000002f0: 0cac a5bd 4cad 763d 5371 adbd 1590 0c3a
00000300: f504 4fbe aca8 4d3d 52b9 1fbe 3772 a5bd
00000310: 5ae0 e23d efa7 60bc 4341 993d 721a a4bd
00000320: 4fc0 be3d 405b e83c 0a8e e63d 64df 323e
00000330: 3da6 a03d fd30 1bbe 945c 013d e208 763d
00000340: feaa 34bd 6f1c 363d a025 743c 998d dc3d
00000350: f532 9bbe af37 063d d7b3 95bc 828a 4abd
00000360: 1b5b b63d bad2 ceba 8f1a 553d de3f e8bd
00000370: da60 a93d aa03 9fbd 57be 833d e736 e8bd
00000380: 7652 d5bd 79c6 97bd d78f 273d 0edf 66bc
00000390: ff1c 353e b65b 033c dd35 b83d efaf 1dbe
000003a0: 9ae2 913d a340 c4bd fb23 e63d 4f7a a3bc
000003b0: 6ee6 15be d4af 0cbe d629 09bd e6e9 5dbb
000003c0: 8275 353e 4ce7 b0bd 5e7f bebc 9a19 883e
000003d0: 4a91 a7bd 1086 f33c df6a 91bd 9360 503c
000003e0: ea50 3bbe 8d40 bebd 837e 903d 11a6 04bd
000003f0: ad3d 943d 9b3d 28be 0236 493e 96ba 43be

gnn1_pool.conv2.lin_root.weight f4 [64, 64]
0.13039057 0.12684885 -0.106148794 -0.034412954 0.045813955 0.10425645 -0.02873771 0.058250837
0.011539075 0.104744576 0.042292543 -0.10359473 0.08603529 0.03109569 0.0064430675 -0.13283429
0.06738276 -0.12910803 -0.05417527 -0.1434656 0.017802728 0.038531333 0.016231032 0.027453484
-0.13299145 -0.07639254 0.06685179 0.10914119 -0.07677512 0.09858713 -0.056347392 -0.015752222
0.08360488 -0.031896807 0.08337789 0.11573324 0.035095043 0.18073845 -0.0034716667 -0.10895365
-0.006525189 -0.07975144 0.018319756 0.042744912 -0.1489853 0.0604685 0.109224744 0.006289567
-0.02039501 -0.0011811298 -0.051162735 0.024912259 0.16820766 0.03395002 0.055358574 0.067852736
0.010931027 0.12436527 0.1259021 -0.0043710945 -0.102164045 0.0065051303 -0.082049295 0.04929132
-0.023418805 0.027380692 0.04207962 -0.09154889 0.04334104 -0.07715249 -0.12783638 0.008776209
0.08172266 0.096881755 -0.0326065 -0.028439596 -0.044465527 -0.14766455 -0.040806998 -0.12919256
-0.07404372 0.001999474 -0.086425714 0.069930576 0.022139827 0.10014356 -0.05070836 -0.04366377
-0.013363594 0.039717812 -0.10071999 0.079648264 -0.04868886 -0.080294885 -0.0073572765 -0.09403876
0.005266436 0.015840588 0.047224607 0.14977524 -0.03449609 -0.05705818 0.010397994 -0.03426842
-0.06870005 0.045558993 -0.051750295 -0.11067352 -0.09736802 -0.032203574 0.112626866 -0.12015001
0.049779598 -0.1462106 -0.024777025 0.08452127 0.06679372 0.021410208 -0.12393783 -0.07646734
0.0069233323 -0.07239643 0.078910254 0.09498842 -0.06268919 -0.024285754 0.010689939 -0.096524216
0.08512393 0.08362256 -0.0005710135 0.116541974 -0.09393989 -0.020947756 -0.028758943 0.051869027
-0.14469457 0.103161864 0.11433942 -0.04054456 0.013809554 0.060941648 -0.07565216 -0.08251817
-0.053387746 -0.11703073 -0.019734709 0.011410606 -0.037327725 0.07618259 -0.05980908 -0.027479315
0.077865064 0.023148676 -0.108335644 0.008171284 0.062698536 -0.0038525644 -0.045031987 -0.058403146
-0.06799641 -0.07221512 0.041503523 0.06243634 -0.07592489 0.12950042 0.043545675 -0.08107872
0.10008209 -0.08805967 -0.012708879 0.0056985165 0.07243025 0.06562983 0.010494259 0.14962776
-0.11457473 -0.11928704 -0.03604516 0.1328062 0.12900391 0.057079963 -0.03205108 -0.018637715
0.09427042 0.027227534 -0.02840603 -0.0798283 -0.036528405 0.0710016 -0.1079716 -0.054490685
0.02148959 -0.0059097344 -0.1431047 -0.02160861 -0.037714787 0.09453066 0.07437575 0.030739801
-0.00909865 -0.036623374 0.046749692 0.051271167 -0.011097504 0.052732434 -0.099507645 -0.13067673
0.1047685 0.016321197 0.01374984 -0.10421911 0.11617414 -0.050472297 -0.06846528 0.04614494
-0.125559 0.0122245485 -0.07929948 -0.048582453 0.039063945 0.025160894 0.004296001 -0.15684606
0.07595415 0.07155195 0.013573519 0.09695298 -0.009534676 0.04615939 0.043766927 0.023698775
0.033078473 -0.0638695 0.012881823 0.05434087 0.02690711 0.083962426 -0.1759598 0.0327209
-0.102700524 -0.027577443 0.113375075 -0.053636402 0.08282188 -0.12249482 -0.015664151 0.065636046
-0.040820833 0.14693078 0.010996467 -0.046296228 -0.13262133 -0.01335095 0.10551712 0.06748235
00000000: 1b85 053e aae4 013e 8a64 d9bd 99f4 0cbd
00000010: 6aa7 3b3d 6884 d53d 596b ebbc 6e98 6e3d
00000020: 630e 3d3c 5384 d63d f23a 2d3d 7929 d4bd
00000030: 4533 b03d 63bc fe3c 5e20 d33b b605 08be
00000040: f9ff 893d e534 04be e3e6 5dbd a5e8 12be
00000050: 07d7 913c 08d3 1d3d f1f6 843c 21e6 e03c
00000060: e92e 08be b173 9cbd 97e9 883d 6b85 df3d
00000070: 463c 9dbd 0de8 c93d 86cc 66bd ce0a 81bc
00000080: 0939 ab3d 3aa6 02bd 07c2 aa3d 8d05 ed3d
00000090: d2bf 0f3d 8013 393e e784 63bb 1723 dfbd
000000a0: 41d1 d5bb b954 a3bd 5013 963c 4a15 2f3d
000000b0: 9a8f 18be d1ad 773d 39b1 df3d b618 ce3b
000000c0: 7013 a7bc 24d0 9aba 0490 51bd cb14 cc3c
000000d0: a13e 2c3e 2d0f 0b3d acbf 623d 60f6 8a3d
000000e0: 0d18 333c 38b3 fe3d 7bec 003e 663b 8fbb
000000f0: 623b d1bd fd28 d53b 7609 a8bd b2e5 493d
00000100: cbd8 bfbc 794d e03c ae5b 2c3d fc7d bbbd
00000110: 6086 313d 2002 9ebd 8ae7 02be 17ca 0f3c
00000120: 365e a73d f169 c63d 658e 05bd 28fa e8bc
00000130: 7c21 36bd 6035 17be 3d25 27bd 0e4b 04be
00000140: 3ca4 97bd 9b09 033b f7ff b0bd c337 8f3d
00000150: 955e b53c 1118 cd3d 92b3 4fbd c8d8 32bd
00000160: faf2 5abc 25af 223d 4846 cebd a11e a33d
00000170: f86d 47bd a571 a4bd 4f15 f1bb 6597 c0bd
00000180: 1192 ac3b 1fc4 813c 976e 413d ae5e 193e
00000190: c64b 0dbd d7b5 69bd 595c 2a3c 0b5d 0cbd
000001a0: 9db2 8cbd 119c 3a3d 1ef8 53bd cca8 e2bd
000001b0: e268 c7bd e5e7 03bd eaa8 e63d 3511 f6bd
000001c0: b1e5 4b3d 3bb8 15be 30f9 cabc 7d19 ad3d
000001d0: 25cb 883d 7664 af3c 1ed3 fdbd e99a 9cbd
000001e0: 1fdd e23b 9444 94bd b39b a13d 4a89 c23d
000001f0: 3163 80bd ebf2 c6bc db24 2f3c 7dae c5bd
00000200: 7455 ae3d 4e42 ab3d 11b0 15ba 8fad ee3d
00000210: 8f63 c0bd a19a abbc e097 ebbc 9e74 543d
00000220: d02a 14be 8746 d33d c92a ea3d 0d12 26bd
00000230: 7841 623c f39d 793d 85ef 9abd 49ff a8bd
00000240: 1cad 5abd cfad efbd afaa a1bc 8df3 3a3c
00000250: f5e4 18bd 9e05 9c3d 5efa 74bd 4d1c e1bc
00000260: b877 9f3d 4ba2 bd3c 14df ddbd d9e0 053c
00000270: 1768 803d 4e7b 7cbb 7673 38bd 2338 6fbd
00000280: b441 8bbd 85e5 93bd 99ff 293d 3fbd 7f3d
00000290: 827e 9bbd c29b 043e f35c 323d 9a0c a6bd
000002a0: d7f7 cc3d a158 b4bd e738 50bc 9fba ba3b
000002b0: 5056 943d ef68 863d 1df0 2b3c 0538 193e
000002c0: 28a6 eabd c34c f4bd 17a4 13bd 59fe 073e
000002d0: 9a19 043e aecc 693d fe47 03bd 1fae 98bc
000002e0: da10 c13d 470c df3c c3b3 e8bc 057d a3bd
000002f0: cf9e 15bd 4969 913d 3720 ddbd a031 5fbd
00000300: f00a b03c 72a6 c1bb 0a8a 12be 8a04 b1bc
00000310: d27a 1abd 4a99 c13d 5052 983d 09d2 fb3c
00000320: 8112 15bc 6402 16bd 9b7c 3f3d b701 523d
00000330: 4ed2 35bc f7fd 573d aaca cbbd 1fd0 05be
00000340: de90 d63d 08b4 853c 0247 613c d470 d5bd
00000350: b5ec ed3d 0abc 4ebd 8637 8cbd 7a02 3d3d
00000360: 8a92 00be 7949 483c c467 a2bd 65fe 46bd
00000370: 8401 203d 381e ce3c 78c5 8c3b 419c 20be
00000380: d98d 9b3d d489 923d 7763 5e3c 498f c63d
00000390: 5437 1cbc a111 3d3d f344 333d ef23 c23c
000003a0: 4b7d 073d 03ce 82bd 480e 533c 8894 5e3d
000003b0: 4d6c dc3c 7ef4 ab3d ce2e 34be 5a06 063d
000003c0: a754 d2bd 17ea e1bc 3131 e83d d8b1 5bbd
000003d0: 859e a93d 90de fabd 1b52 80bc 316c 863d
000003e0: bf33 27bd 0675 163e 872a 343c 1da1 3dbd
000003f0: e3cd 07be f1bd 5abc 5c19 d83d 3034 8a3d

gnn1_pool.conv2.lin_root.bias f4 [64]
-0.11184836 -0.102620214 0.017449608 0.06788605 0.05507517 -0.15899396 0.017338576 -0.10441426
0.0049237655 0.06294549 -0.14071302 -0.1481565 -0.051140465 0.11676562 0.049183596 -0.08992778
-0.07860376 0.041523032 -0.10194574 0.024141058 -0.012673634 -0.17765117 -0.110945225 0.028830789
0.09134961 -0.1161515 -0.11494908 -0.15632556 -0.12685457 0.032674436 -0.122864574 -0.008325024
-0.11849701 -0.04308901 -0.12387215 0.023296025 -0.11261728 -0.11079708 0.040671296 -0.061424203
-0.12578443 -0.12942587 -0.05105176 0.09297592 -0.040929865 -0.063664414 0.017572552 0.08463573
0.06191706 0.038628936 -0.029370973 -0.07731252 -0.13764298 -0.03851073 0.0374098 -0.18750377
0.12339769 0.08512747 -0.17606966 -0.08734332 -0.11081969 -0.002024626 0.10776336 -0.075042
00000000: c110 e5bd 8c2a d2bd 7bf2 8e3c d707 8b3d
00000010: 8096 613d 50cf 22be a109 8e3c 25d7 d5bd
00000020: 8a57 a13b 91e9 803d 1317 10be 56b6 17be
00000030: aa78 51bd d022 ef3d bd74 493d 0e2c b8bd
00000040: 02fb a0bd 0e14 2a3d eec8 d0bd 78c3 c53c
00000050: 13a5 4fbc 30ea 35be 4037 e3bd 8c2e ec3c
00000060: 8115 bb3d d6e0 edbd 6c6a ebbd cf13 20be
00000070: 2ae6 01be a1d5 053d 6ca0 fbbd ae65 08bc
00000080: 8fae f2bd 1a7e 30bd afb0 fdbd 4ed7 be3c
00000090: e3a3 e6bd 94e9 e2bd f296 263d f297 7bbd
000000a0: a2cd 00be 3788 04be a61b 51bd 296a be3d
000000b0: 13a6 27bd 7d62 82bd 50f4 8f3c 7f55 ad3d
000000c0: be9c 7d3d 6039 1e3d 659b f0bc 0756 9ebd
000000d0: 48f2 0cbe 6dbd 1dbd 053b 193d fd00 40be
000000e0: eeb7 fc3d 5057 ae3d 9b4b 34be 0ee1 b2bd
000000f0: 6ff5 e2bd 96af 04bb 09b3 dc3d 9faf 99bd

gnn1_pool.bn2.weight f4 [64]
0.9289708 0.92396617 0.8934974 0.9342054 1.0013814 1.0361042 0.9016123 0.91199595
0.8733838 0.8948442 0.99443585 1.0199281 0.87734205 0.81872636 0.87910604 1.0358689
0.9377226 0.9251028 0.9950396 0.9913589 0.96707934 0.98989093 0.9407615 0.94597536
0.8244507 1.003276 0.86104465 0.9215693 0.88735086 0.9984005 0.9270687 0.99171925
0.92287344 0.88113105 0.9090096 0.9171911 0.91841525 0.98286164 0.7954915 1.0028847
0.9409889 0.92087394 0.9432176 0.820187 0.89952236 0.9705262 0.8745562 0.872291
0.9387215 0.93910104 0.9135963 0.89528596 0.92162853 0.9402932 0.91675866 0.9190041
0.8867721 1.0425011 0.8535702 0.9018124 0.90678465 0.92053235 0.8848446 1.0258181
00000000: 08d1 6d3f 0c89 6c3f 3fbc 643f 1628 6f3f
00000010: 442d 803f 109f 843f 10d0 663f 9178 693f
00000020: 1596 5f3f 8214 653f 5993 7e3f 018d 823f
00000030: 7d99 603f 0d98 513f 180d 613f 5a97 843f
00000040: 970e 703f 89d3 6c3f eaba 7e3f b2c9 7d3f
00000050: 8392 773f 7e69 7d3f bfd5 703f 712b 723f
00000060: 330f 533f 596b 803f 6c6d 5c3f f7eb 6b3f
00000070: 6d29 633f 2d97 7f3f 6054 6d3f 50e1 7d3f
00000080: 6f41 6c3f ce91 613f dab4 683f 09cd 6a3f
00000090: 431d 6b3f d29c 7b3f 55a5 4b3f 875e 803f
000000a0: a6e4 703f 65be 6b3f b576 713f c6f7 513f
000000b0: 1947 663f 6874 783f eae2 5f3f 774e 5f3f
000000c0: 0d50 703f ed68 703f 72e1 693f 7631 653f
000000d0: d9ef 6b3f 0eb7 703f b2b0 6a3f da43 6b3f
000000e0: 7f03 633f ad70 853f 9483 5a3f 2ddd 663f
000000f0: 0a23 683f 02a8 6b3f 2d85 623f 024e 833f

gnn1_pool.bn2.bias f4 [64]
0.117905244 0.08046341 0.039664745 0.051676508 0.057126533 0.09852503 0.04770408 0.111094326
0.06411433 0.0511449 0.043388046 0.041129027 0.048568763 0.024737746 0.052869968 0.009941939
0.064302914 0.065742075 0.06480941 0.057054825 0.01820604 0.0053363037 0.028203238 0.06912634
0.073115245 0.07691718 0.09740456 0.03427997 0.039083753 0.022032842 0.02817569 0.032242224
0.1005133 0.015287495 0.05011024 0.055106554 -0.05321483 0.018198244 0.072174616 0.06127133
0.10104877 0.031017559 0.010794721 0.09693778 0.0805605 0.15496562 0.11745311 0.006234906
0.09489835 0.01041714 0.03994961 0.013727756 0.07792217 0.001403327 0.04509782 0.015154113
0.007489608 0.013734598 0.096080415 0.06385366 0.0027205322 0.11732802 0.04160928 0.09461192
00000000: 4e78 f13d 00ca a43d 8077 223d bfaa 533d
00000010: 83fd 693d 7ec7 c93d 5a65 433d 6c85 e33d
00000020: 604e 833d 517d 513d aab7 313d e976 283d
00000030: 0af0 463d d0a6 ca3c 2e8e 583d 84e3 223c
00000040: 3fb1 833d c8a3 863d ccba 843d 52b2 693d
00000050: d524 953c 29dc ae3b 7a0a e73c 1c92 8d3d
00000060: 72bd 953d c186 9d3d 0b7c c73d 2769 0c3d
00000070: 4916 203d 387e b43c b4d0 e63c 6c10 043d
00000080: ebd9 cd3d 6778 7a3c 6540 4d3d 69b7 613d
00000090: cbf7 59bd 7c14 953c 49d0 933d a5f7 7a3d
000000a0: a8f2 ce3d 8918 fe3c 57dc 303c 5187 c63d
000000b0: e7fc a43d 4faf 1e3e 428b f03d 2f4e cc3b
000000c0: 115a c23d a7ac 2a3c 34a2 233d 62ea 603c
000000d0: a995 9f3d d7ef b73a 7eb8 383d f548 783c
000000e0: 636b f53b 1407 613c cfc5 c43d b5c5 823d
000000f0: f54a 323b ac49 f03d 7e6e 2a3d e5c3 c13d

gnn1_pool.bn2.running_mean f4 [64]
0.18285769 0.2679623 0.21291704 0.54179895 0.2232635 0.07607749 0.3883008 0.57387304
0.72522175 0.36756918 0.104538076 0.13688767 0.7351806 0.60179466 0.5127507 0.22266579
0.6375072 0.4957687 0.35639387 0.26404345 0.35473484 0.12581758 0.37495753 0.913714
0.6361203 0.30030733 0.44976223 0.2558469 0.7486692 0.4920999 0.41342163 0.5295614
0.4555753 0.71992016 0.10634115 0.55021405 0.45176345 0.44225764 0.3671796 0.30159062
0.20054369 0.20306586 0.6384145 0.19982432 0.31631008 0.14775835 0.692725 0.17561756
0.5367681 0.6632737 0.4953652 0.753811 0.41548526 0.64780915 0.73997015 0.3881354
0.7087671 0.31489998 0.61586404 0.5629521 0.3471137 0.36286244 0.64778197 0.51535106
00000000: 0c3f 3b3e 5b32 893e ed06 5a3e 56b3 0a3f
00000010: 309f 643e 84ce 9b3d 5dcf c63e 58e9 123f
00000020: 22a8 393f 0732 bc3e 0f18 d63d 482c 0c3e
00000030: cc34 3c3f 370f 1a3f a143 033f 8002 643e
00000040: ac33 233f 65d5 fd3e 4279 b63e b430 873e
00000050: ce9f b53e 53d6 003e 6ffa bf3e 29e9 693f
00000060: c8d8 223f e2c1 993e 3c47 e63e 5dfe 823e
00000070: c9a8 3f3f 85f4 fb3e 00ac d33e 5691 073f
00000080: 2a41 e93e b04c 383f 64c9 d93d d4da 0c3f
00000090: 8a4d e73e 986f e23e f7fe bb3e 166a 9a3e
000000a0: 535b 4d3e 7ff0 4f3e 226f 233f bf9e 4c3e
000000b0: 65f3 a13e f74d 173e 6d56 313f 17d5 333e
000000c0: a269 093f 4ecc 293f 82a0 fd3e c2f9 403f
000000d0: 7cba d43e d2d6 253f af6e 3d3f afb9 c63e
000000e0: c371 353f 923a a13e 44a9 1d3f a11d 103f
000000f0: e3b8 b13e 1bc9 b93e 0ad5 253f 0cee 033f

gnn1_pool.bn2.running_var f4 [64]
0.38345158 0.9516972 0.519943 1.8506203 0.4606333 0.14244607 0.8022487 2.7404559
1.9603711 0.9368455 0.12532072 0.21417251 3.8094578 0.18975532 1.8456314 0.37301293
2.9665468 0.99566346 0.88485396 0.59477735 1.3259984 0.13207595 0.5461247 4.507677
2.6210587 1.0325321 1.2720835 0.4852534 3.6657295 1.0879496 1.258845 2.844964
1.8177311 2.7621133 0.2542694 1.0038416 1.2560039 1.3404591 0.9600783 0.72320604
0.38192642 0.46182936 2.1824734 0.03070359 1.2268165 0.2504051 3.2482638 0.023718698
1.2100031 1.1491358 0.9724055 3.9884052 1.602964 2.6914814 2.3411374 1.0482073
1.8557237 0.5294551 3.0198522 2.4877481 0.09265672 1.0917817 2.207023 1.9209146
00000000: c453 c43e 6da2 733f fc1a 053f 20e1 ec3f
00000010: 21d8 eb3e 62dd 113e 2c60 4d3f a163 2f40
00000020: 71ed fa3f 1bd5 6f3f 1354 003e 0a50 5b3e
00000030: 28ce 7340 384f 423e a63d ec3f 8dfb be3e
00000040: e7db 3d40 cde3 7e3f ca85 623f 5443 183f
00000050: 51ba a93f eb3e 073e d4ce 0b3f e43e 9040
00000060: 6dbf 2740 032a 843f a2d3 a23f 2273 f83e
00000070: 509b 6a40 ef41 8b3f d521 a13f e413 3640
00000080: 6aab e83f 77c6 3040 992f 823e e27d 803f
00000090: bcc4 a03f 2a94 ab3f b1c7 753f 0824 393f
000000a0: dc8b c33e e674 ec3e a5ad 0b40 1886 fb3c
000000b0: 5308 9d3f 1935 803e 8ee3 4f40 b74d c23c
000000c0: 62e1 9a3f e216 933f 91ef 783f 0842 7f40
000000d0: ed2d cd3f 3b41 2c40 32d5 1540 a82b 863f
000000e0: 5b88 ed3f 5f8a 073f 4245 4140 4437 1f40
000000f0: cec2 bd3d 81bf 8b3f dd3f 0d40 88e0 f53f

gnn1_pool.conv3.lin_rel.weight f4 [52, 64]
0.00756017 0.13292998 0.0859084 -0.12816472 0.041197922 0.049537946 -0.17428108 -0.20530252
-0.13737892 -0.10368658 -0.02870864 -0.026262194 -0.07488613 0.010092955 0.086656615 -0.0011245944
-0.19969085 -0.16385837 -0.07780447 -0.15886714 0.045314614 -0.19631515 0.010940546 -0.07836938
-0.020391202 -0.009907589 -0.12981346 0.039442033 0.028551595 -0.035907276 0.032438982 -0.06903639
0.00064055645 -0.023716876 -0.07288359 -0.16227311 -0.24601792 0.008730899 -0.09671081 -0.30096278
-0.12794404 0.026239708 -0.03092728 -0.009732461 -0.007897694 -0.11325277 -0.1502047 0.22908749
-0.13075618 0.1470264 0.05882875 -0.11113677 -0.0012071631 -0.05751265 -0.14564052 -0.051110506
-0.02614466 -0.056522217 -0.17777081 -0.22259812 -0.11081763 -0.10951067 -0.04499959 0.07716117
0.07113569 0.032040533 0.12066588 -0.08501636 -0.1798788 -0.12929597 -0.060029894 -0.024760803
0.047759876 0.05120753 -0.05520099 0.013309699 -0.005436535 0.05765292 -0.04346769 0.03941235
0.038366206 -0.074111804 -0.0016232218 -0.118274614 0.105600215 0.016958542 0.12291821 0.06619076
-0.084812015 -0.007058602 -0.08184572 -0.063341424 -0.023725342 0.06243913 -0.11972284 0.09389041
0.06534243 -0.07681053 -0.0702649 -0.034412883 0.029648036 -0.056409538 0.0042520375 -0.04859567
0.06634589 -0.12908854 -0.0012462441 -0.0058859866 -0.13664152 -0.070323996 -0.14565043 0.1490457
0.059517063 -0.0030142844 -0.04928862 0.079340726 0.022863612 -0.078591205 -0.07101168 0.112409875
-0.025760923 0.028938716 0.06513427 -0.02182978 0.13642462 -0.08880618 -0.1511743 -0.10332992
-0.13806063 0.0871105 -0.10416437 0.22936547 0.01635328 0.04357646 0.062397413 0.049537294
0.049253426 -0.1301221 -0.0451684 0.08783507 0.19799393 -0.069936685 -0.08636622 -0.032195374
0.10321347 0.10975696 0.006626441 -0.071336016 0.11962343 0.065112054 0.24050339 0.0068435553
0.025829311 0.047858484 0.013226571 0.16042598 -0.12064522 0.07023285 -0.06794749 -0.05186954
-0.07244519 -0.053115744 0.03665561 -0.1604536 0.22685684 0.10981166 -0.07273946 -0.15248361
-0.0208782 0.011258547 0.22488834 -0.059024356 0.019816378 -0.17627652 0.06117154 0.09631027
-0.028098473 0.10128766 -0.02488319 -0.09371263 -0.09290985 0.09140689 -0.0056067924 0.036952145
0.1576288 -0.020701583 0.13064805 0.11883542 0.06895973 -0.15291773 0.12131724 -0.061775755
-0.15066026 0.10529837 0.08865162 -0.0056659193 0.060321346 0.1088103 -0.08567344 -0.08547983
-0.05944214 0.04451581 -0.1252214 0.08444724 -0.078063235 -0.01915247 0.0724153 0.0016980055
0.033720862 -0.08781196 -0.1063914 -0.06640999 0.011256097 -0.15690033 0.15926035 -0.18810883
-0.022873778 0.00072840485 -0.060206518 0.034739587 0.07993454 0.13288671 0.025666576 0.078114875
0.019350545 -0.15186998 0.12087865 -0.13648307 0.09893961 0.062890165 -0.12649198 -0.10899654
0.11401276 0.017433543 -0.05004583 0.027988158 -0.040868677 -0.14447096 0.075868 0.2186556
-0.12548698 0.011185352 -0.083970204 0.015200939 -0.10894701 -0.08979138 -0.06743512 -0.035505015
-0.043295227 0.10308405 0.084702 0.09845245 0.075108044 -0.0291091 -0.14353679 -0.099198684
00000000: 4dbb f73b cc1e 083e bef0 af3d 9d3d 03be
00000010: 27bf 283d 4de8 4a3d bd76 32be d33a 52be
00000020: 0fad 0cbe a159 d4bd 622e ebbc d023 d7bc
00000030: e65d 99bd ec5c 253c 0679 b13d 2067 93ba
00000040: c27b 4cbe 7dca 27be f357 9fbd 11ae 22be
00000050: d19b 393d d706 49be fa3f 333c 2080 a0bd
00000060: 730b a7bc 7153 22bc d2ed 04be f88d 213d
00000070: 09e5 e93c 8213 13bd bdde 043d f362 8dbd
00000080: 04eb 273a e549 c2bc fe43 95bd ec2a 26be
00000090: 1fec 7bbe 0b0c 0f3c 5110 c6bd cb17 9abe
000000a0: c303 03be a8f4 d63c 355b fdbc e674 1fbc
000000b0: 5465 01bc 11f1 e7bd 43cf 19be e995 6a3e
000000c0: f3e4 05be 178e 163e 6af6 703d ad9b e3bd
000000d0: ac39 9eba 6292 6bbd ca22 15be 4059 51bd
000000e0: 532d d6bc d783 67bd 8d09 36be c3f0 63be
000000f0: 5bf4 e2bd 2147 e0bd 7d51 38bd ad06 9e3d
00000100: 97af 913d ef3c 033d ac1f f73d 0f1d aebd
00000110: 2632 38be 2a66 04be e8e1 75bd 2bd7 cabc
00000120: dc9f 433d fdbe 513d 6f1a 62bd ec10 5a3c
00000130: f624 b2bb 7825 6c3d 2d0b 32bd d86e 213d
00000140: e225 1d3d eec7 97bd 49c2 d4ba f639 f2bd
00000150: ed44 d83d a4ec 8a3c 8bbc fb3d 058f 873d
00000160: ecb1 adbd d84b e7bb bb9e a7bd 26b9 81bd
00000170: a65b c2bc 2cc0 7f3d 4031 f5bd 9e49 c03d
00000180: 40d2 853d d74e 9dbd 0be7 8fbd 86f4 0cbd
00000190: 70e0 f23c b00d 67bd ad54 8b3b 410c 47bd
000001a0: 5be0 873d c92f 04be 0359 a3ba 3cdf c0bb
000001b0: c1eb 0bbe 0706 90bd 6325 15be 709f 183e
000001c0: 2ac8 733d 4d8b 45bb dde2 49bd 647d a23d
000001d0: 784c bb3c 6df4 a0bd 926e 91bd 2637 e63d
000001e0: 9208 d3bc e310 ed3c 1e65 853d 5ed4 b2bc
000001f0: e5b2 0b3e 04e0 b5bd 70cd 1abe a39e d3bd
00000200: c45f 0dbe fd66 b23d 2154 d5bd c8de 6a3e
00000210: 50f7 853c 3b7d 323d 6e94 7f3d 9ee7 4a3d
00000220: f6bd 493d ba3e 05be 8002 39bd e0e2 b33d
00000230: ecbe 4a3e f73a 8fbd c6e0 b0bd 4cdf 03bd
00000240: 9561 d33d 42c8 e03d 9e22 d93b 9e18 92bd
00000250: 21fd f43d 7859 853d 8546 763e e73f e03b
00000260: fe97 d33c 4207 443d 42b4 583c b546 243e
00000270: d714 f7bd 3ed6 8f3d 0e28 8bbd 2875 54bd
00000280: 255e 94bd e58f 59bd 3124 163d f34d 24be
00000290: 294d 683e f0e4 e03d 6df8 94bd aa24 1cbe
000002a0: c208 abbc c575 383c 2149 663e 86c3 71bd
000002b0: f555 a23c d581 34be 028f 7a3d 523e c53d
000002c0: c52e e6bc e86f cf3d d5d7 cbbc 68ec bfbd
000002d0: 8547 bebd 8933 bb3d 2fb9 b7bb 225b 173d
000002e0: 7269 213e 5e96 a9bc 9ac8 053e fc5f f33d
000002f0: c23a 8d3d 7796 1cbe 2c75 f83d 9308 7dbd
00000300: af46 1abe aca6 d73d fb8e b53d 2da9 b9bb
00000310: 8413 773d efd7 de3d 8e75 afbd 0d10 afbd
00000320: 9a79 73bd 3656 363d 0a3a 00be adf2 ac3d
00000330: 9edf 9fbd a4e5 9cbc 794e 943d 9c8f de3a
00000340: e31e 0a3d c2d6 b3bd bce3 d9bd f601 88bd
00000350: 7e6b 383c 7baa 20be 2515 233e 9a9f 40be
00000360: ca61 bbbc 6cf2 3e3a 1c9b 76bd 194b 0e3d
00000370: b8b4 a33d 7413 083e b642 d23c b1fa 9f3d
00000380: 0985 9e3c ce83 1bbe 3a8f f73d 38c2 0bbe
00000390: daa0 ca3d 8fcc 803d 1d87 01be 9439 dfbd
000003a0: 867f e93d cad0 8e3c dbfc 4cbd 6c47 e53c
000003b0: ea65 27bd 32f0 13be af60 9b3d 41e7 5f3e
000003c0: a97f 00be c442 373c 92f8 abbd 5c0d 793c
000003d0: 9c1f dfbd 8be4 b7bd 6d1b 8abd b56d 11bd
000003e0: 5656 31bd bb1d d33d 3e78 ad3d 70a1 c93d
000003f0: 3fd2 993d 3576 eebc 4ffb 12be ae28 cbbd

gnn1_pool.conv3.lin_root.weight f4 [52, 64]
-0.032185756 0.059479255 -0.058261383 0.049075298 -0.039149206 0.0748051 0.046262983 -0.030360144
0.061786663 -0.08061093 -0.06790838 0.047069523 0.021219578 0.07653652 -0.08957014 0.11386417
0.06859424 0.006586665 0.043392364 0.12514925 -0.0067871353 -0.02583379 -0.13765001 -0.17791541
-0.009046941 -0.07941996 -0.09540332 0.07701505 -0.027543822 -0.10854615 0.103534 0.076131985
-0.10847623 -0.028633831 -0.15762894 0.0894823 0.1053961 0.06144229 0.11603058 0.011830412
0.08310805 -0.0057062283 0.0044074035 0.061457947 0.024982626 0.05535776 -0.16430391 -0.107795045
-0.06496871 -0.056857817 -0.15556589 -0.1129373 -0.0841882 -0.053027615 -0.08503992 -0.11981926
0.0880392 0.07349568 -0.0008961621 -0.03250826 -0.062051922 -0.06322877 0.07827402 -0.09408321
0.09201166 0.06359317 0.024540987 -0.07604388 0.13202141 0.0068781064 0.057838775 0.00052338035
-0.059622806 0.030731171 0.10132854 -0.014584185 -0.07499712 0.06438859 -0.12561062 -0.090844035
-0.083036035 0.12804309 0.05174726 0.09079711 0.13361841 -0.011353543 -0.025811177 -0.1618375
-0.010234105 0.11810785 -0.0066693155 0.0010834017 0.05582733 0.025316762 0.1319783 0.10686705
-0.14847684 -0.032822188 0.017760694 -0.12644053 -0.05343468 -0.013915822 -0.051192943 -0.12585773
-0.09510579 0.16716023 0.12891479 -0.0031740756 0.108833194 -0.100102946 0.011080657 0.13625492
-0.10700702 0.13526343 0.041720163 -0.016353998 -0.017382456 -0.06392063 0.020327918 0.14262162
0.112572744 0.09658603 0.07497355 0.04384553 -0.011772921 -0.06977981 -0.10069859 -0.060781687
0.07049173 0.074640416 -0.044870146 -0.05515124 -0.087249726 -0.047531538 -0.12862432 -0.10770216
-0.06267225 0.0071229297 -0.06414244 0.14109033 -0.03146397 0.046941385 -0.012485987 -0.022275627
0.076339915 0.09795864 0.015615565 -0.05577393 -0.084326014 0.06520697 0.022594316 0.025241304
-0.010882004 0.054940406 -0.05201406 0.0048326897 0.119821176 0.13016042 0.029145095 -0.14096461
-0.07187538 0.09726889 0.09387407 0.0058678933 0.08965141 0.14743051 -0.081406936 0.02796744
0.17081451 0.0013211522 0.030136645 -0.057419352 0.011444205 -0.07835701 0.03877801 0.0596673
-0.00230952 -0.060063675 0.03033678 -0.06364891 0.09013837 -0.05012072 -0.032754388 0.11087495
0.10916021 0.050611805 -0.12347281 -0.008496537 0.09032404 -0.09265696 0.046197996 0.06318887
-0.05539307 0.029631916 -0.06938288 -0.072108395 -0.010525581 0.06563913 0.05409185 -0.05054421
-0.04768583 0.056404494 0.058641978 -0.0040939073 -0.08549351 0.14438991 0.0680863 0.17123987
-0.028313199 0.058323495 -0.06583443 0.09858427 0.114487804 0.0857197 -0.047425065 -0.15341735
0.03305095 -0.15322687 -0.10477636 -0.1346925 0.06208832 -0.022813138 0.04022542 0.11019872
-0.010830997 0.03996159 0.14273031 -0.0711329 0.008767582 -0.0946363 0.0531446 0.117800705
0.025615688 0.030341385 0.082585566 -0.030700095 -0.04541882 -0.11474637 0.07897884 0.0919655
0.08509485 -0.076962024 0.057174772 0.06396623 0.03945725 -0.08018106 -0.10565732 0.035868026
0.07518575 0.14266682 -0.042499058 0.095125094 -0.04277873 0.046833005 -0.009581892 0.012342653
00000000: 36d5 03bd 85a0 733d 7da3 6ebd 2e03 493d
00000010: eb5a 20bd 6b33 993d 417e 3d3d d6b5 f8bc
00000020: 0314 7d3d 5817 a5bd 8c13 8bbd f9cb 403d
00000030: aed4 ad3c 2ebf 9c3d 8d70 b7bd 9e31 e93d
00000040: 237b 8c3d f3d4 d73b 31bc 313d 2027 003e
00000050: 9e66 debb 62a1 d3bc 20f4 0cbe 752f 36be
00000060: 9f39 14bc efa6 a2bd d162 c3bd 11ba 9d3d
00000070: 95a3 e1bc 724d debd a209 d43d 16eb 9b3d
00000080: c928 debd 7f91 eabc 7b69 21be 7f42 b73d
00000090: e9d9 d73d e9aa 7b3d 71a1 ed3d 58d4 413c
000000a0: 8e34 aa3d 50fb babb fb6b 903b 54bb 7b3d
000000b0: 5da8 cc3c d2be 623d 493f 28be a6c3 dcbd
000000c0: 510e 85bd bee3 68bd aa4c 1fbe ac4b e7bd
000000d0: dd6a acbd 7c33 59bd 6929 aebd cd63 f5bd
000000e0: e54d b43d e784 963d 6cec 6aba 6227 05bd
000000f0: 282a 7ebd 167e 81bd 214e a03d b3ae c0bd
00000100: 9c70 bc3d 233d 823d 2e0a c93c e5bc 9bbd
00000110: 9f30 073e bd61 e13b 5ae8 6c3d 7633 093a
00000120: 0b37 74bd f0bf fb3c 5685 cf3d 81f2 6ebc
00000130: 1798 99bd 2ade 833d 12a0 00be 700c babd
00000140: cc0e aabd ba1d 033e eff4 533d d6f3 b93d
00000150: 44d3 083e 3604 3abc f671 d3bc bbb8 25be
00000160: f3ac 27bc 87e2 f13d 468a dabb ee00 8e3a
00000170: 33ab 643d 1965 cf3c 5225 073e 1ddd da3d
00000180: 500a 18be 8f70 06bd e07e 913c a079 01be
00000190: 53de 5abd 30ff 63bc b1af 51bd d9e0 00be
000001a0: d3c6 c2bd 0d2c 2b3e 3d02 043e 2704 50bb
000001b0: f0e3 de3d c602 cdbd a58b 353c 6986 0b3e
000001c0: 7f26 dbbd 7f82 0a3e c3e2 2a3d d2f8 85bc
000001d0: a765 8ebc d2e8 82bd bc86 a63c 670b 123e
000001e0: 8a8c e63d e6ce c53d bc8b 993d 5f97 333d
000001f0: 36e3 40bc b8e8 8ebd 103b cebd 38f6 78bd
00000200: f85d 903d 13dd 983d c2c9 37bd 44e6 61bd
00000210: fcaf b2bd 6eb0 42bd 18b6 03be f392 dcbd
00000220: 4f5a 80bd 7767 e93b 1d5d 83bd fc79 103e
00000230: 5de0 00bd 9c45 403d 0692 4cbc 607b b6bc
00000240: 1a58 9c3d 8a9e c83d 6dd8 7f3c 3473 64bd
00000250: 1eb3 acbd 3b8b 853d b717 b93c dac6 ce3c
00000260: 6f4a 32bc 3109 613d b20c 55bd 8a5b 9e3b
00000270: ce64 f53d c648 053e b2c1 ee3c 0759 10be
00000280: 6633 93bd e934 c73d 0c41 c03d 7547 c03b
00000290: 299b b73d 06f8 163e aeb8 a6bd f91b e53c
000002a0: 00ea 2e3e 832a ad3a 20e1 f63c 8e30 6bbd
000002b0: 7a80 3b3c a479 a0bd b1d5 1e3d b365 743d
000002c0: 515b 17bb 5405 76bd d784 f83c 5c5a 82bd
000002d0: 779a b83d 624b 4dbd 7729 06bd 6812 e33d
000002e0: 638f df3d 534e 4f3d 50df fcbd 0f35 0bbc
000002f0: cffb b83d efc2 bdbd 1c3a 3d3d 2b69 813d
00000300: d8e3 62bd a2be f23c 9d18 8ebd 91ad 93bd
00000310: 7d73 2cbc cf6d 863d 6a8f 5d3d 7207 4fbd
00000320: 3852 43bd 6608 673d 9232 703d 2f26 86bb
00000330: 3917 afbd f3da 133e d470 8b3d 8159 2f3e
00000340: 15f1 e7bc 9ee4 6e3d 34d4 86bd 8de6 c93d
00000350: 9578 ea3d cf8d af3d c940 42bd 7019 1dbe
00000360: 6f60 073d 81e7 1cbe fd94 d6bd d5ec 09be
00000370: 5250 7e3d 9ee2 babc 69c3 243d deaf e13d
00000380: 7e74 31bc c4ae 233d e527 123e 20ae 91bd
00000390: e7a5 0f3c add0 c1bd 27ae 593d 7f41 f13d
000003a0: fed7 d13c 7f8e f83c 9f22 a93d c47e fbbc
000003b0: 1609 3abd 2500 ebbd a8bf a13d 6858 bc3d
000003c0: 3546 ae3d 449e 9dbd 1830 6a3d ba00 833d
000003d0: ed9d 213d f835 a4bd dd62 d8bd 5aea 123d
000003e0: fdfa 993d 4017 123e 7e13 2ebd f2d0 c23d
000003f0: c038 2fbd f7d3 3f3d 5efd 1cbc d738 4a3c

gnn1_pool.conv3.lin_root.bias f4 [52]
-0.11153947 -0.18742661 -0.0003078929 0.07194211 -0.09384261 -0.067408085 0.035765048 -0.17780742
0.109793685 -0.08196849 0.061189886 -0.08776938 -0.006716913 0.21430239 0.04495961 0.030364564
-0.084546134 -0.13043122 -0.06309008 -0.02389016 0.09963076 -0.08619096 0.04151809 -0.13367936
-0.09736337 -0.09080165 -0.031494193 -0.16126312 -0.017586142 0.16742177 -0.20122805 0.019832501
0.014021053 0.030927418 -0.14213736 -0.082411274 0.055950645 -0.12135614 -0.032726932 0.07941764
-0.053133804 -0.111512564 -0.07157215 0.0068912995 -0.009260382 -0.013085399 -0.09809436 -0.04460968
-0.2068567 -0.08473127 -0.19265307 -0.00524627
00000000: ce6e e4bd c3ec 3fbe af6c a1b9 6356 933d
00000010: 8e30 c0bd 400d 8abd 5f7e 123d 2613 36be
00000020: 83db e03d 18df a7bd 3fa2 7a3d 6fc0 b3bd
00000030: 8d19 dcbb 1672 5b3e 9127 383d 1bbf f83c
00000040: 8626 adbd c38f 05be 5f35 81bd 4cb5 c3bc
00000050: 360b cc3d e384 b0bd df0e 2a3d 3ee3 08be
00000060: 7266 c7bd 37f6 b9bd 0e00 01bd 2922 25be
00000070: d010 90bc 9d70 2b3e ba0e 4ebe c577 a23c
00000080: 8fb8 653c 7f5b fd3c 758c 11be 3ec7 a8bd
00000090: 812c 653d 9189 f8bd ad0c 06bd b7a5 a23d
000000a0: d5a2 59bd b360 e4bd 6b94 92bd 69d0 e13b
000000b0: dbb8 17bc 2464 56bc b2e5 c8bd a4b8 36bd
000000c0: 3ed2 53be 9787 adbd d946 45be e7e8 abbb

gnn1_pool.bn3.weight f4 [52]
0.9699909 1.0175725 0.887577 0.9499509 0.9038192 0.989101 0.89273906 0.8606444
0.9100651 0.87144965 0.94715536 0.8776806 0.89772075 0.96000487 0.85568255 0.8782144
0.94497293 0.94517475 0.96001357 0.8658042 0.9130086 0.9386422 0.92708546 0.84554684
1.0094298 0.9457466 0.98462397 1.008612 0.9129786 0.9477409 0.9390978 0.9857035
0.9090987 0.9070772 0.98224473 0.9096471 0.8939979 0.97881955 0.91268575 0.8028802
0.90395844 0.9051799 0.9505567 0.8616628 0.96293855 0.92243147 0.95190465 0.892954
0.92814285 0.9578656 0.8037402 0.98293495
00000000: 5351 783f d13f 823f 3f38 633f fb2f 733f
00000010: b260 673f b935 7d3f 8c8a 643f 3153 5c3f
00000020: 07fa 683f 5317 5f3f c678 723f adaf 603f
00000030: 07d1 653f e1c2 753f 030e 5b3f a9d2 603f
00000040: bfe9 713f f9f6 713f 73c3 753f 58a5 5d3f
00000050: eeba 693f db4a 703f 7955 6d3f c275 583f
00000060: ff34 813f 731c 723f 5110 7c3f 331a 813f
00000070: f7b8 693f 269f 723f b768 703f 1157 7c3f
00000080: b1ba 683f 3636 683f 6474 7b3f a2de 683f
00000090: 0cdd 643f eb93 7a3f c6a5 693f 8f89 4d3f
000000a0: d269 673f dfb9 673f af57 733f ef95 5c3f
000000b0: 2483 763f 7824 6c3f 06b0 733f a298 643f
000000c0: c59a 6d3f ae36 753f ebc1 4d3f a0a1 7b3f

gnn1_pool.bn3.bias f4 [52]
0.046963926 0.040133793 -0.006082286 -0.02051457 0.14724354 0.047535677 0.047613043 0.07870458
0.023461191 -0.013704586 0.059682436 0.050911676 0.102035016 -0.0006259963 0.014080288 0.03173526
0.010092408 0.01264081 -0.02726928 -0.014020324 0.0047486555 0.07046556 0.02777452 -0.00084621983
0.069720395 0.009714706 -0.00058443664 0.04538995 0.0026776437 0.09371078 0.13449542 -0.019555269
0.010801807 0.03676366 0.030604254 0.12512392 -0.0077727837 0.011264937 0.11887158 0.082867555
0.007116923 0.05820305 0.053215474 0.010115081 0.042667598 0.015416923 0.041033685 0.1128986
0.10171951 0.06445985 -0.017081687 0.026253201
00000000: 3f5d 403d 5563 243d ea4d c7bb 2c0e a8bc
00000010: 03c7 163e c5b4 423d e505 433d de2f a13d
00000020: af31 c03c 3389 60bc 9275 743d c388 503d
00000030: bcf7 d03d e719 24ba 02b1 663c d5fc 013d
00000040: a15a 253c 661b 4f3c d363 dfbc 80b5 65bc
00000050: 9c9a 9b3b 3f50 903d 6487 e33c dad4 5dba
00000060: 91c9 8e3d 6e2a 1f3c e134 19ba d0ea 393d
00000070: 687b 2f3b 70eb bf3d 2bb9 093e 5f32 a0bc
00000080: 10fa 303c 7e95 163d c6b5 fa3c 7c20 003e
00000090: d6b2 febb 9290 383c f172 f33d 77b6 a93d
000000a0: 1435 e93b 5266 6e3d 78f8 593d bab9 253c
000000b0: 38c4 2e3d 4397 7c3c f012 283d 6237 e73d
000000c0: 5252 d03d 8703 843d e5ee 8bbc f410 d73c
