model/p2p2068_p0.1_ob0.1_m50_2c9_diff_pool.pt (torch, 750529 bytes, 113 tensors)

gnn1_pool.conv1.lin_rel.weight f4 [64, 2]
-0.34994337 0.23941658 -0.38070047 -0.031226475 -0.4764765 0.55282634 -0.3294444 -0.7593462
0.64309824 -0.12152744 -0.1450606 -0.17959648 -0.16900347 -0.5246803 -0.60977435 0.6224426
-0.21440962 -0.33771604 0.1276414 -0.65718436 0.63143647 0.1796769 -0.47038782 0.09105144
0.5303046 -0.07347479 0.08380236 -0.25394875 -0.4557306 0.41834724 -0.36992836 -0.6827472
0.2605764 -0.42688417 0.12366196 0.6034381 -0.49187243 -0.24300899 0.53220475 -0.25105348
0.70342535 0.4941073 -0.36393055 0.10597906 -0.2610783 -0.11067484 0.34793755 -0.72018653
0.13162959 -0.7240458 0.47828266 -0.58232784 0.082079135 -0.21622522 -0.6615554 0.11287545
0.6870452 0.50739413 -0.22558872 0.43007436 0.4276818 -0.6143507 0.6445294 0.2927166
0.6473843 -0.036980946 0.25173867 -0.50814325 -0.6954579 -0.13012552 0.025350949 -0.19699383
0.66061664 0.12845498 0.39469004 0.028555164 -0.3949735 0.72937316 -0.28891012 0.1849826
0.35982203 -0.25697714 0.6311216 -0.18379407 -0.12735447 -0.55333513 -0.40578008 0.58268845
0.18606102 0.70213896 0.4273488 -0.6397401 0.041271027 -0.10504555 -0.26735735 0.025790231
-0.20865564 0.5002889 0.5490302 0.093520835 0.07081445 -0.27577466 -0.38341898 -0.34719402
-0.11064745 -0.31015563 -0.250569 -0.42226118 -0.019923458 0.27255946 0.22668101 -0.20739014
-0.16334642 0.6537786 -0.27697703 -0.471661 -0.03927499 0.6197716 -0.076699674 0.38437954
-0.52016217 0.40363902 0.68362564 -0.084740534 -0.2170749 0.031107409 -0.6795329 -0.81143683
00000000: c72b b3be 9f29 753e 2ceb c2be aace ffbc
00000010: baf4 f3be 0786 0d3f f0ac a8be 8364 42bf
00000020: 16a2 243f 61e3 f8bd c48a 14be 24e8 37be
00000030: 3f0f 2dbe 7351 06bf 2c1a 1cbf 6658 1f3f
00000040: 328e 5bbe 1ee9 acbe 6db4 023e 3c3d 28bf
00000050: d2a5 213f 39fd 373e acd6 f0be 2d79 ba3d
00000060: 0bc2 073f f379 96bd 92a0 ab3d 9205 82be
00000070: 8555 e9be 9c31 d63e 4067 bdbe 85c8 2ebf
00000080: 456a 853e 9090 dabe 7b42 fd3d eb7a 1a3f
00000090: b4d6 fbbe 59d7 78be 923e 083f 158a 80be
000000a0: af13 343f a2fb fc3e 1b55 babe 8d0b d93d
000000b0: 0eac 85be 7ea9 e2bd df24 b23e 255e 38bf
000000c0: e8c9 063e 115b 39bf 77e1 f43e 7013 15bf
000000d0: 1b19 a83d 256a 5dbe b25b 29bf 3e2b e73d
000000e0: 32e2 2f3f 95e4 013f bb00 67be b532 dc3e
000000f0: 1cf9 da3e 1646 1dbf e1ff 243f f3de 953e
00000100: faba 253f 5579 17bd e4e3 803e ad15 02bf
00000110: 8709 32bf a03f 05be cbac cf3c c0b8 49be
00000120: 2c1e 293f b489 033e d014 ca3e 85ec e93c
00000130: f739 cabe 33b8 3a3f 07ec 93be 146c 3d3e
00000140: 983a b83e 8292 83be 2f91 213f 8334 3cbe
00000150: 3669 02be 5fa7 0dbf 68c2 cfbe 122b 153f
00000160: c886 3e3e 61bf 333f 76cd da3e 02c6 23bf
00000170: cf0b 293d 1f22 d7bd 10e3 88be 0946 d33c
00000180: d3a9 55be ef12 003f 3e8d 0c3f da87 bf3d
00000190: 2b07 913d 5632 8dbe 7e4f c4be 6ac3 b1be
000001a0: 219b e2bd b8cc 9ebe 944a 80be 9e32 d8be
000001b0: 8536 a3bc ea8c 8b3e 111f 683e 155e 54be
000001c0: 4944 27be 095e 273f efcf 8dbe 8d7d f1be
000001d0: d0de 20bd 5aa9 1e3f b814 9dbd 65cd c43e
000001e0: 5929 05bf c6a9 ce3e 1702 2f3f 728c adbd
000001f0: e248 5ebe f7d4 fe3c def5 2dbf 53ba 4fbf

gnn1_pool.conv1.lin_root.weight f4 [64, 2]
0.14439361 0.26149324 -0.051175367 0.040931355 0.1146537 0.44555828 -0.1362679 -0.3283565
0.38197052 -0.4291134 -0.7054102 -0.027497616 0.06851588 0.62401575 0.7099342 0.17567013
-0.5043239 -0.2716785 0.24953826 0.40874225 0.26106113 0.19972716 0.011773385 0.095555335
0.23275626 0.11427585 -0.020740649 -0.041381083 -0.6350709 -0.5935158 0.5435505 0.5930306
-0.2763794 -0.18674275 0.38708153 -0.3467304 -0.48114714 0.12427337 -0.41967708 0.5631825
0.58924794 0.2877886 0.36093566 0.48780802 -0.37313044 -0.19293688 0.22476508 -0.20426735
-0.6588869 0.4166485 0.3665522 -0.10919135 0.1056871 -0.43094712 0.7179254 0.28982225
-0.21662688 -0.25729978 0.12769812 -0.46747077 0.15595558 0.4988323 0.37832573 0.51255625
0.45956248 0.52560186 -0.2595338 -0.02552177 -0.091778025 0.14346208 0.4995594 0.43461877
0.16278096 0.5134822 -0.4984559 -0.31833413 0.6403598 0.017603055 0.45232162 0.1263919
-0.6071442 -0.45184854 0.054853138 -0.40132827 -0.44766998 0.30954212 0.6622652 -0.66512185
0.61021554 0.6870011 -0.19327255 -0.2911488 0.46053413 0.6179985 0.42811328 0.6067446
-0.25239968 -0.107027955 -0.64534223 0.64141715 -0.30706748 0.3394218 0.1515576 0.5430432
-0.6517369 -0.27208698 -0.17863908 -0.43971705 0.4740715 -0.6708694 -0.1264209 0.04363025
0.1809957 -0.14850919 -0.4993483 -0.49161673 0.36012846 0.23477714 -0.2373188 -0.27338427
-0.114487484 -0.27151456 -0.39979133 -0.39013758 -0.69984585 -0.47827342 0.14634834 0.60584724
00000000: ebdb 133e 71e2 853e 439d 51bd a3a7 273d
00000010: 8fcf ea3d 3720 e43e d089 0bbe 581e a8be
00000020: a491 c33e c0b4 dbbe c395 34bf ae42 e1bc
00000030: 0e52 8c3d 7fbf 1f3f 3fbe 353f dfe2 333e
00000040: 5f1b 01bf 7219 8bbe f586 7f3e aa46 d13e
00000050: cea9 853e 4785 4c3e 28e5 403c 84b2 c33d
00000060: a857 6e3e 7509 ea3d 4be8 a9bc 367f 29bd
00000070: 0294 22bf a7f0 17bf 2026 0b3f dad0 173f
00000080: 9a81 8dbe 7e39 3fbe 8d2f c63e a686 b1be
00000090: eb58 f6be 0983 fe3d eadf d6be ba2c 103f
000000a0: f4d8 163f 0759 933e 8fcc b83e f9c1 f93e
000000b0: f40a bfbe 3f91 45be d128 663e 762b 51be
000000c0: d0ac 28bf f452 d53e bbac bb3e b79f dfbd
000000d0: 7a72 d83d 1aa5 dcbe f6c9 373f 9563 943e
000000e0: 70d3 5dbe ccbc 83be 4cc3 023e 5458 efbe
000000f0: d2b2 1f3e f266 ff3e e9b3 c13e e336 033f
00000100: c64b eb3e d88d 063f 9de1 84be 0813 d1bc
00000110: 1ef6 bbbd b9e7 123e 40c6 ff3e 5a86 de3e
00000120: 0db0 263e 9273 033f 9d35 ffbe b1fc a2be
00000130: 9fee 233f 4834 903c b396 e73e e16c 013e
00000140: cd6d 1bbf b158 e7be afad 603d e67a cdbe
00000150: 0035 e5be 4e7c 9e3e 368a 293f 6d45 2abf
00000160: 1637 1c3f 4edf 2f3f 3de9 45be 7511 95be
00000170: 21cb eb3e 2635 1e3f aa31 db3e 9d53 1b3f
00000180: 883a 81be 7931 dbbd 2635 25bf ea33 243f
00000190: f337 9dbe b2c8 ad3e ea31 1b3e e104 0b3f
000001a0: 3bd8 26bf fc4e 8bbe 2aed 36be 9822 e1be
000001b0: 80b9 f23e 19be 2bbf 7b74 01be a2b5 323d
000001c0: f056 393e cb12 18be 95aa ffbe 30b5 fbbe
000001d0: c262 b83e 6b69 703e b303 73be 06f9 8bbe
000001e0: 6a78 eabd f503 8bbe 73b1 ccbe 1dc0 c7be
000001f0: 1929 33bf 41e0 f4be 57dc 153e ce18 1b3f

gnn1_pool.conv1.lin_root.bias f4 [64]
0.38162032 0.32579613 0.6150267 0.6670768 -0.22215043 -0.60190773 0.5004333 0.21819493
-0.3317177 -0.7038983 0.27079517 -0.68224275 -0.11009313 0.3058085 -0.3999596 -0.005553381
0.61903894 -0.42618138 0.37783656 -0.34773418 -0.69592476 -0.25254047 -0.67285746 0.382314
0.51981306 0.46454692 -0.43458316 0.47415155 0.44255406 -0.67438674 -0.08631489 0.41305673
0.00063428073 -0.31462345 0.45806617 -0.3064721 0.26069632 0.06400196 0.14256777 -0.32735422
0.50029695 -0.06462014 0.4176635 -0.036661692 -0.19971398 -0.5534119 -0.22937636 -0.3525359
-0.41183463 0.15532365 0.5995703 0.39021865 0.27039596 0.0025452483 0.12619656 -0.39395577
-0.52022 0.75638527 0.094845876 -0.14890905 -0.14037542 0.0769373 0.31486452 0.35981914
00000000: bd63 c33e c0ce a63e 6472 1d3f 8cc5 2a3f
00000010: 677b 63be a016 1abf 661c 003f 7e6e 5f3e
00000020: e7d6 a9be ae32 34bf aaa5 8a3e 76a7 2ebf
00000030: 8278 e1bd ef92 9c3e 81c7 ccbe 23f9 b5bb
00000040: 5679 1e3f 7234 dabe cb73 c13e 370a b2be
00000050: 2028 32bf fc4c 81be 6340 2cbf a9be c33e
00000060: 7812 053f 18d9 ed3e af81 debe fec3 f23e
00000070: 7296 e23e 9ca4 2cbf dcc5 b0bd 2c7c d33e
00000080: dc45 263a 5316 a1be a687 ea3e e9e9 9cbe
00000090: fd79 853e 7613 833d 49fd 113e f99a a7be
000000a0: 7613 003f 9057 84bd fed7 d53e 922a 16bd
000000b0: d281 4cbe 67ac 0dbf a3e1 6abe 967f b4be
000000c0: fddb d2be 2a0d 1f3e 707d 193f bdca c73e
000000d0: 5771 8a3e 2ece 263b ac39 013e 92b4 c9be
000000e0: 232d 05bf 77a2 413f 8e3e c23d 9d7b 18be
000000f0: 93be 0fbe 4e91 9d3d ec35 a13e 373a b83e

gnn1_pool.bn1.weight f4 [64]
0.87172014 0.8416425 0.9119564 1.0162399 0.8596965 1.0 0.9386542 0.9248068
1.0 1.0 0.91128075 1.0 0.86813045 0.94542557 1.0 0.9887383
0.90750957 1.0612062 0.9349785 1.050796 0.9230168 0.8815534 1.0 0.9365602
0.9746134 0.86662406 1.0 0.95401335 0.98147464 1.0 0.9577506 0.9982794
0.8726619 1.0 0.96079254 0.9244547 0.85393685 1.1086473 0.9380673 0.9819681
0.9286286 0.9549997 0.937789 0.9948768 0.9873199 1.0 0.91945314 0.9254197
1.0 0.94803303 0.852817 0.9667454 1.0 1.0 0.9420271 1.0
1.0717545 0.98271483 0.98862696 0.98733014 1.0186871 0.91139734 1.0 0.9918183
00000000: 0d29 5f3f e275 573f fa75 693f 2614 823f
00000010: 1215 5c3f 0000 803f a44b 703f 23c0 6c3f
00000020: 0000 803f 0000 803f b249 693f 0000 803f
00000030: cc3d 5e3f 6907 723f 0000 803f f41d 7d3f
00000040: 8c52 683f 9bd5 873f c05a 6f3f 7c80 863f
00000050: d44a 6c3f 7cad 613f 0000 803f 69c2 6f3f
00000060: 4480 793f 13db 5d3f 0000 803f 383a 743f
00000070: ec41 7b3f 0000 803f 252f 753f 3d8f 7f3f
00000080: c566 5f3f 0000 803f 80f6 753f 10a9 6c3f
00000090: 9b9b 5a3f 28e8 8d3f 2e25 703f 4362 7b3f
000000a0: 9bba 6d3f dc7a 743f f112 703f 3fb0 7e3f
000000b0: ffc0 7c3f 0000 803f 4861 6b3f 4ee8 6c3f
000000c0: 0000 803f 4bb2 723f 3752 5a3f a07c 773f
000000d0: 0000 803f 0000 803f b028 713f 0000 803f
000000e0: 402f 893f 3393 7b3f a816 7d3f abc1 7c3f
000000f0: 5764 823f 5651 693f 0000 803f cee7 7d3f

gnn1_pool.bn1.bias f4 [64]
0.06596138 0.04723919 0.06317142 -0.022711515 0.00037099444 -0.00039411488 0.13828436 -0.025915798
0.002523877 -0.010785435 -0.033353075 -0.0020678807 -0.057553224 -0.0663261 -0.0026320484 -0.024500549
-0.07687816 0.024328515 0.0043413835 -0.011641993 -0.019768847 0.057020843 0.004482794 0.04469705
0.017502049 -0.06571339 -0.0012849489 -0.030250942 -0.027881818 -0.008366214 -0.04992712 0.011520848
-0.020613812 0.025695635 0.008938467 0.036909055 -0.048500434 0.07790092 0.056725338 -0.031137636
-0.051067874 -0.015284036 0.071728535 -0.039096687 0.040080536 0.0069071106 0.023622382 -0.021487271
-0.0027210428 -0.020582262 -0.02958688 0.037687235 -0.017368803 0.048109077 -0.02729901 -0.0052274964
0.035040356 -0.056139346 0.05945526 0.0006963924 0.0320555 0.047462232 -0.0034704823 -0.07377783
00000000: c316 873d e27d 413d 0460 813d 800d babc
00000010: 0882 c239 34a1 ceb9 6a9a 0d3e 5e4d d4bc
00000020: a167 253b 65b5 30bc 3c9d 08bd 4885 07bb
00000030: eebc 6bbd fad5 87bd 727e 2cbb 60b5 c8bc
00000040: 4c72 9dbd 984c c73c 2a42 8e3b 0fbe 3ebc
00000050: 47f2 a1bc b08e 693d 67e4 923b 4114 373d
00000060: 7560 8f3c be94 86bd bb6b a8ba d3d0 f7bc
00000070: 6968 e4bc 7212 09bc 6180 4cbd f0c1 3c3c
00000080: 4cde a8bc a77f d23c a672 123c f32d 173d
00000090: 64a8 46bd 848a 9f3d d458 683d 5b14 ffbc
000000a0: 8c2c 51bd e569 7abc 69e6 923d d923 20bd
000000b0: 7d2b 243d 0b55 e23b ba83 c13c 1306 b0bc
000000c0: 8653 32bb 229c a8bc 2f60 f2bc ee5d 1a3d
000000d0: 0549 8ebc 060e 453d 2ca2 dfbc 6b4b abbb
000000e0: 7a86 0f3d 5ff2 65bd 5c87 733d 1a8e 363a
000000f0: a14c 033d c267 423d 0871 63bb d518 97bd

gnn1_pool.bn1.running_mean f4 [64]
0.5030577 0.22356272 0.75780636 0.3663334 0.24584097 0.0 0.53640157 0.8164484
0.0 0.0 0.68068093 0.0 0.20744604 0.2627946 0.0 0.38723364
0.35696164 0.07355559 0.050075255 0.0323011 0.16208506 0.11492164 0.0 0.54646224
0.103863336 0.7920065 0.0 1.0084928 0.43732834 0.0 0.18098429 0.9905434
0.5985529 0.0 0.2993134 0.16364077 0.6302144 0.002697559 0.7227575 0.1031179
0.05897144 0.11933555 0.0761682 0.5224525 0.56138366 0.0 0.24900158 0.08532544
0.0 0.13898307 0.35988525 0.4663749 0.0 0.0 0.5397118 0.0
0.030214813 0.16651887 0.5183766 6e-45 0.01426257 0.073469535 0.0 0.3746985
00000000: 64c8 003f a0ed 643e 99ff 413f 0d90 bb3e
00000010: bcbd 7b3e 0000 0000 9d51 093f c302 513f
00000020: 0000 0000 0000 0000 1b41 2e3f 0000 0000
00000030: bc6c 543e 048d 863e 0000 0000 7d43 c63e
00000040: adc3 b63e 50a4 963d b61b 4d3d 294e 043d
00000050: a0f9 253e 095c eb3d 0000 0000 f3e4 0b3f
00000060: 4db6 d43d f0c0 4a3f 0000 0000 4b16 813f
00000070: 80e9 df3e 0000 0000 f253 393e 4194 7d3f
00000080: c33a 193f 0000 0000 9b3f 993e 7291 273e
00000090: bb55 213f 88c9 303b a306 393f 7a2f d33d
000000a0: 098c 713d 3266 f43d 13fe 9b3d 72bf 053f
000000b0: d7b6 0f3f 0000 0000 45fa 7e3e 1bbf ae3d
000000c0: 0000 0000 9451 0e3e e142 b83e b1c8 ee3e
000000d0: 0000 0000 0000 0000 8d2a 0a3f 0000 0000
000000e0: 0e85 f73c ec83 2a3e 54b4 043f 0400 0000
000000f0: 8ead 693c 3277 963d 0000 0000 7bd8 bf3e

gnn1_pool.bn1.running_var f4 [64]
0.034963317 0.014045979 0.11223818 0.04329817 0.0741282 6e-45 0.058494866 0.13356002
6e-45 6e-45 0.06262809 6e-45 0.050069585 0.010406802 6e-45 0.047901593
0.031525742 0.027741367 0.019745665 0.013837594 0.05834142 0.0070781563 6e-45 0.08496371
0.082329325 0.119999625 6e-45 0.0916881 0.08845542 6e-45 0.04295512 0.069824755
0.06903592 6e-45 0.030518742 0.004929284 0.08105532 0.00036716295 0.11921377 0.007980078
0.012026886 0.057513222 0.04372348 0.10723004 0.06095526 6e-45 0.0039594523 0.0054201586
6e-45 0.102793925 0.05223287 0.04596857 6e-45 6e-45 0.054604292 6e-45
0.008586756 0.015227284 0.046179205 6e-45 0.0019133145 0.02123719 6e-45 0.079680376
00000000: b235 0f3d 1b21 663c 22dd e53d 6c59 313d
00000010: 87d0 973d 0400 0000 5098 6f3d f5c3 083e
00000020: 0400 0000 0400 0000 2843 803d 0400 0000
00000030: c415 4d3d 4b81 2a3c 0400 0000 7634 443d
00000040: 2321 013d dd41 e33c a9c1 a13c 13b7 623c
00000050: 6af7 6e3d e1ef e73b 0400 0000 7401 ae3d
00000060: 479c a83d 5dc2 f53d 0400 0000 f8c6 bb3d
00000070: 1e28 b53d 0400 0000 b5f1 2f3d 4800 8f3d
00000080: b462 8d3d 0400 0000 7102 fa3c d585 a13b
00000090: 5500 a63d c77f c039 5926 f43d e0be 023c
000000a0: 6b0c 453c fc92 6b3d 6417 333d 6c9b db3d
000000b0: 39ac 793d 0400 0000 4bbe 813b 969b b13b
000000c0: 0400 0000 9f85 d23d 22f2 553d 8a49 3c3d
000000d0: 0400 0000 0400 0000 c0a8 5f3d 0400 0000
000000e0: 77af 0c3c dc7b 793c 6826 3d3d 0400 0000
000000f0: 2ec8 fa3a 9ef9 ad3c 0400 0000 772f a33d

gnn1_pool.conv2.lin_rel.weight f4 [64, 64]
-0.16809188 -0.100785464 0.00858986 -0.15923467 -0.007160829 0.09156903 -0.02023808 -0.1820731
-0.027882397 0.13820004 0.12578553 0.05358598 0.07722654 0.10974847 -0.015512679 -0.112873524
-0.038391266 -0.036369335 0.112078905 -0.05948696 0.12428347 -0.078920975 -0.058460984 0.051082302
-0.09730055 -0.0013572761 0.027467249 -0.026013445 0.19881608 0.027094405 0.11795911 0.042043015
0.1657605 -0.09514611 -0.15041171 0.11297237 -0.02606969 -0.07047143 0.027858349 -0.13381135
0.10872232 0.08728205 0.024614688 -0.12963293 0.031095326 0.02540531 -0.033153426 -0.08668504
0.0041930745 -0.08390824 0.14681274 0.0018021688 0.15401778 -0.0050042626 0.032446038 0.033369813
-0.022783147 -0.023899807 0.068877995 0.048326235 -0.059707567 0.09410738 0.005370169 -0.17452852
0.012047802 0.14961995 0.14856102 -0.03487383 0.057673767 -0.049959388 0.11856681 -0.066285096
0.021914672 0.011292698 -0.13743204 -0.054087564 -0.019709826 0.03334116 -0.13774806 0.057414614
-0.040590215 -0.22452918 0.060160145 -0.047696143 0.034959428 -0.069857866 -0.02193329 -0.08346952
0.08304491 0.07561592 2.8650538e-06 0.117133334 -0.10886992 0.023091333 -0.039353456 -0.07101499
0.0095358575 -0.048441894 -0.03845682 -0.04434456 -0.0006268945 -0.0800765 0.06506539 -0.099411175
-0.15304652 0.09389985 -0.093952574 0.033575602 0.12675926 0.03593902 -0.03541701 0.025509298
0.05312588 -0.049729917 -0.010515805 0.09363753 0.12936784 -0.05187825 -0.15250672 0.01639695
-0.217619 0.0483753 0.080381244 0.07093843 -0.18602286 -0.050692923 -0.028529482 0.021889938
0.01764548 0.020767367 0.122823775 -0.1340611 -0.09244035 -0.05264741 -0.14378124 0.12626927
-0.0060009696 0.026957402 -0.012187875 0.14318155 0.15246767 -0.07999793 -0.122768715 -0.020520426
0.021984529 0.11535739 -0.15726241 0.051032223 0.021204501 0.021927465 -0.049184795 0.105821244
0.10734524 0.081387505 0.08154385 -0.10661756 0.1646467 0.12140909 0.04160899 0.08522762
-0.07818971 0.044960983 0.013055717 0.04089475 0.018479023 0.03620989 -0.045428514 0.028786363
0.09923204 0.07749358 -0.076341935 0.113208815 -0.06560853 -0.06963743 -0.012247648 -0.0860427
0.062259667 0.0730138 -0.07707369 0.028554788 0.04963175 0.06407606 -0.092469916 -0.019264335
-0.05691622 -0.0929055 0.121432886 -0.030494846 0.08406879 0.0969813 -0.06193473 -0.07915237
-0.052129373 0.0070451684 -0.14924885 0.015434199 0.03127602 0.05678528 -0.05333115 -0.04464086
-0.08979667 0.1327739 0.18745568 -0.0117897475 0.18618967 -0.09443149 -0.057738986 0.019749414
0.15254332 -0.02772677 -0.04315694 -0.20091689 0.045167793 0.046733357 -0.06382791 0.119689174
-0.16537014 -0.043820146 0.026041744 -0.056940645 0.14209114 -0.015145411 0.12589784 0.021173423
0.027473807 -0.040062018 0.06805852 -0.095405914 -0.04227019 -0.3457191 -0.1164714 0.0030104977
0.061000276 0.026477648 -0.02813724 -0.14232065 0.15534149 -0.03190399 0.09341815 -0.047918014
-0.074218534 -0.063833795 -0.032189284 -0.1851235 0.11271718 -0.17913722 0.11407983 0.09649637
0.18595444 -0.10035128 -0.0074219448 -0.09819814 0.08874562 0.10956477 -0.055896413 0.014868906
00000000: 4720 2cbe 9c68 cebd 7cbc 0c3c 6a0e 23be
00000010: 63a5 eabb 8b88 bb3d 54ca a5bc 5f71 3abe
00000020: a069 e4bc 5084 0d3e eccd 003e f97c 5b3d
00000030: f328 9e3d cec3 e03d e428 7ebc 3c2a e7bd
00000040: 2940 1dbd 03f8 14bd a089 e53d 99a8 73bd
00000050: 5588 fe3d 52a1 a1bd c974 6fbd ad3b 513d
00000060: 8345 c7bd a1e6 b1ba ff02 e13c 261a d5bc
00000070: 7196 4b3e 16f5 dd3c 8c94 f13d 4c35 2c3d
00000080: 1fbd 293e f7db c2bd 8705 1abe 0f5e e73d
00000090: 1a90 d5bc 5353 90bd 3137 e43c d805 09be
000000a0: cfa9 de3d eec0 b23d bea4 c93c 7fbe 04be
000000b0: a0bb fe3c cc1e d03c e3cb 07bd ed87 b1bd
000000c0: 0f66 893b 15d8 abbd 1456 163e c036 ec3a
000000d0: d6b6 1d3e ccfa a3bb 23e6 043d c9ae 083d
000000e0: b9a3 babc 87c9 c3bc e80f 8d3d bbf1 453d
000000f0: ec8f 74bd 5fbb c03d 3ef8 af3b 9bb7 32be
00000100: 2564 453c f935 193e 6120 183e dcd7 0ebd
00000110: 543b 6c3d 37a2 4cbd 28d3 f23d 7bc0 87bd
00000120: 6686 b33c 0205 393c fcba 0cbe ec8a 5dbd
00000130: 8076 a1bc bd90 083d d40d 0dbe 962b 6b3d
00000140: ed41 26bd faea 65be 7c6a 763d 085d 43bd
00000150: 9e31 0f3d a411 8fbd 71ad b3bc 11f2 aabd
00000160: 7313 aa3d 85dc 9a3d 4045 4036 9ae3 ef3d
00000170: 31f7 debd 092a bd3c 1731 21bd 4f70 91bd
00000180: 493c 1c3c 026b 46bd e684 1dbd a4a2 35bd
00000190: 2e56 24ba 26ff a3bd 0141 853d 1698 cbbd
000001a0: 3ab8 1cbe 914e c03d 356a c0bd 9286 093d
000001b0: 2ecd 013e cb34 133d 6d11 11bd e0f8 d03c
000001c0: 869a 593d 99b1 4bbd 7c4a 2cbc 09c5 bf3d
000001d0: 0179 043e 4a7e 54bd b92a 1cbe e652 863c
000001e0: 84d7 5ebe 2e25 463d ec9e a43d 2b48 913d
000001f0: c77c 3ebe 62a3 4fbd a9b6 e9bc 8752 b33c
00000200: 418d 903c 5320 aa3c 088b fb3d 5047 09be
00000210: 5e51 bdbd d0a4 57bd 643b 13be bb4c 013e
00000220: c8a3 c4bb c5d5 dc3c a7af 47bc 2f9e 123e
00000230: 7c20 1c3e f4d5 a3bd 2a6e fbbd 741a a8bc
00000240: e618 b43c 7f40 ec3d 6609 21be 2a07 513d
00000250: 10b5 ad3c 3aa1 b33c ff75 49bd cfb8 d83d
00000260: d2d7 db3d 7eae a63d 7600 a73d 4f5a dabd
00000270: 2599 283e 54a5 f83d 306e 2a3d d28b ae3d
00000280: ed21 a0bd 0229 383d a5e7 553c 4181 273d
00000290: 5261 973c d250 143d 4013 3abd 61d1 eb3c
000002a0: 2b3a cb3d f4b4 9e3d 2959 9cbd 06da e73d
000002b0: c45d 86bd 129e 8ebd 5caa 48bc 2837 b0bd
000002c0: fe03 7f3d 4288 953d d0d8 9dbd bbeb e93c
000002d0: a94a 4b3d 4f3a 833d de60 bdbd 3dd0 9dbc
000002e0: fb20 69bd 3d45 bebd ceb1 f83d 54d0 f9bc
000002f0: 422c ac3d 229e c63d 45af 7dbd a31a a2bd
00000300: 9c85 55bd 28db e63b b1d4 18be b9df 7c3c
00000310: 491b 003d af97 683d c471 5abd 56d9 36bd
00000320: 51e7 b7bd e2f5 073e 62f4 3f3e c929 41bc
00000330: 81a8 3e3e 4c65 c1bd b77f 6cbd 86c9 a13c
00000340: 5134 1c3e 4023 e3bc 55c5 30bd 28bd 4dbe
00000350: dd01 393d 7a6b 3f3d 35b8 82bd 991f f53d
00000360: ca56 29be c17c 33bd 7f55 d53c 983a 69bd
00000370: 5780 113e 7524 78bc 5deb 003e e373 ad3c
00000380: c010 e13c 1218 24bd 4462 8b3d 2d64 c3bd
00000390: 8223 2dbd 1802 b1be 8f88 eebd c54b 453b
000003a0: 6ddb 793d a7e7 d83c 1280 e6bc 81bc 11be
000003b0: d711 1f3e c2ad 02bd 0452 bf3d ae45 44bd
000003c0: e3ff 97bd 4bbb 82bd e9d8 03bd 0491 3dbe
000003d0: 44d8 e63d bf6f 37be b0a2 e93d e49f c53d
000003e0: d76a 3e3e f984 cdbd c933 f3bb 1b1c c9bd
000003f0: 43c0 b53d 7e63 e03d a3f3 64bd b69c 733c

gnn1_pool.conv2.lin_root.weight f4 [64, 64]
-0.05768716 0.14715025 0.0008029102 0.0038578678 0.07877848 -0.062771454 -0.026542414 0.0029750732
0.07915741 0.071377575 -0.0025954037 -0.08680197 0.060043234 -0.012325628 0.009457339 -0.076742634
-0.015637284 -0.015658215 0.05988287 -0.0046609608 -0.050234083 -0.019549942 -0.13077259 -0.107564375
-0.024249364 -0.015166926 0.08847929 0.045736883 -0.07901144 0.15082431 -0.12457852 -0.022353146
-0.011938576 -0.13603757 0.0604212 -0.032590445 -0.13373077 -0.21456544 -0.05179946 0.0035559922
-0.09021768 -0.05302714 -0.087967396 -0.09405356 -0.085938044 0.037038762 -0.11984889 0.063040674
-0.06010515 0.026888153 0.051578123 0.046927154 0.16772737 -0.12165943 0.02197969 0.030383563
0.068317235 0.12964259 0.08341068 0.047970362 0.13056326 -0.100044385 -0.021344738 -0.04398147
-0.09251869 -0.095299296 -0.005491608 0.0482615 -0.052825622 0.17102164 -0.10540862 -0.04179668
-0.056676656 0.042545475 -0.036822513 -0.050481908 0.00790334 -0.024852438 -0.10958502 0.084647164
0.034329694 -0.008261017 0.054273706 -0.1311415 -0.01437861 0.02722265 -0.011070698 -0.037434746
-0.05176585 0.02946789 -0.04894887 0.08791117 0.038962457 -0.009039986 -0.005483516 0.08789707
-0.05112939 -0.0698452 0.069906354 -0.13213459 -0.08986658 0.046224795 0.0076301596 0.03159293
-0.13642634 0.088019036 -0.086212024 0.10973475 0.1311606 0.12937081 -0.001126817 0.07596393
0.09345925 0.031814035 -0.08096869 -0.038582906 0.15150169 -0.1625701 0.05832842 -0.031758387
0.13261478 -0.034564663 0.11591371 -0.09622568 0.048512846 -0.052115843 0.031038243 -0.13139799
0.06279637 0.16746227 0.13298477 0.017986972 -0.041684788 0.103135586 0.0049954527 -0.024887178
-0.08199317 0.08675547 -0.14995438 -0.007068674 0.05610669 -0.05103546 -0.0050860513 0.06219814
0.053035825 -0.0605274 -0.027442912 0.14755553 -0.088458 -0.07679378 0.10990497 -0.1356617
0.14012995 -0.15590504 -0.044454888 -0.086711355 -0.15062644 -0.077328 -0.029906966 -0.0688978
-0.12856206 -0.15050773 -0.026142761 -0.026837597 0.03853981 0.09437988 -0.118555315 0.025170181
0.06084411 -0.010925231 -0.047340143 0.0021925624 -0.12597147 0.011205198 0.020701759 0.033442933
0.1603494 -0.020240286 -0.061517596 0.1357161 0.013434122 -0.09355791 0.043084484 0.012000905
-0.0777141 -0.061363216 0.1072935 -0.051577106 -0.015882498 0.06411151 0.022083117 0.06255764
-0.029674506 -0.070126906 0.08981532 0.07248613 -0.03785688 -0.0052545397 -0.109238416 0.1435679
0.10780555 0.088485524 -0.007485441 0.11377047 0.11965135 -0.08046409 0.073430054 0.10357521
0.08219952 -0.012171596 0.011712853 -0.04084841 0.03145325 -0.05519066 0.034633428 -0.021453552
0.08584741 0.043283384 0.107843496 0.07344906 0.018830169 0.035716914 -0.13696305 -0.062806204
-0.054737955 -0.035448175 0.06951571 -0.060091786 -0.005916046 -0.16262324 -0.03630867 -0.0015478025
0.06416106 0.12382496 -0.09801469 0.03870055 0.03455357 -0.0074855685 -0.053599805 0.0386195
-0.024900386 -0.044113003 0.018664932 -0.043852936 0.13333058 -0.19309415 -0.00058187783 0.035981063
-0.010881852 -0.013645163 -0.06585944 -0.0480973 0.12777226 -0.0018646218 -0.08841117 0.102486715
00000000: 5f49 6cbd 8eae 163e 647a 523a 48d4 7c3b
00000010: 9d56 a13d 528e 80bd 7a6f d9bc 72f9 423b
00000020: 481d a23d 682e 923d a617 2abb 3bc5 b1bd
00000030: e5ef 753d 6ef1 49bc f4f2 1a3c 3e2b 9dbd
00000040: c319 80bc a845 80bc be47 753d f9ba 98bb
00000050: 41c2 4dbd 3327 a0bc 40e9 05be b64a dcbd
00000060: 9aa6 c6bc b37e 78bc a134 b53d 9956 3b3d
00000070: c0d0 a1bd b071 1a3e 0623 ffbd f21d b7bc
00000080: 049a 43bc 6f4d 0bbe 387c 773d 8f7d 05bd
00000090: b8f0 08be 0bb7 5bbe ac2b 54bd a60b 693b
000000a0: 0cc4 b8bd fd32 59bd 4028 b4bd 279f c0bd
000000b0: 4900 b0bd f5b5 173d 5673 f5bd 781b 813d
000000c0: d130 76bd 8b44 dc3c 9543 533d b036 403d
000000d0: b9c0 2b3e 9428 f9bd c00e b43c f3e6 f83c
000000e0: e8e9 8b3d 07c1 043e 38d3 aa3d 927c 443d
000000f0: 60b2 053e 12e4 ccbd 29db aebc ea25 34bd
00000100: 707a bdbd 472c c3bd f2f2 b3bb daad 453d
00000110: ae5f 58bd 4c20 2f3e 79e0 d7bd ff32 2bbd
00000120: c825 68bd 2a44 2e3d 34d3 16bd 1ec6 4ebd
00000130: 037d 013c 5797 cbbc 1c6e e0bd 7e5b ad3d
00000140: 4b9d 0c3d 3759 07bc 1b4e 5e3d f549 06be
00000150: 4394 6bbc 0902 df3c df61 35bc 2d55 19bd
00000160: 6e08 54bd a566 f13c 9c7e 48bd c60a b43d
00000170: 1997 1f3d 731c 14bc 11af b3bb 6103 b43d
00000180: 0d6d 51bd 000b 8fbd 102b 8f3d 4a4e 07be
00000190: f80b b8bd 3656 3d3d 6b06 fa3b 9767 013d
000001a0: 59b3 0bbe 5343 b43d ee8f b0bd 9dbc e03d
000001b0: f74e 063e c879 043e b4b1 93ba fa92 9b3d
000001c0: 9067 bf3d 6f4f 023d ead2 a5bd 1c09 1ebd
000001d0: 4223 1b3e c778 26be c8e9 6e3d 1515 02bd
000001e0: 2bcc 073e ad93 0dbd 2b64 ed3d f811 c5bd
000001f0: 68b5 463d 6c77 55bd ea43 fe3c 328d 06be
00000200: 629b 803d 3b7b 2b3e 292d 083e 6a59 933c
00000210: abbd 2abd c038 d33d e5b0 a33b 32e0 cbbc
00000220: 09ec a7bd daac b13d a48d 19be 56a0 e7bb
00000230: 21d0 653d 8f0a 51bd e4a8 a6bb 7ac3 7e3d
00000240: 183c 593d 94eb 77bd f5cf e0bc cc18 173e
00000250: 7829 b5bd 0f46 9dbd db15 e13d e7ea 0abe
00000260: 3a7e 0f3e 92a5 1fbe 5416 36bd b995 b1bd
00000270: d13d 1abe 245e 9ebd 74ff f4bc 4a1a 8dbd
00000280: c6a5 03be b31e 1abe 5829 d6bc 85da dbbc
00000290: ebdb 1d3d 3d4a c13d 21cd f2bd b231 ce3c
000002a0: ac37 793d bdff 32bc bde7 41bd 18b1 0f3b
000002b0: aafe 00be 0296 373c bc96 a93c 75fb 083d
000002c0: a232 243e f5ce a5bc e0f9 7bbd 29f9 0a3e
000002d0: cb1a 5c3c 4a9b bfbd 5b79 303d 729f 443c
000002e0: 9228 9fbd ff57 7bbd b2bc db3d 8442 53bd
000002f0: 031c 82bc e54c 833d a7e7 b43c 381e 803d
00000300: f317 f3bc b29e 8fbd 18f1 b73d 9c73 943d
00000310: d10f 1bbd 462e acbb 64b8 dfbd 7703 133e
00000320: 28c9 dc3d e637 b53d 6e48 f5bb 7e00 e93d
00000330: c40b f53d 5bca a4bd 7f62 963d 3d1f d43d
00000340: 3958 a83d 606b 47bc 44e7 3f3c aa50 27bd
00000350: 20d5 003d 9a0f 62bd c8db 0d3d 5cbf afbc
00000360: c4d0 af3d eb49 313d 0ddd dc3d 766c 963d
00000370: ba41 9a3c e64b 123d 0b40 0cbe 8aa0 80bd
00000380: e834 60bd 1b32 11bd 415e 8e3d ce22 76bd
00000390: 64db c1bb b586 26be 66b8 14bd a2df caba
000003a0: e066 833d f197 fd3d edbb c8bd 7884 1e3d
000003b0: 0b88 0d3d 8049 f5bb 788b 5bbd 7b2f 1e3d
000003c0: e5fb cbbc d6af 34bd 33e7 983c 239f 33bd
000003d0: d087 083e 79ba 45be 2989 18ba e160 133d
000003e0: cc49 32bc f68f 5fbc 50e1 86bd ad01 45bd
000003f0: bbd6 023e 5366 f4ba ea10 b5bd 8ee4 d13d

gnn1_pool.conv2.lin_root.bias f4 [64]
-0.14787619 -0.013396958 0.060852706 -0.077946864 0.0043294574 0.010683018 0.06958475 0.09513412
-0.046774644 -0.09290396 -0.14423919 -0.01862083 -0.040582694 -0.032131314 -0.13396598 0.083785586
-0.06346731 0.016370168 -0.0050789276 -0.080142304 0.031474043 -0.1596166 -0.13071805 -0.1777508
-0.17984946 -0.09382893 0.016451158 -0.113261506 0.03328208 -0.04382486 0.018306365 0.15908617
-0.0871182 -0.09851522 -0.08627818 -0.113433965 -0.15299784 0.016633727 -0.026031045 0.013069875
0.047581602 -0.24696127 -0.20073819 -0.0953357 -0.081446595 0.0006284352 -0.060646486 0.03413118
-0.02392578 0.03779797 -0.14082651 0.104227945 0.010672761 0.081537575 0.032264754 -0.042669438
-0.18293816 -0.16179296 -0.09229405 0.007110322 0.054192036 -0.08614134 -0.023382217 -0.03550076
00000000: db6c 17be ea7e 5bbc b040 793d 9ba2 9fbd
00000010: 1fde 8d3b d307 2f3c 7382 8e3d add5 c23d
00000020: c596 3fbd 6e44 bebd 70b3 13be b68a 98bc
00000030: 0a3a 26bd 209c 03bd 612e 09be c797 ab3d
00000040: 26fb 81bd bb1a 863c 226d a6bb a621 a4bd
00000050: edea 003d 8972 23be f4da 05be 4e04 36be
00000060: 752a 38be 6229 c0bd 94c4 863c a6f5 e7bd
00000070: ca52 083d b281 33bd 3bf7 953c 7ce7 223e
00000080: 076b b2bd 59c2 c9bd 9db2 b0bd 1150 e8bd
00000090: 77ab 1cbe 7443 883c 0f3f d5bc 0723 563c
000000a0: ede4 423d 6ae3 7cbe 508e 4dbe 5d3f c3bd
000000b0: 79cd a6bd 93bd 243a 7368 78bd 23cd 0b3d
000000c0: ffff c3bc 0bd2 1a3d d334 10be 7675 d53d
000000d0: cedc 2e3c 2cfd a63d 0c28 043d 26c6 2ebd
000000e0: 2454 3bbe 0ead 25be aa04 bdbd b4fd e83b
000000f0: 78f8 5d3d df6a b0bd 108c bfbc 3f69 11bd

gnn1_pool.bn2.weight f4 [64]
1.0112227 0.88054365 0.8960448 0.9865811 0.984062 0.9329959 0.9354199 0.90058964
0.9498088 0.9440485 0.930795 0.9427381 0.9358302 0.9438752 0.8544076 1.0068837
0.9736016 0.9876985 0.9320079 0.9843006 0.99053377 0.9410058 1.0738703 1.0101775
0.96931076 0.9829149 0.9187255 0.9380771 0.9429364 0.90031546 0.87103885 0.91970044
1.0124784 0.9577185 1.0022056 0.97806436 1.0004766 0.93081737 0.8504524 0.91680175
0.94623697 1.0102603 1.0465244 0.8847662 0.90117556 0.96252596 0.9546244 0.9727013
0.96795607 0.98305905 0.86280155 0.9330892 0.9715461 0.9868722 1.0190686 0.9410375
1.0654079 0.9749116 0.9503034 0.9698307 0.9781381 0.97352207 1.001774 0.9056521
00000000: bf6f 813f 4f6b 613f 3163 653f 9490 7c3f
00000010: 7deb 7b3f d2d8 6e3f ae77 6f3f 0b8d 663f
00000020: ab26 733f 2aad 713f 9548 6e3f 4957 713f
00000030: 9192 6f3f cea1 713f 75ba 5a3f 91e1 803f
00000040: f43d 793f cfd9 7c3f 1298 6e3f 20fb 7b3f
00000050: 9f93 7d3f c2e5 703f 9574 893f 7f4d 813f
00000060: c024 783f 50a0 7b3f 9831 6b3f d225 703f
00000070: 4864 713f 137b 663f 67fc 5e3f 7d71 6b3f
00000080: e498 813f 0a2d 753f 4648 803f 6d62 7a3f
00000090: 9e0f 803f 0c4a 6e3f 40b7 593f 85b3 6a3f
000000a0: 963c 723f 3650 813f 83f4 853f 0a80 623f
000000b0: 71b3 663f 1a68 763f 4462 743f f402 793f
000000c0: f8cb 773f c2a9 7b3f 90e0 5c3f efde 6e3f
000000d0: 3fb7 783f a8a3 7c3f d770 823f d5e7 703f
000000e0: 495f 883f ce93 793f 1547 733f d346 783f
000000f0: 4267 7a3f be38 793f 213a 803f d1d8 673f

gnn1_pool.bn2.bias f4 [64]
-0.028475361 0.119983196 0.0067045316 -0.014900714 0.06755508 -0.019802008 0.045698326 0.056122407
-0.017261177 0.085498095 -0.006323917 0.03567275 -0.024250548 -0.011635256 0.057429727 0.0770476
0.14587454 -0.029692959 0.019151738 0.037176162 0.061160527 0.08129458 0.06474231 0.032322038
0.0035964402 0.08499573 0.073066086 0.009963921 -0.0013811904 0.047810458 0.05505783 0.026841743
-0.054451443 0.025557153 -0.040479112 0.029435897 0.03994226 -0.045093868 0.046732537 0.021120789
0.03138293 0.029566033 0.07142291 0.075163886 0.03743528 -0.003654989 -0.03195441 -0.00040286407
-0.0084946165 0.07207635 0.00911724 0.061551362 0.08480588 0.03708812 0.051090006 0.009369683
0.09522368 0.040631037 -0.017528415 0.123442955 -0.0077457326 -0.042164914 0.019805359 0.031310815
00000000: 2945 e9bc c0b9 f53d b0b1 db3b 2022 74bc
00000010: 515a 8a3d d237 a2bc 2b2e 3b3d 9ce0 653d
00000020: 5067 8dbc a019 af3d dc38 cfbb 971d 123d
00000030: 16a9 c6bc cda1 3ebc 6f3b 6b3d 22cb 9d3d
00000040: 2360 153e a63e f3bc 1be4 9c3c 0846 183d
00000050: 7683 7a3d c67d a63d 9e97 843d 1d64 043d
00000060: 41b2 6b3b 3e12 ae3d aca3 953d b73f 233c
00000070: 0f09 b5ba e6d4 433d 5284 613d 37e3 db3c
00000080: 7a08 5fbd 3c5d d13c 6dcd 25bd 8d23 f13c
00000090: 7f9a 233d 59b4 38bd 9e6a 3f3d 8105 ad3c
000000a0: 638b 003d 7734 f23c 2d46 923d 86ef 993d
000000b0: bc55 193d 8a88 6fbb a1e2 02bd 8037 d3b9
000000c0: 012d 0bbc c49c 933d 7a60 153c 481d 7c3d
000000d0: b5ae ad3d b6e9 173d c143 513d 4d83 193c
000000e0: a204 c33d bb6c 263d c097 8fbc a9cf fc3d
000000f0: eacf fdbb 1eb5 2cbd d93e a23c c53f 003d

gnn1_pool.bn2.running_mean f4 [64]
0.25926656 0.40786082 0.45176402 0.10985048 0.7135217 0.23333977 0.5168342 0.7621991
0.56282425 0.18402125 0.090903185 0.46344817 0.31402403 0.46500835 0.3751268 0.4376566
0.34487778 0.36986747 0.69842523 0.34281424 0.28162897 0.33554673 0.17852874 0.28178582
0.10823114 0.2192108 0.39064443 0.06314233 0.289604 0.3798969 0.3858058 0.560359
0.49823812 0.40829024 0.38193658 0.30850977 0.35925898 0.8807588 0.2900252 0.3846161
0.4110069 0.048782095 0.15991466 0.38709685 0.39084446 0.3138551 0.45523798 0.531861
0.43974122 0.40858456 0.33130878 0.4794774 0.30037794 0.5290386 0.25474387 0.44809425
0.19781151 0.27439314 0.6665996 0.36311367 0.58062255 0.59113437 0.27301723 0.42320186
00000000: 96be 843e 22d3 d03e 9d4d e73e 4af9 e03d
00000010: 5ca9 363f 9ff0 6e3e 3f4f 043f 7b1f 433f
00000020: 4015 103f 1170 3c3e 732b ba3d 1449 ed3e
00000030: c2c7 a03e 9315 ee3e 9f10 c03e 8714 e03e
00000040: d293 b03e 455f bd3e ffcb 323f 5985 af3e
00000050: ac31 903e c8cc ab3e 3dd0 363e 3b46 903e
00000060: 4aa8 dd3d cc78 603e 8c02 c83e c450 813d
00000070: fa46 943e d981 c23e 5688 c53e b073 0f3f
00000080: 1119 ff3e 6b0b d13e 318d c33e fef4 9d3e
00000090: cbf0 b73e 6979 613f 2f7e 943e 67ec c43e
000000a0: 7f6f d23e bccf 473d abc0 233e 8f31 c63e
000000b0: c41c c83e 9eb1 a03e f414 e93e 0b28 083f
000000c0: c325 e13e ff31 d13e 4ea1 a93e 107e f53e
000000d0: 23cb 993e 136f 073f ca6d 823e 9c6c e53e
000000e0: 1a8f 4a3e 427d 8c3e 45a6 2a3f 09ea b93e
000000f0: aea3 143f 9554 173f eac8 8b3e eaad d83e

gnn1_pool.bn2.running_var f4 [64]
0.2481719 1.0668911 0.30100018 0.1667537 2.0819316 0.3301261 1.2269504 1.8797963
0.39000925 0.2395131 0.16554114 0.589649 1.0164917 0.83478606 1.0015435 0.9666605
1.0658371 0.62673527 1.7800866 0.7436973 0.8998542 0.95308447 0.20521235 0.79132324
0.29724103 0.44450462 0.86525697 0.10815811 0.7814799 1.1475453 1.1961697 1.2719779
0.26128194 0.6951685 0.83149236 0.60955334 0.97937125 0.93683535 0.7664815 0.9356298
0.81754184 0.045193717 0.5351192 0.60381746 0.55856544 0.8805016 0.18709289 0.772097
0.1467129 0.58936864 0.9128184 1.3588924 0.7484847 0.8620025 0.75133073 1.1214389
0.68979144 0.46909878 0.764088 0.7032012 1.648992 1.2677474 0.514238 1.2398263
00000000: c620 7e3e e38f 883f b21c 9a3e 7bc1 2a3e
00000010: 5e3e 0540 4a06 a93e b60c 9d3f 2a9d f03f
00000020: 4baf c73e ec42 753e 9e83 293e 3df3 163f
00000030: 661c 823f 8ab4 553f 9432 803f 1077 773f
00000040: 5a6d 883f b971 203f e1d9 e33f f262 3e3f
00000050: d85c 663f 58fd 733f 3023 523e 2994 4a3f
00000060: fa2f 983e 1c96 e33e 7b81 5d3f 0082 dd3d
00000070: 110f 483f c4e2 923f 171c 993f 2cd0 a23f
00000080: bfc6 853e 90f6 313f afdc 543f b00b 1c3f
00000090: 13b8 7a3f 71d4 6f3f 2238 443f 6f85 6f3f
000000a0: 6c4a 513f 0c1d 393d 92fd 083f c893 1a3f
000000b0: 25fe 0e3f 8e68 613f 4795 3f3e 26a8 453f
000000c0: e83b 163e dde0 163f 77ae 693f 30f0 ad3f
000000d0: b19c 3f3f 32ac 5c3f 3657 403f 4f8b 8f3f
000000e0: 2c96 303f b72d f03e 459b 433f fe04 343f
000000f0: 2b12 d33f 8c45 a23f 1aa5 033f a1b2 9e3f

gnn1_pool.conv3.lin_rel.weight f4 [52, 64]
0.040901687 0.13253313 -0.024468144 0.17854713 -0.0021974873 -0.0064305095 0.11075867 -0.018280033
-0.16820973 0.0525481 -0.103172086 0.028752688 -0.08064495 -0.0036061285 0.013272856 -0.113777004
-0.06817987 0.06931038 -0.022318369 0.11451528 -0.24854942 -0.025113283 -0.20896997 -0.049921736
0.030991131 -0.028309198 0.044004288 0.13561706 0.114169136 0.00959679 -0.00018331871 -0.05011622
0.1581175 0.008734938 0.110935785 -0.07227165 -0.10876966 0.09047465 0.13342866 -0.17014284
-0.10931036 -0.098295696 -0.096981 -0.10764314 0.05271477 -0.11062498 -0.113605544 0.014744641
-0.13983047 -0.16780245 0.04384781 -0.057197563 0.033804305 0.06241593 -0.17129748 -0.24128278
-0.08073036 -0.0206067 -0.039388493 0.16746227 -0.12556913 0.01269736 0.060157105 -0.047598913
0.0975859 -0.09287637 0.09686174 -0.009582841 0.00061954616 -0.040943097 0.030960795 0.07605615
0.13989997 -0.10250317 0.0059310426 0.05401887 0.05470523 0.090808876 -0.13795827 -0.03664251
0.15218395 0.03091963 -0.09852936 -0.0029223275 0.04967553 -0.040106174 -0.042003617 0.107301265
-0.13181397 -0.074252635 0.036994547 -0.0041572256 0.15151289 0.07647266 -0.060828358 0.10396575
0.11666019 -0.11747696 -0.007287472 0.16911894 -0.04904605 -0.09894315 -0.054605376 0.18467656
0.16305022 -0.101749375 0.11540537 0.008629973 0.08634376 0.08098136 0.12373302 -0.05986371
0.01997444 -0.15289605 0.023589734 0.12034304 -0.028681058 0.0053620273 0.09482774 0.013555261
0.07853426 -0.14361978 -0.056494545 -0.111908816 -0.08021296 0.08728899 0.0175933 -0.007326255
0.24538682 0.053094823 -0.054745127 0.12862244 0.13725835 -0.107135765 0.03804436 -0.064345196
-0.119269766 -0.16579309 0.0027229195 -0.21190457 -0.024822058 -0.04057226 -0.12115119 0.0458296
0.13635473 0.102726854 0.014210456 0.07166315 0.118511096 -0.06842861 0.12837018 0.060257137
-0.19477735 0.11834081 0.14496873 -0.07257355 -0.10253487 -0.03262444 -0.12430647 0.08500502
-0.013595523 -0.021078968 0.07276666 0.04924264 -0.002511123 -0.1598482 0.039543442 0.18570599
0.16157988 0.11920459 0.22156918 0.08661709 -0.03141805 0.0053460933 0.055485625 0.04794854
-0.046726998 -0.14432888 -0.13533068 -0.005649619 -0.1687367 0.07028195 0.14971884 0.026032863
0.20847565 -0.13992892 0.0064403117 0.00872142 -0.038214162 -0.05866611 -0.0018443681 -0.18813398
0.062418114 0.14187936 -0.10781161 0.01846811 -0.11525172 0.031144703 0.06317463 -0.097396806
-0.041385707 -0.12531112 -0.17794123 0.10637893 -0.13285726 -0.02572118 0.14924423 -0.10864287
-0.0027925246 -0.099051654 -0.14880727 -0.12293113 -0.018744968 0.1371894 0.013274468 0.08145316
-0.0787664 0.015671471 0.04175225 0.029588023 0.008110612 -0.10443336 -0.021398019 -0.17172705
-0.08583776 -0.028004125 -0.045023154 -0.022149317 0.07033497 0.08665555 0.029366054 -0.04641372
-0.18208988 -0.16153033 -0.049450003 -0.121225104 0.03936705 -0.0040804334 -0.08936867 0.09520027
-0.07955624 -0.015505915 0.12752287 -0.0021357937 -0.02772499 -0.016421096 -0.033243693 0.022500629
-0.055915844 0.057048596 0.093409054 0.06718943 0.14982279 -0.0450622 -0.1506836 0.0068342304
00000000: 8788 273d c4b6 073e 6b71 c8bc 0fd5 363e
00000010: b803 10bb 06b7 d2bb 71d5 e23d 02c0 95bc
00000020: 2c3f 2cbe ad3c 573d e34b d3bd c28a eb3c
00000030: 2e29 a5bd cc54 6cbb 6576 593c eb03 e9bd
00000040: e3a1 8bbd 9af2 8d3d 03d5 b6bc fd86 ea3d
00000050: bd83 7ebe 5fba cdbc 39fc 55be bc7a 4cbd
00000060: 1de1 fd3c b1e8 e7bc d73d 343d 33df 0a3e
00000070: 82d1 e93d db3b 1d3c 3e39 40b9 aa46 4dbd
00000080: 8ee9 213e fc1c 0f3c 4d32 e33d 2903 94bd
00000090: a1c2 debd c64a b93d 86a1 083e ed39 2ebe
000000a0: 1cde dfbd 414f c9bd f99d c6bd 0274 dcbd
000000b0: 71eb 573d 598f e2bd 06aa e8bd 8293 713c
000000c0: b82f 0fbe 68d4 2bbe c399 333d fe47 6abd
000000d0: 6276 0a3d d9a7 7f3d 9b68 2fbe d512 77be
000000e0: f555 a5bd 62cf a8bc d455 21bd 3b7b 2b3e
000000f0: 3295 00be 9608 503c 4c67 763d 14f7 42bd
00000100: 1edb c73d f735 bebd 735f c63d 5901 1dbc
00000110: 0a69 223a f3b3 27bd 7ea1 fd3c 54c3 9b3d
00000120: f041 0f3e 2fed d1bd 3159 c23b e442 5d3d
00000130: 9712 603d 01fa b93d ef44 0dbe 7516 16bd
00000140: 1cd6 1b3e 2a4b fd3c c3c9 c9bd 8584 3fbb
00000150: 9278 4b3d 5f46 24bd fc0b 2cbd c4c0 db3d
00000160: 3efa 06be c411 98bd 9887 173d 5639 88bb
00000170: 3226 1b3e b39d 9c3d 2827 79bd ffeb d43d
00000180: 8aeb ee3d c397 f0bd bfcb eebb 842d 2d3e
00000190: 83e4 48bd b5a2 cabd e3a9 5fbd da1b 3d3e
000001a0: a3f6 263e fa61 d0bd a759 ec3d bb64 0d3c
000001b0: ffd4 b03d 8ed9 a53d bd67 fd3d a633 75bd
000001c0: 70a1 a33c c890 1cbe 423f c13c 6976 f63d
000001d0: 8af4 eabc f2b3 af3b 0c35 c23d e316 5e3c
000001e0: 92d6 a03d 1011 13be d366 67bd 7330 e5bd
000001f0: b146 a4bd 92c4 b23d d31f 903c 1511 f0bb
00000200: af46 7b3e f579 593d 6d3c 60bd 9ab5 033e
00000210: 748d 0c3e ff69 dbbd 67d4 1b3d 6ac7 83bd
00000220: b543 f4bd aac5 29be 0273 323b 83fd 58be
00000230: a157 cbbc 192f 26bd 1d1e f8bd d2b7 3b3d
00000240: 93a0 0b3e 7562 d23d f9d2 683c 21c4 923d
00000250: f2b5 f23d 4d24 8cbd 7973 033e 30d0 763d
00000260: b773 47be ab5c f23d af72 143e 71a1 94bd
00000270: cdfd d1bd 34a1 05bd 6494 febd 1d17 ae3d
00000280: c2bf 5ebc cdad acbc b006 953d a7b2 493d
00000290: a791 24bb 3faf 23be 4ef8 213d b629 3e3e
000002a0: 3275 253e 8921 f43d 08e3 623e 4d64 b13d
000002b0: 37b0 00bd 482e af3b e544 633d b065 443d
000002c0: cf64 3fbd f3ca 13be 2094 0abe 7020 b9bb
000002d0: 50c9 2cbe fcef 8f3d e54f 193e df42 d53c
000002e0: a47a 553e 8749 0fbe 4009 d33b 49e4 0e3c
000002f0: 7486 1cbd e04b 70bd b9be f1ba 32a6 40be
00000300: 23aa 7f3d d348 113e 55cc dcbd 6f4a 973c
00000310: 1809 ecbd 2d23 ff3c b361 813d fa77 c7bd
00000320: 0f84 29bd 8f51 00be 3a36 36be 32dd d93d
00000330: bc0b 08be 39b5 d2bc 7bd3 183e 2780 debd
00000340: ca02 37bb 98db cabd ef60 18be 51c3 fbbd
00000350: 0c8f 99bc 617b 0c3e 277d 593c ead0 a63d
00000360: 4750 a1bd 7561 803c 6804 2b3d 9562 f23c
00000370: 5fe2 043c 28e1 d5bd e64a afbc 37d9 2fbe
00000380: b5cb afbd e868 e5bc 336a 38bd 7c72 b5bc
00000390: c80b 903d 7778 b13d 1491 f03c 501c 3ebd
000003a0: c575 3abe 3568 25be 168c 4abd de44 f8bd
000003b0: 583f 213d 28b5 85bb ec06 b7bd 5cf8 c23d
000003c0: 62ee a2bd 850c 7ebc 5b95 023e acf8 0bbb
000003d0: 851f e3bc 8985 86bc 8a2a 08bd 3d53 b83c
000003e0: 0308 65bd caab 693d 3f4d bf3d 9d9a 893d
000003f0: 256b 193e 2493 38bd cd4c 1abe aef1 df3b

gnn1_pool.conv3.lin_root.weight f4 [52, 64]
-0.0046006944 -0.044200845 0.03607595 -0.045876063 0.038553324 -0.06840623 -0.081212915 0.021075021
-0.15638341 -0.0025582877 0.11005276 -0.07760596 0.003533394 -0.10358596 -0.036745187 -0.024326706
-0.08486625 -0.06869032 -0.07945543 0.12997255 0.06541955 0.061637286 -0.06028213 -0.058799665
0.04552098 0.087209485 0.054301687 -0.010212542 -0.00085853477 -0.0096591 -0.041018818 -0.040602464
0.07547681 0.06719186 0.08165578 -0.07379322 0.017186467 0.040191393 -0.09693419 -0.096401095
0.036315884 0.06431485 0.062466487 0.060909007 0.0014400315 0.007897346 -0.032407537 0.024219058
0.06609086 0.06492748 -0.051664576 0.10365244 -0.0058116363 -0.12758186 0.070184454 0.07663575
-0.050705336 -0.065333985 -0.06137288 0.10549105 0.073075905 -0.12606072 -0.16282032 -0.07006903
0.06859883 -0.03604569 -0.033312753 -0.034899574 0.07502302 0.011319765 0.113073915 -0.040127467
-0.10774194 0.056183632 0.07638405 0.10376631 -0.028647633 -0.12710585 0.05088976 0.071221374
0.02838239 -0.016282873 -0.040782023 -0.07345716 -0.04363183 -0.04477982 -0.075538695 0.03812926
0.09595286 -0.09896484 -0.035926685 0.012994018 0.06354815 -0.054503597 -0.119204044 0.0888786
-0.082250625 0.04181153 0.0005117717 -0.074462004 -0.07445349 -0.0017787612 -0.09504472 -0.09332439
0.09062699 0.068800405 -0.048778724 -0.07212635 0.1021929 0.0030662504 -0.06680956 -0.08440534
0.098155625 -0.00048074388 0.068569615 0.045318015 0.06337814 0.14824356 -0.04083135 -0.13430983
0.07844579 0.09576833 0.04023666 0.019145269 0.049599726 -0.013881299 0.13891874 0.13269855
-0.052280106 0.07922444 -0.053456035 0.09709446 -0.04770469 -0.030640496 -0.09958579 -0.033736672
0.11449089 0.14520982 -0.09665566 0.120428085 -0.055952556 -0.1711433 0.060843773 -0.06460255
-0.2114593 -0.008582379 0.064557806 0.051631436 0.025763704 -0.11774691 0.08232141 0.09061706
-0.00969068 0.14716715 -0.081781894 0.030640595 0.06515362 -0.08912162 -0.016459847 -0.0031539104
0.0076815216 -0.10533489 -0.042494666 -0.08781126 -0.023162428 0.11146886 -0.013622931 0.06201755
0.04539045 -0.038405903 0.024173548 -0.033233203 0.10515723 -0.089208595 0.10879864 0.033272456
-0.0060764872 -0.057370875 -0.016251612 -0.0041069593 -0.016716588 -0.04610169 -0.16721827 0.0019907006
0.069695875 -0.030373206 0.13401154 -0.091022976 -0.013090462 -0.057113376 0.06727864 0.12819012
-0.06752229 0.06448146 -0.04665488 -0.03360156 -0.07437164 -0.09671669 -0.05506 -0.096764885
0.11566126 0.04502786 0.017301042 -0.061054647 0.073469505 0.010478966 0.11109639 -0.002301907
0.060277913 -0.034150008 -0.024498232 -0.17486604 -0.037022717 -0.061780553 0.13547508 -0.06647307
0.048007928 -0.023532674 -0.08649774 0.054262217 0.03219609 0.045997184 0.07175155 -0.08965639
-0.037300833 0.047078464 0.030610947 0.05039089 0.00945999 -0.03477728 -0.026972435 -0.12146626
0.08920982 0.12728715 -0.15205713 0.09637006 -0.065325715 0.04259199 -0.015430814 -0.06106927
0.020864451 0.076617174 0.013954609 0.0625531 0.11895875 -0.03667006 -0.10633527 0.06046704
-0.16124116 0.068739235 0.0464964 -0.046381135 0.07496879 0.03420292 -0.017058913 -0.05647301
00000000: 6cc1 96bb f20b 35bd 60c4 133d 8ae8 3bbd
00000010: 17ea 1d3d 9118 8cbd f552 a6bd 86a5 ac3c
00000020: f922 20be f2a8 27bb 5763 e13d e0ef 9ebd
00000030: 8490 673b e024 d4bd 1f82 16bd cd48 c7bc
00000040: 5bce adbd 83ad 8cbd 87b9 a2bd 8617 053e
00000050: affa 853d 6177 7c3d 65ea 76bd ebd7 70bd
00000060: 3574 3a3d e39a b23d 726b 5e3d 8152 27bc
00000070: 4b0f 61ba 3441 1ebc 5903 28bd c54e 26bd
00000080: 9693 9a3d e39b 893d 253b a73d e620 97bd
00000090: a2ca 8c3c bb9f 243d 6f85 c6bd f06d c5bd
000000a0: f7bf 143d 81b7 833d dcdc 7f3d b97b 793d
000000b0: 70bf bc3a df63 013c c4bd 04bd 0c67 c63c
000000c0: a55a 873d b3f8 843d 3c9e 53bd bb47 d43d
000000d0: 8a6f bebb d2a4 02be debc 8f3d 34f3 9c3d
000000e0: 66b0 4fbd d3cd 85bd 2162 7bbd b10b d83d
000000f0: d2a8 953d 1016 01be 5fba 26be 5a80 8fbd
00000100: 8b7d 8c3d a5a4 13bd f472 08bd dbf2 0ebd
00000110: aba5 993d 8976 393c 4c93 e73d b35c 24bd
00000120: cea7 dcbd cf20 663d 3e6f 9c3d 6e83 d43d
00000130: 71ae eabc 0928 02be c871 503d 83dc 913d
00000140: 3082 e83c a963 85bc 0d0b 27bd b570 96bd
00000150: 4ab7 32bd 0b6b 37bd 08b4 9abd 6d2d 1c3d
00000160: ef82 c43d 14ae cabd dc27 13bd dde4 543c
00000170: 8825 823d 2a3f 5fbd 4021 f4bd fc05 b63d
00000180: 0473 a8bd 9142 2b3d 6b28 063a 897f 98bd
00000190: 127b 98bd 5225 e9ba cea6 c2bd dc20 bfbd
000001a0: a59a b93d 3ae7 8c3d 33cc 47bd fbb6 93bd
000001b0: 834a d13d 25f3 483b 73d3 88bd b5dc acbd
000001c0: d105 c93d 5a0c fcb9 3a6e 8c3d 629f 393d
000001d0: 66cc 813d 29cd 173e c63e 27bd 8488 09be
000001e0: 30a8 a03d 3022 c43d 32cf 243d 8ad6 9c3c
000001f0: 1529 4b3d 636e 63bc b740 0e3e 21e2 073e
00000200: aa23 56bd 6c40 a23d b7f4 5abd 76d9 c63d
00000210: fe65 43bd c701 fbbc a2f3 cbbd 772f 0abd
00000220: 337a ea3d e2b1 143e 67f3 c5bd 00a3 f63d
00000230: 822e 65bd 3040 2fbe 5237 793d 574e 84bd
00000240: c988 58be 1b9d 0cbc e236 843d 7c7b 533d
00000250: 670e d33c 4b25 f1bd 2198 a83d 7095 b93d
00000260: a8c5 1ebc fcb2 163e 447d a7bd fc01 fb3c
00000270: 436f 853d 6585 b6bd cdd6 86bc d6b1 4ebb
00000280: 46b5 fb3b d2b9 d7bd e30e 2ebd 64d6 b3bd
00000290: 22bf bdbc c949 e43d b732 5fbc 1d06 7e3d
000002a0: 56eb 393d 824f 1dbd 9b07 c63c 8a1f 08bd
000002b0: ac5c d73d ffb2 b6bd d2d1 de3d b348 083d
000002c0: 451d c7bb b9fd 6abd 1a22 85bc ac93 86bb
000002d0: 3af1 88bc 20d5 3cbd 443b 2bbe 6a76 023b
000002e0: b6bc 8e3d 3bd1 f8bc 523a 093e 416a babd
000002f0: 6179 56bc b7ef 69bd 62c9 893d 4544 033e
00000300: 2049 8abd db0e 843d 3019 3fbd caa1 09bd
00000310: 2950 98bd 6613 c6bd 9886 61bd ab2c c6bd
00000320: d0df ec3d 226f 383d eaba 8d3c 7014 7abd
00000330: 2e77 963d f8af 2b3c 8186 e33d 97db 16bb
00000340: f9e5 763d e1e0 0bbd 84b0 c8bc 1510 33be
00000350: 22a5 17bd 9b0d 7dbd fbb9 0a3e 0823 88bd
00000360: f6a3 443d 98c7 c0bc ba25 b1bd 0f42 5e3d
00000370: 0ce0 033d 8b67 3c3d 7af2 923d c59d b7bd
00000380: c2c8 18bd 59d5 403d cfc3 fa3c ae66 4e3d
00000390: 13fe 1a3c 9f72 0ebd 4cf5 dcbc 4dc3 f8bd
000003a0: a3b3 b63d 9057 023e ddb4 1bbe ab5d c53d
000003b0: 7dc9 85bd f074 2e3d 86d1 7cbc c523 7abd
000003c0: edeb aa3c 77e9 9c3d dfa1 643c d71b 803d
000003d0: a5a0 f33d 5833 16bd 4ec6 d9bd 49ac 773d
000003e0: 671c 25be 28c7 8c3d 0273 3e3d 25fa 3dbd
000003f0: 3d89 993d 5c18 0c3d 22bf 8bbc 3e50 67bd

gnn1_pool.conv3.lin_root.bias f4 [52]
-0.09183308 -0.13838755 -0.034083966 -0.12200423 -0.051759157 -0.132543 0.021901477 0.08977349
0.01473218 -0.12973866 -0.08278801 0.014021394 -0.008980176 -0.049909472 0.053784106 0.016730387
-0.04389117 -0.059787802 -0.17025715 -0.130883 0.04061258 0.003057619 -0.109949425 0.008784828
-0.07642229 -0.058894545 -0.048497755 -0.0566834 -0.033094447 -7.0940354e-05 -0.090565175 -0.05351648
0.055313155 -0.063883625 -0.13276953 0.038650654 -0.0064892117 0.0617167 -0.031663653 -0.06365778
-0.050893392 -0.0095798625 -0.02433594 -0.11190065 -0.07056917 -0.08968349 0.13926288 0.059967346
-0.13190733 -0.0044522476 0.018316675 0.027321205
00000000: fb12 bcbd 77b5 0dbe a19b 0bbd 5bdd f9bd
00000010: 6901 54bd 5ab9 07be ba6a b33c 2adb b73d
00000020: 3e5f 713c 36da 04be c38c a9bd fdb9 653c
00000030: 9721 13bc e06d 4cbd b94c 5c3d 2a0e 893c
00000040: 3ac7 33bd 0ee4 74bd e457 2ebe 3106 06be
00000050: 6059 263d 5662 483b 2a2d e1bd 3dee 0f3c
00000060: 4a83 9cbd 683b 71bd 95a5 46bd da2c 68bd
00000070: 0b8e 07bd d0c5 94b8 3c7a b9bd 1934 5bbd
00000080: 0c90 623d 6bd5 82bd bcf4 07be 2650 1e3d
00000090: 74a3 d4bb a7ca 7c3d bfb1 01bd 035f 82bd
000000a0: 9775 50bd dbf4 1cbc 2a5c c7bc 2b2c e5bd
000000b0: 9286 90bd faab b7bd ee9a 0e3e 52a0 753d
000000c0: b712 07be 29e4 91bb da0c 963c b8d0 df3c

gnn1_pool.bn3.weight f4 [52]
1.0419909 1.0275289 0.99642545 1.0153009 0.9690412 1.0095488 0.9179151 0.97582614
0.9766834 0.9303419 0.98294395 1.0838097 1.0056838 0.92508554 1.004547 0.9690367
1.0108848 0.9660918 1.0078247 0.9380975 0.9055432 0.93892413 0.89846534 1.0616671
0.9407038 1.0333532 1.0281874 0.9829199 1.0327356 1.0106345 0.95174897 0.9928141
0.84591925 0.9314827 0.9437397 1.0339613 1.0471576 0.93723667 0.96019995 0.90933955
1.0004481 0.9604275 0.9511927 1.0244095 1.05976 0.9473453 0.96432227 0.97567046
0.970277 0.9073139 1.0148469 0.8898456
00000000: f55f 853f 1186 833f bd15 7f3f 61f5 813f
00000010: 1613 783f e538 813f 7cfc 6a3f becf 793f
00000020: ec07 7a3f e32a 6e3f 37a2 7b3f 47ba 8a3f
00000030: 3fba 803f 68d2 6c3f ff94 803f ca12 783f
00000040: ac64 813f cb51 773f 6600 813f 2827 703f
00000050: aed1 673f 555d 703f d301 663f b5e4 873f
00000060: f7d1 703f eb44 843f a59b 833f a3a0 7b3f
00000070: ae30 843f 795c 813f d2a5 733f 1129 7e3f
00000080: 2a8e 583f a675 6e3f ed98 713f d858 843f
00000090: 4309 863f beee 6f3f aacf 753f 7aca 683f
000000a0: af0e 803f 94de 753f 5d81 733f da1f 833f
000000b0: 37a6 873f 3985 723f d3dd 763f 8ac5 793f
000000c0: 1364 783f b945 683f 81e6 813f eccc 633f

gnn1_pool.bn3.bias f4 [52]
0.05685798 -0.057091776 -0.05251542 0.016577227 0.05526833 -0.056808017 -0.05070459 -0.009798718
-0.026974253 -0.020266775 0.004172098 0.003616038 0.056890585 -0.059579458 0.062068053 -0.035565414
0.070656255 -0.007283758 -0.011282166 -0.01115057 -0.030588081 0.07254252 0.06511133 0.050329793
-0.06180163 0.091585144 0.053830698 0.0028250364 -0.101533934 0.041505042 -0.059416708 -0.038330007
-0.014276216 -0.032281775 0.008679875 0.03673498 0.10077379 0.061771788 -0.033032212 0.031730305
-0.049510617 0.09326364 -0.07821958 0.040288977 0.04957672 0.03759176 -0.039014988 -0.008001773
-0.052594867 0.018370418 0.0350575 0.0637026
00000000: eae3 683d 11d9 69bd 691a 57bd f7cc 873c
00000010: 0b61 623d 86af 68bd 9eaf 4fbd cd8a 20bc
00000020: 1cf9 dcbc 8206 a6bc 18b6 883b 0dfb 6c3b
00000030: 1a06 693d 9709 74bd 123b 7e3d 0aad 11bd
00000040: 3ab4 903d 97ac eebb d5d8 38bc e1b0 36bc
00000050: db93 fabc 2c91 943d 1759 853d 9d26 4e3d
00000060: b523 7dbd fe90 bb3d 947d 5c3d 3f24 393b
00000070: 06f1 cfbd 3101 2a3d ef5e 73bd edff 1cbd
00000080: cae6 69bc e539 04bd 0936 0e3c 6b77 163d
00000090: 7d62 ce3d 6a04 7d3d c94c 07bd a3f7 013d
000000a0: a5cb 4abd 0201 bf3d 9631 a0bd 0e06 253d
000000b0: f510 4b3d d1f9 193d 2ece 1fbd de19 03bc
000000c0: b76d 57bd 8f7d 963c 7498 0f3d 8276 823d
