model/p2p2068_p0.1_ob0.1_m20_c0_diff_pool.pt (torch, 814273 bytes, 113 tensors)

gnn1_pool.conv1.lin_rel.weight f4 [64, 2]
0	0xbda7c0b5	-0.08191053
1	0xbe84d274	-0.25941813
2	0xbe407f31	-0.1879852
3	0xbe1a725a	-0.15082684
4	0x3ec1e4dc	0.37869918
5	0xbef507e2	-0.47857577
6	0x3f22166f	0.6331548
7	0x3f12a0fc	0.5727689
8	0x3e7215dd	0.23641153
9	0x3e60f611	0.21968867
10	0xbd2e0294	-0.042482927
11	0xbe082bf7	-0.13298021
12	0x3e0bd6e1	0.13656189
13	0xbf045c13	-0.51702994
14	0xbeed8e64	-0.46397698
15	0xbf37de40	-0.718235
16	0xbdfd2b30	-0.12361753
17	0x3ed4abcb	0.41537318
18	0xbf25187f	-0.64490503
19	0xbee8401f	-0.4536142
20	0xbeb88724	-0.36040604
21	0x3e3f94b9	0.18709077
22	0x3e55b34b	0.20869176
23	0xbe58ddaa	-0.21178308
24	0x3e0a2db9	0.13494004
25	0x3f428a3b	0.7599217
26	0xbe165697	-0.14681469
27	0x3f32504e	0.69653785
28	0xbebabcaf	-0.3647208
29	0x3d807921	0.062731035
30	0xbf0c91ec	-0.5491016
31	0x3f2174cc	0.6306884
32	0xbe4b01fc	-0.19824976
33	0x3e86590c	0.26239812
34	0x3f1db57a	0.61605036
35	0x3dfe6275	0.12421123
36	0xbf687aeb	-0.9081256
37	0x3f0c2c08	0.54754686
38	0xbd444992	-0.047921725
39	0xbe96db2b	-0.29464087
40	0xbe99b9d9	-0.30024603
41	0x3db74a52	0.08949722
42	0xbebd13d0	-0.36929178
43	0xbdd8b5b2	-0.10581531
44	0xbe7b390c	-0.2453348
45	0x3f239d7a	0.63912165
46	0x3ed8e71c	0.42363822
47	0xbeb7eb24	-0.35921586
48	0x3eed6cd3	0.4637209
49	0x3dba58d3	0.09098973
50	0xbebbaf6f	-0.36657283
51	0x3f106231	0.5639983
52	0x3ec575e6	0.38566512
53	0x3e3f8c1b	0.1870579
54	0x3f02d6e6	0.5110916
55	0xbeb028ea	-0.34406215
56	0x3e30d7ef	0.17269872
57	0xbf28c6c4	-0.6592829
58	0x3f386f92	0.7204524
59	0xbdc553db	-0.09635135
60	0x3e3625a1	0.17787792
61	0x3f2c8c75	0.6740182
62	0x3f12ac6f	0.5729436
63	0xbea04cae	-0.31308502
64	0x3e249543	0.16072564
65	0x3f02c859	0.51086956
66	0xbd0b2602	-0.033971794
67	0x3f0fc68c	0.56162333
68	0x3ea12b7b	0.31478485
69	0x3ebfa04e	0.3742699
70	0xbf33601b	-0.7006852
71	0x3e305cca	0.17222896
72	0xbd5f4453	-0.05450852
73	0x3ecd204c	0.40063703
74	0xbde1c366	-0.110235974
75	0xbf246dec	-0.6423023
76	0xbeaf65b4	-0.3425728
77	0xbf0b614e	-0.5444535
78	0x3f01d008	0.50708055
79	0xbf00da50	-0.5033312
80	0x3e9e6fac	0.30944574
81	0xbe0b8b94	-0.13627464
82	0xbec21292	-0.37904793
83	0xbf2c82c9	-0.6738706
84	0x3e30a68d	0.17251034
85	0x3e69e742	0.22842124
86	0xbf29fee4	-0.6640456
87	0x3f046fa1	0.5173283
88	0x3f04b94b	0.51845235
89	0x3eee72b8	0.46571898
90	0xbdf0f64a	-0.11765726
91	0x3e262c9b	0.16227953
92	0x3d9cd7d2	0.07658352
93	0xbe1d4687	-0.15358935
94	0xbe609b67	-0.21934281
95	0xbec99fc1	-0.39379695
96	0xbf29468f	-0.6612329
97	0x3e9176c3	0.2841092
98	0xbf2b9f65	-0.6704009
99	0xbf2820b5	-0.65674907
100	0xbe744d03	-0.23857503
101	0xbef73a0f	-0.48286483
102	0x3de67977	0.11253636
103	0xbe02c0eb	-0.12768905
104	0x3ed98490	0.4248395
105	0x3ea2483d	0.31695738
106	0xbdf9728c	-0.12180051
107	0xbe44b76a	-0.19210592
108	0x3f2d003b	0.67578477
109	0xbf1bb3b0	-0.60821056
110	0x3e36e14f	0.17859386
111	0x3d1e015d	0.03857552
112	0x3c4a352a	0.012341777
113	0xbd9fe9f2	-0.078082934
114	0xbeb3224e	-0.3498711
115	0x3e7260d5	0.23669751
116	0xbd36c41b	-0.044620614
117	0x3e1de72c	0.15420216
118	0xbecebc2e	-0.40377945
119	0xbe969b07	-0.2941515
120	0x3f4f538e	0.8098687
121	0x3e971f4a	0.2951606
122	0xbd85d795	-0.0653526
123	0x3e32873e	0.17434403
124	0xbd024b9b	-0.031810384
125	0x3f09a10d	0.5376137
126	0xbe6094fd	-0.21931835
127	0x3ea6bcbf	0.32565877

gnn1_pool.conv1.lin_root.weight f4 [64, 2]
0	0xbe450d5a	-0.19243374
1	0x3f0ba599	0.54549557
2	0x3f2e0d38	0.6798892
3	0x3ef74ad6	0.48299283
4	0xbeeeb21c	-0.46620262
5	0xbe1401e6	-0.14453849
6	0xbf2def3a	-0.67943156
7	0x3d1bc8a4	0.038033143
8	0xbe99fb50	-0.3007455
9	0xbf134915	-0.5753339
10	0xbe99d6a7	-0.3004658
11	0xbebc54a1	-0.36783317
12	0x3e11604e	0.14196894
13	0x3ef2f6a1	0.47453788
14	0x3e6c6da8	0.23088706
15	0xbd856e90	-0.06515229
16	0x3e3f66c6	0.18691549
17	0xbf24abe3	-0.6432478
18	0xbf1675d3	-0.58773535
19	0x3e27f47d	0.16401859
20	0x3ec666e2	0.38750368
21	0xbf33a06b	-0.70166653
22	0x3f1dad46	0.6159252
23	0xbee5bc00	-0.44869995
24	0xbe851759	-0.25994375
25	0x3e0828a1	0.13296749
26	0x3caceec0	0.021109939
27	0xbf263099	-0.64917904
28	0xbe69b059	-0.22821178
29	0x3e9d0b9e	0.30672926
30	0x3f178dbd	0.5920065
31	0xb999f45a	-0.0002936449
32	0x3f1ff6b9	0.62485844
33	0x3d7a2c8d	0.061077643
34	0xbf1bab1c	-0.6080797
35	0xbebca27c	-0.36842716
36	0x3e26ef73	0.1630228
37	0x3ebfee79	0.37486628
38	0x3dabbd3f	0.08385705
39	0x3e9275c9	0.28605488
40	0x3ef340d9	0.47510412
41	0x3ef73e65	0.4828979
42	0xbee61ea5	-0.44945255
43	0xbf080a24	-0.53140473
44	0xbe293f0b	-0.16527955
45	0xbdd48779	-0.10377402
46	0xbe6060de	-0.21911952
47	0x3f232569	0.6372896
48	0xbf3dd99d	-0.74160177
49	0xbf1c16cb	-0.6097228
50	0xbbf796aa	-0.0075558024
51	0x3ed4d10b	0.41565737
52	0x3c60083f	0.013673841
53	0xbefa7a4f	-0.4892144
54	0xbf08cd9a	-0.53438723
55	0xbe82c596	-0.2554137
56	0xbe25826c	-0.16163033
57	0xbf164de2	-0.5871259
58	0xbebe5268	-0.37172246
59	0x3f0af2e6	0.54276884
60	0x3f21d0cf	0.6320924
61	0xbd5db4ce	-0.054127507
62	0x3e4bfe61	0.19921257
63	0xbf33c146	-0.70216787
64	0x3db4e415	0.08832566
65	0xbeb8144c	-0.35952985
66	0xbe0efc1c	-0.1396336
67	0xbf0c0744	-0.54698586
68	0xbef8267f	-0.4846687
69	0xbdf3e516	-0.11908929
70	0x3eaa8396	0.33303517
71	0xbe8bee05	-0.27330032
72	0xbe195b76	-0.14976296
73	0x3f10ffcf	0.5664033
74	0x3f071fd7	0.5278296
75	0x3ef7cf3c	0.48400295
76	0x3f033c99	0.5126434
77	0x3ee753a2	0.45180994
78	0xbf169bce	-0.5883149
79	0x3f10e4aa	0.56598914
80	0x3d87b20f	0.06625759
81	0xbd45a46c	-0.048252508
82	0xbe43acc3	-0.19108872
83	0xbedf3747	-0.4359686
84	0x3e1792f8	0.14802158
85	0xbbc247c5	-0.0059289658
86	0x3f0fd3a6	0.56182325
87	0x3ed1da1b	0.40986714
88	0x3f144fa1	0.57934004
89	0x3ef11004	0.4708253
90	0xbeb701a3	-0.35743436
91	0x3f051668	0.51987314
92	0xbedd634b	-0.43239817
93	0xbf0a77e3	-0.5408918
94	0xbf062fc1	-0.52416617
95	0xbeda5341	-0.42641643
96	0xbe8cb0d7	-0.27478668
97	0x3eae7017	0.34069893
98	0xbf1b604f	-0.6069383
99	0x3e906cf8	0.28208137
100	0x3f2893b8	0.658504
101	0x3e8b69f6	0.2722928
102	0x3e91eb90	0.28500032
103	0x3cbbc4de	0.022921022
104	0x3f2a8e97	0.66623825
105	0x3cd1f68b	0.025630256
106	0xbdbcf631	-0.09226645
107	0xbe9dfe2a	-0.30857974
108	0xbef773af	-0.48330447
109	0x3ecef08b	0.40417895
110	0x3f3d205a	0.7387749
111	0xbf13ac19	-0.57684475
112	0xbe2533ca	-0.16133037
113	0x3da81a9b	0.082081996
114	0xbebbefa8	-0.3670628
115	0x3edbeb10	0.42952776
116	0xbe6b9daa	-0.23009363
117	0xbf3001fd	-0.68753034
118	0xbc7c7915	-0.015409728
119	0x3e667abc	0.22507757
120	0x3f176ae3	0.5914747
121	0x3e243978	0.16037548
122	0x3f2c9d2e	0.6742734
123	0xbba7936c	-0.0051140096
124	0x3f378051	0.7168017
125	0xbf2c3e47	-0.6728253
126	0x3e50b218	0.20380437
127	0x3f340159	0.70314556

gnn1_pool.conv1.lin_root.bias f4 [64]
0	0xbea88b32	-0.32918698
1	0x3db8965c	0.09013054
2	0x3d12bb1a	0.035822965
3	0xbd39c41c	-0.04535304
4	0xbef57867	-0.47943422
5	0x3e733a9b	0.23752825
6	0x3efd76c7	0.49504682
7	0x3efc5ec6	0.49291056
8	0x3e5c39e2	0.21506456
9	0xbeaec8e9	-0.34137657
10	0x3e646345	0.22303493
11	0x3eb1fbb6	0.34762353
12	0xbe2fa3a0	-0.17152262
13	0x3f2aceda	0.6672188
14	0xbd0ee589	-0.03488687
15	0x3f30d13c	0.69069266
16	0x3e502d59	0.20329799
17	0x3f14a917	0.5807051
18	0x3e4ec0e6	0.20190772
19	0xbece2bad	-0.40267697
20	0xbec47c4b	-0.38376078
21	0xbf0b94f9	-0.5452419
22	0x3f120014	0.5703137
23	0xbea22f00	-0.31676483
24	0x3e57a4a2	0.21058896
25	0xbf15837b	-0.5840375
26	0x3f254dd0	0.6457186
27	0x3f0e98fd	0.5570219
28	0x3ddc0bc1	0.107444294
29	0xbefd1f21	-0.49437812
30	0x3d6640fe	0.056214325
31	0x3de81d7d	0.113337494
32	0x3f3820b2	0.7192489
33	0xbf137378	-0.57598066
34	0xbf33db02	-0.70256054
35	0xbe0e93f6	-0.1392363
36	0xbd1fb203	-0.038988125
37	0x3ebec6c5	0.37261024
38	0xbd12ffd2	-0.0358885
39	0xbde602d0	-0.11231005
40	0x3d5509e9	0.052011404
41	0x3e9f5fcb	0.31127772
42	0xbed34532	-0.4126373
43	0xbf01f94f	-0.5077104
44	0xbe262ca0	-0.1622796
45	0xbed7be01	-0.4213715
46	0x3ced860e	0.028994586
47	0xbe83aea7	-0.25719187
48	0xbe445ae6	-0.191753
49	0x3eac8b98	0.33700252
50	0x3f01656a	0.5054537
51	0x3e28cba0	0.16483927
52	0xbf080dc7	-0.5314602
53	0xbf2b6402	-0.66949475
54	0x3dfcefa8	0.12350398
55	0x3e4c3086	0.19940385
56	0xbe7e6045	-0.24841411
57	0xbf2ed345	-0.6829112
58	0xbd30ddd0	-0.043180287
59	0x3f0467c2	0.5172082
60	0xbebff47a	-0.37491208
61	0x3f029152	0.5100299
62	0xbde593ce	-0.11209832
63	0x3e1704b5	0.1474789

gnn1_pool.bn1.weight f4 [64]
0	0x3f662d0d	0.8991249
1	0x3f517d80	0.8183212
2	0x3f7a3d0f	0.9774942
3	0x3f7c8a03	0.9864809
4	0x3f800000	1.0
5	0x3f800000	1.0
6	0x3f6a8ad2	0.91618073
7	0x3f65f6db	0.89829797
8	0x3f5a1cf0	0.85200405
9	0x3f800000	1.0
10	0x3f636776	0.88829744
11	0x3f4ca1ab	0.79934186
12	0x3f78afd0	0.9714327
13	0x3f5d9185	0.8655017
14	0x3f643be2	0.89153874
15	0x3f601f00	0.875473
16	0x3f64ccc5	0.89374954
17	0x3f7a2f49	0.977284
18	0x3f841c39	1.0321113
19	0x3f800000	1.0
20	0x3f8fa6e4	1.1222806
21	0x3f800000	1.0
22	0x3f55703e	0.83374393
23	0x3f735cb7	0.95063347
24	0x3f7babe0	0.98309135
25	0x3f94a3a3	1.1612438
26	0x3f6caefd	0.9245451
27	0x3f6b6899	0.9195648
28	0x3f5ea049	0.86963326
29	0x3f7fb843	0.99890536
30	0x3f4ba35c	0.7954614
31	0x3f6f4154	0.9345906
32	0x3f48b594	0.78402066
33	0x3f800000	1.0
34	0x3f800000	1.0
35	0x3f903219	1.1265289
36	0x3f5677ef	0.83776754
37	0x3f6b7171	0.9196997
38	0x3f54887b	0.8302075
39	0x3f61c151	0.881856
40	0x3f7b6aeb	0.9821002
41	0x3f6e2a4f	0.9303331
42	0x3f800000	1.0
43	0x3f875a02	1.0574343
44	0x3f666a93	0.9000637
45	0x3f752cff	0.95771784
46	0x3f800000	1.0
47	0x3f800000	1.0
48	0x3f8bf04a	1.0932705
49	0x3f984f87	1.189927
50	0x3f5c359c	0.860193
51	0x3f5dbbce	0.8661469
52	0x3f48f8d0	0.7850466
53	0x3f800000	1.0
54	0x3f80143c	1.0006175
55	0x3f576535	0.84138805
56	0x3f800000	1.0
57	0x3f7e766f	0.99399465
58	0x3f800000	1.0
59	0x3f5b056a	0.85555136
60	0x3f69ab7b	0.91277283
61	0x3f4e8594	0.80672574
62	0x3f5549d7	0.83315796
63	0x3f41b5bb	0.75667924

gnn1_pool.bn1.bias f4 [64]
0	0x3e15f3a2	0.1464372
1	0x3d3bdfaf	0.04586762
2	0x3d42bf4b	0.047545712
3	0xbd3c9e8e	-0.046049647
4	0xbc81c0c3	-0.015838986
5	0xbcbf3247	-0.023339404
6	0x3c4999c3	0.012304726
7	0x3cc23726	0.023707937
8	0x3d0c530c	0.034258887
9	0xbc133f58	-0.00898727
10	0xbd144d9a	-0.03620682
11	0xbd5ed541	-0.054402594
12	0xbd75c8a5	-0.060005803
13	0xbd910104	-0.07080272
14	0x3d4ba99d	0.049722303
15	0xba3d82a0	-0.00072292425
16	0xbd7dc179	-0.061952088
17	0x3df27a6a	0.11839755
18	0xbda6c3ed	-0.081428386
19	0x3b8aa909	0.0042315763
20	0xbd3c574b	-0.045981687
21	0x3be511d7	0.006990652
22	0xbd167b74	-0.036738828
23	0x3d9e8d26	0.07741766
24	0x3d9005a0	0.07032323
25	0xbca3b5f0	-0.019984215
26	0x3d78b316	0.060717665
27	0x3d987be4	0.07445505
28	0x3dafc05f	0.08581614
29	0x3de13773	0.10996904
30	0xbdef1d00	-0.11675453
31	0x3d1caa9e	0.03824865
32	0xbdba19d1	-0.09086955
33	0xbb44e1b1	-0.003004175
34	0xbb991488	-0.004671637
35	0xbdaa4fc6	-0.08315997
36	0x3cc9f16b	0.02465125
37	0x3d2b95cb	0.0418909
38	0x3de9b89a	0.11412163
39	0x3dae1ce7	0.085016064
40	0x3d809cf6	0.06279938
41	0xbd2ebe97	-0.04266223
42	0xbb8017ec	-0.0039091017
43	0xbc9ff7e0	-0.019527376
44	0xbcc440be	-0.023956653
45	0xbdb29e5b	-0.0872161
46	0x3c614659	0.013749682
47	0xbbeb1c26	-0.0071749864
48	0x3deacca4	0.11464813
49	0x3cfda5a3	0.03096277
50	0x3d4956b7	0.049154963
51	0x3cb55aff	0.022138117
52	0xbd9c8750	-0.07642996
53	0xbc27d0e8	-0.010242678
54	0x3d21c021	0.03948987
55	0x3c83d8d0	0.016094595
56	0x3bccac64	0.0062461365
57	0xbb5d2441	-0.0033743533
58	0xba4a7cfb	-0.0007724312
59	0x3d0a87a3	0.03382076
60	0x3ce5eb33	0.028066253
61	0xbbb9a135	-0.0056649693
62	0xbdb622a0	-0.08893323
63	0xbdd009f7	-0.10158151

gnn1_pool.bn1.running_mean f4 [64]
0	0x3ca7b62a	0.020472605
1	0x3f2ec574	0.6827004
2	0x3bb39bca	0.005481218
3	0x3d0814fa	0.03322313
4	0x00000000	0.0
5	0x00000000	0.0
6	0x3f252338	0.64506865
7	0x3efed666	0.49772948
8	0x3eba4b1e	0.36385435
9	0x00000000	0.0
10	0x3ef14716	0.47124547
11	0x3f5b503b	0.85669297
12	0x3d71c149	0.05902222
13	0x3f2889ff	0.65835565
14	0x3d07fba0	0.033198953
15	0x3f94f799	1.1638061
16	0x3f3de5c0	0.74178696
17	0x3e3197aa	0.17343011
18	0x3ec1aca0	0.37827015
19	0x00000000	0.0
20	0x3da44054	0.08020082
21	0x00000000	0.0
22	0x3ee33075	0.44372907
23	0x3d23c583	0.039983284
24	0x3ab73612	0.0013977906
25	0x3c6705e5	0.014100526
26	0x3f334029	0.70019776
27	0x3e231a69	0.15928043
28	0x3cbe7804	0.023250587
29	0x3c9eb64c	0.019374035
30	0x3f392ada	0.7233101
31	0x3eb80d8b	0.35947832
32	0x3f591fd3	0.84814185
33	0x00000000	0.0
34	0x00000000	0.0
35	0x3e1480b3	0.1450222
36	0x3dd64677	0.10462659
37	0x3f49a774	0.7877114
38	0x3eaa71a8	0.33289838
39	0x3d60f3bc	0.054919943
40	0x3e204d1d	0.15654416
41	0x3d8956fb	0.06706043
42	0x00000000	0.0
43	0x3dc4e0a9	0.09613163
44	0x3f145cda	0.5795418
45	0x3c8d37e9	0.017238574
46	0x00000000	0.0
47	0x00000000	0.0
48	0x3ce4d28e	0.027932432
49	0x3d4b841f	0.049686547
50	0x3f7e0c93	0.99237937
51	0x3ed8778e	0.42278713
52	0x3e70ba6d	0.23508616
53	0x00000000	0.0
54	0x3e024206	0.12720498
55	0x3f591472	0.8479682
56	0x00000000	0.0
57	0x00000004	6e-45
58	0x00000000	0.0
59	0x3ecf7655	0.40519968
60	0x3ecb9ab3	0.39766464
61	0x3f8c9664	1.0983396
62	0x3f11c4a0	0.5694065
63	0x3ed295fb	0.4113005

gnn1_pool.bn1.running_var f4 [64]
0	0x3b7d9eb3	0.0038699328
1	0x3c460888	0.012086995
2	0x3ac503ec	0.0015031076
3	0x3c96d807	0.018413557
4	0x00000004	6e-45
5	0x00000004	6e-45
6	0x3d306f22	0.043074735
7	0x3d9f9313	0.07791724
8	0x3d22be65	0.039732356
9	0x00000004	6e-45
10	0x3d78ad8d	0.060712386
11	0x3dfe41b8	0.124148786
12	0x3cd28083	0.025696045
13	0x3dc1964f	0.09452497
14	0x3c0ad67e	0.0084739905
15	0x3e0ba5eb	0.13637511
16	0x3d40f5ed	0.047109533
17	0x3d7b477c	0.06134747
18	0x3da57508	0.080789626
19	0x00000004	6e-45
20	0x3b385f77	0.0028133073
21	0x00000004	6e-45
22	0x3d89bccf	0.067254655
23	0x3c8c7f6a	0.0171506
24	0x38cde91c	9.818582e-05
25	0x3bb0a3ed	0.005390635
26	0x3d63339d	0.055469144
27	0x3d52b69b	0.051443677
28	0x3b0fe19a	0.0021954537
29	0x3c3d9707	0.011571652
30	0x3dba74b3	0.0910429
31	0x3daff708	0.08592039
32	0x3d3be85f	0.045875903
33	0x00000004	6e-45
34	0x00000004	6e-45
35	0x3c58c98f	0.013231649
36	0x3d519b64	0.051173583
37	0x3d3c926c	0.046038076
38	0x3d156801	0.03647614
39	0x3cfe399d	0.031033332
40	0x3ca9250b	0.020647546
41	0x3b625747	0.0034536885
42	0x00000004	6e-45
43	0x3cea32fe	0.028588768
44	0x3d6c57a8	0.057700783
45	0x3b3b5b05	0.0028588187
46	0x00000004	6e-45
47	0x00000004	6e-45
48	0x3c01f835	0.007932712
49	0x3ce9a63d	0.028521651
50	0x3d56428e	0.052309565
51	0x3c7122ff	0.014717816
52	0x3d1f7a2d	0.038934875
53	0x00000004	6e-45
54	0x3d5a0ac2	0.053232916
55	0x3df24f07	0.118314795
56	0x00000004	6e-45
57	0x00000004	6e-45
58	0x00000004	6e-45
59	0x3d184984	0.037179485
60	0x3decbb51	0.11559165
61	0x3d5a3645	0.05327441
62	0x3d9bf598	0.07615203
63	0x3d7d4cb8	0.061840743

gnn1_pool.conv2.lin_rel.weight f4 [64, 64]
0	0x3da733f9	0.0816421
1	0x3d637bae	0.055537872
2	0xbe80b7f4	-0.25140345
3	0xbde34106	-0.110963866
4	0xbda67f40	-0.0812974
5	0x3cabca8c	0.020970605
6	0xbdfd4f62	-0.12368657
7	0xbd0615a6	-0.03273549
8	0xbd178c4d	-0.036999036
9	0x3df282fa	0.11841388
10	0x3d5d6939	0.054055426
11	0x3c005e7b	0.007835026
12	0x3d47932e	0.048724346
13	0x3e07fa43	0.13279061
14	0xbd71a690	-0.058996737
15	0x3e4d3767	0.20040666
16	0x3da90967	0.082537465
17	0xbe275377	-0.16340433
18	0x3e2cf0bb	0.16888706
19	0xbd59e651	-0.053198162
20	0x3eb480d8	0.3525455
21	0x3c487ec2	0.012237253
22	0x3e55ec0e	0.20890829
23	0x3c1b431d	0.00947645
24	0xbe633875	-0.22189505
25	0x3c26ccae	0.010180635
26	0xbe429ad2	-0.19004372
27	0xbe793f9c	-0.24340671
28	0xbe5b8816	-0.21438631
29	0xbdde3b9d	-0.10851214
30	0x3dfebb18	0.12438029
31	0xbe74579f	-0.2386155
32	0x3de56d0a	0.11202438
33	0x3e047935	0.12936862
34	0x3e033738	0.12814033
35	0x3e820353	0.2539316
36	0x3cbf9fd7	0.023391647
37	0xbdb17d27	-0.08666449
38	0x3d1543b9	0.03644154
39	0xbd5470d6	-0.05186542
40	0xbea7d463	-0.32779226
41	0x3d890a58	0.06691426
42	0x3dc60763	0.09669378
43	0x3e87eb97	0.26546928
44	0xbd205670	-0.039144933
45	0xbd4f9a3c	-0.0506842
46	0x3d805acc	0.06267318
47	0x3d19005e	0.037353866
48	0x3c07eadd	0.008295742
49	0x3db6c5dd	0.08924458
50	0xbd899fcb	-0.06719931
51	0xbd38d9fe	-0.04512977
52	0xbbf9af8f	-0.007619805
53	0x3cc8643e	0.024461862
54	0xbe1bc0c1	-0.15210249
55	0xbde66a51	-0.11250747
56	0x3d40e565	0.047093768
57	0xbe068c93	-0.13139562
58	0x3d084182	0.033265598
59	0xbc5d132a	-0.013493339
60	0xbd5e7b68	-0.054316908
61	0x3dc8ff0a	0.0981427
62	0x3e051cb9	0.12999238
63	0x3cfeb2a5	0.031091044
64	0xbd93c526	-0.072153375
65	0x3e0b0a03	0.13578038
66	0x3d461f5a	0.048369743
67	0x3c25d032	0.010120438
68	0x3e0b3f0c	0.13598269
69	0x3e249734	0.16073304
70	0x3b87d426	0.004145163
71	0xbbad1ac5	-0.005282732
72	0x3d292f4b	0.041304868
73	0x3be24c1a	0.0069060447
74	0x3d4798e2	0.048729785
75	0xbcce9973	-0.025219655
76	0xbc763eb4	-0.015029598
77	0x3c835b11	0.016034635
78	0xbd60ff94	-0.05493124
79	0x3d8565dc	0.06513569
80	0xbcb63ea8	-0.022246674
81	0x3831ab43	4.235959e-05
82	0x3ce00b0f	0.027349023
83	0xbda872e0	-0.08225036
84	0x3d44a0d6	0.048004948
85	0xbda44d3a	-0.08022542
86	0x3dac79fc	0.08421704
87	0xbdf1b6f1	-0.118024714
88	0x3d200f37	0.03907701
89	0x3cda2d73	0.026633
90	0x3dadfbab	0.084952675
91	0xbd9a927b	-0.0754747
92	0x3d183643	0.037161123
93	0x3d6cd030	0.05781573
94	0x3dd526f1	0.10407818
95	0xbccdb54f	-0.025110869
96	0x3b364c64	0.0027816528
97	0x3d3391ed	0.043840338
98	0x3dca6d4b	0.09884127
99	0x3dccace8	0.09993917
100	0xbe1d4c94	-0.15361243
101	0x3e128533	0.14308624
102	0x3cc8560c	0.024455093
103	0x3d8ec308	0.06970793
104	0x3df8ff58	0.12158078
105	0x3b33b55b	0.0027421329
106	0x3e0638b7	0.13107572
107	0xbdac57e3	-0.084152006
108	0x3b8f6dfa	0.004377124
109	0xbd953b21	-0.072866686
110	0xbe3c96f6	-0.18416962
111	0xbc10eb5b	-0.008845176
112	0xbdf180cb	-0.117921434
113	0x3dff9b29	0.12480766
114	0xbdaa576f	-0.08317458
115	0xbd843731	-0.064558394
116	0x3d803105	0.0625935
117	0x3e0558a4	0.13022095
118	0xbd004235	-0.03131314
119	0x3d961958	0.07329053
120	0xbdfea132	-0.12433089
121	0xbd4eb8ec	-0.050469324
122	0xbcfc193c	-0.030773751
123	0x3ddbeff9	0.107391305
124	0x3d478092	0.0487066
125	0x3d74bdec	0.059751436
126	0x3d4d5fef	0.050140318
127	0xbbf45bf3	-0.0074572503
128	0x3d59da4f	0.05318671
129	0x3d414b4e	0.047190957
130	0x3da88d60	0.0823009
131	0xbd467054	-0.04844697
132	0xbc579ec7	-0.013160414
133	0x3cf05c95	0.029341022
134	0xbdf1d371	-0.118079074
135	0x3d9f7475	0.07785884
136	0xbdcac214	-0.09900299
137	0x3db842f7	0.089971475
138	0xbdd3cef6	-0.10342209
139	0x3d6d6712	0.057959624
140	0xbd600926	-0.054696225
141	0x3e04f45d	0.12983842
142	0x3d2760c8	0.040863782
143	0x3d23f04b	0.040024083
144	0x3cf725b6	0.03016935
145	0x3d88bc1d	0.06676505
146	0x3d8da3aa	0.06915982
147	0xbd5506f7	-0.052008595
148	0x3d6be5b7	0.05759212
149	0xbe02e7d9	-0.12783755
150	0xbcc59a1e	-0.02412134
151	0x3db7188e	0.0894023
152	0x3daaaee3	0.08334138
153	0xbc0c7508	-0.008572824
154	0xbcf14b77	-0.02945493
155	0xbd541178	-0.051774472
156	0x3dc8ec3f	0.09810685
157	0xbc33c1e0	-0.010971516
158	0xbda8af34	-0.08236542
159	0xbdaf3b9d	-0.08556292
160	0x3dd29500	0.10282326
161	0x3dc9b224	0.09848431
162	0xbd3113e8	-0.043231875
163	0x3b3b9067	0.0028620006
164	0xbdd5a99c	-0.10432741
165	0x3cbd0a39	0.023076164
166	0xbcccba95	-0.024991313
167	0xb8686c1a	-5.5413788e-05
168	0xbde0233e	-0.10944222
169	0x3db21b75	0.08696643
170	0x3dd92f89	0.1060477
171	0xbdf403a1	-0.11914755
172	0xbccaf611	-0.024775537
173	0x3dacc64e	0.08436261
174	0xbdd24ddf	-0.10268759
175	0xbd8aba19	-0.067737766
176	0x3d8ce934	0.068804175
177	0xbdc86eef	-0.09786784
178	0x3d6be571	0.05759186
179	0x3d8c78dd	0.0685899
180	0xbb53a6e2	-0.0032295515
181	0x3e05f51b	0.13081782
182	0x3d3f183d	0.046653975
183	0x3dd33ff9	0.10314936
184	0xbdf629b4	-0.12019673
185	0x3dc16efa	0.09444995
186	0x3cb55df6	0.02213953
187	0x3d75ea0e	0.060037665
188	0xbd411079	-0.04713485
189	0x3d932e84	0.071866065
190	0xbd9a29cf	-0.075275056
191	0x3b41201c	0.0029468602
192	0x3cf8c7f0	0.030368775
193	0x3d4c8737	0.04993364
194	0xbd00ce46	-0.031446718
195	0x3c86f7ef	0.016475646
196	0x3d0b3644	0.0339873
197	0x3dea2d47	0.11434417
198	0xbda2da8e	-0.07951842
199	0x38d13e14	9.9774596e-05
200	0x3acec999	0.0015776634
201	0x3c7165fc	0.014733788
202	0xbca8210a	-0.020523567
203	0xbe3569cd	-0.17716141
204	0x3b93241c	0.0044903886
205	0xbc95994b	-0.018261572
206	0x3e693415	0.22773774
207	0x3d3cb129	0.04606739
208	0xbca499b0	-0.020092815
209	0xbbe9a85b	-0.0071306652
210	0x3da43133	0.080171965
211	0xbd01a34f	-0.031649884
212	0x3e0fa3d7	0.14027344
213	0xbe040d60	-0.12895727
214	0x3e05713f	0.13031481
215	0x3d35045d	0.044193614
216	0xbd47e0bc	-0.048798308
217	0x3d6d6c9c	0.057964906
218	0xbd36dbef	-0.04464334
219	0xbcbd16b0	-0.023082107
220	0xbdfe4a36	-0.12416498
221	0xbc91fa47	-0.017819537
222	0xbd8c2363	-0.06842687
223	0xbe192afc	-0.14957803
224	0xbe274460	-0.16334677
225	0x3d9b1808	0.07572943
226	0xbd8c27d9	-0.06843538
227	0x3d640dbc	0.05567716
228	0x3dc2228f	0.09479248
229	0x3a6e41d1	0.0009088787
230	0xbd596c35	-0.05308171
231	0x3d29b355	0.04143079
232	0xbd6fe400	-0.058567047
233	0xbd1cb1ea	-0.03825561
234	0x3ca30578	0.019900069
235	0x3df1ecf0	0.1181277
236	0xbe0ec00b	-0.13940446
237	0x3e449e38	0.1920098
238	0x3d610f52	0.05494625
239	0x3ddad7eb	0.10685714
240	0x3e84e4d5	0.25955835
241	0x3d5dffb6	0.054198943
242	0x3baf49b8	0.005349364
243	0xbe756601	-0.23964693
244	0xbcdc6995	-0.026905814
245	0x3c8cc196	0.017182153
246	0x3d45a8a2	0.048256524
247	0xbde94ab2	-0.113912
248	0x3dbb2579	0.09138007
249	0xbd78ff1a	-0.06079016
250	0x3d248db4	0.0401742
251	0x3ca48fdb	0.020088127
252	0xbdb743f5	-0.08948509
253	0xbce55101	-0.027992727
254	0xbdfb6a1a	-0.12276097
255	0x3d4853ec	0.04890816

gnn1_pool.conv2.lin_root.weight f4 [64, 64]
0	0x3d14c28c	0.036318347
1	0xbd3f46e2	-0.04669846
2	0x3d346f5d	0.044051517
3	0x3d0c37a1	0.03423274
4	0x3dd8fe6e	0.105954036
5	0x3d46e4de	0.04855811
6	0xbdbafdf8	-0.09130472
7	0x3ce3cf8e	0.02780893
8	0x3d9ace96	0.075589344
9	0x3e0c2eed	0.13689776
10	0xbdefcc36	-0.11708872
11	0x3cc5f708	0.024165645
12	0xbc844b19	-0.01614909
13	0x3d5655d2	0.05232794
14	0x3e14bec5	0.14525898
15	0xbd909afb	-0.0706081
16	0xbd3fda21	-0.046838883
17	0xbe1266a4	-0.14296967
18	0xbcc296f8	-0.023753628
19	0xbcf3729c	-0.029717736
20	0xbe1ce27b	-0.1532077
21	0xbd8528ef	-0.06501948
22	0x3df2e72f	0.11860501
23	0xbd5e3294	-0.054247454
24	0xbe452538	-0.19252479
25	0x3daa0c90	0.08303177
26	0xbd3c6535	-0.045994956
27	0xbe369a44	-0.17832285
28	0xbe23ada8	-0.15984213
29	0x3d476a1b	0.048685174
30	0xbc374afb	-0.01118731
31	0x3dfa7238	0.12228817
32	0xbe01e5a9	-0.12685265
33	0x3cbb0bab	0.022832712
34	0x3dc0cf26	0.094145104
35	0x3d4db5ca	0.050222196
36	0xbdc60dcd	-0.09670601
37	0xbce4312a	-0.027855475
38	0x3d8007f8	0.0625152
39	0xbc0e03be	-0.008667884
40	0x3c8bfb36	0.01708756
41	0x3d2feb76	0.042949162
42	0xbd8a14dd	-0.067422606
43	0xbba3e267	-0.0050013545
44	0x3da6ab8e	0.0813819
45	0x3e2c62b1	0.16834523
46	0xbe1f0b8c	-0.15531749
47	0xbca5ad0f	-0.020224122
48	0x3d320f25	0.043471474
49	0xbd1b5cb1	-0.037930194
50	0xbd5d5253	-0.05403359
51	0x3db9f4d2	0.09079899
52	0xbe102e79	-0.14080228
53	0x3daa8bfc	0.08327481
54	0xbe03e9be	-0.12882134
55	0x3c7b5fd2	0.01534267
56	0xbc80dfb3	-0.015731668
57	0x3c357608	0.011075504
58	0xbc0d0ffa	-0.008609766
59	0xbd8848ee	-0.06654535
60	0x3d68edd8	0.05686745
61	0xbdc922ce	-0.098210916
62	0xbd3e7dfc	-0.046506867
63	0x3d8d982e	0.069137916
64	0xbd90558d	-0.070475675
65	0x3db1f71d	0.08689711
66	0xbe089c69	-0.13340916
67	0xbe0d9630	-0.13826823
68	0x3d43cbdb	0.047801834
69	0x3e38e96b	0.18057792
70	0x3db09c1e	0.08623527
71	0xbce108da	-0.027470041
72	0xbe00e3cf	-0.12586902
73	0x3e343448	0.17598069
74	0xbd0ed2b4	-0.03486891
75	0x3c479bf4	0.012183178
76	0xbce0b8b4	-0.027431823
77	0xbd7f8907	-0.06238654
78	0xbda6fecd	-0.08154068
79	0x3cba5468	0.022745326
80	0xbdcc6309	-0.09979827
81	0xbd938f8b	-0.07205113
82	0x3da834d2	0.082132
83	0xbe35a59f	-0.1773896
84	0x3dea15c5	0.114299335
85	0xbdf08314	-0.11743751
86	0x3d8eab29	0.0696624
87	0x3d9ebc62	0.07750775
88	0x3d3f6d0d	0.04673486
89	0xbc879922	-0.016552512
90	0xbdf79854	-0.12089601
91	0x3d9d1a91	0.07671083
92	0xbd1c39c5	-0.03814103
93	0xbe005476	-0.1253222
94	0x3d947f22	0.07250811
95	0xbda77889	-0.08177287
96	0xbdfc25a2	-0.123118654
97	0x3dceeb40	0.10103464
98	0xbdb2108d	-0.08694563
99	0xbd696dd0	-0.05698949
100	0xbda35e4c	-0.0797697
101	0x3dc8bd1f	0.09801697
102	0xbd73b943	-0.05950285
103	0xbdaec946	-0.085344836
104	0xbced1e87	-0.02894522
105	0x3d9a159a	0.075236514
106	0x3d5f4b3c	0.05451511
107	0x3da5ce01	0.08095933
108	0xbd248eb0	-0.04017514
109	0x3d11baaf	0.035578426
110	0x3c5d9832	0.013525056
111	0xbc40de50	-0.011771753
112	0x3da11169	0.07864649
113	0x3e1bbea7	0.15209447
114	0x3b83a9f7	0.004018064
115	0xbe0192de	-0.12653682
116	0xbdce982f	-0.100876205
117	0xbc28cc86	-0.010302668
118	0x3e03d4a6	0.12874088
119	0xbd16e308	-0.036837608
120	0xbe2bdd8e	-0.16783735
121	0x3bc12971	0.005894833
122	0x3de046b5	0.10950986
123	0xbdc78740	-0.09742594
124	0xbd19e2cc	-0.037569806
125	0xbdb8ebc7	-0.09029346
126	0xbd67315e	-0.056443565
127	0x3cc4b790	0.02401331
128	0x3de08696	0.1096317
129	0x3ccbca45	0.024876723
130	0x3d23ad5f	0.03996026
131	0xbd1bbbba	-0.038020827
132	0x3e02f6a6	0.12789401
133	0x3e052e8e	0.1300604
134	0x3d979f40	0.074034214
135	0x3d850b2f	0.06496274
136	0xbc07014a	-0.008240053
137	0x3d4b42ab	0.049624126
138	0x3dd0306c	0.10165486
139	0x3ceb9015	0.028755227
140	0xbd2506c5	-0.04028966
141	0xbd78f3d5	-0.06077941
142	0xb7821e27	-1.5511248e-05
143	0x3d0b2c21	0.03397763
144	0x3dd672a0	0.10471082
145	0x3d698e30	0.057020366
146	0x3d53b292	0.05168397
147	0xbdb2215b	-0.08697768
148	0x3d3d9d7d	0.04629277
149	0xba9e7b24	-0.0012091142
150	0xbd8e4b44	-0.069479495
151	0x3dd146ac	0.10218558
152	0xbda09df0	-0.07842624
153	0x3ca4ea16	0.020131152
154	0xbbcd1011	-0.006258019
155	0x3dbe37dd	0.09287999
156	0xbd35d886	-0.044395946
157	0xbdd2c5ea	-0.10291655
158	0x3dad4f35	0.08462373
159	0xbc03a602	-0.008035185
160	0xbe144757	-0.14480339
161	0xbdb0eb41	-0.08638621
162	0x3e018d11	0.12651469
163	0x3b0967fd	0.0020966523
164	0xbcc6c022	-0.024261538
165	0x3d8bf9c2	0.06834747
166	0xbd4a12a4	-0.049334183
167	0xbdfc6434	-0.123238
168	0xbd862a65	-0.06551055
169	0x3d834d47	0.06411224
170	0x3da69e77	0.081356935
171	0xbb8e28d2	-0.0043383623
172	0x3d1f65d1	0.03891546
173	0xbb0abf1a	-0.0021171034
174	0xbc886984	-0.016651876
175	0xbccf7dfa	-0.025328625
176	0xbd48238a	-0.048862018
177	0xbdccc4a0	-0.09998441
178	0x3d086c56	0.033306442
179	0x3dabed4e	0.08394872
180	0xbd0338b5	-0.032036502
181	0x3d82f91e	0.063951716
182	0xbd6ab050	-0.05729705
183	0xbcabda89	-0.02097823
184	0xbd072947	-0.03299835
185	0xbd4762fa	-0.048678376
186	0xbdcbceea	-0.09951575
187	0xbd3e1da4	-0.046414986
188	0xbe06fe4d	-0.13182946
189	0xbd8a5c9d	-0.06755946
190	0x3d83e7f0	0.06440723
191	0xbcb77852	-0.02239624
192	0x3d127bad	0.035762478
193	0xbddc4e24	-0.10757092
194	0x3cc8b3bc	0.024499767
195	0xbdb0706f	-0.08615195
196	0x3e103326	0.14082012
197	0x3c489c05	0.012244229
198	0xbd5de1b8	-0.05417034
199	0xbd9c442d	-0.07630191
200	0xbc2c734d	-0.010525537
201	0x3dcbac3b	0.0994496
202	0x3da623b4	0.081122786
203	0x3cb167ab	0.021655878
204	0x3dd294f5	0.102823175
205	0x3d54cfc3	0.05195595
206	0x3d8ef247	0.069798045
207	0x3e253865	0.16134794
208	0x3c9d3c0d	0.019193674
209	0x3b9508ef	0.004548184
210	0x3e27b82d	0.16378851
211	0xbd7d9965	-0.061913867
212	0x3d847ffd	0.06469724
213	0xbd8a9952	-0.06767525
214	0x3c8852b2	0.016640995
215	0xbd9851d4	-0.074374825
216	0x3d03addb	0.032148223
217	0x3e31c5a4	0.1736055
218	0xbc8afc6b	-0.016966065
219	0xbdb86313	-0.09003272
220	0xbdab2178	-0.08355993
221	0x3b8b6fc1	0.0042552655
222	0x3daca2c5	0.08429483
223	0x3cb8ede6	0.022574376
224	0x3de115c7	0.10990482
225	0xbdcaf3f4	-0.099098116
226	0xbbfce7be	-0.0077180555
227	0xbc15990e	-0.009130729
228	0x3dc74b6f	0.09731185
229	0xbe17a9d5	-0.1481088
230	0x3d273afb	0.040827733
231	0x3d826105	0.06366161
232	0xbe3f21fc	-0.18665308
233	0x3de43402	0.11142732
234	0xbdbd8872	-0.092545405
235	0x3d412d70	0.047162473
236	0x3d831ec1	0.0640235
237	0x3d4c34e3	0.049855124
238	0x3bdc160c	0.0067164954
239	0x3e13b370	0.14423919
240	0xbd8a4ceb	-0.06752952
241	0xbcfb00c5	-0.030640015
242	0xbdf5c41a	-0.12000294
243	0x3ccc145b	0.02491205
244	0x3da813d5	0.08206908
245	0xbc3b1fce	-0.011421157
246	0xbe3adaa9	-0.18247475
247	0xbc8bc818	-0.017063186
248	0xbb4cd701	-0.0031256082
249	0x3c8392d3	0.016061222
250	0x3c2f6e7f	0.010707497
251	0xbc2b1212	-0.01044132
252	0x3d6f36ed	0.05840199
253	0x3db50d78	0.088404596
254	0x3ddc236b	0.10748943
255	0x3db87a20	0.090076685

gnn1_pool.conv2.lin_root.bias f4 [64]
0	0xbd958948	-0.07301575
1	0xbd84d7e3	-0.064864896
2	0xbd9bfced	-0.07616601
3	0x3d36fac4	0.044672742
4	0xbd84e952	-0.06489815
5	0x3d1b1a48	0.03786686
6	0x3cdfe521	0.027330937
7	0xbd6f20c3	-0.058380853
8	0xbe299ae2	-0.1656299
9	0x3d230469	0.039799128
10	0xbd69d91e	-0.057091825
11	0xbdb62f6b	-0.08895763
12	0x3d56bdac	0.05242698
13	0xbd384191	-0.044984404
14	0xbdd85711	-0.105634816
15	0xbdcba021	-0.099426515
16	0x3d932df0	0.07186496
17	0xbe1be660	-0.152246
18	0x3db68308	0.08911711
19	0xbe4a9376	-0.19782814
20	0x3dab51e6	0.0836523
21	0xbd509335	-0.050921638
22	0x3d9b5c8a	0.0758601
23	0xbd85c53f	-0.06531762
24	0x3d461b6f	0.048366006
25	0xbe5abb1b	-0.21360438
26	0x3e14be6d	0.14525767
27	0xbd2045c8	-0.03912905
28	0xbd3824ee	-0.044957094
29	0x3c8ed782	0.017436747
30	0x3d1c887f	0.03821611
31	0xbdef6d77	-0.11690801
32	0xbac1f3ce	-0.0014797391
33	0x3e0c0819	0.13674964
34	0xbd127aa5	-0.035761494
35	0x3bf68e4f	0.0075242887
36	0xbe92e811	-0.28692678
37	0xbe405f09	-0.18786253
38	0xbc13e68c	-0.009027135
39	0xbd9a12dd	-0.07523129
40	0xbd617d99	-0.05505142
41	0xbdc51179	-0.09622473
42	0xbdc17f64	-0.09448126
43	0xbe0ea800	-0.13931274
44	0x3e061aff	0.13096236
45	0x3dbdafbd	0.09262035
46	0xbe53adc3	-0.20671754
47	0xbd0f22d4	-0.034945324
48	0xbd22b97e	-0.03972768
49	0xbdbb62c8	-0.091497004
50	0xbe00f28b	-0.12592523
51	0x3dd94b1d	0.1061003
52	0xbd8bebb8	-0.06832069
53	0xbe0f1a9a	-0.13974991
54	0xba0bb9c6	-0.00053301116
55	0xbdfca962	-0.12336995
56	0x3d9bbb97	0.07604139
57	0xbc321495	-0.010869165
58	0xbe83a145	-0.25708976
59	0xbe62be96	-0.22143015
60	0xbea82d21	-0.3284693
61	0xbcf56d19	-0.029959248
62	0x3e0da282	0.13831523
63	0xbe028750	-0.1274693

gnn1_pool.bn2.weight f4 [64]
0	0x3f84b324	1.0367169
1	0x3f84f5ae	1.0387475
2	0x3f5a270a	0.8521582
3	0x3f4f45ad	0.8096569
4	0x3f6a7e38	0.91598845
5	0x3f742616	0.95370615
6	0x3f61d463	0.882147
7	0x3f752a71	0.95767885
8	0x3f694900	0.91127014
9	0x3f837a07	1.0271615
10	0x3f7d20ab	0.9887797
11	0x3f799e95	0.975076
12	0x3f6bd8d7	0.92127746
13	0x3f7af676	0.9803232
14	0x3f4c5377	0.7981486
15	0x3f643bf1	0.89153963
16	0x3f59d0d0	0.8508425
17	0x3f4290d9	0.7600227
18	0x3f59e914	0.85121274
19	0x3f77628c	0.96634746
20	0x3f4e981f	0.8070087
21	0x3f56926f	0.8381719
22	0x3f7696e1	0.9632397
23	0x3f770c84	0.9650347
24	0x3f727394	0.9470761
25	0x3f7fc321	0.9990712
26	0x3f5c467d	0.86045057
27	0x3f6ce59d	0.9253786
28	0x3f646d19	0.8922897
29	0x3f722353	0.9458515
30	0x3f55ea61	0.8356076
31	0x3f659ef3	0.8969566
32	0x3f4e71b3	0.8064224
33	0x3f70f700	0.9412689
34	0x3f430ef7	0.7619471
35	0x3f3b5546	0.7317699
36	0x3f97ca8c	1.1858687
37	0x3f5ba1e2	0.8579389
38	0x3f87050e	1.0548418
39	0x3f639db3	0.88912505
40	0x3f7d58fd	0.9896391
41	0x3f89de3e	1.0770948
42	0x3f6aeefd	0.9177092
43	0x3f5ec66e	0.8702153
44	0x3f4b74cd	0.794751
45	0x3f30e88e	0.6910485
46	0x3f699839	0.912479
47	0x3f8705bd	1.0548626
48	0x3f5c0668	0.85947275
49	0x3f4fd5f3	0.81185836
50	0x3f89535d	1.0728565
51	0x3f6f48cb	0.9347045
52	0x3f5a91c7	0.8537869
53	0x3f617fca	0.88085616
54	0x3f59b9a2	0.8504888
55	0x3f56daa1	0.8392735
56	0x3f5b783a	0.85730326
57	0x3f74e8f7	0.95667976
58	0x3f575d79	0.84127
59	0x3f958483	1.1681064
60	0x3f7684c3	0.9629633
61	0x3f91c2fb	1.1387628
62	0x3f83ea4d	1.0305878
63	0x3f6acbb5	0.9171708

gnn1_pool.bn2.bias f4 [64]
0	0x3d61a59d	0.05508958
1	0x3e1673c6	0.14692602
2	0x3d43ccd8	0.047802776
3	0x3daf12e5	0.08548526
4	0xbd3cc570	-0.04608673
5	0xbcbe9a42	-0.023266915
6	0xbb09870e	-0.002098504
7	0x3cf58775	0.029971818
8	0x3e6b6e0f	0.22991203
9	0x3dd3e52c	0.103464454
10	0x3ca51fb5	0.02015672
11	0x3dccb2b1	0.0999502
12	0x3dab4e88	0.08364588
13	0x3c1d86a7	0.009614623
14	0x3bbc5c3f	0.0057483013
15	0x3e030735	0.12795718
16	0x3d91dc48	0.071220934
17	0x3dec8ca6	0.11550264
18	0xbc8586ed	-0.01629969
19	0x3d9e562f	0.07731282
20	0xbcc48722	-0.023990218
21	0x3d312696	0.04324969
22	0x3d426173	0.047456216
23	0x3c810363	0.015748685
24	0x3d536b6d	0.05161612
25	0x3d86d0ef	0.0658282
26	0xbdadb39f	-0.08481526
27	0x3d86277b	0.06550499
28	0x3dd4f53d	0.10398338
29	0x3e0f4b4f	0.13993572
30	0xbd44cfc3	-0.0480497
31	0x3de5a052	0.11212219
32	0x3ccd9aa8	0.02509816
33	0x3d02a5c9	0.031896386
34	0x3d03a253	0.032137226
35	0x3da2a963	0.07942464
36	0x3c15a151	0.009132699
37	0x3e0a8236	0.13526234
38	0x3dd7e16c	0.10541043
39	0x3c8aa8f3	0.016926264
40	0x3e0bf0c1	0.13666059
41	0x3da77b5a	0.08177824
42	0x3b32b899	0.0027270673
43	0x3d202d97	0.039105978
44	0xbd5bfd3e	-0.053708307
45	0x3cc56346	0.024095189
46	0x3d9e466f	0.07728278
47	0x3dd076d0	0.10178912
48	0x3ceb4fe2	0.028724615
49	0x3d47fa44	0.048822656
50	0x3e62c31c	0.22144741
51	0xbd4563a5	-0.04819073
52	0x3d98ee1b	0.0746729
53	0x3de66164	0.112490445
54	0xbd876eb2	-0.0661291
55	0x3d78ae43	0.060713064
56	0xbcdec2b3	-0.02719245
57	0x3e2deaa9	0.16984047
58	0x3e1138ce	0.14181826
59	0x3d8aecdb	0.06783458
60	0x3d38bf72	0.04510445
61	0x3d89a044	0.06720021
62	0xbc75da76	-0.015005698
63	0x3e060af1	0.13090111

gnn1_pool.bn2.running_mean f4 [64]
0	0x3eae592f	0.34052417
1	0x3e335224	0.17511803
2	0x3e161e7f	0.14660071
3	0x3f843473	1.0328506
4	0x3ef889de	0.48542684
5	0x3f24f822	0.6444112
6	0x3f33dc6c	0.7025821
7	0x3eb041f3	0.34425315
8	0x3ec20b60	0.37899303
9	0x3f286250	0.6577501
10	0x3e697f1e	0.22802398
11	0x3ec2b1d8	0.3802631
12	0x3f0ff1a9	0.5622812
13	0x3ed8ac50	0.42318964
14	0x3eecc512	0.46244103
15	0x3ea408e3	0.3203803
16	0x3f3e2b6e	0.7428502
17	0x3f4160ed	0.7553852
18	0x3f33d6cb	0.70249623
19	0x3e619c92	0.22032383
20	0x3f1504a9	0.58210236
21	0x3ed690d4	0.4190737
22	0x3ec6d264	0.3883239
23	0x3e9edbfa	0.31027204
24	0x3f477875	0.7791818
25	0x3e5f3fd4	0.21801692
26	0x3f5b5f45	0.85692245
27	0x3f099220	0.53738594
28	0x3eff0ba3	0.49813566
29	0x3edd3f9f	0.43212602
30	0x3ee7b8a1	0.45258048
31	0x3f02b40b	0.51055974
32	0x3e749272	0.2388399
33	0x3f6a00c8	0.9140744
34	0x3e0a3cda	0.13499776
35	0x3f74079a	0.953241
36	0x3e353af0	0.17698264
37	0x3e2a9a24	0.16660362
38	0x3f0f3504	0.5594027
39	0x3f5a6728	0.85313654
40	0x3df8faa4	0.12157181
41	0x3efc5b0f	0.49288222
42	0x3f30d008	0.6906743
43	0x3e29d4e1	0.16585113
44	0x3f44edf7	0.76925606
45	0x3ebe6495	0.37186113
46	0x3f301e66	0.68796384
47	0x3eb42045	0.3518087
48	0x3ef79545	0.4835607
49	0x3f573ddf	0.8407878
50	0x3ddc96b3	0.10770931
51	0x3f32c927	0.69838184
52	0x3efc3e67	0.4926636
53	0x3e749c1f	0.2388768
54	0x3f1171de	0.5681437
55	0x3f4856ba	0.78257334
56	0x3f32bc3e	0.69818485
57	0x3e253747	0.16134368
58	0x3e8651c7	0.26234266
59	0x3e89f6a0	0.26945972
60	0x3e599816	0.21249422
61	0x3f25ba57	0.6473746
62	0x3f2c6188	0.6733632
63	0x3f00b48b	0.50275487

gnn1_pool.bn2.running_var f4 [64]
0	0x3f8573a5	1.0425917
1	0x3eb57931	0.35444024
2	0x3c871efe	0.01649427
3	0x40e9b335	7.303126
4	0x40048946	2.0708785
5	0x3f2b0500	0.66804504
6	0x400e43eb	2.2228954
7	0x3f3d180f	0.73864836
8	0x3fa6633a	1.2999032
9	0x3fcdf2c8	1.6089716
10	0x3f187039	0.5954624
11	0x3f574308	0.84086657
12	0x401c7fb2	2.445294
13	0x3f942d13	1.1576256
14	0x3f87b39f	1.0601691
15	0x3f67d790	0.905633
16	0x403f0850	2.9848824
17	0x4039f393	2.9054916
18	0x400dd1cc	2.21593
19	0x3f8f89f2	1.1213973
20	0x3ff22bae	1.891958
21	0x3fcdc101	1.6074525
22	0x3fae16df	1.360073
23	0x3fa946c1	1.3224717
24	0x40424364	3.0353632
25	0x3f064d41	0.5246163
26	0x4030e04c	2.76369
27	0x3fcbccca	1.5921872
28	0x3fce7386	1.6129005
29	0x3fe043e0	1.7520714
30	0x3f9793a2	1.1841929
31	0x402da0d3	2.712941
32	0x3d3343f5	0.04376598
33	0x407bf30b	3.9367092
34	0x3c656caa	0.014002958
35	0x40bf250b	5.973272
36	0x3f028f81	0.5100022
37	0x3ef31f02	0.47484595
38	0x3fd5bbde	1.6697958
39	0x408a016c	4.3126736
40	0x3e2eea20	0.17081499
41	0x3fb98d5b	1.4496263
42	0x4052d3be	3.2941737
43	0x3f5825ee	0.84432876
44	0x4029e24b	2.6544368
45	0x3f046c79	0.51728016
46	0x40733d39	3.8006117
47	0x3eef356f	0.46720454
48	0x3f8961a5	1.0732924
49	0x40a2fb61	5.093186
50	0x3e096954	0.13419086
51	0x3f9adcc4	1.2098622
52	0x3fddf22c	1.733953
53	0x3f97be3e	1.1854932
54	0x3fb62b74	1.4232011
55	0x409a654b	4.824865
56	0x40152611	2.3304484
57	0x3e9a1067	0.3009064
58	0x3f8bef65	1.0932432
59	0x3f208de3	0.627165
60	0x3efd67e6	0.4949333
61	0x3f9ff43d	1.2496411
62	0x3f8ecceb	1.1156286
63	0x4004c311	2.074406

gnn1_pool.conv3.lin_rel.weight f4 [52, 64]
0	0xbccc39e2	-0.024929944
1	0xbd83ff3a	-0.06445165
2	0xbd873f36	-0.066038534
3	0x3b347e66	0.002754116
4	0xbd3ce81b	-0.04611979
5	0x3d96020d	0.0732461
6	0xbd17f7b9	-0.03710148
7	0xbe1737a3	-0.14767317
8	0x3e00c24b	0.12574117
9	0xbd5ef2cf	-0.05443078
10	0x3d6cda08	0.05782512
11	0x3cdd395d	0.027004892
12	0x3c789a3e	0.015173493
13	0x3c009e06	0.007850176
14	0xbb752308	-0.0037404913
15	0xbdbb0d15	-0.091333546
16	0xbda4f3df	-0.08054327
17	0xbba0cdbf	-0.0049073393
18	0x3d9a57ab	0.075362526
19	0x3db44af5	0.088033594
20	0x3dc13c21	0.09435297
21	0x3c7110f4	0.014713515
22	0x3c99f969	0.018795686
23	0x3ca9f3a8	0.020746067
24	0xbd01ca6f	-0.031687196
25	0xbd8fb00f	-0.070160024
26	0x3ab29280	0.0013623983
27	0xbd24a86d	-0.040199686
28	0xbd8021c8	-0.06256443
29	0x3c9bb2d2	0.019006167
30	0x3d062ea6	0.03275933
31	0xbcd107f6	-0.025516491
32	0x3d441213	0.0478688
33	0x3d54bc00	0.051937103
34	0xbd0335f6	-0.032033883
35	0x3d604b1b	0.054759126
36	0x3ccda5b6	0.025103431
37	0x3d90aa6b	0.07063755
38	0xbd730d82	-0.059339054
39	0xbe00cea8	-0.12578833
40	0xbd3567ad	-0.044288326
41	0x3dcdd5c2	0.10050537
42	0xbbe4e67c	-0.0069854837
43	0xbe101da6	-0.1407381
44	0xbd0f035d	-0.034915317
45	0x3e1d63c0	0.15370083
46	0x3d040373	0.032229852
47	0xbdbf6c9e	-0.09346889
48	0xbdbf202d	-0.09332309
49	0x3d652a37	0.055948462
50	0xbd57d6b6	-0.052695
51	0x3e21ff2c	0.15819997
52	0x3c18f986	0.009336835
53	0xbdef39f8	-0.116809785
54	0x3d98f348	0.07468277
55	0xbdaa3aac	-0.08311972
56	0x3d764d64	0.0601324
57	0x3cfa2a2f	0.030537693
58	0x3d27f44e	0.04100447
59	0xbd943a7f	-0.0723772
60	0x3d3c40a8	0.0459601
61	0x3dfaa510	0.122385144
62	0x3d2e0c87	0.042492416
63	0xbca9757b	-0.020685902
64	0xbe1af9cb	-0.15134351
65	0xbb09cb41	-0.002102569
66	0xbdd28637	-0.10279506
67	0x3ba5c758	0.005059164
68	0x3c29c014	0.010360736
69	0xbda8b127	-0.08236914
70	0xbd6ee5d7	-0.05832466
71	0x3daa5cd4	0.08318487
72	0xbcf5abf1	-0.029989215
73	0x3dcb4a8d	0.09926329
74	0x3c6cc48a	0.014451155
75	0x3d95b624	0.07310131
76	0xbdd536e6	-0.10410862
77	0xbc96d04f	-0.018409876
78	0xbe01b8cb	-0.12668149
79	0x3d964edf	0.07339262
80	0x3daaddeb	0.08343109
81	0x3dc4f1ec	0.096164554
82	0xbd8b25da	-0.06794329
83	0xbcf767d4	-0.030200876
84	0xbd529b32	-0.051417537
85	0xbc203a02	-0.009779455
86	0xbcfc2279	-0.030778157
87	0xbd973b12	-0.07384314
88	0x3d2d33ab	0.042285603
89	0x3de1b57a	0.11020942
90	0x3d06bc62	0.0328945
91	0x3e279db9	0.1636876
92	0x3de6a327	0.112615876
93	0xbd6b2be9	-0.057414923
94	0xbe61fd33	-0.22069244
95	0x3e15205b	0.14563124
96	0xbd6bcc54	-0.05756791
97	0xbd055b70	-0.032557905
98	0x3d221c99	0.039578054
99	0x3ddefdb0	0.10888231
100	0xbd82acaa	-0.06380589
101	0xbd712555	-0.058873493
102	0xbd1f17e6	-0.03884115
103	0x3e33ba8d	0.17551632
104	0x3d221f62	0.03958071
105	0xbdcec761	-0.10096622
106	0x3e046254	0.12928134
107	0x3d99a724	0.07502583
108	0x3d704e5d	0.058668483
109	0x3d89ce38	0.06728786
110	0x3e53f408	0.2069856
111	0x3e0acaac	0.13553876
112	0xbdc6ad63	-0.0970104
113	0x3e30214f	0.17200206
114	0xbd313b11	-0.04326922
115	0xbddf7cb9	-0.10912461
116	0x3c363bb8	0.0111226365
117	0x3dfb9912	0.12285055
118	0xbdfd1203	-0.12356951
119	0x3dd3f97a	0.10350318
120	0x3cf89938	0.030346498
121	0xbda39be2	-0.07988717
122	0x3e2827b3	0.16421394
123	0xbdb1f883	-0.08689978
124	0xbe18af9c	-0.1491074
125	0xbdad4119	-0.08459682
126	0x3cc8a39d	0.02449208
127	0x3b1dd8c4	0.0024085501
128	0xbdfb2808	-0.12263495
129	0x3cd8ae75	0.026450375
130	0x3e6999ee	0.22812626
131	0xbe1e67b8	-0.15469253
132	0x3d195d31	0.03744239
133	0x3d34e1a5	0.044160504
134	0xbdfb5814	-0.12272659
135	0x3d4ac601	0.049505237
136	0x3cfc915c	0.030831032
137	0xbe0c8ad4	-0.13724834
138	0xbd2a03ae	-0.041507415
139	0x3d5ce15d	0.05392586
140	0xbd442655	-0.04788812
141	0xbdab84a6	-0.0837491
142	0xbcfeaa08	-0.031086937
143	0xbcdd4821	-0.027011933
144	0xbdd85114	-0.105623394
145	0x3e1cd5c4	0.1531592
146	0xbde21bdb	-0.11040469
147	0x3d3f5f82	0.046721943
148	0x3b94d7ab	0.004542311
149	0xbdf5f3fb	-0.12009426
150	0xbdb1361e	-0.086529
151	0x3d8c4598	0.068492115
152	0xbdbe6dc0	-0.09298277
153	0xbe576052	-0.21032837
154	0xbdd3e510	-0.103464246
155	0xbb9108f5	-0.0044261166
156	0xbe35a9f9	-0.1774062
157	0xbcb872c5	-0.022515664
158	0xbd1657fc	-0.036705002
159	0xbdfa6514	-0.1222631
160	0x3e7afd22	0.24510625
161	0xbe3e17c3	-0.18563752
162	0x3e4fde41	0.20299627
163	0xbdca65ab	-0.09882673
164	0x3cce6f1c	0.025199465
165	0xbe5c2c86	-0.2150136
166	0x3c79b50a	0.015240917
167	0xbcec0768	-0.028812125
168	0xbd8e9e6a	-0.06963809
169	0xbdaacf07	-0.083402686
170	0xbce5cdf7	-0.028052313
171	0x3c034b96	0.008013627
172	0xbda5905a	-0.080841735
173	0x3dc250f0	0.09488094
174	0xbe05ce2e	-0.13066933
175	0xbdc24785	-0.094862975
176	0xbcf669aa	-0.030079681
177	0xbd8bccc8	-0.06826168
178	0xbd5321d0	-0.051545918
179	0xbd2750a0	-0.040848374
180	0xbdea9f16	-0.114561245
181	0xbd52a779	-0.051429246
182	0xbd4029d0	-0.046914876
183	0x3cf866ed	0.030322516
184	0xbd84b04b	-0.06478938
185	0x3ddd4bf5	0.10805503
186	0xbdc0beaf	-0.0941137
187	0x3dc0ebff	0.09420013
188	0xbb827824	-0.003981607
189	0x3ddd3920	0.10801911
190	0x3dc91572	0.098185435
191	0xbd856bc4	-0.06514695
192	0xbde3d8dd	-0.11125348
193	0xbdc074aa	-0.09397252
194	0x3da7002a	0.08154328
195	0x3c9ece10	0.019385368
196	0xbe24f33b	-0.1610841
197	0x3c789f0e	0.01517464
198	0xbd133bc0	-0.035945654
199	0xbd799701	-0.060935024
200	0xbd1e7a49	-0.03869084
201	0xbe3f3a64	-0.18674618
202	0xbc2d936e	-0.010594232
203	0xbd5f528d	-0.054522086
204	0xbd380921	-0.04493058
205	0xbe4c7854	-0.19967777
206	0x3da56a32	0.08076896
207	0xbe1e2271	-0.15442826
208	0xbd5736d3	-0.05254252
209	0x3b8ef308	0.0043624677
210	0x3d9616e5	0.073285855
211	0x3cd809f6	0.026371937
212	0x3e3b68b1	0.18301655
213	0x3cfa4d26	0.030554365
214	0x3e9f5e95	0.31126848
215	0xbd666a85	-0.05625393
216	0xbdc541dd	-0.09631703
217	0x3de08e01	0.10964585
218	0x3d599afa	0.053126313
219	0xbd82e343	-0.06391003
220	0xbd9ef3cc	-0.07761344
221	0xbcb060e8	-0.021530584
222	0xbcdd0f19	-0.026984738
223	0xbd951779	-0.07279868
224	0x3c9e903f	0.019355891
225	0x3d8afaa6	0.06786089
226	0xbd7903fd	-0.06079482
227	0x3cafb009	0.021446245
228	0x3d7308ed	0.059334684
229	0x3cbf8b78	0.023381934
230	0x3bebf600	0.0072009563
231	0xbdb1e679	-0.08686537
232	0xbe08d212	-0.13361385
233	0xbdfb281c	-0.1226351
234	0x3ca1ef8b	0.019767543
235	0x3df28e2f	0.118435256
236	0xbda2497b	-0.079241715
237	0x3df4c87f	0.11952304
238	0x3d41d084	0.047317997
239	0xbe8d039a	-0.2754181
240	0x3dc5d17c	0.096590966
241	0xbd24044e	-0.040043168
242	0x3cd4806c	0.025940143
243	0x3ea6b5c5	0.32560554
244	0xbd511015	-0.051040728
245	0xbdb201ee	-0.08691774
246	0x3e94fa96	0.29097432
247	0x3aa9ea83	0.0012963567
248	0x3e1183e8	0.14210474
249	0xbc30e4ac	-0.010796707
250	0x3d241428	0.040058285
251	0xbd3c6a13	-0.045999598
252	0xbe1f9241	-0.15583135
253	0x3cd6e111	0.026230367
254	0xbdb71cd2	-0.08941044
255	0xbd7d857e	-0.061894886

gnn1_pool.conv3.lin_root.weight f4 [52, 64]
0	0x3e19ac53	0.15007143
1	0x3c6fedb0	0.014644071
2	0x3cd65424	0.026163168
3	0xbd941964	-0.072314054
4	0x3e551928	0.20810378
5	0xbdbf73b7	-0.09348243
6	0xbe19a106	-0.15002832
7	0x3d9de417	0.0770952
8	0x3de5054f	0.11182653
9	0xbe334c58	-0.17509592
10	0x3df960ab	0.12176641
11	0xbdfe81a2	-0.12427069
12	0xbdc1341f	-0.094337694
13	0xbe39d4c6	-0.18147573
14	0xbc468a20	-0.0121178925
15	0x3dc7b0d7	0.097505264
16	0xbe487e32	-0.1957939
17	0x3deba936	0.11506884
18	0x3d92825e	0.07153772
19	0xbe36d6d8	-0.17855394
20	0xbd8babba	-0.068198636
21	0x3d4f0b82	0.050548084
22	0x3d6f3702	0.05840207
23	0xbe06813c	-0.13135237
24	0xbd1d6266	-0.03842392
25	0x3d9bab63	0.07601049
26	0x3c939c19	0.01801877
27	0xbd4778ea	-0.048699297
28	0xbddd053d	-0.10792015
29	0x3ccf433a	0.02530061
30	0xbdab952f	-0.08378064
31	0x3d268059	0.040649746
32	0xbce3f085	-0.02782465
33	0xbdd8b370	-0.105811
34	0x3dd10fdb	0.10208102
35	0x3e014768	0.12624896
36	0x3e953cb0	0.29147863
37	0xbda781ee	-0.08179079
38	0xbd168743	-0.03675009
39	0x3e300067	0.17187653
40	0x3e0b90d6	0.1362947
41	0x3d9a7706	0.07542233
42	0xbd10078b	-0.035163444
43	0xbdbf5fae	-0.09344421
44	0xbe02f90c	-0.12790316
45	0x3dbcba87	0.09215265
46	0x3dabe43b	0.08393141
47	0xbcac2ef1	-0.021018477
48	0x3c9e9d6d	0.019362176
49	0x3e21b3c6	0.15791234
50	0x3df2b04b	0.118500315
51	0x3dc55bea	0.09636672
52	0xbd4e51f4	-0.050371125
53	0xbcc4acea	-0.024008233
54	0xbdecdb8c	-0.11565313
55	0x3e0e5e5c	0.13903183
56	0x3d0b1e74	0.03396459
57	0x3d6136bc	0.05498384
58	0xbd904623	-0.070446275
59	0x3e807a44	0.2509328
60	0x3ca35a74	0.019940592
61	0x3e6af999	0.22946776
62	0x3cfc3f8f	0.030792026
63	0x3b7087d3	0.0036702051
64	0x3e65f85d	0.22458024
65	0x3d53ea88	0.05173734
66	0xbc4e0332	-0.012574004
67	0xbbbe4197	-0.0058061588
68	0x3e1d98f2	0.15390375
69	0xbe68af2e	-0.22723076
70	0xbdbec67e	-0.09315203
71	0xbe2ab318	-0.16669881
72	0x3d80adae	0.06283127
73	0x3d86a47b	0.06574341
74	0xbdabac26	-0.08382444
75	0xbc328642	-0.010896267
76	0x3d896bbd	0.067100026
77	0x3d6e9e9a	0.058256723
78	0xbca54316	-0.02017359
79	0xbd023869	-0.03179208
80	0x3e0edfde	0.13952586
81	0xbddcc767	-0.107802205
82	0x3cac7cc3	0.021055585
83	0xbd5369b7	-0.05161449
84	0x3d281e89	0.041044746
85	0xbe0b14d8	-0.1358217
86	0xbd33423f	-0.04376435
87	0xbd49d693	-0.0492769
88	0x3c6f9aa0	0.014624268
89	0x3decd371	0.11563767
90	0xbd2e1ebc	-0.04250978
91	0x3d11de72	0.03561253
92	0x3d94cd6c	0.072657436
93	0xbe016f5f	-0.12640141
94	0x3e108d1f	0.14116333
95	0xbe0b943d	-0.13630767
96	0xbdd7dad5	-0.10539786
97	0xbd96fb22	-0.073721185
98	0x3d6ca383	0.057773124
99	0xbd99fc8f	-0.07518875
100	0x3df6d687	0.120526366
101	0x3d3eeaa4	0.04661049
102	0xbd9ba21c	-0.07599279
103	0x3d2bcb04	0.041941658
104	0xbe431d3e	-0.19054124
105	0x3e13bb46	0.14426908
106	0x3e039427	0.12849484
107	0x3dbfcd2c	0.09365305
108	0xbd5879d0	-0.052850544
109	0xbd93479d	-0.071913935
110	0x3d384ea6	0.04499688
111	0x3e2aa63a	0.16664973
112	0xbdfd9e2b	-0.12383684
113	0xba8d925a	-0.0010801062
114	0xbdc43ddf	-0.095821135
115	0x3bb48353	0.005508819
116	0xbbc91ca5	-0.006137448
117	0x3c35bffd	0.011093137
118	0x3c89b7da	0.0168113
119	0x3d33490b	0.04377083
120	0xbc9c54f1	-0.019083472
121	0xbc85c8dc	-0.016331129
122	0xbcdac667	-0.026705934
123	0x3e849570	0.25895262
124	0x3ce4e9b6	0.027943473
125	0x3daa08e2	0.083024755
126	0xbdeabbc6	-0.11461596
127	0xbc64c9ff	-0.013964175
128	0x3c8a38b7	0.016872747
129	0xbda23578	-0.079203546
130	0xbd38086b	-0.044929903
131	0x3d9fc57e	0.078013405
132	0x3dcc95b7	0.09989493
133	0xbd2fbd29	-0.042905007
134	0xbe53e00c	-0.20690936
135	0x3e3a376d	0.18185206
136	0xbd95b37f	-0.07309627
137	0x3c067f66	0.008209085
138	0x3da3b154	0.07992807
139	0x3da38433	0.079841994
140	0x3bc1cb04	0.005914094
141	0x3dedcc09	0.11611182
142	0xbd0fe1e1	-0.035127524
143	0x3ca61df9	0.020277964
144	0xbd079a40	-0.03310609
145	0x3dac023a	0.08398862
146	0x3e1bbf3d	0.1520967
147	0xbe2b3ca8	-0.16722357
148	0x3adc6d16	0.0016817178
149	0xbe0d0495	-0.13771279
150	0x3c814222	0.015778605
151	0xbe16b8f4	-0.14718992
152	0xbdfdad4b	-0.12386569
153	0x3dbc5881	0.09196568
154	0xbad95207	-0.0016580232
155	0xbd17b5ad	-0.037038494
156	0xbe0a1566	-0.13484725
157	0xbcf45f16	-0.029830497
158	0x3dbf06bc	0.09327456
159	0x3da292bf	0.07938146
160	0x3dffa0b7	0.12481826
161	0x3daf0d7a	0.08547492
162	0x3d2b7016	0.04185494
163	0xbdc4398b	-0.09581288
164	0x3d53e75a	0.051734306
165	0x3cf91c6a	0.030409057
166	0x3ad7b26f	0.0016456376
167	0xbc2f5a39	-0.010702663
168	0x3dbd9a72	0.09257974
169	0xbdc0e811	-0.09419263
170	0xbc0ba416	-0.008523008
171	0x3c0052ea	0.007832268
172	0x3dbc3d7b	0.09191414
173	0x3d8104c2	0.062997356
174	0x3da84c3a	0.08217664
175	0xbde4a1e9	-0.111636944
176	0x3d8ce281	0.0687914
177	0xbdb7bd37	-0.08971637
178	0x3c8114b3	0.01575694
179	0x3da9db4a	0.08293779
180	0x3e0c4f1a	0.1370205
181	0x3dc3404f	0.0953375
182	0x3da89abe	0.0823264
183	0x3da564af	0.080758445
184	0xbe064a7f	-0.13114356
185	0x3d8eff3b	0.06982275
186	0xbd91a962	-0.07112385
187	0xbe1b7807	-0.15182506
188	0xbdd5bf2b	-0.10436853
189	0xbc305716	-0.01076295
190	0x3dcd0c57	0.10012119
191	0xbd0ccf47	-0.034377363
192	0x3d865480	0.06559086
193	0x3db2d813	0.08732619
194	0x3d25fa1d	0.04052173
195	0x3d1379e6	0.036004923
196	0x3cb3ff03	0.021972185
197	0x3cee1f95	0.029067794
198	0x3db9d592	0.090739384
199	0xbe0b2924	-0.13589913
200	0xbdd1b6e2	-0.1023996
201	0xbe3bb19d	-0.18329473
202	0xbdc619b0	-0.09672868
203	0xbe201ea8	-0.15636694
204	0x3bf0b03d	0.007345228
205	0xbda43626	-0.080181405
206	0x3ddb70b4	0.10714856
207	0xbe2a740e	-0.16645834
208	0x3e002d33	0.12517242
209	0xbd463833	-0.04839344
210	0xbd7e6ec9	-0.06211737
211	0xbcd1631f	-0.02555996
212	0x3c1be74b	0.009515594
213	0x3e1b695d	0.15176912
214	0xbd39dc00	-0.045375824
215	0x3d99f366	0.07517128
216	0xbdd84aa0	-0.105611086
217	0x3d7af518	0.061268896
218	0xbcdd7825	-0.027034828
219	0x3d58a6cd	0.05289345
220	0xbd5ec800	-0.054389954
221	0x3cae2129	0.021256046
222	0xbd9cab55	-0.076498665
223	0xbe3ff659	-0.18746318
224	0xbe00a578	-0.12563121
225	0x3e24f4a1	0.16108944
226	0xbc97840d	-0.018495584
227	0x3bcec6d1	0.006310322
228	0xbd3e192a	-0.046410717
229	0xbd66a245	-0.056307096
230	0xbe107c22	-0.14109853
231	0xbdec024e	-0.11523877
232	0xbd703e9a	-0.05865345
233	0x3bcb23ad	0.0061993212
234	0x3e49dd86	0.1971341
235	0xbd5efb65	-0.054438967
236	0x3c9b467f	0.018954514
237	0xbdc8cb2e	-0.098043784
238	0xbd9f8e27	-0.07790785
239	0xbcf98cfe	-0.030462738
240	0xbbbb772c	-0.0057209935
241	0xbc2463b7	-0.0100335395
242	0xbd876ace	-0.06612168
243	0x3d942b2d	0.072347976
244	0xbe6a3786	-0.22872743
245	0xbd796677	-0.060888734
246	0x3dc0c8fe	0.09413336
247	0xbd6421f8	-0.055696458
248	0x3e1d69c2	0.15372375
249	0xbdbb95d5	-0.091594376
250	0xbe133393	-0.14375143
251	0xb9d1ca77	-0.00040014434
252	0xbd938494	-0.07203022
253	0xbe01af11	-0.12664439
254	0xbd951965	-0.07280234
255	0xbb341f44	-0.0027484456
