model/p2p2068_p0.1_ob0.1_m50_2c8_diff_pool.pt (torch, 797569 bytes, 113 tensors)

gnn1_pool.conv1.lin_rel.weight f4 [64, 2]
0.3301967 -0.44014987 0.86740875 0.09508326 -0.21610534 0.4102876 0.91605145 -0.0344724
0.14948046 -0.3851292 0.3337725 -0.37790143 -0.5064525 -0.26783448 -0.39570385 -0.042741597
0.012138629 -0.6820029 0.041807227 -0.35859346 -0.53055584 -0.38547924 0.54805285 0.4455871
-0.6742814 -0.030884368 -0.67255354 -0.1538299 0.09675908 0.751673 0.4954237 0.098789036
-0.63554054 0.30598557 0.1466712 0.6861474 -0.5333776 -0.6799263 0.42415842 0.9378798
0.58936924 0.76370764 0.3477498 -0.4182588 -0.56285316 -0.75167835 0.104836285 -0.8816812
-0.6468629 -0.2911602 -0.49492553 0.76978755 -0.0802288 0.015596189 -0.28061897 0.48183548
0.09267391 -0.15051997 0.21961416 0.061857242 0.6670421 0.4023865 0.38914275 -0.57835937
0.44844684 0.08764833 -0.25752884 -0.27571756 0.01760398 -0.14153476 -0.0015150488 0.5328078
0.4089866 -0.3084613 0.16284832 0.6855068 -0.3947209 -0.2448535 -0.41580403 0.53564817
0.5230988 -0.4880246 0.709191 0.20880465 -0.39689475 -0.4568334 -0.071302354 -0.6688453
0.66042864 0.32941347 -0.15056893 -0.018199261 0.36788058 0.47693196 -0.50317514 0.5236058
-0.1830593 -0.72923744 -0.27757052 -0.6749605 -0.36054942 0.097874016 0.526144 0.13497035
-0.17766228 -0.28248698 0.1453599 0.716747 -0.15969458 -0.5721625 -0.6948689 -0.029033951
-0.6968702 -0.50299865 -0.54829115 -0.34528375 0.35141286 -0.5828975 0.48317307 0.5372359
0.06901616 0.3935934 -0.29557943 -0.39987352 -0.058964096 0.96245944 0.87294245 -0.18371862
00000000: 8b0f a93e 535b e1be 800e 5e3f 03bb c23d
00000010: b84a 5dbe 3711 d23e 5982 6a3f ee32 0dbd
00000020: 6811 193e a82f c5be 3be4 aa3e 4c7c c1be
00000030: dfa6 01bf 9a21 89be b299 cabe d011 2fbd
00000040: 1ae1 463c be97 2ebf 0e3e 2b3d 9099 b7be
00000050: 82d2 07bf 895d c5be 314d 0c3f fe23 e43e
00000060: b59d 2cbf 3701 fdbc 782c 2cbf 9685 1dbe
00000070: a029 c63d a46d 403f 2da8 fd3e e851 ca3d
00000080: c9b2 22bf 24aa 9c3e fa30 163e 5ba7 2f3f
00000090: 6f8b 08bf a60f 2ebf 4b2b d93e e418 703f
000000a0: e7e0 163f 5882 433f 430c b23e 0426 d6be
000000b0: 2517 10bf fe6d 40bf 68b4 d63d dcb5 61bf
000000c0: cf98 25bf f312 95be e166 fdbe cc10 453f
000000d0: ff4e a4bd 2887 7f3c 4aad 8fbe 24b3 f63e
000000e0: d2cb bd3d e821 1abe 89e2 603e 055e 7d3d
000000f0: 45c3 2a3f 9a05 ce3e b83d c73e 5c0f 14bf
00000100: d39a e53e f880 b33d d2da 83be da2a 8dbe
00000110: 3936 903c 7dee 10be 9a94 c6ba 1866 083f
00000120: b166 d13e a4ee 9dbe b6c1 263e 607d 2f3f
00000130: dc18 cabe e0ba 7abe 44e4 d4be 3d20 093f
00000140: cee9 053f 5cde f9be 8b8d 353f e3d0 553e
00000150: ca35 cbbe 11e6 e9be f806 92bd 7239 2bbf
00000160: da11 293f e2a8 a83e be2e 1abe 9e16 95bc
00000170: d85a bc3e 6d30 f43e 16d0 00bf 080b 063f
00000180: e673 3bbe 4eaf 3abf b91d 8ebe 36ca 2cbf
00000190: ef99 b8be 2c72 c83d 60b1 063f ab35 0a3e
000001a0: 1aed 35be 22a2 90be 3ad9 143e bb7c 373f
000001b0: fa86 23be 3e79 12bf eee2 31bf 9cd8 edbc
000001c0: 1666 32bf 85c4 00bf cf5c 0cbf 08c9 b0be
000001d0: 63ec b33e c538 15bf 7662 f73e 4b88 093f
000001e0: 5858 8d3d 1385 c93e 3056 97be 39bc ccbe
000001f0: 5684 71bd be63 763f 2879 5f3f bc20 3cbe

gnn1_pool.conv1.lin_root.weight f4 [64, 2]
0.4080605 0.06016635 0.13007425 0.0151179 -0.22384837 -0.58904946 -0.13129689 -0.1789329
0.24042358 0.031797435 0.09848171 0.5669947 -0.4092443 -0.058550242 0.13370037 -0.05325716
-0.45512435 -0.095641226 0.60476345 0.5806838 0.5635616 0.55796283 -0.29820502 -0.33889544
-0.26914462 0.40862957 -0.15682328 0.28114933 0.50341165 0.4369826 -0.46573597 -0.2907671
0.53413075 0.4543236 -0.23838603 -0.20982622 -0.42899457 0.29159626 0.5180808 0.4674667
0.6059051 0.4850937 0.6813717 0.5185111 0.46372655 0.056920197 -0.5149633 -0.0808953
-0.27003857 -0.59907883 0.23908244 -0.26088414 -0.22035182 -0.5454568 0.09325959 -0.6089865
-0.50779945 -0.34612504 -0.36571983 -0.6493494 0.17182423 0.39210883 0.40700644 -0.14819321
-0.18180178 -0.6418249 -0.5890531 -0.20483638 -0.12525614 0.39878926 0.35470867 -0.42886448
-0.5079754 -0.2997961 -0.14000057 -0.34313795 -0.32909742 0.44207945 -0.30768353 -0.07332506
-0.42939228 -0.69037235 0.23550408 0.2847387 0.28644145 0.23642088 0.032790415 -0.32876557
-0.042841364 0.2344678 0.37758848 -0.021073423 0.088455185 0.0053886515 -0.55139476 0.63136524
0.5962659 -0.21486767 0.5604508 0.5531665 0.25347733 -0.59254 0.23165499 0.13601585
-0.22965868 0.30062723 0.1591321 0.32412484 0.27509433 0.09869814 -0.61102706 -0.36863858
0.58628917 -0.17967126 -0.23781025 -0.5895948 -0.2708453 0.41700706 0.40044272 -0.20952496
-0.41380414 -0.3694198 -0.46583563 -0.13905649 0.13426192 0.27140683 -0.009208067 -0.33550602
00000000: 4eed d03e fe70 763d 2f32 053e 12b1 773c
00000010: 8238 65be f2cb 16bf b172 06be 303a 37be
00000020: 9931 763e 073e 023d c7b0 c93d 9126 113f
00000030: 7888 d1be 61d2 6fbd c0e8 083e 2e24 5abd
00000040: 0f06 e9be 8cdf c3bd c7d1 1a3f b2a7 143f
00000050: 9345 103f a7d6 0e3f 54ae 98be b483 adbe
00000060: 53cd 89be e537 d13e 4896 20be cef2 8f3e
00000070: 96df 003f 2fbc df3e f274 eebe 6ddf 94be
00000080: cbbc 083f 1a9d e83e 781b 74be afdc 56be
00000090: 2da5 dbbe 1b4c 953e f1a0 043f cc57 ef3e
000000a0: 991c 1b3f 345e f83e 606e 2e3f 25bd 043f
000000b0: 916d ed3e 2725 693d a3d4 03bf 6fac a5bd
000000c0: 7f42 8abe 3b5d 19bf 07d2 743e 9b92 85be
000000d0: e8a3 61be 0fa3 0bbf e2fe be3d 8ae6 1bbf
000000e0: 25ff 01bf 4d37 b1be a13f bbbe c33b 26bf
000000f0: b1f2 2f3e 7dc2 c83e 2663 d03e f6bf 17be
00000100: 3f2a 3abe a34e 24bf 2fcc 16bf a1c0 51be
00000110: 2543 00be 1b2e cc3e 609c b53e 2094 dbbe
00000120: ad0a 02bf e07e 99be 4f5c 0fbe c7af afbe
00000130: 757f a8be 3d58 e23e b288 9dbe 732b 96bd
00000140: 4ed9 dbbe 3ebc 30bf fb27 713e 45c9 913e
00000150: 74a8 923e 5118 723e 3e4f 063d f653 a8be
00000160: 6d7a 2fbd 5418 703e 4753 c13e 2ca2 acbc
00000170: fe27 b53d 4993 b03b 3528 0dbf 27a1 213f
00000180: e2a4 183f 4506 5cbe b479 0f3f 529c 0d3f
00000190: c8c7 813e b4b0 17bf f736 6d3e bd47 0b3e
000001a0: a52b 6bbe d0eb 993e 86f3 223e b1f3 a53e
000001b0: 2ad9 8c3e 4022 ca3d 456c 1cbf 32be bcbe
000001c0: 0c17 163f befb 37be 8884 73be afef 16bf
000001d0: 3cac 8abe f381 d53e d406 cd3e b68d 56be
000001e0: 23de d3be 9824 bdbe 0282 eebe d364 0ebe
000001f0: f57b 093e d6f5 8a3e 6fdd 16bc 72c7 abbe

gnn1_pool.conv1.lin_root.bias f4 [64]
-0.41719425 0.38451678 0.48978668 0.30337334 -0.68877935 -0.2271203 0.27326813 0.25293422
-0.4369588 -0.65962845 0.35562935 0.43346342 0.22612032 0.28777325 0.07872155 0.61725944
0.48956072 0.3412309 0.39981553 -0.68529844 0.18135883 -0.13374421 0.55751395 0.46096855
-0.63535553 0.09328796 0.15646115 0.3918952 0.2076466 -0.22620863 0.30004954 -0.4885331
-0.6564064 0.43807098 -0.51007235 -0.24270125 -0.462218 0.38403514 -0.29930136 -0.47412187
0.13429086 -0.22438759 -0.62648666 -0.20246325 0.046470236 -0.39899838 0.30101594 -0.09150248
-0.1703328 0.40927464 0.46575525 0.48828527 -0.3686424 -0.041966055 -0.5699494 0.19934675
-0.092474654 0.38340944 0.11226798 -0.4110962 0.43079555 0.3836505 0.49679315 -0.19943808
00000000: 7c9a d5be 62df c43e 52c5 fa3e c053 9b3e
00000010: d853 30bf 3992 68be cde9 8b3e 9880 813e
00000020: 10b9 dfbe 69dd 28bf 0d15 b63e ebee dd3e
00000030: 168c 673e 0457 933e c438 a13d b704 1e3f
00000040: b4a7 fa3e d1b5 ae3e 9fb4 cc3e b86f 2fbf
00000050: 21b6 393e 3ef4 08be 3cb9 0e3f 1204 ec3e
00000060: a9a6 22bf c20d bf3d 5a37 203e 7da6 c83e
00000070: 4fa1 543e 3ca3 67be 18a0 993e 0321 fabe
00000080: 400a 28bf d74a e03e 1a94 02bf ad86 78be
00000090: d6a7 ecbe 41a0 c43e 073e 99be 1ac0 f2be
000000a0: 8b83 093e dcc5 65be 6e61 20bf 8752 4fbe
000000b0: 9357 3e3d 8449 ccbe c31e 9a3e a765 bbbd
000000c0: b96b 2ebe 728c d13e 7977 ee3e 8700 fa3e
000000d0: b2be bcbe 99e4 2bbd 34e8 11bf 8e21 4c3e
000000e0: 5a63 bdbd 3e4e c43e c1ec e53d 337b d2be
000000f0: 3c91 dc3e d76d c43e ac5b fe3e 7f39 4cbe

gnn1_pool.bn1.weight f4 [64]
0.49381307 0.63832 0.5973739 0.6356644 1.0 0.74317956 1.0522702 0.38003677
1.0 1.0 0.5492388 0.6755503 0.86282927 0.9444035 0.6380814 0.57706416
0.40771556 0.68945444 0.3277982 0.6837136 0.57676953 0.63143563 0.65109974 0.601533
1.0 0.61180323 1.0 0.6262439 0.96683997 1.0 0.52687013 0.5450078
1.0 0.7640955 1.0 0.88365173 1.0 0.59628314 0.9066901 1.0
0.6082244 0.6557316 1.0 1.0 0.4762224 1.0 0.7124372 1.0262817
0.6519781 0.6237036 0.35238552 0.5479469 1.0 0.46192616 1.0 1.0
0.58744305 0.41943866 0.694114 0.52565336 0.40013015 0.9812276 0.40299258 0.6026894
00000000: 11d5 fc3e f168 233f 7fed 183f e7ba 223f
00000010: 0000 803f 0441 3e3f cab0 863f 2e94 c23e
00000020: 0000 803f 0000 803f ea9a 0c3f ddf0 2c3f
00000030: 61e2 5c3f 6ec4 713f 4d59 233f 7aba 133f
00000040: 18c0 d03e 1680 303f 2ad5 a73e db07 2f3f
00000050: 2ba7 133f c4a5 213f 79ae 263f 11fe 193f
00000060: 0000 803f 239f 1c3f 0000 803f 8551 203f
00000070: d382 773f 0000 803f f6e0 063f a285 0b3f
00000080: 0000 803f c39b 433f 0000 803f 0037 623f
00000090: 0000 803f 03a6 183f d81c 683f 0000 803f
000000a0: 98b4 1b3f 07de 273f 0000 803f 0000 803f
000000b0: 6cd3 f33e 0000 803f 4962 363f 335d 833f
000000c0: 09e8 263f 0aab 1f3f e06b b43e 3f46 0c3f
000000d0: 0000 803f 9681 ec3e 0000 803f 0000 803f
000000e0: ab62 163f aac0 d63e 75b1 313f 3891 063f
000000f0: dcdd cc3e bb31 7b3f 0b55 ce3e da49 1a3f

gnn1_pool.bn1.bias f4 [64]
0.0046972735 -0.021216322 0.02816271 -0.07425284 0.006563503 0.041571755 0.28210828 0.15688951
-0.008502482 -0.006262866 0.1306963 -0.06774645 0.014145666 -0.023325931 -0.04673788 -0.1336008
-0.018335992 -0.15520367 0.052756894 -0.1280362 -0.17882414 0.018070746 0.15703586 0.103666835
0.007665489 0.07697954 -0.014411149 0.016950535 0.0084924875 -0.012811832 -0.061509985 0.18214379
0.010135568 0.20860147 -0.008590807 0.05413824 0.010007088 0.092424326 0.08348002 -0.009977974
0.019339615 -0.04364743 -0.009062845 -0.012022862 -0.11558888 0.0064777276 -0.1943971 -0.015715687
0.20453899 0.14801736 0.095050655 -0.05604197 -0.0035781208 -0.058318805 -0.0049762777 0.0053503443
0.22674672 0.4705758 0.045828678 -0.06499971 -0.119107805 0.12648664 -0.049579557 0.12669578
00000000: 96eb 993b dacd adbc 7cb5 e63c df11 98bd
00000010: a712 d73b 2547 2a3d 7f70 903e a5a7 203e
00000020: ff4d 0bbc ba38 cdbb 40d5 053e a7be 8abd
00000030: 39c3 673c 0616 bfbc 3870 3fbd a6ce 08be
00000040: 5d35 96bc b6ed 1ebe 9d17 583d ec1b 03be
00000050: ad1d 37be 1a09 943c 02ce 203e 474f d43d
00000060: c82e fb3b 73a7 9d3d bd1c 6cbc d9db 8a3c
00000070: 1324 0b3c b8e8 51bc e5f1 7bbd e783 3a3e
00000080: a70f 263c a09b 553e 75c0 0cbc 0fc0 5d3d
00000090: c5f4 233c f748 bd3d 93f7 aa3d a87a 23bc
000000a0: 1d6e 9e3c a6c7 32bd 547c 14bc 8afb 44bc
000000b0: ddb9 ecbd 1e43 d43b 0910 47be 2fbe 80bc
000000c0: ab72 513e dd91 173e eba9 c23d 448c 65bd
000000d0: e87e 6abb b3df 6ebd 0b10 a3bb f151 af3b
000000e0: 4b30 683e 50ef f03e dab6 3b3d 911e 85bd
000000f0: cbee f3bd b785 013e ef13 4bbd 8abc 013e

gnn1_pool.bn1.running_mean f4 [64]
0.06095829 0.6969465 0.24287689 0.35679626 0.0 0.07999061 0.019200515 0.2722472
0.0 0.0 0.75250554 0.3082176 0.07281548 0.13684064 0.6969126 0.2935284
0.91985977 0.23405239 0.059197143 0.15878865 1.0024854 0.5424597 0.74596727 0.049504116
0.0 0.3217642 0.0 0.4209401 6e-45 0.0 0.70059097 0.057668827
0.0 0.018888585 0.0 0.1477999 0.0 0.34508145 0.01160045 0.0
0.04252917 0.19836165 0.0 0.0 0.22894828 0.0 0.52134556 0.08249483
0.28772897 0.81574833 0.5581764 0.8385677 0.0 0.2723199 0.0 0.0
0.2785528 0.08105674 0.09668796 0.14564262 0.09582814 0.019859655 0.77334243 0.13357115
00000000: 66af 793d 166b 323f b8b4 783e 00ae b63e
00000010: 0000 0000 1ed2 a33d 664a 9d3c fc63 8b3e
00000020: 0000 0000 0000 0000 34a4 403f b3ce 9d3e
00000030: 4820 953d f41f 0c3e dd68 323f 5b49 963e
00000040: ee7b 6b3f 6eab 6f3e b478 723d 7e99 223e
00000050: 7151 803f a4de 0a3f b6f7 3e3f d4c4 4a3d
00000060: 0000 0000 47be a43e 0000 0000 7685 d73e
00000070: 0400 0000 0000 0000 ee59 333f 2636 6c3d
00000080: 0000 0000 3cbc 9a3c 0000 0000 db58 173e
00000090: 0000 0000 84ae b03e d00f 3e3c 0000 0000
000000a0: 1133 2e3d 511f 4b3e 0000 0000 0000 0000
000000b0: 6b71 6a3e 0000 0000 e776 053f 0df3 a83d
000000c0: 3651 933e e2d4 503f a6e4 0e3f 5fac 563f
000000d0: 0000 0000 846d 8b3e 0000 0000 0000 0000
000000e0: 799e 8e3e 1301 a63d 5604 c63d 5723 153e
000000f0: 8b41 c43d b7b0 a23c c5f9 453f e0c6 083e

gnn1_pool.bn1.running_var f4 [64]
0.015853755 0.12457784 0.032583695 0.14260158 6e-45 0.01993713 0.0041790777 0.02410596
6e-45 6e-45 0.05298736 0.059750218 0.039629214 0.0236076 0.062721364 0.04191396
0.08780128 0.054058153 0.035295896 0.06722908 0.10138962 0.053689186 0.11403272 0.01428316
6e-45 0.0937874 6e-45 0.060274936 6e-45 6e-45 0.08450697 0.014190398
6e-45 0.0040367506 6e-45 0.028948316 6e-45 0.054355178 0.0015224678 6e-45
0.007717824 0.080368795 6e-45 6e-45 0.08239719 6e-45 0.039596595 0.056415174
0.03169164 0.05622796 0.07188651 0.04586088 6e-45 0.06499923 6e-45 6e-45
0.059895165 0.005071732 0.035609055 0.05045007 0.018295236 0.0044620377 0.11935466 0.06791444
00000000: bcdf 813c ab22 ff3d 7b76 053d 2606 123e
00000010: 0400 0000 3153 a33c a5f0 883b dd79 c53c
00000020: 0400 0000 0400 0000 4609 593d a5bc 743d
00000030: 3e52 223d ba64 c13c 0f74 803d f9ad 2b3d
00000040: 28d1 b33d 156c 5d3d 6e92 103d 66af 893d
00000050: 5ca5 cf3d 31e9 5b3d fd89 e93d ea03 6a3c
00000060: 0400 0000 9c13 c03d 0400 0000 dae2 763d
00000070: 0400 0000 0400 0000 fe11 ad3d d87e 683c
00000080: 0400 0000 b846 843b 0400 0000 0525 ed3c
00000090: 0400 0000 89a3 5e3d 8b8d c73a 0400 0000
000000a0: cde5 fc3b 6598 a43d 0400 0000 0400 0000
000000b0: dcbf a83d 0400 0000 0a30 223d 9913 673d
000000c0: 18cf 013d 4a4f 663d 3c39 933d 9ed8 3b3d
000000d0: 0400 0000 511e 853d 0400 0000 0400 0000
000000e0: a254 753d c630 a63b cdda 113d bca4 4e3d
000000f0: e4df 953c 4936 923b 3770 f43d ba16 8b3d

gnn1_pool.conv2.lin_rel.weight f4 [64, 64]
-0.13800538 -0.28750125 -0.065770365 -0.19819422 -0.015842082 -0.1506494 0.14850546 0.24198803
0.076094665 -0.2384993 0.5178178 -0.55991256 -0.028520733 0.04328379 -0.27889246 -0.24873151
-0.016691955 -0.22961222 0.15260299 -0.41167665 -0.6214861 0.069595546 0.084179185 -0.081351444
-0.10303702 -0.038446926 -0.10564218 0.033890393 -0.14625308 -0.04839306 -0.16934125 -0.14403704
-0.018649017 0.15097423 -0.108267486 -0.13133337 0.27708068 -0.19003862 0.116041616 -0.023132257
-0.16827957 -0.40570772 -0.14821492 0.10285516 -0.22047976 0.07787322 -0.6927332 -0.13318647
0.059356995 0.40329838 -0.006409907 -0.2553881 0.071172036 -0.28554252 0.06601757 0.224668
0.224059 -0.023952072 -0.049297445 -0.3025866 -0.08482392 0.10946735 -0.08803126 -0.2374489
0.19014123 -0.07007437 -0.33105868 0.021655405 -0.05491761 -0.046709716 0.19857576 -0.04070916
-0.0127014555 -0.12327043 0.2596877 -0.3908255 0.2128362 0.34105015 -0.31576735 -0.052336253
0.06570524 -0.06382218 0.018301327 -0.27627158 -0.30554837 0.03130826 0.04576192 -0.034094945
-0.017902637 -0.37104422 -0.06940306 -0.26676932 0.044836864 -0.1170199 -0.21647213 0.057380214
-0.0849812 0.16934538 -0.06712696 -0.35086235 0.07180541 -0.20564075 0.30732623 0.1312107
0.037818093 -0.17332473 0.11907523 0.002319259 -0.1349858 -0.016879106 -0.3948767 0.21459575
0.13257873 0.16776219 -0.0730113 -0.2117545 0.08879475 -0.102222964 0.014857148 -0.0026808106
0.08654764 0.050433595 -0.114789784 -0.036870398 -0.06421875 0.29746908 -0.1303104 0.12638257
0.016790029 -0.35723382 0.07909556 -0.17205001 -0.05886609 -0.4727918 -0.19992362 0.12113787
-0.006727643 -4.5104098e-05 0.0027517981 -0.17404975 0.09021506 0.2903635 0.0045567895 -0.16150774
0.2550777 -0.032589227 -0.16884476 0.103937425 0.080326654 -0.27127066 0.023120768 -0.29279172
-0.018994149 -0.010036824 -0.010641377 -0.060979445 0.12484553 -0.08453925 -0.024805946 -0.14414637
0.08661494 -0.2221561 -0.004355292 -0.21068199 0.09131276 -0.057782724 -0.03956438 -0.017796144
0.018526537 -0.2459748 -0.084193684 0.025414709 0.0024591472 -0.0536364 -0.058223017 0.44230583
0.09486655 0.0032147744 -0.077491485 -0.1252498 -0.030166533 0.032053523 0.0063268463 0.004465163
0.21973576 0.13683546 -0.5486796 -0.2701419 -0.051354714 -0.251404 0.1457614 -0.24370873
0.19566283 -0.38041076 0.104014814 -0.2858994 -0.012981893 -0.34623376 0.17665674 0.055721287
-0.050047547 -0.09914314 0.19847755 -0.12630619 0.11348108 0.37694025 -0.08138202 -0.08369685
0.27412587 -0.06841705 0.07605818 -0.12790114 -0.2011039 -0.048547175 0.17286767 -0.11324067
-0.010803511 0.00930809 -0.11280288 -0.12813622 -0.03587717 -0.097386375 -0.1453768 0.11957551
0.053368844 0.0025316922 -0.14564106 -0.37363905 -0.014087106 -0.13227622 0.22355834 -0.058623645
0.051057108 -0.2146017 -0.07170696 0.05552704 -0.19933553 0.10149172 -0.27065173 0.18691751
0.13509238 0.09841272 0.061526623 -0.22027633 -0.06753118 -0.12686098 -0.050114438 -0.025224037
-0.004040024 -0.010394444 -0.34314728 -0.068062715 0.02102746 0.19122234 -0.0916597 0.071498804
00000000: 4851 0dbe 5d33 93be 9db2 86bd 6df3 4abe
00000010: 41c7 81bc d643 1abe d111 183e b6cb 773e
00000020: 85d7 9b3d 2939 74be b58f 043f 6e56 0fbf
00000030: 50a4 e9bc 584a 313d feca 8ebe 79b3 7ebe
00000040: 91bd 88bc 771f 6bbe f543 1c3e 48c7 d2be
00000050: b719 1fbf 1c88 8e3d 2366 ac3d 969b a6bd
00000060: 1305 d3bd 867a 1dbd ed5a d8bd a7d0 0a3d
00000070: 5ec3 15be cd37 46bd cb67 2dbe 727e 13be
00000080: d3c5 98bc fd98 1a3e 58bb ddbd 417c 06be
00000090: 85dd 8d3e 7c99 42be 3aa7 ed3d dc7f bdbc
000000a0: 7b51 2cbe ecb8 cfbe a7c5 17be baa5 d23d
000000b0: 72c5 61be ff7b 9f3d f756 31bf 0962 08be
000000c0: 5220 733d 207d ce3e 320a d2bb 3bc2 82be
000000d0: a5c2 913d a132 92be 3834 873d 5e0f 663e
000000e0: b96f 653e 2337 c4bc 1eec 49bd a1ec 9abe
000000f0: 2ab8 adbd 6b30 e03d bc49 b4bd ce25 73be
00000100: 62b4 423e 2783 8fbd 8680 a9be ad66 b13c
00000110: 4af1 60bd b052 3fbd 7257 4b3e a6be 26bd
00000120: c419 50bc 3575 fcbd c9f5 843e 481a c8be
00000130: bcf1 593e 209e ae3e 42ac a1be 8a5e 56bd
00000140: 7890 863d 34b5 82bd aaec 953c 7873 8dbe
00000150: d670 9cbe 173d 003d da70 3b3d 24a7 0bbd
00000160: 8da8 92bc 82f9 bdbe 3123 8ebd fd95 88be
00000170: dca6 373d 21a8 efbd dfaa 5dbe 8407 6b3d
00000180: a00a aebd e068 2d3e dc79 89bd 3ba4 b3be
00000190: b70e 933d 7d93 52be dd59 9d3e 195c 063e
000001a0: 25e7 1a3d 0a7c 31be b7dd f33d b6fe 173b
000001b0: b839 0abe 0d46 8abc 472d cabe fdbe 5b3e
000001c0: b8c2 073e dac9 2b3e f386 95bd 2cd6 58be
000001d0: 06da b53d 465a d1bd 656b 733c 8ab0 2fbb
000001e0: e43f b13d 7593 4e3d e816 ebbd 6a05 17bd
000001f0: 1f85 83bd de4d 983e 1770 05be 6f6a 013e
00000200: 3e8b 893c 5ae7 b6be dafc a13d e12d 30be
00000210: 921d 71bd c411 f2be c7b8 4cbe 2217 f83d
00000220: 8f73 dcbb 282e 3db8 8357 343b 193a 32be
00000230: acc2 b83d 86aa 943e 1f51 953b 4962 25be
00000240: 8b99 823e 487c 05bd a4e5 2cbe 25dd d43d
00000250: 4d82 a43d fde3 8abe c467 bd3c cce8 95be
00000260: 9e99 9bbc 7e71 24bc 2c59 2ebc 95c5 79bd
00000270: 03af ff3d ea22 adbd d735 cbbc 1b9b 13be
00000280: 2c63 b13d e47c 63be d6b6 8ebb 05bd 57be
00000290: 2f02 bb3d 94ad 6cbd 420e 22bd 38c9 91bc
000002a0: f7c4 973c d1e0 7bbe bd6d acbd 8232 d03c
000002b0: a529 213b d7b1 5bbd 427b 6ebd e975 e23e
000002c0: 6549 c23d f7ae 523b dbb3 9ebd 7c41 00be
000002d0: ce1f f7bc 8e4a 033d 6f51 cf3b 8150 923b
000002e0: 6902 613e 981e 0c3e 4476 0cbf 0a50 8abe
000002f0: 5259 52bd 06b8 80be 7a42 153e c88e 79be
00000300: d65b 483e 33c5 c2be b805 d53d 6861 92be
00000310: 01b2 54bc 8d45 b1be 81e5 343e 013c 643d
00000320: a8fe 4cbd 8f0b cbbd b33d 4b3e 6956 01be
00000330: c568 e83d 50fe c03e 9eab a6bd 4169 abbd
00000340: 3a5a 8c3e 3d1e 8cbd 64c4 9b3d 84f8 02be
00000350: 2eee 4dbe 67d9 46bd 3904 313e b9ea e7bd
00000360: 3601 31bc f680 183c 3205 e7bd 2436 03be
00000370: f0f3 12bd 8272 c7bd a8dd 14be 01e4 f43d
00000380: 4a99 5a3d bfea 253b ee22 15be 9e4d bfbe
00000390: 9bcd 66bc 6b73 07be 7aec 643e 591f 70bd
000003a0: 4221 513d 8cc0 5bbe 19db 92bd 5270 633d
000003b0: 9d1e 4cbe e4da cf3d dd92 8abe 4e67 3f3e
000003c0: a855 0a3e 9c8c c93d 5703 7c3d 1e90 61be
000003d0: ca4d 8abd d8e7 01be cc44 4dbd a4a2 cebc
000003e0: 2d62 84bb 754d 2abc 00b1 afbe 7764 8bbd
000003f0: c841 ac3c cacf 433e 15b8 bbbd f76d 923d

gnn1_pool.conv2.lin_root.weight f4 [64, 64]
-0.076786526 0.09983647 0.083990924 0.07346881 0.05936464 0.075457625 -0.17051607 -0.0515812
0.04385489 -0.1485761 -0.038578857 0.055768847 0.01295912 0.04808427 -0.094438806 -0.062422168
-0.0849981 -0.03498215 -0.04292893 0.023969168 0.021276964 0.07439137 -0.06102904 0.12048171
-0.12281712 0.00029839 -0.1129151 0.17541601 -0.18749122 0.08089019 -0.14563064 -0.1760115
-0.04387502 -0.069255754 -0.037362162 0.0004499675 0.015727412 -0.030033192 0.05550977 -0.0119992625
-0.073695146 -0.10741561 -0.008901638 0.012404847 -0.11651023 0.13713156 -0.09490294 0.031734005
-0.029170932 -0.11229925 0.07532917 0.009012817 -0.022900235 0.09932646 0.11878123 0.14641619
0.10576366 0.043069247 0.18946661 -0.12684685 -0.108784266 0.057249937 0.06425227 -0.1563184
0.06805235 -0.17662181 0.07105218 -0.21380918 0.05407176 -0.039212197 0.07214855 -0.009024089
-0.038269866 0.1786449 -0.05121032 -0.021637807 0.08009282 0.09493241 0.13657661 -0.13691604
0.20418482 0.1710309 -0.019917898 -0.035814017 -0.025569621 -0.13359666 0.02015363 -0.0778016
0.07436201 0.1193162 0.0749886 0.10408396 0.03457403 -0.042952858 -0.024387889 0.08574317
-0.0119450595 -0.044089697 -0.0786838 -0.017822718 -0.040678762 -0.039180353 0.08434434 0.011723494
0.100167036 -0.006270767 0.05770222 0.03584094 -0.08130808 -0.19921973 -0.113411866 -0.043387152
-0.05728281 0.055738002 -0.11977768 -0.20938738 0.0010102573 0.0978848 -0.10495501 0.0059836046
-0.035738073 -0.028782768 -0.022908304 -0.11281485 0.11808252 0.08059453 -0.021940857 -0.0716039
-0.07620016 0.09296403 -0.015999418 -0.07860956 0.04343552 -0.21000592 -0.09205371 -0.07370233
0.13715155 -0.081534564 -0.044278603 0.0620145 -0.14948036 0.09775253 0.11233009 0.035483863
-0.11812156 -0.052471694 0.030416405 0.0636319 0.11756381 0.10536683 0.120067656 -0.018190779
0.06446517 0.055893257 0.07724873 -0.017412873 -0.1524698 0.027869513 0.06675346 -0.16202372
-0.0023790244 0.04157128 -0.018954081 0.015938846 -0.059137646 -0.077696346 0.112273484 -0.0030133824
-0.13406754 -0.017432505 0.13788615 0.12128257 0.0003217003 0.043025754 -0.081227235 -0.062799975
0.024517236 0.0015435999 0.035253383 -0.10793679 0.088192895 0.07849225 0.058554135 0.017063316
-0.024761597 -0.05579549 0.041133024 -0.06798052 0.049344257 -0.025312975 -0.042882983 -0.12454434
-0.097599424 -0.12872046 -0.013260471 -0.043780547 0.015191771 -0.07442683 -0.12721866 -0.047953032
-0.004433644 0.071789846 -0.016030606 -0.06433298 0.041250985 0.14977814 0.077285156 0.088145204
-0.037654247 0.1264344 -0.038290292 0.05962134 -0.05649934 -0.14583433 -0.08863853 -0.042230602
0.008358159 0.037344314 -0.017256534 -0.07902642 0.06718834 0.04308605 0.004175976 -0.0013324204
0.06020366 -0.01827478 0.08884617 -0.24480416 0.00040831565 -0.09477803 0.011157964 -0.1707203
-0.15958597 0.0048532602 0.050325904 0.06658521 0.17462903 -0.06440436 -0.095361724 0.2170946
-0.059207775 -0.08793451 -0.14240496 -0.091736525 -0.042617846 0.0846999 0.012123245 -0.020793209
0.026162645 -0.041369915 -0.18762828 -0.2485232 0.045617577 -0.17324904 -0.029345354 -0.041006517
00000000: 4142 9dbd 1077 cc3d 6f03 ac3d d176 963d
00000010: 5628 733d 8789 9a3d c49b 2ebe cf46 53bd
00000020: 2fa1 333d 5524 18be dd04 1ebd e06d 643d
00000030: 7d52 543c 03f4 443d 2269 c1bd 63ae 7fbd
00000040: 7c13 aebd 7149 0fbd 3fd6 2fbd fd5a c43c
00000050: 074d ae3c 815a 983d 96f9 79bd 1dbf f63d
00000060: 8b87 fbbd 3a71 9c39 0840 e7bd 41a0 333e
00000070: b3fd 3fbe c2a9 a53d 3320 15be 5c3c 34be
00000080: 4bb6 33bd f6d5 8dbd 1109 19bd 9ee9 eb39
00000090: c6d6 803c 2b08 f6bc 365e 633d 8e98 44bc
000000a0: 7bed 96bd b7fc dbbd 2dd8 11bc b33d 4b3c
000000b0: ea9c eebd 376c 0c3e 795c c2bd 84fb 013d
000000c0: e1f7 eebc 26fd e5bd 2e46 9a3d 7faa 133c
000000d0: 4699 bbbc ac6b cb3d 9343 f33d 20ee 153e
000000e0: 9e9a d83d 6169 303d 8903 423e 24e4 01be
000000f0: 49ca debd e97e 6a3d b296 833d ee11 20be
00000100: 085f 8b3d 59dc 34be ce83 913d cbf0 5abe
00000110: 5a7a 5d3d f89c 20bd 9ec2 933d c6d9 13bc
00000120: ddc0 1cbd b0ee 363e eac1 51bd c541 b1bc
00000130: b407 a43d ec6b c23d bdda 0b3e b833 0cbe
00000140: d315 513e b922 2f3e dc2a a3bc b8b1 12bd
00000150: 6277 d1bc 90cd 08be 3a19 a53c 7256 9fbd
00000160: 1c4b 983d 0d5c f43d a093 993d f929 d53d
00000170: 809d 0d3d 56ef 2fbd 1cc9 c7bc 1d9a af3d
00000180: 36b5 43bc 6697 34bd f924 a1bd f300 92bc
00000190: c69e 26bd 947b 20bd babc ac3d e613 403c
000001a0: 6024 cd3d 027b cdbb 2a59 6c3d f3cd 123d
000001b0: da84 a6bd 4200 4cbe 7b44 e8bd bab6 31bd
000001c0: 61a1 6abd 884d 643d 004e f5bd a569 56be
000001d0: 9c6a 843a d377 c83d a7f2 d6bd 1d12 c43b
000001e0: 1662 12bd d7c9 ebbc 32aa bbbc 790b e7bd
000001f0: 40d5 f13d bf0e a53d 50bd b3bc 11a5 92bd
00000200: d40e 9cbd ed63 be3d 3611 83bc 0dfe a0bd
00000210: 72e9 313d cb0b 57be a886 bcbd 3ff1 96bd
00000220: 7571 0c3e 98fb a6bd 7b5d 35bd eb02 7e3d
00000230: 6111 19be 7a32 c83d 510d e63d 8757 113d
00000240: b7e9 f1bd 8fec 56bd d32b f93c 7151 823d
00000250: 4bc5 f03d 91ca d73d 08e6 f53d d404 95bc
00000260: 5106 843d 54f0 643d 9534 9e3d 71a5 8ebc
00000270: 0b21 1cbe 9b4e e43c 0ab6 883d 8ce9 25be
00000280: 68e9 1bbb a646 2a3d 9745 9bbc 2f92 823c
00000290: 513a 72bd 431f 9fbd a4ef e53d 2b7c 45bb
000002a0: 0049 09be 9dce 8ebc 0732 0d3e ff62 f83d
000002b0: e2a9 a839 c63b 303d 775a a6bd 469d 80bd
000002c0: 5fd8 c83c 9e52 ca3a da65 103d f70d ddbd
000002d0: 7a9e b43d 8bc0 a03d 76d6 6f3d 5ec8 8b3c
000002e0: d5d8 cabc d089 64bd 1a7b 283d 5f39 8bbd
000002f0: 341d 4a3d 285d cfbc 11a6 2fbd 1a11 ffbd
00000300: 35e2 c7bd 4ccf 03be 7242 59bc 3b53 33bd
00000310: e8e6 783c 186d 98bd 9c45 02be 666a 44bd
00000320: 1a48 91bb 8e06 933d 9e52 83bc 02c1 83bd
00000330: cbf6 283d 715f 193e ae47 9e3d 7985 b43d
00000340: 573b 1abd 0578 013e 48d6 1cbd 8235 743d
00000350: da6b 67bd 9855 15be 1e88 b5bd fff9 2cbd
00000360: a9f0 083c 5af6 183d 935d 8dbc 9bd8 a1bd
00000370: 0a9a 893d ff7a 303d a0d6 883b 9ca4 aeba
00000380: 1d98 763d feb4 95bc fbf4 b53d f1ad 7abe
00000390: 3313 d639 fc1a c2bd e5cf 363c 4dd1 2ebe
000003a0: 816a 23be 1908 9f3b 8922 4e3d d45d 883d
000003b0: f4d1 323e 6fe6 83bd 024d c3bd 0c4e 5e3e
000003c0: da83 72bd 0217 b4bd 9bd2 11be 5ce0 bbbd
000003d0: 0d90 2ebd 2477 ad3d 93a0 463c 8556 aabc
000003e0: 0b53 d63c 8073 29bd a121 40be de7c 7ebe
000003f0: 7fd9 3a3d 3268 31be ab65 f0bc 73f6 27bd

gnn1_pool.conv2.lin_root.bias f4 [64]
-0.31006533 -0.2703257 -0.25316128 -0.20694168 -0.116109096 -0.123403125 0.040734608 -2.1962565e-05
-0.006206591 -0.06300117 -0.2643156 -0.28341666 -0.2029504 -0.3611365 -0.010579242 -0.38634938
0.026836596 -0.06727874 -0.19701976 -0.034381077 0.042099718 0.17795788 -0.021043075 -0.42688173
-0.071315125 -0.074688606 -0.11849351 -0.23916054 -0.14777407 0.31292573 -0.22008352 0.32754353
0.020686038 -0.2473526 -0.15329729 -0.022827791 -0.43009174 -0.0074019446 -0.29797587 -0.16849916
-0.14075609 0.32776055 -0.13940538 -0.15045613 -0.4062645 -0.115471154 -0.055872586 -0.17365734
-0.22356337 0.25618187 -0.25922313 -0.031614456 -0.16389827 -0.08421091 -0.61300445 -0.030703774
-0.09683358 -0.23395549 -0.13755473 0.031642098 -0.022546975 -0.1332676 -0.11962675 0.05735708
00000000: e2c0 9ebe 2168 8abe 5b9e 81be 85e8 53be
00000010: 9bca edbd c7ba fcbd 55d9 263d 403c b8b7
00000020: a960 cbbb c206 81bd 6054 87be fd1b 91be
00000030: 3bd2 4fbe e2e6 b8be 8f54 2dbc 96cf c5be
00000040: 6cd8 db3c 70c9 89bd 8cbf 49be 2cd3 0cbd
00000050: c170 2c3d 973a 363e 8762 acbc 3e90 dabe
00000060: aa0d 92bd 57f6 98bd baac f2bd 80e6 74be
00000070: 1652 17be cd37 a03e 935d 61be c9b3 a73e
00000080: c475 a93c 004a 7dbe f7f9 1cbe 5901 bbbc
00000090: fc34 dcbe 038c f2bb 4b90 98be 0b8b 2cbe
000000a0: 5d22 10be 3bd0 a73e 49c0 0ebe 2c11 1abe
000000b0: e701 d0be 247c ecbd a7da 64bd 3bd3 31be
000000c0: cced 64be 452a 833e e5b8 84be 297e 01bd
000000d0: f3d4 27be c576 acbd dced 1cbf 7b86 fbbc
000000e0: af50 c6bd 0792 6fbe 26db 0cbe 259b 013d
000000f0: 6fb4 b8bc 4d77 08be dffe f4bd 42ef 6a3d

gnn1_pool.bn2.weight f4 [64]
1.030026 1.0163289 0.88381916 1.107989 0.7000514 0.5788857 0.6288452 0.4435162
0.4924288 0.4778913 0.88419765 0.53473216 0.37251616 1.1954209 0.90670866 1.112203
0.4715581 0.67881304 0.6183902 0.9224585 0.64199907 0.35151196 0.32554257 0.8570022
0.8932242 0.92114764 0.569081 0.4517626 0.84795266 0.50809443 0.45355132 0.2625918
0.4504198 0.79498094 0.8020599 0.6885828 0.90752167 0.44140822 0.7640443 0.44940463
0.75043446 0.44584 0.60473496 0.8489886 0.57079345 1.0566005 0.9486151 1.0844156
0.91491455 0.6253326 0.5844343 0.8143924 0.45394254 0.91814464 1.0766578 0.74202365
0.6931175 0.7984983 0.63838345 0.49556708 0.76187515 0.49548048 0.77182496 0.62487286
00000000: e4d7 833f 1117 823f f941 623f 95d2 8d3f
00000010: 9236 333f da31 143f 00fc 203f 8e14 e33e
00000020: a11f fc3e 2bae f43e c75a 623f 35e4 083f
00000030: 70ba be3e 8d03 993f 0f1e 683f ab5c 8e3f
00000040: 1070 f13e b1c6 2d3f d24e 1e3f 3e26 6c3f
00000050: 0d5a 243f 60f9 b33e 84ad a63e 7f64 5b3f
00000060: 57aa 643f 55d0 6b3f 4baf 113f 6d4d e73e
00000070: 6d13 593f 7a12 023f e137 e83e 6f72 863e
00000080: 6d9d e63e df83 4b3f cc53 4d3f f646 303f
00000090: 5753 683f 4200 e23e 6898 433f 5d18 e63e
000000a0: 791c 403f 2445 e43e e9cf 1a3f 5157 593f
000000b0: 851f 123f af3e 873f 70d8 723f 21ce 8a3f
000000c0: d737 6a3f cc15 203f 7c9d 153f 057c 503f
000000d0: 286b e83e 870b 6b3f eccf 893f 43f5 3d3f
000000e0: 2670 313f 626a 4c3f 196d 233f f8ba fd3e
000000f0: 400a 433f 9eaf fd3e 5296 453f abf7 1f3f

gnn1_pool.bn2.bias f4 [64]
0.21690618 0.005133612 0.11838168 0.044325516 0.100460395 0.10504313 0.011201727 0.0680364
0.19596985 0.255102 0.12738766 0.10063595 0.104865566 0.09504599 0.16770484 0.20300695
-0.09733379 -0.1246011 0.04301448 -0.12107234 0.17875977 0.03659047 0.1271359 0.2511798
0.11864915 0.31466138 0.17854027 -0.04255498 -0.24343492 -0.02010558 0.1321619 0.061110757
0.13589036 0.23616126 0.25828445 0.15626173 0.10840208 0.036072955 0.16688462 0.15927996
0.16120301 0.2421088 0.04251663 0.14956094 0.1720018 0.13897945 0.05429197 0.04855033
0.07300408 0.0012809015 0.1940251 -0.045703594 0.15310986 -0.013101749 0.19690797 0.15756388
-0.026910158 0.08064199 0.11448026 0.014276807 0.30093843 0.251817 0.23890983 0.19547583
00000000: a71c 5e3e dc37 a83b 1872 f23d ac8e 353d
00000010: 2ebe cd3d da20 d73d 7387 373c ab56 8b3d
00000020: 52ac 483e bb9c 823e e971 023e 391a ce3d
00000030: c2c3 d63d 79a7 c23d d1ba 2b3e 0ee1 4f3e
00000040: f056 c7bd dd2e ffbd f42f 303d c6f4 f7bd
00000050: cd0c 373e e3df 153d ea2f 023e a49a 803e
00000060: 53fe f23d 4c1b a13e 43d3 363e 214e 2ebd
00000070: 0147 79be 75b4 a4bc 7355 073e 464f 7a3d
00000080: d826 0b3e 42d4 713e dc3d 843e 1303 203e
00000090: e901 de3d 3cc1 133d cde3 2a3e 491a 233e
000000a0: 6712 253e 5feb 773e eb25 2e3d 8126 193e
000000b0: 3d21 303e a150 0e3e 4261 5e3d b6dc 463d
000000c0: 2a83 953d ece3 a73a 84ae 463e b133 3bbd
000000d0: d5c8 1c3e b8a8 56bc 3ea2 493e 6d58 213e
000000e0: b172 dcbc a127 a53d a074 ea3d 45e9 693c
000000f0: 9a14 9a3e 28ee 803e c7a4 743e d12a 483e

gnn1_pool.bn2.running_mean f4 [64]
0.5833263 0.63933015 0.23633005 0.3858554 0.49029693 0.6387995 0.49988335 0.58282673
0.8729956 0.44720542 0.42576775 0.36290157 0.7130247 0.26345384 0.68808305 0.27692127
0.86629534 0.57989013 0.48782876 0.43347263 0.5854024 1.0519948 0.77165246 0.3634626
0.5806167 0.65527356 0.7059711 0.39637166 0.36669168 1.2938895 0.5652825 1.2819657
0.5137167 0.32585734 0.7100395 0.6061561 0.17116202 0.5957124 0.5078871 0.543581
0.78373235 1.1296828 0.53181714 0.5983757 0.37607306 0.5868545 0.62111753 0.61808467
0.58301353 0.85062045 0.37092197 0.57975715 0.7069668 0.41686377 0.17483446 0.589859
0.702441 0.68189144 0.5042602 0.66567576 0.80276763 0.41597745 0.8296994 0.6897497
00000000: df54 153f 24ab 233f 8100 723e d78e c53e
00000010: 3308 fb3e 5d88 233f b6f0 ff3e 2234 153f
00000020: a47c 5f3f 1cf8 e43e 3bfe d93e 3cce b93e
00000030: c988 363f 6ce3 863e 3626 303f a0c8 8d3e
00000040: 88c5 5d3f ae73 143f b1c4 f93e 20f0 dd3e
00000050: efdc 153f c4a7 863f 048b 453f c517 ba3e
00000060: 4ca3 143f 02c0 273f 86ba 343f 3af1 ca3e
00000070: 03bf bb3e 2c9e a53f 5bb6 103f 7417 a43f
00000080: f082 033f c6d6 a63e 26c5 353f 0c2d 1b3f
00000090: 1945 2f3e 9c80 183f e404 023f 2028 0b3f
000000a0: afa2 483f 7299 903f 2b25 083f 262f 193f
000000b0: a68c c03e 193c 163f 8f01 1f3f cc3a 1e3f
000000c0: 6040 153f 43c2 593f 7ce9 bd3e f76a 143f
000000d0: c7fb 343f 2b6f d53e ce07 333e 0001 173f
000000e0: 2cd3 333f 7090 2e3f 3217 013f ba69 2a3f
000000f0: 2e82 4d3f fffa d43e 2e67 543f 7093 303f

gnn1_pool.bn2.running_var f4 [64]
1.708256 3.947148 0.5881591 1.349396 0.73260015 3.4693494 1.4151436 2.569071
6.1113453 0.1543934 1.763311 1.4195954 4.7148 0.9389989 3.6355176 1.0053203
2.8509479 2.6096685 2.0694587 0.7807191 0.26462498 6.5992165 4.617663 1.0482457
2.5675554 1.9263343 5.3205614 1.2672746 1.0775559 2.2165906 3.970603 7.0762815
0.20373769 1.2022992 4.382614 2.164702 0.4300326 3.1276188 2.3733225 2.3362973
4.220729 0.79902613 1.939708 2.7070234 1.4613154 1.5563148 1.6715095 1.3706125
3.1597323 3.5977137 1.146849 1.9791294 4.4959955 1.5732504 0.48937544 3.5876665
2.8113315 1.9223396 2.6923993 2.0876753 3.8627589 0.13357793 5.3261986 4.2888513
00000000: 22a8 da3f 139e 7c40 9891 163f 02b9 ac3f
00000010: af8b 3b3f d209 5e40 6d23 b53f a96b 2440
00000020: 2490 c340 4e19 1e3e 2db4 e13f 4db5 b53f
00000030: a4df 9640 3b62 703f 52ac 6840 56ae 803f
00000040: ee75 3640 cf04 2740 0372 0440 35dd 473f
00000050: ed7c 873e c82c d340 e5c3 9340 ea2c 863f
00000060: d452 2440 1f92 f63f 0a42 aa40 0e36 a23f
00000070: 5aed 893f 9fdc 0d40 5c1e 7e40 e670 e240
00000080: 9da0 503e f1e4 993f 603e 8c40 7a8a 0a40
00000090: 3c2d dc3e e82a 4840 84e4 1740 e585 1540
000000a0: 3610 8740 fa8c 4c3f 5a48 f83f df3f 2d40
000000b0: 620c bb3f 5335 c73f 06f4 d53f 3b70 af3f
000000c0: 0e39 4a40 f140 6640 f3cb 923f 1d54 fd3f
000000d0: 32df 8f40 4560 c93f 6b8f fa3e 549c 6540
000000e0: dbec 3340 390f f63f 4550 2c40 799c 0540
000000f0: 7137 7740 a7c8 083e 3870 aa40 453e 8940

gnn1_pool.conv3.lin_rel.weight f4 [52, 64]
0.03733834 0.0093300855 0.1423384 -0.21848094 -0.097528204 0.068207115 -0.2395486 -0.023597144
-0.024206154 0.0329881 -0.12354763 0.031732425 0.008164456 -0.14224881 -0.14030251 -0.0044118194
0.02185478 -0.44512475 0.02678337 -0.11574028 0.057166353 -0.21871606 0.077333845 0.11572802
0.16580519 0.01724782 -0.12231124 0.13164207 -0.115168154 0.1666547 0.030123834 -0.09767601
0.1462777 0.063204035 -0.11161876 0.0016338548 -0.22346078 0.15883854 0.09518007 0.034707535
0.19022687 0.12534063 0.03261612 -0.20981118 -0.0479276 -0.05428068 -0.00084178906 -0.025555946
-0.054632265 -0.122045696 0.04343694 -0.16493912 0.02327829 0.0137729915 0.06136328 -0.06646833
0.03200759 0.17367233 0.12622285 -0.2180224 -0.20319134 0.06738987 -0.07166975 0.05575673
-0.07391359 -0.04753007 -0.0030604359 -0.22908603 0.19803454 0.07116984 -0.16096832 -0.11718329
-0.09791882 -0.22795478 0.08919103 0.03689367 -0.2669841 -0.18053247 -0.23271167 0.066368595
0.039029416 0.08971057 -0.129569 0.0335431 0.012337333 -0.033880383 -0.03822962 -0.022377271
-0.17566597 -0.15804076 0.03928329 -0.03252295 0.010070271 0.02152389 0.0038379887 0.09893435
-0.1040715 0.10412187 0.13237108 -0.16918494 -0.22441658 0.1777332 -0.06082212 -0.105585225
-0.13214386 -0.18888026 0.011889965 -0.27520874 -0.23769943 0.0050779427 -0.07254951 0.04304811
-0.21508586 0.12424001 -0.016520012 0.180317 -0.03565556 0.062815644 0.06122662 -0.036351483
0.13330427 -0.037617136 -0.0015836703 -0.10878245 -0.0074937777 0.028560823 -0.10066984 0.010381773
-0.20149533 -0.075156294 0.20293267 0.083756804 -0.4239968 0.08591069 -0.20384972 -0.044444297
-0.015178436 0.060239658 -0.10129443 0.190433 0.03990744 -0.0029364012 -0.19617265 -0.10659613
-0.2906403 -0.412933 0.030343594 -0.5527274 0.015623063 -0.16326691 0.091284886 0.06841574
0.22861385 -0.2618008 0.053133804 0.2582327 0.1464792 -0.014893443 0.07935315 -0.001488245
0.057527747 -0.029376429 0.028982421 -0.12289337 -0.1346733 0.20001926 0.1965069 0.039011974
0.065859735 0.101893455 0.027329419 -0.087865956 0.019281939 -0.20433119 0.23841032 0.13978967
-0.37797487 -0.050861824 0.19606689 -0.0844527 0.1091386 0.01427064 0.10031275 -0.30546302
-0.029958751 0.02313915 0.054044336 -0.14120139 -0.19631614 0.17094885 -0.06706687 -0.17770647
0.16634725 -0.061210956 -0.0058792857 0.01426985 -0.32066932 0.03723279 0.20391196 0.21657456
0.025180457 0.014142058 -0.066560596 -0.024501111 -0.046296053 0.011427779 0.041943252 -0.1390677
0.27423668 -0.217854 0.070175484 -0.5586336 -0.06991347 -0.038964946 -0.16776034 0.10531578
-0.22649635 -0.05152781 -0.085102126 -0.0970413 0.10659201 -0.13009028 -0.13073134 0.10092513
0.0012522846 -0.0006636035 -0.11657322 0.109228656 -0.07931958 0.19457816 -0.1481137 -0.022583166
-0.09502586 -0.05215576 0.04035682 0.27397338 0.019646395 0.0362591 -0.01793959 -0.04624752
-0.5006659 0.035815928 -0.025432616 0.031145884 -0.1797588 -0.34005377 -0.13480476 -0.19299357
0.01227681 0.020549888 0.012001453 0.16980782 -0.07546803 0.070364505 -0.18637647 -0.14098173
00000000: 16f0 183d 37dd 183c 28c1 113e 78b9 5fbe
00000010: debc c7bd 2cb0 8b3d 3a4c 75be cc4e c1bc
00000020: fc4b c6bc 881e 073d 8a06 fdbd dcf9 013d
00000030: 36c4 053c aca9 11be 76ab 0fbe 0691 90bb
00000040: cc08 b33c 64e7 e3be cc68 db3c 3d09 edbd
00000050: 4427 6a3d 1af7 5fbe 3561 9e3d d002 ed3d
00000060: d6c8 293e 4d4b 8d3c 517e fabd 2ecd 063e
00000070: 48dd ebbd 88a7 2a3e 42c6 f63c 5c0a c8bd
00000080: d2c9 153e 1e71 813d 6098 e4bd 1227 d63a
00000090: e7d2 64be 92a6 223e c5ed c23d 7d29 0e3d
000000a0: d5ca 423e 4b59 003e 7b98 053d bed8 56be
000000b0: bb4f 44bd 6b55 5ebd 82ab 5cba b45a d1bc
000000c0: 15c6 5fbd 18f3 f9bd efea 313d cde5 28be
000000d0: 1db2 be3c 1da8 613c 1058 7b3d 8c20 88bd
000000e0: 641a 033d 29d7 313e 9040 013e 4441 5fbe
000000f0: 6411 50be b303 8a3d 97c7 92bd 2b61 643d
00000100: 0260 97bd e4ae 42bd 9891 48bb 8795 6abe
00000110: 91c9 4a3e 7ec1 913d e1d4 24be cbfd efbd
00000120: aa89 c8bd fa6c 69be c9a9 b63d d11d 173d
00000130: 24b2 88be 81dd 38be f84b 6ebe 42ec 873d
00000140: 4fdd 1f3d 2dba b73d bcad 04be 7d64 093d
00000150: 8622 4a3c 28c6 0abd a996 1cbd 8a50 b7bc
00000160: c8e1 33be 70d5 21be 84e7 203d c936 05bd
00000170: c7fd 243c de52 b03c c486 7b3b 189e ca3d
00000180: 7023 d5bd d93d d53d 498c 073e d13e 2dbe
00000190: 76cd 65be b1ff 353e 9e20 79bd 113d d8bd
000001a0: b850 07be d469 41be 21ce 423c 29e8 8cbe
000001b0: 7b67 73be df64 a63b d694 94bd 3753 303d
000001c0: 783f 5cbe 8c71 fe3d fa54 87bc 05a5 383e
000001d0: 910b 12bd 7da5 803d c4c8 7a3d 4be5 14bd
000001e0: ea80 083e 6d14 1abd 2893 cfba 55c9 debd
000001f0: 5d8e f5bb 63f8 e93c fd2b cebd 5018 2a3c
00000200: cb54 4ebe 8beb 99bd 95cd 4f3e b088 ab3d
00000210: 1c16 d9be f2f1 af3d fbbd 50be 390b 36bd
00000220: faae 78bc dcbd 763d 7473 cfbd de00 433e
00000230: fc75 233d a370 40bb 7ce1 48be 124f dabd
00000240: cece 94be f46b d3be 2193 f83c 8b7f 0dbf
00000250: e0f7 7f3c 712f 27be 92f3 ba3d 8d1d 8c3d
00000260: c019 6a3e c10a 86be d5a2 593d 1437 843e
00000270: a5fe 153e a103 74bc e883 a23d 3711 c3ba
00000280: 37a2 6b3d d6a6 f0bc 8b6c ed3c 85af fbbd
00000290: cce7 09be d9d1 4c3e 1b39 493e 05cb 1f3d
000002a0: 78e1 863d 84ad d03d f2e1 df3c 11f3 b3bd
000002b0: 28f5 9d3c 323c 51be d621 743e 0625 0f3e
000002c0: ec85 c1be 7d54 50bd c2c5 483e 8af5 acbd
000002d0: 0f84 df3d 67cf 693c c570 cd3d a665 9cbe
000002e0: 0e6c f5bc 518e bd3c 985d 5d3d 1997 10be
000002f0: 1907 49be 370d 2f3e 5b5a 89bd aff8 35be
00000300: ef56 2a3e 57b8 7abd 06a7 c0bb 17cc 693c
00000310: c52e a4be 6981 183d 4cce 503e b9c5 5d3e
00000320: 3f47 ce3c 17b4 673c ec50 88bd 8eb6 c8bc
00000330: eea0 3dbd 943b 3b3c b0cc 2b3d c367 0ebe
00000340: c068 8c3e 1e15 5fbe 2ab8 8f3d 9d02 0fbf
00000350: cb2e 8fbd b599 1fbd 5ec9 2bbe cdaf d73d
00000360: a9ee 67be d30e 53bd 064a aebd 97bd c6bd
00000370: e94c da3d 6336 05be 70de 05be d6b1 ce3d
00000380: b323 a43a adf5 2dba f1bd eebd 46b3 df3d
00000390: 4e72 a2bd 7f3f 473e 1eab 17be 5500 b9bc
000003a0: eb9c c2bd 47a1 55bd 314d 253d 3d46 8c3e
000003b0: 7af1 a03c 6c84 143d 0cf6 92bc 0a6e 3dbd
000003c0: a42b 00bf b9b3 123d 1058 d0bc a725 ff3c
000003d0: b112 38be 871b aebe 420a 0abe 1ba0 45be
000003e0: ac24 493c 3d58 a83c bea1 443c 1ae2 2d3e
000003f0: fc8e 9abd 441b 903d 79d9 3ebe 845d 10be

gnn1_pool.conv3.lin_root.weight f4 [52, 64]
0.06740828 0.017998597 -0.14225915 0.048177794 -0.14126879 -0.23139438 0.06993703 0.04933333
-0.28381202 0.25048056 -0.09846295 0.013034977 -0.19714122 -0.10963187 0.11037812 0.025891243
-0.051922806 -0.38946885 -0.07370277 0.07256619 0.03601139 -0.22597624 -0.28318956 -0.13942063
-0.34656382 0.020942414 -0.08447244 -0.058788918 -0.007091974 -0.19000089 0.014207606 -0.027719578
0.066413894 -0.14892879 -0.19135585 0.0038640362 -0.1925588 0.013287347 -0.24250028 -0.02352108
-0.25310108 0.1298141 -0.011734458 0.062006906 0.07628714 -0.03304602 -0.074843444 -0.15980102
-0.4379032 -0.26503986 -0.0314837 -0.10315572 -0.1818401 -0.49024573 -0.15115817 -0.018498044
-0.3657453 0.015345818 -0.10453718 0.001257462 -0.082092494 0.25895005 -0.1330778 -0.028083265
0.21594867 0.15820876 -0.15117654 0.08474706 0.065572 -0.2120128 -0.073426045 -0.21907221
0.09776189 0.08294125 0.17390278 -0.116478 0.042658202 0.28000686 0.13436463 0.3649085
-0.15913397 0.023613572 0.055280913 0.06247148 0.07427435 0.044986054 -0.013583941 -0.27484939
0.11090918 0.13419929 0.1624684 -0.019893521 0.13411519 -0.24492842 0.19314508 -0.21762134
0.19131598 -0.09166914 -0.0068190387 -0.05625057 0.010489215 -0.09678371 0.2811281 0.0077377227
0.14428997 0.05497135 -0.20523196 -0.18960784 0.18973921 0.115286216 0.10795146 -0.0035170205
0.046889823 -0.07409797 -0.06406411 -0.09679577 0.22304481 -0.036309157 0.23902974 0.07744466
-0.15190238 0.19533916 -0.010034412 -0.15801232 -0.028049488 0.054906577 0.13941121 0.056401458
0.08060475 0.095070705 -0.00601144 0.09382052 -0.24235442 -0.116351284 -0.010317768 -0.05369222
0.11312986 0.11217745 0.04314384 -0.17287876 -0.008608552 0.025102686 -0.021141065 0.09805491
-0.04208019 -0.18965709 0.12875457 0.009519972 0.11701773 -0.051980056 -0.005166355 -0.11939539
-0.0348046 0.016559945 0.09530858 0.16093038 0.25919563 -0.2221025 0.12489639 -0.14087054
0.10416802 -0.06191705 0.112755984 -0.13372032 0.19467519 -0.062492806 0.062456064 -0.09576208
-0.06024681 -0.09241776 -0.15719448 0.0456759 0.038409352 0.0018720635 0.15177268 0.16851431
0.033692624 -0.18542929 0.09061404 -0.04772758 -0.026279123 -0.25407207 0.30476114 -0.085091874
-0.23214968 -0.04822475 -0.122267745 -0.106492534 -0.19353716 0.08322879 0.03301122 0.07448649
-0.009763493 -0.035441395 -0.17562386 -0.062537245 0.12758246 0.051749814 0.12977704 0.054105982
-0.06725456 -0.006232259 0.15959784 -0.0103224525 -0.06733329 -0.12572892 -0.07353218 -0.019238137
0.16141689 0.23872645 -0.34073076 0.06324907 0.10503686 0.0068693007 -0.19533223 -0.21097408
-0.07035492 0.09786863 -0.037523035 -0.108471185 -0.11508908 -0.043055896 -0.12855372 -0.102939054
0.1319701 -0.04281666 -0.18941242 -0.19309291 0.18869972 0.11201603 -0.06761991 0.026444048
-0.387921 0.014180855 -0.0034481133 -0.10491772 0.04759107 -0.06490977 -0.07542275 0.030802023
0.1096917 0.143514 -0.027182434 0.23899978 -0.02709611 0.14315668 -0.0015201413 0.19168533
0.11993205 0.10887133 -0.15754394 -0.004464202 -0.22311641 0.09784262 -0.078071244 0.020212883
00000000: 5a0d 8a3d cb71 933c 62ac 11be 1456 453d
00000010: c4a8 10be a6f2 6cbe 253b 8f3d bf11 4a3d
00000020: cf4f 91be fd3e 803e f1a6 c9bd a890 553c
00000030: 63df 49be ad86 e0bd ec0d e23d df19 d43c
00000040: 02ad 54bd 7668 c7be 7af1 96bd 959d 943d
00000050: ae80 133d 5166 67be 39fe 90be 48c4 0ebe
00000060: d070 b1be 6d8f ab3c e3ff acbd a6cc 70bd
00000070: ca63 e8bb 988f 42be 05c7 683c 2b14 e3bc
00000080: 0204 883d ca80 18be caf2 43be c53b 7d3b
00000090: 222e 45be 2cb3 593c fe51 78be 48af c0bc
000000a0: 7796 81be fded 043e e241 40bc f4fa 7d3d
000000b0: 6f3c 9c3d 435b 07bd 8547 99bd e1a2 23be
000000c0: d934 e0be 4eb3 87be 0df5 00bd 4e43 d3bd
000000d0: 4b34 3abe 7d01 fbbe 35c9 1abe 3689 97bc
000000e0: f842 bbbe 076d 7b3c 9717 d6bd 6cd1 a43a
000000f0: 1c20 a8bd 1a95 843e 8c45 08be e00e e6bc
00000100: a621 5d3e 7a01 223e 06ce 1abe de8f ad3d
00000110: 9d4a 863d e219 59be 6560 96bd 7754 60be
00000120: 6337 c83d 1add a93d 9213 323e 058c eebd
00000130: 5eba 2e3d 0f5d 8f3e e296 093e 49d5 ba3e
00000140: 04f4 22be 4071 c13c 3d6e 623d 18e2 7f3d
00000150: 271d 983d 4c43 383d 2e8f 5ebc 0fb9 8cbe
00000160: 5a24 e33d 8a6b 093e 1e5e 263e bdf7 a2bc
00000170: 7e55 093e 84ce 7abe d3c7 453e 21d8 5ebe
00000180: 56e8 433e 08bd bbbd 3e72 dfbb ff66 66bd
00000190: f5da 2b3c 8a36 c6bd 06f0 8f3e b98c fd3b
000001a0: c0c0 133e a329 613d 5428 52be 8f28 42be
000001b0: ff4a 423e 2e1b ec3d a815 dd3d d07d 66bb
000001c0: 8b0f 403d adc0 97bd 0b34 83bd dc3c c6bd
000001d0: dc65 643e e9b8 14bd 36c4 743e 4e9b 9e3d
000001e0: 4c8c 1bbe fd06 483e 6067 24bc fbcd 21be
000001f0: 0ac8 e5bc b8e5 603d d0c1 0e3e 3705 673d
00000200: 1a14 a53d 6eb4 c23d 9dfb c4bb f924 c03d
00000210: c22b 78be 9549 eebd db0b 29bc 60ec 5bbd
00000220: a1b0 e73d 4abd e53d 98b7 303d 2107 31be
00000230: e20a 0dbc 26a4 cd3c 0730 adbc 03d1 c83d
00000240: 475c 2cbd 7835 42be 3dd8 033e a8f9 1b3c
00000250: fea6 ef3d 0ae9 54bd 874a a9bb 9285 f4bd
00000260: 458f 0ebd b9a8 873c 2531 c33d efca 243e
00000270: 4ab5 843e d66e 63be aec9 ff3d 5e40 10be
00000280: 0b56 d53d bc9c 7dbd 9cec e63d fbed 08be
00000290: ef58 473e 75f8 7fbd eed1 7f3d e91e c4bd
000002a0: 5cc5 76bd 8645 bdbd 97f7 20be a716 3b3d
000002b0: 2053 1d3d 0760 f53a 4c6a 1b3e 048f 2c3e
000002c0: 4701 0a3d 2de1 3dbe db93 b93d ff7d 43bd
000002d0: 5147 d7bc bc15 82be a709 9c3e a644 aebd
000002e0: a5b8 6dbe 5187 45bd 8367 fabd c218 dabd
000002f0: 9b2e 46be db73 aa3d c636 073d 5f8c 983d
00000300: 0ff7 1fbc ff2a 11bd bed6 33be 8713 80bd
00000310: faa4 023e 9df7 533d 46e4 043e 3c9e 5d3d
00000320: c2bc 89bd fa37 ccbb 9e6d 233e 811f 29bc
00000330: 09e6 89bd 15bf 00be 0a98 96bd 4c99 9dbc
00000340: 784a 253e b574 743e 4374 aebe ba88 813d
00000350: 911d d73d df17 e13b 2c05 48be 9709 58be
00000360: 3e16 90bd 596f c83d c1b1 19bd 2426 debd
00000370: d3b3 ebbd 615b 30bd 96a3 03be b6d1 d2bd
00000380: 2b23 073e 8660 2fbd 54f5 41be 26ba 45be
00000390: 803a 413e a968 e53d 4f7c 8abd 30a1 d83c
000003a0: 959d c6be d156 683c bef9 61bb 1adf d6bd
000003b0: dbee 423d 6aef 84bd 3e77 9abd 8654 fc3c
000003c0: 0ba6 e03d 56f5 123e b2ad debc 5cbc 743e
000003d0: a9f8 ddbc aa97 123e 7a3f c7ba 2949 443e
000003e0: ef9e f53d eff7 de3d 3353 21be 7148 92bb
000003f0: a178 64be b661 c83d d1e3 9fbd 7d95 a53c

gnn1_pool.conv3.lin_root.bias f4 [52]
0.2511124 -0.17048027 -0.25869042 -0.1425086 -0.1914031 -0.23710772 -0.1773706 -0.023853032
-0.011478237 -0.333884 -0.37181437 -0.24910167 -0.16114905 -0.12835768 -0.16011128 0.06829024
-0.23446521 -0.41506213 -0.48441452 -0.16632499 -0.2253965 -0.1624866 -0.2111615 -0.22322562
0.037440147 0.0918211 -0.27900374 -0.2872732 -0.15675934 -0.16741364 0.19317113 -0.16455965
-0.21553868 0.059799664 -0.015868325 -0.44724113 -0.25074506 0.07771439 -0.2271991 -0.28512144
-0.08618504 -0.20704284 -0.102845654 0.035242684 0.08250859 -0.1155089 -0.31875387 -0.20986746
-0.30011487 -0.018457294 -0.21129534 0.025668291
00000000: ce91 803e 6192 2ebe 1273 84be c6ed 11be
00000010: 2dff 43be 5ecc 72be a3a0 35be 6f67 c3bc
00000020: 370f 3cbc d8f2 aabe 745e bebe 8214 7fbe
00000030: 4204 25be 3270 03be 36f4 23be c1db 8b3d
00000040: a617 70be 0683 d4be 2e05 f8be 1951 2abe
00000050: 57ce 66be e362 26be b83a 58be 4295 64be
00000060: d75a 193d b30c bc3d 94d9 8ebe 7915 93be
00000070: 8585 20be 7b6e 2bbe a7ce 453e 5382 28be
00000080: 2cb6 5cbe 7ef0 743d 4afe 81bc cafc e4be
00000090: a861 80be b928 9f3d e2a6 68be 70fb 91be
000000a0: c881 b0bd 0a03 54be bea0 d2bd a25a 103d
000000b0: 43fa a83d ee8f ecbd b533 a3be 7fe7 56be
000000c0: a8a8 99be c033 97bc ce5d 58be 4f46 d23c

gnn1_pool.bn3.weight f4 [52]
0.595222 0.7128073 1.1185095 0.9920395 0.85336775 1.0153959 0.92751426 0.6985701
0.7889456 0.97271264 0.8454217 0.70826745 0.74818134 0.9194746 1.2703258 0.84250796
0.85317785 1.0091742 0.5786711 1.0305407 0.9804229 0.7907674 0.89681965 0.8152135
1.0160872 0.6215677 0.5749651 1.0329505 0.98523706 0.79497457 0.8342021 1.1924493
0.7681666 0.8179718 0.718249 1.1155115 0.69606483 1.0007107 1.1178946 1.0139515
0.8736564 1.0457183 0.39129564 0.7203723 0.83782595 0.93157035 1.0653455 0.83006525
0.7836331 0.5959014 0.94501007 0.44880578
00000000: 7860 183f 8a7a 363f 522b 8f3f 4df6 7d3f
00000010: 4f76 5a3f 7ef8 813f 9371 6d3f 7dd5 323f
00000020: 57f8 493f b203 793f 8e6d 583f 0451 353f
00000030: d088 3f3f b062 6b3f 099a a23f 9aae 573f
00000040: dd69 5a3f 9f2c 813f ca23 143f c2e8 833f
00000050: fffc 7a3f bb6f 4a3f f995 653f d5b1 503f
00000060: 250f 823f 101f 1f3f ea30 133f b937 843f
00000070: 7f38 7c3f 7483 4b3f 458e 553f 2ea2 983f
00000080: 91a6 443f 9a66 513f 2bdf 373f 15c9 8e3f
00000090: 4e31 323f 4a17 803f 2c17 8f3f 2ac9 813f
000000a0: f2a7 5f3f 19da 853f e757 c83e 526a 383f
000000b0: c37b 563f 657b 6e3f 3e5d 883f 287f 543f
000000c0: 2e9c 483f ff8c 183f 2eec 713f dfc9 e53e

gnn1_pool.bn3.bias f4 [52]
0.051507056 0.18459846 0.07700878 -0.02905248 0.2286605 0.10414792 0.114853844 0.08141635
-0.13019297 0.2568716 0.1578083 0.19709857 -0.089446254 0.12132915 0.023935398 -0.021506537
-0.095337726 0.049918618 0.13091798 0.122010686 0.14211006 0.17407462 0.13485503 -0.16911672
0.07170307 0.14844607 0.13909127 0.14034446 0.13473196 0.13347086 -0.058768246 0.13163055
0.24073319 0.24146368 -0.12551257 0.13536306 0.062055994 0.15363957 0.16514128 0.18117628
0.024211697 0.13108054 0.14892256 0.13709807 0.13234594 0.06660308 0.08405656 0.17380215
-0.07016612 0.11810256 0.18811722 -0.062578864
00000000: 10f9 523d 6107 3d3e c7b6 9d3d 77ff edbc
00000010: fa25 6a3e 814b d53d 7e38 eb3d 9ebd a63d
00000020: 4e51 05be ad84 833e 8098 213e 35d4 493e
00000030: 992f b7bd 6b7b f83d 2b14 c43c 7a2e b0bc
00000040: 6d40 c3bd 7777 4c3d 5d0f 063e bde0 f93d
00000050: 4d85 113e 9e40 323e 7017 0a3e ef2c 2dbe
00000060: 0fd9 923d 3f02 183e f16d 0e3e 75b6 0f3e
00000070: 2df7 093e 96ac 083e f9b6 70bd 29ca 063e
00000080: c382 763e 4142 773e 5e86 00be 9d9c 0a3e
00000090: 6d2e 7e3d b153 1d3e cc1a 293e 4686 393e
000000a0: 9c57 c63c fa39 063e 287f 183e 7063 0c3e
000000b0: b285 073e 3267 883d d925 ac3d 31f9 313e
000000c0: 41b3 8fbd c1df f13d cda1 403e 5929 80bd
