model/p2p2068_p0.1_ob0.1_m20_c0_topk_pool.pt (torch, 506671 bytes, 18 tensors)

conv1.lin_rel.weight f4 [128, 2]
-0.29416957 0.20529307 -0.465097 0.35992584 0.19391768 0.65841305 0.12070296 -0.38376373
-0.6203612 -0.6622928 0.28928316 -0.17140682 0.6671982 -0.5305298 0.28740117 -0.35689354
-0.68234766 0.13036428 -0.542936 -0.61087835 -0.57696104 0.37334055 -0.3385136 0.21972272
0.053944204 -0.26687205 -0.4603046 0.21249773 -0.34258753 0.7272671 -0.2971233 -0.23698388
-0.08719288 0.50151664 -0.42299762 -0.0017690432 0.168026 0.04923788 0.55856407 -0.5210048
-0.032214206 0.19495282 0.21197027 -0.5189659 -0.1988676 0.6003747 0.4862434 0.116874665
0.08724799 0.066407785 0.36281374 0.6607752 -0.38324887 0.5476931 0.46595705 -0.6962594
-0.07534828 -0.48084596 0.26297632 0.6583102 -0.57507026 0.15281236 -0.5792326 -0.4357669
-0.35522297 0.38823384 -0.006496676 -0.3583119 -0.17734635 -0.37884143 -0.7943773 0.07759898
0.4548732 -0.76900655 0.15446694 -0.625868 0.5036163 0.30725145 0.38820466 -0.09672025
0.4511575 -0.5118937 -0.09438264 0.37320465 -0.1913005 -0.25511453 0.33217806 -0.20765303
0.52671045 0.61270624 0.4358319 -0.2867395 -0.23938644 0.6524175 -0.5857727 -0.089086056
0.320822 0.4754902 -0.40545803 0.5254664 0.31157842 0.6162675 0.5818411 -0.5704705
-0.31362742 0.37499914 0.48286438 0.4881332 0.4551117 -0.23946527 0.020432046 -0.35251886
0.15902157 0.43894386 0.62159145 -0.06706043 -0.2842782 -0.5896662 0.56701416 -0.35591367
0.008630229 -0.045209326 0.1457264 -0.19767006 0.4671595 0.5215317 -0.2204232 -0.33685827
-0.5680996 0.6246582 0.4196468 -0.3702375 0.2656016 -0.37618715 -0.68408865 0.22292338
0.6206876 0.6128035 0.42352864 0.39823258 0.25251237 0.34778064 -0.17566644 0.42925933
0.50442415 0.6702456 -0.63312685 -0.403732 -0.088427104 0.30101165 -0.29967386 -0.4389992
-0.30733216 -0.111454 0.0412598 0.3805739 -0.1630664 0.1491738 0.49193147 0.6978035
0.15199196 0.579677 0.55287105 -0.4631651 -0.10539013 -0.22933204 0.64885247 0.030592358
0.31746727 -0.08537949 0.05608928 -0.49888077 -0.7597519 0.25254944 -0.094410256 -0.6820594
0.082508475 0.43322614 0.05503829 0.22806393 -0.6614205 -0.3750083 0.38987482 -0.31581482
0.10701857 0.4340471 -0.086727895 0.19371614 -0.15660796 0.46401507 -0.06508982 -0.41965002
-0.16088039 -0.31474784 -0.26495636 0.72081244 -0.41135204 0.30340478 0.66690654 -0.37155116
0.5042296 -0.56014293 -0.24523334 -0.04221966 -0.1659684 -0.5366832 -0.47724673 0.7507174
-0.24463262 0.1340409 -0.21461034 -0.40738818 0.4419793 -0.2834151 -0.68792015 -0.33545294
-0.3771846 0.06079661 0.078372955 0.26002294 0.44343442 0.3217744 0.022464026 0.22012933
0.5922704 0.31334928 0.6646746 0.2581142 0.019399436 -0.30630204 0.46503058 -0.3527389
0.25277025 -0.29314402 -0.22969587 0.71577084 -0.31138977 -0.1931208 -0.48344636 -0.048516754
0.44950816 -0.40905964 0.42874065 -0.47732642 0.56175363 -0.74088913 0.36404616 0.4587378
0.66486096 -0.56312335 0.28727528 0.5407637 0.46483418 -0.14833368 -0.31847137 0.6759644
00000000: 659d 96be 5938 523e 3221 eebe 3348 b83e
00000010: 5b92 463e c28d 283f 1d33 f73d ae7c c4be
00000020: fecf 1ebf 058c 29bf ec1c 943e 4585 2fbe
00000030: 80cd 2a3f cdd0 07bf 3f26 933e c0ba b6be
00000040: 56ae 2ebf 377e 053e dbfd 0abf 8662 1cbf
00000050: b8b3 13bf 7e26 bf3e a851 adbe fefe 603e
00000060: 99f4 5c3d 74a3 88be 0bad ebbe 0199 593e
00000070: a267 afbe 2d2e 3a3f 8c20 98be e7ab 72be
00000080: 2e92 b2bd 6563 003f 2593 d8be 3ddf e7ba
00000090: 020f 2c3e a9ad 493d 0efe 0e3f 9260 05bf
000000a0: 0bf3 03bd b6a1 473e bc0e 593e f3da 04bf
000000b0: f3a3 4bbe 28b2 193f e5f4 f83e fc5b ef3d
000000c0: 13af b23d ce00 883d b9c2 b93e 9028 293f
000000d0: 3239 c4be 9d35 0c3f ec91 ee3e 0e3e 32bf
000000e0: 3350 9abd 7131 f6be d5a4 863e 0487 283f
000000f0: ce37 13bf d87a 1c3e 9648 14bf d71c dfbe
00000100: c9df b5be 96c6 c63e 11e2 d4bb a874 b7be
00000110: 489a 35be 81f7 c1be 505c 4bbf 37ec 9e3d
00000120: 24e5 e83e 9ddd 44bf 952c 1e3e e338 20bf
00000130: ffec 003f 1050 9d3e c3c2 c63e 4415 c6bd
00000140: 1efe e63e 770b 03bf b04b c1bd ae14 bf3e
00000150: 47e4 43be 5f9e 82be 3e13 aa3e ffa2 54be
00000160: 7fd6 063f 51da 1c3f 5c25 df3e 85cf 92be
00000170: b821 75be d504 273f 33f5 15bf c072 b6bd
00000180: c842 a43e 7473 f33e 3298 cfbe f784 063f
00000190: 3587 9f3e b5c3 1d3f 8af3 143f 5b0a 12bf
000001a0: c693 a0be e3ff bf3e 003a f73e 98ec f93e
000001b0: 6704 e93e 6236 75be 1b61 a73c 5a7d b4be
000001c0: 8dd6 223e 40bd e03e 9e20 1f3f fb56 89bd
000001d0: ea8c 91be 5df4 16bf d727 113f 513a b6be
000001e0: ce65 0d3c 6a2d 39bd 4d39 153e 056a 4abe
000001f0: 882f ef3e 1a83 053f 9fb6 61be b078 acbe
00000200: fa6e 11bf 9ae9 1f3f f2db d63e c58f bdbe
00000210: effc 873e 9a9b c0be 6f20 2fbf 0746 643e
00000220: 62e5 1e3f b1e0 1c3f bfd8 d83e 24e5 cb3e
00000230: 4d49 813e 4e10 b23e e7e1 33be e1c7 db3e
00000240: f121 013f 3795 2b3f 9a14 22bf f6b5 cebe
00000250: 4519 b5bd 331e 9a3e da6e 99be 81c4 e0be
00000260: a45a 9dbe ff41 e4bd 0900 293d 95da c23e
00000270: e1fa 26be 04c1 183e 71de fb3e 40a3 323f
00000280: c8a3 1b3e b665 143f f588 0d3f fa23 edbe
00000290: c8d6 d7bd 05d6 6abe 321b 263f d39c fa3c
000002a0: 128b a23e 71db aebd dfbd 653d 4d6d ffbe
000002b0: 1a7f 42bf 294e 813e 2a5a c1bd 729b 2ebf
000002c0: 34fa a83d d1cf dd3e d46f 613d 9789 693e
000002d0: db52 29bf 1701 c0be ac9d c73e 7bb2 a1be
000002e0: 8d2c db3d 6c3b de3e 659e b1bd 865d 463e
000002f0: d65d 20be 6293 ed3e d04d 85bd 5edc d6be
00000300: d4bd 24be a126 a1be 5ca8 87be 2a87 383f
00000310: bc9c d2be df57 9b3e 63ba 2a3f f43b bebe
00000320: 3115 013f 8765 0fbf 731e 7bbe 86ee 2cbd
00000330: 9ff3 29be 1264 09bf af59 f4be 042f 403f
00000340: f980 7abe 0542 093e d0c2 5bbe 2f95 d0be
00000350: 1c4b e23e c91b 91be 891b 30bf 7dc0 abbe
00000360: 571e c1be de05 793d 0082 a03d ba21 853e
00000370: d609 e33e 9dbf a43e 7a06 b83c 9569 613e
00000380: 089f 173f 516f a03e 1d28 2a3f 8b27 843e
00000390: 91eb 9e3c 9fd3 9cbe 7d18 ee3e 319a b4be
000003a0: 1a6b 813e f916 96be 6535 6bbe c23c 373f
000003b0: 7b6e 9fbe 76c1 45be 4886 f7be 81b9 46bd
000003c0: ef25 e63e 4470 d1be e583 db3e 2164 f4be
000003d0: 16cf 0f3f e9aa 3dbf 4264 ba3e aedf ea3e
000003e0: 5434 2a3f da28 10bf bf15 933e 7d6f 0a3f
000003f0: bffe ed3e c9e4 17be ae0e a3be 010c 2d3f

conv1.lin_rel.bias f4 [128]
0.3972188 -0.6200777 0.3604567 -0.67848825 -0.44967198 0.6759304 -0.31789356 -0.5771326
0.6488381 0.14463171 0.22131412 0.12874317 0.7018572 -0.08044529 0.39169353 -0.44961146
0.44710663 0.34410098 -0.69596 0.4677315 0.50235057 0.016194701 -0.6312938 -0.044125326
0.076656245 -0.508905 0.0222062 -0.12478044 0.16054998 -0.13058919 0.6918084 0.60923725
-0.16138658 0.08987699 0.37769932 0.1714316 0.38114512 -0.030522257 -0.5959308 -0.091340445
-0.29694724 0.1663682 -0.65650123 0.65725017 0.2655983 -0.74270415 0.22839727 -0.07688835
-0.2600773 0.5251262 0.51315653 -0.27662066 -0.4713888 0.33184502 -0.0099461805 -0.23345031
0.5022578 0.20168795 -0.2123681 0.5370869 0.20339309 0.4458934 -0.69697374 -0.45302603
0.3676406 -0.13699919 0.38695052 -0.46729437 -0.60908145 -0.37142575 -0.6749346 0.06794271
0.07180831 0.40393302 0.38433895 -0.62416834 0.5519747 0.11218887 -0.5384538 0.48132396
-0.12060738 0.7230168 -0.27066967 0.2234104 -0.28899467 -0.49572894 0.62975574 -0.24556915
-0.47319615 0.042393036 0.0093658855 0.24290042 -0.49057326 0.2228004 -0.34240752 -0.521267
-0.26058146 -0.27537796 0.17207043 0.57157373 -0.40044162 0.28900313 0.66800785 -0.3281669
0.23226415 0.7119352 -0.04857278 0.5999666 0.4043646 0.1775284 -0.19725224 -0.5109381
-0.47431117 0.04972902 -0.7018422 0.71713316 -0.26969635 0.22091834 0.30023664 -0.5557597
0.32375786 0.5640856 0.26163808 -0.62284654 -0.6410862 0.5194005 -0.13793792 -0.24696188
00000000: 4360 cb3e 6abd 1ebf c88d b83e 68b1 2dbf
00000010: 683b e6be c609 2d3f f2c2 a2be f6be 13bf
00000020: 411a 263f 561a 143e 2ba0 623e 40d5 033e
00000030: eaac 333f 80c0 a4bd 0e8c c83e 7933 e6be
00000040: 29eb e43e 012e b03e 6f2a 32bf 817a ef3e
00000050: 0c9a 003f c0aa 843c 789c 21bf c2bc 34bd
00000060: f3fd 9c3d 9947 02bf c7e9 b53c e38c ffbd
00000070: 3767 243e 2cb9 05be 5b1a 313f f9f6 1b3f
00000080: 8642 25be 6d11 b83d ce61 c13e c48b 2f3e
00000090: 7425 c33e d009 fabc ec8e 18bf b310 bbbd
000000a0: 7809 98be 6d5c 2a3e 7710 28bf 8c41 283f
000000b0: 80fc 873e dc21 3ebf f9e0 693e a477 9dbd
000000c0: da28 85be ac6e 063f 3a5e 033f 39a1 8dbe
000000d0: df59 f1be 97e7 a93e 4ef5 22bc 990d 6fbe
000000e0: f893 003f 4987 4e3e 0677 59be 877e 093f
000000f0: 4746 503e 244c e43e df6c 32bf 07f3 e7be
00000100: 643b bc3e 8449 0cbe 611e c63e 3541 efbe
00000110: c3ec 1bbf 842b bebe 84c8 2cbf 8c25 8b3d
00000120: 3c10 933d 4fd0 ce3e 13c8 c43e 7fc9 1fbf
00000130: 374e 0d3f 47c3 e53d 1cd8 09bf 1870 f63e
00000140: 0101 f7bd a117 393f 3795 8abe b2c5 643e
00000150: 1cf7 93be 2fd0 fdbe ac37 213f 7b76 7bbe
00000160: c446 f2be 52a4 2d3d 5f73 193c e3ba 783e
00000170: 6b2c fbbe ca25 643e 0a50 afbe c171 05bf
00000180: ef6a 85be 57fe 8cbe 3b33 303e a852 123f
00000190: af06 cdbe 38f8 933e 9002 2b3f 7e05 a8be
000001a0: a7d6 6d3e 6341 363f 40f4 46bd 6997 193f
000001b0: e008 cf3e 01ca 353e 7efc 49be d7cc 02bf
000001c0: ead8 f2be a8b0 4b3d eeab 33bf 0a96 373f
000001d0: a415 8abe 6b38 623e 9eb8 993e 4546 0ebf
000001e0: 97c3 a53e ea67 103f 6df5 853e df72 1fbf
000001f0: 3a1e 24bf 6ef7 043f 993f 0dbe 93e3 7cbe

conv1.lin_root.weight f4 [128, 2]
0.32940575 0.60404205 -0.46888942 0.4861509 -0.23271209 -0.76246613 0.65807456 0.17575574
0.51919717 -0.029331425 -0.32642505 0.2869959 0.5860148 0.4312795 -0.039112087 -0.1210622
-0.0079291295 0.50951153 -0.67528 0.38204482 -0.97804844 -0.21120961 0.30733076 -0.6696111
-0.121931925 0.28072277 0.17678162 -0.34252134 -0.13771345 0.31231385 -0.14365315 -0.56125927
0.07127486 -0.25992775 -0.26105767 0.4308799 0.058406442 -0.15518679 -0.39649707 -0.06549653
-0.3471989 -0.59375393 0.56440324 -0.6167203 0.639514 0.099294394 -0.31010407 0.1927804
0.53068525 0.2702409 -0.011776339 0.13530646 -0.48716807 -0.5549077 -0.33912084 -0.70918846
-0.28684202 -0.6702244 0.61850405 -0.702276 -0.3560296 0.12311545 0.2559913 0.35653532
-0.6819122 0.23117234 0.6989996 0.47949392 0.50142425 0.38495052 0.559961 -0.3252814
-0.0011904961 0.08354584 -0.24318558 0.47040555 -0.6157601 0.45173362 0.7085655 -0.35105774
0.23788862 0.12710147 0.29019064 0.6611247 -0.6820431 -0.1616904 -0.47392762 -0.23300499
-0.15952401 -0.45402372 -0.5658864 -0.4743372 -0.49351627 -0.65082467 -0.7025115 0.8169146
0.46994293 -0.53619593 0.35374925 -0.16313036 0.4283507 -0.18796456 -0.5366136 0.40582564
0.37149706 -0.60534537 -0.2823617 -0.457514 0.49421185 -0.16454808 0.29474664 0.49152055
0.5695302 -0.19123161 0.41509503 -0.56195325 -0.44375387 0.05360388 -0.35229665 0.13538975
-0.38511267 0.4395425 -0.048933264 0.5173308 -0.060555022 0.5482456 0.04751113 -0.01193801
0.57647103 0.4458918 -0.5925286 0.2250174 0.7079655 0.41126728 0.7328677 -0.08403002
-0.10491653 0.71880895 -0.046195503 -0.1411922 -0.0707387 0.6027505 -0.9312864 0.60755694
0.13493408 -0.6159879 0.62907344 0.44920534 0.15660328 -0.73482376 0.58543414 0.54717636
0.6646591 -0.26682588 -0.9165861 0.45870185 -0.099622086 -0.38869694 -0.32689926 -0.5642991
0.13509731 0.3009812 0.092420705 -0.4561452 0.033551842 -0.43106717 0.029676475 -0.3090449
0.34294745 0.6784486 -0.34669206 -0.55341536 0.4540261 0.40742695 0.5083842 -0.35623047
0.319389 -0.4110771 0.15188774 -0.66858274 0.34706733 -0.2241999 0.38580585 -0.42275417
-0.309322 0.19314876 -0.62426466 0.055123046 -0.6062247 0.7166567 0.008092532 -0.30247268
-0.4792223 0.41049826 0.42942238 -0.27505907 0.08182982 0.05344837 0.24495824 0.07062351
0.39257312 -0.37589025 0.28337812 -0.66612256 0.4317504 -0.18347085 0.12165799 0.21183482
-0.1615456 -0.5974638 0.16581964 0.18205139 0.6265397 -0.07214168 0.47742614 0.115483426
-0.38965794 0.22267242 -0.25263026 -0.49196997 -0.16633189 -0.4654995 -0.6728068 0.2879221
-0.09416068 0.3568953 0.33346045 0.18012933 -0.033394128 0.32719433 0.6218219 0.532022
-0.3298817 0.03619076 -0.6269476 -0.119122185 0.22018926 0.6343898 -0.3884288 0.4198684
-0.55101454 0.5645586 0.2994573 -0.038230147 -0.29536045 -0.07187386 0.50630873 -0.0748788
-0.5285112 -0.29294372 0.41118908 -0.21058775 -0.19783525 0.52768594 0.16675943 -0.20169468
00000000: dfa7 a83e 80a2 1a3f 4612 f0be c5e8 f83e
00000010: 144c 6ebe fb30 43bf 9377 283f 50f9 333e
00000020: 1bea 043f 7548 f0bc 2f21 a7be 20f1 923e
00000030: 1105 163f abd0 dc3e ff33 20bd 75ef f7bd
00000040: 2ee9 01bc 596f 023f 26df 2cbf 619b c33e
00000050: 6261 7abf 5547 58be 755a 9d3e a26b 2bbf
00000060: 72b7 f9bd e5ba 8f3e 3e06 353e f55e afbe
00000070: c104 0dbe 9ae7 9f3e d019 13be b0ae 0fbf
00000080: 8ef8 913d 4015 85be 5aa9 85be 4a9c dc3e
00000090: 983b 6f3d 49e9 1ebe aa01 cbbe 0b23 86bd
000000a0: 0ec4 b1be 4200 18bf bb7c 103f 62e1 1dbf
000000b0: 31b7 233f dc5a cb3d f6c5 9ebe 3a68 453e
000000c0: fdda 073f 045d 8a3e 8cf1 40bc c78d 0a3e
000000d0: 186e f9be 6e0e 0ebf 3fa1 adbe 608d 35bf
000000e0: f5dc 92be d493 2bbf 4856 1e3f 5cc8 33bf
000000f0: 8349 b6be f423 fc3d 4b11 833e cc8b b63e
00000100: cc91 2ebf 71b8 6c3e a3f1 323f 3a80 f53e
00000110: 575d 003f 3c18 c53e 9b59 0f3f 498b a6be
00000120: 6c0a 9cba 151a ab3d a405 79be ffd8 f03e
00000130: 74a2 1dbf a149 e73e 8c64 353f d7bd b3be
00000140: 1399 733e e326 023e de93 943e 783f 293f
00000150: 609a 2ebf 2b92 25be a4a6 f2be dc98 6ebe
00000160: 435a 23be cc75 e8be eedd 10bf 53dc f2be
00000170: 2aae fcbe 729c 26bf cbd7 33bf 5121 513f
00000180: 5c9c f03e 2344 09bf 9f1e b53e a50b 27be
00000190: c850 db3e c879 40be 825f 09bf 61c8 cf3e
000001a0: dd34 be3e eaf7 1abf b691 90be 463f eabe
000001b0: 5609 fd3e 4b7f 28be 08e9 963e 95a8 fb3e
000001c0: bbcc 113f 38d2 43be 5687 d43e 2bdc 0fbf
000001d0: b533 e3be be8f 5b3d 3a60 b4be 9ca3 0a3e
000001e0: 7d2d c5be b70b e13e 3f6e 48bd cb6f 043f
000001f0: 8b08 78bd d359 0c3f 089b 423d a597 43bc
00000200: 9b93 133f ee4b e43e f4af 17bf f66a 663e
00000210: 3a3d 353f a091 d23e 389d 3b3f ee17 acbd
00000220: 7ade d6bd dd03 383f 7f37 3dbd b094 10be
00000230: 74df 90bd db4d 1a3f c968 6ebf da88 1b3f
00000240: 292c 0a3e 62b1 1dbf f50a 213f 3efe e53e
00000250: 9c5c 203e 691d 3cbf 03df 153f c013 0c3f
00000260: 1927 2a3f 679d 88be 63a5 6abf f8da ea3e
00000270: aa06 ccbd 4903 c7be 575f a7be e875 10bf
00000280: f356 0a3e 351a 9a3e 1147 bd3d dd8b e9be
00000290: a86d 093d d6b4 dcbe 141c f33c 223b 9ebe
000002a0: cf96 af3e cfae 2d3f 9f81 b1be a1ac 0dbf
000002b0: 1c76 e83e 449a d03e 7825 023f d763 b6be
000002c0: f486 a33e b378 d2be 7688 1b3e 3d28 2bbf
000002d0: cfb2 b13e a994 65be 5888 c53e 3c73 d8be
000002e0: 745f 9ebe cac8 453e cfcf 1fbf b4c8 613d
000002f0: 8b31 1bbf d076 373f 8a96 043c b3dd 9abe
00000300: a05c f5be d42c d23e 40dd db3e 8bd4 8cbe
00000310: 6596 a73d aeec 5a3d 55d6 7a3e 0fa3 903d
00000320: 58ff c83e b074 c0be f016 913e 0287 2abf
00000330: 630e dd3e c8df 3bbe d327 f93d 3aeb 583e
00000340: 366c 25be 63f3 18bf a0cc 293e ae6b 3a3e
00000350: e864 203f 04bf 93bd 3371 f43e 9382 ec3d
00000360: 3f81 c7be 3d04 643e c158 81be 7de3 fbbe
00000370: e852 2abe f355 eebe 113d 2cbf 876a 933e
00000380: 51d7 c0bd fbba b63e 54bb aa3e d373 383e
00000390: 48c8 08bd 0486 a73e b82f 1f3f 9832 083f
000003a0: 41e6 a8be c33c 143d a37f 20bf 55f6 f3bd
000003b0: 4b79 613e 5f67 223f 24e0 c6be fef8 d63e
000003c0: 4a0f 0dbf ea86 103f 7852 993e 3797 1cbd
000003d0: 7c39 97be 9a32 93bd 739d 013f 0e5a 99bd
000003e0: 834c 07bf b8fc 95be 6087 d23e 51a4 57be
000003f0: 5395 4abe 6d16 073f fcc2 2a3e 0d89 4ebe

pool1.weight f4 [1, 128]
-0.039452482 -0.09207256 0.017012723 -0.021981139 0.0058745183 -0.10640426 -0.060396 0.0025625147
-0.07038989 -0.01445897 -0.15762168 0.03257147 -0.15915504 0.10932628 0.029101633 -0.014838743
0.053232122 -0.23012783 -0.034169357 -0.00055580237 0.058669526 -0.03477455 0.093433104 0.025117643
0.017835788 -0.008211084 -0.017029976 -0.0012379956 1.7998813e-15 0.06078749 -0.16651689 -0.056277044
-0.12229327 -0.09417504 -0.12510985 0.05509856 -0.0003539185 0.03722547 0.016448276 -0.045367077
-0.024354046 -0.031334046 -0.013979922 0.021103356 -0.056679763 0.0017556729 0.096470036 -0.078359134
-0.00673628 -0.017995289 -0.008900086 -0.05647667 0.16519989 0.02508656 -0.12567322 0.028351627
-0.034758143 -0.05079104 -0.006138535 0.017361986 -0.029532617 -0.03943006 0.046690736 2.783569e-16
-0.08589682 -0.10158962 -0.11992657 0.091359414 -0.06171573 0.10793126 0.029842652 -0.017806409
0.058802515 0.0032397062 0.025515562 7.982368e-06 0.043272488 -0.06951534 3.8353488e-07 0.050568506
0.07263907 -0.06795254 -6.912938e-23 0.051605325 -0.053801816 -0.0207606 -0.13881801 0.042020738
0.041399356 0.049947426 0.02367895 -0.057965823 0.057063017 -0.013912148 -0.043494154 -0.020230988
-0.008938357 0.07877094 -0.017860578 0.010230713 0.013435417 -0.057603814 -0.09789082 0.08813697
0.08747593 -0.068601176 -0.1253732 0.071456306 -0.20836958 0.03428162 0.072964944 0.034423932
0.05716394 0.0465798 0.014747513 -0.10066794 0.0123093985 0.08988009 -0.17020433 -0.0021145488
0.02523185 -0.05663474 -0.005935655 0.07905363 -0.015096639 0.02795757 0.054267365 0.062620685
00000000: ed98 21bd 8a90 bcbd 445e 8b3c ca11 b4bc
00000010: 087f c03b 7aea d9bd cc61 77bd ddef 273b
00000020: 9328 90bd 51e5 6cbc 9467 21be a969 053d
00000030: 8af9 22be 75e6 df3d 8c66 ee3c 331e 73bc
00000040: ed09 5a3d a1a6 6bbe 2bf5 0bbd 44b3 11ba
00000050: 754f 703d c26f 0ebd db59 bf3d 84c3 cd3c
00000060: 5c1c 923c c887 06bc 7382 8bbc 3d44 a2ba
00000070: f3b1 0127 4efc 783d 6783 2abe c282 66bd
00000080: e574 fabd d8de c0bd cc1c 00be 07af 613d
00000090: 238e b9b9 bc79 183d 89be 863c d4d2 39bd
000000a0: 2382 c7bc 2158 00bd 0b0c 65bc f2e0 ac3c
000000b0: 0a29 68bd 9b1e e63a 1592 c53d c17a a0bd
000000c0: 03bc dcbb db6a 93bc abd1 11bc 1554 67bd
000000d0: 292a 293e 5482 cd3c 7bb0 00be ac41 e83c
000000e0: 8e5e 0ebd 440a 50bd c425 c9bb b93a 8e3c
000000f0: 63ee f1bc 6a81 21bd c93e 3f3d 3a76 a025
00000100: acea afbd 380e d0bd 109c f5bd a51a bb3d
00000110: a2c9 7cbd 100b dd3d 9478 f43c bfde 91bc
00000120: e8da 703d 4051 543b 0306 d13c 02ec 0537
00000130: 7e3e 313d 0f5e 8ebd a2e8 cd34 ec20 4f3d
00000140: cbc3 943d b42a 8bbd 0425 a79a 1b60 533d
00000150: 4b5f 5cbd 2212 aabc 4f26 0ebe f01d 2c3d
00000160: 5f92 293d ac95 4c3d 5bfa c13c 926d 6dbd
00000170: e9ba 693d c7ef 63bc ed26 32bd 75bb a5bc
00000180: 3072 12bc a952 a13d 5950 92bc b89e 273c
00000190: 3920 5c3c faf1 6bbd fb7a c8bd 2881 b43d
000001a0: 9526 b33d c67e 8cbd d561 00be af57 923d
000001b0: d65e 55be e26a 0c3d a56e 953d 1c00 0d3d
000001c0: bc24 6a3d 76ca 3e3d 8e9f 713c fe2a cebd
000001d0: 5cad 493c 0d13 b83d 0b4a 2ebe 3e94 0abb
000001e0: 06b3 ce3c d4f9 67bd e27f c2bb dfe6 a13d
000001f0: e557 77bc 4607 e53c 7547 5e3d 463f 803d

conv2.lin_rel.weight f4 [128, 128]
-0.038637426 -0.006012422 0.005476291 0.030431772 -0.0042616534 -0.0029378864 -0.062057566 0.0069768685
-0.043182414 -0.022246528 -0.07609102 0.06185243 0.06747313 0.09537696 -0.062769815 -0.013357885
0.034632776 -0.017755875 -0.07660695 0.040390898 -0.0047482536 -0.08302782 -0.038581233 0.091781974
-0.056255884 -0.014230646 0.11297266 0.06852189 0.008146491 -0.03184491 0.05853092 0.023770513
-0.04068612 -0.11683469 0.027601007 -0.045048226 0.09371288 -0.080017604 -0.010208536 0.049713902
0.104779586 -0.070888735 0.060236853 0.10482125 0.02183267 -0.075097956 0.0019350577 0.080175556
0.06227534 0.013489858 -0.021948075 0.09513536 0.015020185 0.025368717 -0.09109794 -0.08934902
0.018745484 0.032139212 0.008111687 0.010124533 -0.06207838 -0.015760941 0.066678464 -0.016767185
-0.05645995 0.05402128 0.04839419 -0.07242933 0.05677415 -0.06066682 0.079410635 0.00044506628
-0.08007413 -0.009088169 -0.032033067 -0.020242352 -0.071798086 0.034367073 -0.052132744 0.012694442
-0.06414043 0.03898071 -0.025667967 -0.011601057 0.0043371534 -0.06211989 -0.08981326 -0.11628471
0.07312501 -0.054684207 0.037624914 -0.086107366 -0.0049142367 -0.054748397 -0.033069436 -0.064118356
0.036596082 0.06140484 0.072953485 -0.06329903 -0.01390708 -0.11210382 -0.106127284 0.051857166
0.06852511 -0.079729915 0.0205397 -0.07965037 0.054565895 0.06762641 -0.018436076 0.07177952
-0.014978349 0.013112971 0.039890673 0.059092917 -0.023098696 0.016919466 0.040814724 -0.07725193
0.07058105 0.051113535 0.07399018 0.066787384 0.016528992 0.07096627 -0.010925553 -0.037226904
-0.0016128994 0.010440157 -0.103634395 -0.09047022 0.05185919 -0.046045803 0.042711042 0.020153858
-0.063950166 0.027164571 -0.067494854 -0.04393239 -0.07314255 0.013947921 -0.1095838 -0.067134924
0.0016389067 -0.076297075 -0.106536604 -0.020715743 -0.058885258 -0.079135224 0.06948748 -0.021224167
-0.07161419 -0.031519335 -0.11362797 -0.030784251 -0.038066737 -0.05976295 -0.040232886 -0.104721054
-0.07434339 -0.0456871 0.048675925 0.041828573 -0.09249812 0.08814031 0.01806874 -0.034123436
0.061913498 -0.067643404 -0.016936015 -0.049967535 -0.0045386935 0.0819075 0.006030992 -0.10799224
0.048521373 -0.030352889 -0.050037935 -0.037385896 -0.029292814 -0.08267717 0.028624786 -0.04596896
0.024622316 0.044254996 0.028160954 -0.076133594 0.018608129 -0.011101534 -0.018146172 -0.013165432
-0.032945953 -0.038304947 -0.03463845 0.04519509 -0.083743796 0.04441393 0.05518401 0.013421806
0.037507508 0.050962612 -0.07707793 0.033408027 -0.067686684 0.07584677 0.0469208 -0.06001917
-0.07376503 0.05474175 0.04417156 -0.098573074 -0.042946365 -0.008722227 -0.05619137 -0.10360983
-0.0063191615 0.06639249 -0.1018946 0.044704266 -0.022829775 -0.07929461 0.048835304 -0.07149024
0.0064716716 -0.07610898 0.022339167 0.057748046 -0.1016197 -0.005049747 0.019319626 0.0108965505
0.013970516 -0.046678048 0.01580721 0.020463377 0.0029858863 -0.061398555 -0.0141622545 0.0020848266
-0.06898254 -0.0735709 -0.088185705 -0.09076569 -0.02667193 -0.035117593 -0.07716256 -0.05921395
-0.06978368 0.04207704 0.0032862136 -0.08276055 0.04045136 -0.039196536 0.06916654 -0.04380518
00000000: 4742 1ebd da03 c5bb 7572 b33b 0d4c f93c
00000010: 57a5 8bbb 8e89 40bb 1330 7ebd 379e e43b
00000020: 0be0 30bd 5a3e b6bc 9cd5 9bbd f958 7d3d
00000030: 5a2f 8a3d ff54 c33d 768d 80bd 08db 5abc
00000040: 19db 0d3d c574 91bc 1be4 9cbd ed70 253d
00000050: 3d97 9bbb 7d0a aabd 5b07 1ebd 30f8 bb3d
00000060: 926c 66bd a827 69bc 365e e73d 3455 8c3d
00000070: dc78 053c cf6f 02bd 1ebe 6f3d 61ba c23c
00000080: 7da6 26bd 0747 efbd 821b e23c 7d84 38bd
00000090: 8aec bf3d 45e0 a3bd b441 27bc cea0 4b3d
000000a0: ae96 d63d 1d2e 91bd ebba 763d 86ac d63d
000000b0: 6dda b23c f5cc 99bd c3a1 fd3a 1533 a43d
000000c0: 6d14 7f3d 9104 5d3c 73cc b3bc 54d6 c23d
000000d0: 3917 763c 0ed2 cf3c 8f91 babd 9efc b6bd
000000e0: 2190 993c 68a4 033d e2e6 043c 5fe1 253c
000000f0: e645 7ebd 171d 81bc b88e 883d 565b 89bc
00000100: 8c42 67bd 6b45 5d3d fc38 463d d455 94bd
00000110: 038c 683d c57d 78bd 0ba2 a23d c957 e939
00000120: e8fd a3bd 8be6 14bc 1b35 03bd 4ad3 a5bc
00000130: e00a 93bd 7dc4 0c3d 2589 55bd 59fc 4f3c
00000140: 0f5c 83bd 3daa 1f3d a145 d2bc 5c12 3ebc
00000150: ae1e 8e3b 6d71 7ebd 04f0 b7bd ae26 eebd
00000160: 91c2 953d 8cfc 5fbd 951c 1a3d 0f59 b0bd
00000170: 9b07 a1bb db3f 60bd d173 07bd 7c50 83bd
00000180: c6e5 153d a483 7b3d a368 953d eca2 81bd
00000190: 85da 63bc b096 e5bd 4359 d9bd 2e68 543d
000001a0: e556 8c3d 7049 a3bd df42 a83c bc1f a3bd
000001b0: 7d80 5f3d b77f 8a3d 4107 97bc 2401 933d
000001c0: c067 75bc c9d7 563c 6764 233d 6a0b 723d
000001d0: 7a39 bdbc b19a 8a3c 572d 273d 4336 9ebd
000001e0: cc8c 903d 6d5c 513d 2a88 973d d3c7 883d
000001f0: cf67 873c c456 913d 1701 33bc 3d7b 18bd
00000200: ec67 d3ba 310d 2b3c 453e d4bd 7348 b9bd
00000210: 4d6a 543d 869a 3cbd c6f1 2e3d b419 a53c
00000220: 4ef8 82bd 3c88 de3c be3a 8abd 73f2 33bd
00000230: c3cb 95bd d285 643c 796d e0bd 097e 89bd
00000240: 95d0 d63a a441 9cbd dd2f dabd 10b4 a9bc
00000250: ab31 71bd a611 a2bd 744f 8e3d 4ede adbc
00000260: 76aa 92bd 6b1a 01bd c8b5 e8bd 412f fcbc
00000270: deeb 1bbd ffc9 74bd 3dcb 24bd fe77 d6bd
00000280: 5941 98bd 6622 3bbd 6860 473d 7054 2b3d
00000290: a86f bdbd e882 b43d e504 943c 04c5 0bbd
000002a0: 0299 7d3d a088 8abd 66bd 8abc c2aa 4cbd
000002b0: 52b9 94bb 1fbf a73d a19f c53b 092b ddbd
000002c0: 59be 463d 9fa6 f8bc 94f4 4cbd f421 19bd
000002d0: 7cf7 efbc a652 a9bd 877e ea3c f349 3cbd
000002e0: bdb4 c93c ba44 353d cdb1 e63c eeeb 9bbd
000002f0: 1370 983c 35e3 35bc 48a7 94bc d3b3 57bc
00000300: 56f2 06bd a6e5 1cbd 0ce1 0dbd 7d1e 393d
00000310: de81 abbd 62eb 353d a108 623d 22e7 5b3c
00000320: 79a1 193d 2cbe 503d 09db 9dbd dbd6 083d
00000330: 519f 8abd 8d55 9b3d 0630 403d a9d6 75bd
00000340: 1f12 97bd e338 603d 3ded 343d aee0 c9bd
00000350: 87e8 2fbd ace7 0ebc ec28 66bd 6431 d4bd
00000360: f810 cfbb c9f8 873d 1eae d0bd d21b 373d
00000370: 8205 bbbc 3665 a2bd 8707 483d 7a69 92bd
00000380: 5110 d43b 06df 9bbd a100 b73c 3789 6c3d
00000390: fd1d d0bd 5978 a5bb 3144 9e3c 7287 323c
000003a0: 97e4 643c 7b31 3fbd 1f7e 813c d0a2 a73c
000003b0: dcae 433b 0d7d 7bbd cd08 68bc 96a1 083b
000003c0: b846 8dbd 57ac 96bd b59a b4bd 5de3 b9bd
000003d0: 177f dabc 77d7 0fbd 6707 9ebd 548a 72bd
000003e0: bfea 8ebd f958 2c3d 845d 573b 5d7e a9bd
000003f0: 53b0 253d 8c8c 20bd 30a7 8d3d 0f6d 33bd

conv2.lin_rel.bias f4 [128]
0.051251415 0.06557864 0.034692798 0.0358568 -0.045130517 -0.06500488 0.0046760356 -0.042012073
0.05458782 0.024338525 -0.05128705 0.038215756 -0.041098047 -0.036119647 0.021000272 0.0073338044
0.03471047 -0.015389622 0.038112137 0.020619616 0.07485597 -0.07127086 -0.02763913 -0.011544188
-0.09045966 0.07086713 -0.0322952 -0.027523538 0.08158244 -0.09125396 0.06538498 -0.009934274
-0.028216567 -0.04320603 0.0080156345 -0.030032244 0.04082654 0.009486509 -0.025819262 -0.0426977
-0.066407934 -0.031878978 0.07971514 -0.057509467 -0.00012561877 0.01793897 0.044071168 -0.018267164
-0.03798868 0.08334347 0.007525875 0.046328746 -0.1149782 -0.14510767 0.013134965 0.05987293
0.0057135355 -0.066512235 -0.0645277 0.032434728 -0.015929172 0.0064266133 -0.07436416 -0.104513176
0.026614623 0.009980575 0.018656585 -0.07045715 -0.04337227 0.061098654 -0.070635274 -0.095838755
-0.06742958 -0.07033848 -0.09328656 0.08078943 0.06359821 0.088517815 -0.02224458 -0.036846083
0.009634626 0.010606773 0.018131161 -0.023785504 -0.014222481 0.055130545 0.07064548 0.08936341
-0.100493364 0.040906213 0.051202223 0.002054003 0.0011963845 -0.054379035 -0.034562796 -0.046609316
-0.031161645 -0.071729004 0.020972475 0.08884635 -0.014922145 -0.09160947 0.10297467 0.032843836
0.055902723 -0.116684206 -0.0742987 0.13187188 0.051110744 -0.022672376 -0.0911174 0.026153581
-0.09767948 0.015720107 0.08098013 -0.08191234 0.0056368005 -0.04088132 -0.08345956 0.018159358
-0.005567993 -0.021363894 -0.007302731 -0.0963018 -0.1036292 0.07425435 -0.011236686 0.07601882
00000000: 01ed 513d 184e 863d 091a 0e3d 94de 123d
00000010: c7da 38bd 4721 85bd 6e39 993b da14 2cbd
00000020: 7a97 5f3d 9661 c73c 5f12 52bd 2088 1c3d
00000030: 6d56 28bd 32f2 13bd c308 ac3c 6950 f03b
00000040: 912c 0e3d c124 7cbc 791b 1c3d 78ea a83c
00000050: 164e 993d 75f6 91bd 756b e2bc d523 3dbc
00000060: ea42 b9bd c922 913d f947 04bd 0b79 e1bc
00000070: b214 a73d 5be3 babd 8fe8 853d 5dc3 22bc
00000080: 6e26 e7bc cef8 30bd 0254 033c 2e06 f6bc
00000090: bb39 273d 4d6d 1b3c eb82 d3bc c9e3 2ebd
000000a0: e200 88bd 8893 02bd b141 a33d 0c8f 6bbd
000000b0: 88b8 03b9 bff4 923c f883 343d 05a5 95bc
000000c0: 059a 1bbd fbaf aa3d 9d9b f63b 36c3 3d3d
000000d0: b179 ebbd 1b97 14be 0934 573c 513d 753d
000000e0: 9c38 bb3b 9137 88bd 1927 84bd 47da 043d
000000f0: e57d 82bc 5796 d23b 3d4c 98bd 010b d6bd
00000100: e906 da3c 9185 233c b2d5 983c d74b 90bd
00000110: 1fa7 31bd 9542 7a3d 3aa9 90bd 1c47 c4bd
00000120: 8518 8abd 9f0d 90bd 060d bfbd ee74 a53d
00000130: c73f 823d d448 b53d 443a b6bc ebeb 16bd
00000140: 8dda 1d3c 08c8 2d3c cd87 943c d1d9 c2bc
00000150: 6905 69bc 91d0 613d 94ae 903d 2a04 b73d
00000160: 77cf cdbd 468d 273d 6cb9 513d 749c 063b
00000170: 01d0 9c3a 8dbc 5ebd b891 0dbd 69e9 3ebd
00000180: b546 ffbc a8e6 92bd 78ce ab3c 13f5 b53d
00000190: 037c 74bc bf9d bbbd 62e4 d23d 4287 063d
000001a0: 41fa 643d 21f8 eebd eb29 98bd 6c09 073e
000001b0: 8059 513d 6bbb b9bc c29b babd 0940 d63c
000001c0: 2e0c c8bd 74c7 803c e9d8 a53d a8c1 a7bd
000001d0: e9b4 b83b 2c73 27bd d9ec aabd efc2 943c
000001e0: b673 b6bb 5503 afbc bf4b efbb e139 c5bd
000001f0: 8c3b d4bd aa12 983d 141a 38bc c1af 9b3d

conv2.lin_root.weight f4 [128, 128]
0.091791295 0.061405152 0.044562038 0.030729936 0.07274747 -0.050566945 -0.015503607 -0.011358499
0.046760507 -0.007750584 0.089689754 0.11236865 0.0018303079 -0.0885794 0.02285205 0.053263225
-0.065247096 -0.034470797 -0.071366206 0.05779529 0.06902395 -0.06719105 0.039197274 -0.08328563
-0.052516133 -0.026028235 0.02583346 0.07756631 -0.047155686 -0.06770273 0.08208909 0.067310974
0.03911021 -0.009951166 -0.03356262 0.10053759 -0.0255776 -0.04809974 -0.0747538 0.06519134
-0.0584854 -0.029283106 -0.025389366 -0.0045130993 -0.048942372 0.00025495444 0.06885233 -0.10479241
-0.0049972045 0.050236654 0.011173789 0.009329616 -0.044775672 -0.010731433 -0.027026493 -0.0016508201
0.006319589 0.09401013 0.03759893 0.06008414 0.06858816 0.056120563 0.08222774 -0.025722463
0.014572016 -0.033744257 -0.012186357 -0.015639797 0.079914995 0.05184329 0.0670734 -0.046867907
0.07823355 0.017322741 0.084792145 0.07761594 0.02518994 -0.011330784 -0.05818148 0.022666963
-0.03764894 -0.019574706 0.07858126 -0.07913077 -0.02586855 0.032547493 -0.006202068 -0.01103454
-0.04251527 0.06691043 0.12017001 0.012224302 -0.038126387 0.039035123 0.02878877 0.0068239644
0.07249758 0.048423238 0.096906856 -0.008934881 0.06216546 0.070014 0.015139059 -0.042991355
0.04650558 0.0747352 0.021771632 -0.026538914 -0.020079412 -0.055987798 0.05223774 0.034338135
0.08613434 -0.05322311 0.052625608 0.10079393 -0.04173941 0.071794875 -0.050735652 -0.056441583
0.082771875 0.030859195 -0.003225418 -0.07501093 -0.028899321 -0.07194543 -0.040110264 0.0028603321
-0.008820597 0.054000918 -0.0077485996 -0.11736821 0.045657508 -0.02566431 -0.031215785 0.05383033
0.03038333 -0.086476915 -0.0628849 0.092466384 -0.05098686 0.1554484 0.03061218 -0.027015392
0.08882171 -0.048088986 -0.024135374 -0.05464046 0.035663813 0.064471394 0.04909246 -0.02875475
-0.023704499 0.0036390882 0.054005608 0.018450422 -0.01003646 -0.05687363 0.0054294155 0.009092195
0.00072986155 0.08006685 0.052767675 0.013335866 -0.04275762 0.03082393 0.079950094 -0.0036696352
-0.13707499 0.044044342 0.042477112 0.06778922 -0.05884825 -0.050758142 -0.027470829 0.13056628
0.03411161 0.046300367 -0.01311119 -0.0020367405 0.0357783 0.05712497 0.050113242 0.009090114
0.015203674 -0.037870448 -0.015020241 0.07342947 0.021738842 0.08831639 -0.051986896 -0.010125886
0.064672425 0.027413905 -0.0213027 0.045708988 0.093470104 -0.041065466 0.0977104 -0.051214047
0.039769247 -0.022720523 -0.0025536008 -0.08726356 -0.014926082 -0.028898835 0.00088431465 0.03463368
-0.0073110056 -0.007943573 0.086383864 -0.017153692 -0.019603517 0.0008291549 0.046538375 0.042492803
0.1157757 0.079892315 -0.06138149 -0.09347168 0.046981204 0.045477275 0.08459116 0.023135554
0.046034023 -0.0014246779 -0.013323705 -0.01909047 -0.04493759 -0.057954114 -0.0155211985 0.1025483
0.104663044 -0.005603713 -0.00048626662 -0.014122197 0.046752404 -0.040014505 -0.075713046 0.07167265
-0.034269974 -0.04131131 -0.052679777 0.07646726 -0.04401815 -0.021803906 0.05635811 0.06842232
0.055332612 -0.088924356 -0.08852315 0.015731316 -0.041755944 -0.04167094 0.022427032 0.050446603
00000000: 13fd bb3d f883 7b3d af86 363d 59bd fb3c
00000010: a0fc 943d 491f 4fbd d702 7ebc ff18 3abc
00000020: f287 3f3d 9cf8 fdbb 43af b73d 8921 e63d
00000030: f1e6 ef3a 1e69 b5bd 3934 bb3c 8a2a 5a3d
00000040: 45a0 85bd 4031 0dbd 7228 92bd c1ba 6c3d
00000050: 6e5c 8d3d 769b 89bd 528d 203d a891 aabd
00000060: 281b 57bd 2a39 d5bc b1a0 d33c 16db 9e3d
00000070: 5226 41bd bba7 8abd 531e a83d 56da 893d
00000080: 0732 203d 370a 23bc f578 09bd a7e6 cd3d
00000090: 1d88 d1bc 3c04 45bd 8518 99bd 0a83 853d
000000a0: 638e 6fbd 20e3 efbc 5cfd cfbc 9fe2 93bb
000000b0: cc77 48bd 68ab 8539 7302 8d3d 679d d6bd
000000c0: 97bf a3bb f3c4 4d3d 4512 373c 3fdb 183c
000000d0: b266 37bd e4d2 2fbc aa66 ddbc 5560 d8ba
000000e0: 8e14 cf3b 6288 c03d 5601 1a3d ca1a 763d
000000f0: f377 8c3d adde 653d 0467 a83d eab7 d2bc
00000100: 77bf 6e3c 6b37 0abd 49a9 47bc 081f 80bc
00000110: 79aa a33d a159 543d c75d 893d 90f8 3fbd
00000120: e938 a03d 6ce8 8d3c 81a7 ad3d 1bf5 9e3d
00000130: 225b ce3c c1a4 39bc b44f 6ebd 11b0 b93c
00000140: c635 1abd 225b a0bc 36ef a03d 500f a2bd
00000150: 48ea d3bc 8550 053d b83a cbbb 37ca 34bc
00000160: 7e24 2ebd 5608 893d b21b f63d 7048 483c
00000170: 6a2a 1cbd 4be3 1f3d 6dd6 eb3c 909b df3b
00000180: 9c79 943d 7257 463d 1a77 c63d 9b63 12bc
00000190: 36a1 7e3d 8063 8f3d d109 783c b417 30bd
000001a0: a37c 3e3d c50e 993d 6c5a b23c 2368 d9bc
000001b0: 947d a4bc 7653 65bd 3ef7 553d 25a6 0c3d
000001c0: 3367 b03d 7a00 5abd f38d 573d 0c6d ce3d
000001d0: f2f6 2abd 3109 933d 30d0 4fbd 4a2f 67bd
000001e0: 4d84 a93d 6ccc fc3c 8961 53bb 559f 99bd
000001f0: 45be ecbc 2058 93bd a94a 24bd 6974 3b3b
00000200: 4484 10bc 1130 5d3d f7e7 fdbb be5e f0bd
00000210: 5e03 3b3d f63d d2bc 3fb8 ffbc 317d 5c3d
00000220: 76e6 f83c cf1a b1bd ccc9 80bd 045f bd3d
00000230: 99d7 50bd de2d 1f3e 65c6 fa3c 624f ddbc
00000240: 28e8 b53d f5f8 44bd 8cb7 c5bc adce 5fbd
00000250: 3814 123d 9409 843d 2d15 493d 158f ebbc
00000260: f02f c2bc c57d 6e3b fc34 5d3d 5725 973c
00000270: f76f 24bc 53f4 68bd 3de9 b13b 6ef7 143c
00000280: 2e54 3f3a 17fa a33d eb22 583d ad7e 5a3c
00000290: 9d22 2fbd 7782 fc3c e0bc a33d 437e 70bb
000002a0: 635d 0cbe d767 343d 7bfc 2d3d 13d5 8a3d
000002b0: dd0a 71bd c5e7 4fbd 810a e1bc 2bb3 053e
000002c0: 9eb8 0b3d 74a5 3d3d 51d0 56bc d67a 05bb
000002d0: 448c 123d dffb 693d 8b43 4d3d b4ee 143c
000002e0: d518 793c 0b1e 1bbd 7517 76bc 3162 963d
000002f0: a815 b23c 39df b43d 36f0 54bd 0be7 25bc
00000300: fa72 843d 2093 e03c 0083 aebc 5939 3b3d
00000310: 416d bf3d 4334 28bd 641c c83d d2c5 51bd
00000320: 14e5 223d 6420 babc 505a 27bb 3db7 b2bd
00000330: 878c 74bc 40bd ecbc 5ad1 673a 0cdc 0d3d
00000340: 2991 efbb c325 02bc 06ea b03d e685 8cbc
00000350: 8e97 a0bc a55b 593a 069f 3e3d ef0c 2e3d
00000360: cf1b ed3d 959e a33d 286b 7bbd 156e bfbd
00000370: 5d6f 403d 6146 3a3d 213e ad3d c686 bd3c
00000380: 2c8e 3c3d 42bc baba ab4b 5abc 9e63 9cbc
00000390: 7a10 38bd 4b61 6dbd a04c 7ebc d804 d23d
000003a0: 9459 d63d 5a9f b7bb 9af1 feb9 ca60 67bc
000003b0: 737f 3f3d 40e6 23bd 710f 9bbd 1cc9 923d
000003c0: ac5e 0cbd 0c36 29bd c0c6 57bd de9a 9c3d
000003d0: 604c 34bd 1b9e b2bc c3d7 663d 0021 8c3d
000003e0: 73a4 623d f91d b6bd a04b b5bd f6de 803c
000003f0: 4808 2bbd 26af 2abd e5b8 b73c 19a1 4e3d

pool2.weight f4 [1, 128]
-0.048052084 -0.0647365 0.0005118715 -0.024985446 -0.011921797 0.035600808 0.13063776 0.12737806
-0.029042589 -0.012655695 -0.0024765804 -0.055905182 0.09684424 -0.0074089076 -0.043945823 0.102314
0.14555703 -0.015176978 0.09181303 -0.03415038 0.012085159 0.039294634 0.029749041 0.011985826
-0.034538038 0.018572193 0.045779686 -0.03728098 0.09668381 -0.008272655 0.22939616 0.1449391
0.019896286 -0.069532864 0.04554868 -0.00092480064 0.018633215 0.05156685 -0.044427134 -0.061776277
-0.01902108 -0.021802055 0.1575245 0.00020438395 0.05326668 0.079461955 -0.066635504 0.024708088
-0.092918314 -0.03282747 -0.024834407 -0.06560033 -0.025617184 0.0009211879 0.10548776 -0.081894524
0.08326022 0.11220777 0.045268025 -0.057116818 -0.028316708 0.014621429 -0.049964007 -0.031297836
-0.030811315 -0.0043853517 0.01749134 0.0446606 0.014237312 0.08815973 0.019818095 -0.03181725
0.044759903 -0.084587514 0.006726053 -0.049966045 -0.0060875863 -0.010964236 0.046640605 0.15140393
0.08910167 -0.03379606 -0.056558862 0.07480886 0.005578532 -0.06749102 -0.049206994 -0.007860288
0.024317123 -0.017772146 -0.011631998 0.08278298 -0.0009923889 0.012932808 0.091184065 -0.085981674
-0.0037762644 -0.00024207773 0.05802257 0.0700099 0.007589001 0.060724735 -0.04690778 0.10280776
-0.054198813 0.006784547 -0.051852956 -0.011530015 0.08413709 0.08671073 0.06428701 0.025096042
-0.008271319 -0.04900193 0.05887706 -0.00040954212 -0.08371163 0.08967622 0.096197665 -0.048401408
0.08745589 0.0012231059 0.054781776 0.0029290891 -0.10118094 -0.07492848 0.06403237 0.11130905
00000000: 43d2 44bd 9294 84bd 1d2f 063a 47ae ccbc
00000010: a453 43bc 27d2 113d e8c5 053e 656f 023e
00000020: b9ea edbc d559 4fbc 204e 22bb d5fc 64bd
00000030: 4656 c63d 6cc6 f2bb 8900 34bd 018a d13d
00000040: e70c 153e dca8 78bc 7808 bc3d 45e1 0bbd
00000050: d500 463c 69f3 203d 43b4 f33c 3360 443c
00000060: c277 0dbd b624 983c 7b83 3b3d f1b3 18bd
00000070: 2902 c63d 088a 07bc d4e6 6a3e ea6a 143e
00000080: 89fd a23c 3f67 8ebd 4191 3a3d 526e 72ba
00000090: afa4 983c c337 533d 3af9 35bd 1f09 7dbd
000000a0: 19d2 9bbc 399a b2bc 1a4e 213e e64f 5639
000000b0: 2a2e 5a3d f3bc a23d 3278 88bd 9e68 ca3c
000000c0: f54b bebd 1976 06bd 8771 cbbc 7759 86bd
000000d0: 21db d1bc e07b 713a f709 d83d 51b8 a7bd
000000e0: 5684 aa3d 30cd e53d f76a 393d 53f3 69bd
000000f0: 71f8 e7bc b88e 6f3c 0fa7 4cbd 2932 00bd
00000100: 0368 fcbc ffb2 8fbb 004a 8f3c 09ee 363d
00000110: 9d43 693c 178d b43d 8f59 a23c ce52 02bd
00000120: 2956 373d 383c adbd 3966 dc3b 32a9 4cbd
00000130: 607a c7bb 57a3 33bc 380a 3f3d a209 1b3e
00000140: f07a b63d bd6d 0abd 44aa 67bd 6335 993d
00000150: 1ecc b63b bb38 8abd 468d 49bd 70c8 00bc
00000160: b434 c73c e496 91bc 2394 3ebc 1f8a a93d
00000170: 0c13 82ba 21e4 533c b6be ba3d 2917 b0bd
00000180: 347b 77bb 3fd6 7db9 13a9 6d3d 5a61 8f3d
00000190: 28ad f83b 80ba 783d 5f22 40bd e08c d23d
000001a0: 93ff 5dbd e850 de3b c463 54bd 63e8 3cbc
000001b0: 1150 ac3d 6595 b13d e8a8 833d 3796 cd3c
000001c0: 6d84 07bc 3fb6 48bd 1229 713d d0b7 d6b9
000001d0: 0171 abbd 2ba8 b73d 4803 c53d 8e40 46bd
000001e0: 131c b33d a050 a03a db62 603d f6f5 3f3b
000001f0: f437 cfbd 1a74 99bd 6723 833d 00f6 e33d

conv3.lin_rel.weight f4 [128, 128]
-0.04659252 -0.03358997 0.046838198 -0.073015 0.018875333 -0.07617827 -0.0468732 0.011374131
-0.054767925 -0.08207935 -0.09985857 0.0017362573 0.11250437 -0.023597127 0.02190163 0.0091207335
0.0059609483 -0.027114434 0.06616488 0.027933486 -0.0040941383 0.06383696 0.011520572 0.016922161
0.020771455 0.030808695 0.04665023 -0.036490552 -0.035726093 -0.06421947 0.04437665 -0.01314783
-0.013089396 0.060209513 0.033531744 0.030986473 0.089676395 -0.040043343 -0.008853357 0.01862123
0.03290008 -0.07024872 -0.10396014 0.048264403 0.008123293 -0.03664012 0.10799874 -0.030872114
-0.03209322 0.054941244 -0.025832724 -0.024011333 -0.02746935 0.047483165 -0.03665781 -0.059262097
-0.023323238 0.016491458 -0.010066603 0.017930817 0.0012685346 0.044705838 0.06619952 0.10573388
-0.10152331 -0.0041474197 0.074397735 -0.0058226907 0.08770605 -0.07069801 -0.06389216 -0.008304085
0.010022737 0.09432395 0.0304436 0.1063429 -0.029402966 0.018306503 0.0026530533 0.05921087
0.030837381 -0.07913822 0.046821553 -0.07405271 -0.038701423 0.076445505 0.024085896 0.035019487
0.0051734424 0.09125832 0.10419742 0.02310682 -0.062026437 -0.06690776 0.014248986 0.047173146
-0.100840755 0.038398832 -0.027029827 -0.0112502705 -0.013030231 -0.03340881 0.031453487 0.07587407
-0.07766914 -0.041116077 -0.009061219 -0.0013962783 -0.056432255 -0.13652727 -0.06959558 -0.08809925
0.07367784 0.03983876 -0.044047028 -0.073203385 -0.00812787 0.029459063 0.06920422 -0.020502541
-0.010340478 0.09857762 -0.048103526 0.059414532 0.04270217 0.13614605 0.040105518 0.056494765
0.0021058419 -0.024440395 0.07293551 0.060647033 -0.225811 0.09424364 -0.12482425 -0.13876861
0.02590526 -0.1085057 0.015201442 -0.014359477 -0.07784541 -0.06376422 0.032720257 -0.12425802
-0.052531485 -0.09571452 -0.0057124156 0.039061226 -0.07961734 0.07524915 -0.05230575 -0.0713537
0.0697145 0.016191773 -0.096574955 0.124807976 -0.20394458 0.03750796 -0.0212894 -0.0821418
-0.0791805 -0.050465934 -0.18187125 0.0636718 0.044967692 -0.06065026 -0.06583419 0.015462388
0.0658817 0.035662252 -0.07873778 -0.029823266 -0.12695993 0.037516966 -0.04062382 -0.09828025
-0.0017375734 -0.034052987 0.017756255 -0.07745426 -0.070149735 0.0035420845 -0.15558632 -0.02847594
-0.114349894 -0.09544985 -0.039792374 0.05150889 0.052615777 -0.036091886 0.05573807 -0.0151642095
0.07302971 0.09164156 -0.07840807 0.063429154 -0.06223672 -0.07736076 -0.04123091 0.0702596
0.020073684 0.05000995 -0.08412455 -0.043226104 0.015830101 -0.002335322 -0.14023387 0.019293223
-0.050663706 -0.0064154686 0.11792946 -0.024360476 -0.020782055 -0.110666156 0.022019187 -0.114280924
0.05158405 -0.08546635 0.08365487 0.047580246 -0.058609784 0.014040551 -0.07368426 0.017920438
-0.035221845 0.033631034 -0.14806588 -0.037073378 -0.07293507 0.07477681 -0.01639447 -0.035089426
0.019828748 0.03227945 0.03799443 -0.07281715 -0.030431736 -0.033501983 -0.036524236 -0.14647405
0.08304821 0.08176693 0.029725425 -0.018308166 0.04607368 0.0010544795 -0.054552916 0.009811451
-0.08301533 0.03293255 -0.10621932 0.031843346 0.09471343 0.009345532 0.0035249393 -0.14146748
00000000: ccd7 3ebd a395 09bd 69d9 3f3d e388 95bd
00000010: 71a0 9a3c 5a03 9cbd 1dfe 3fbd 905a 3a3c
00000020: 5554 60bd 3819 a8bd a682 ccbd 2193 e33a
00000030: b168 e63d c34e c1bc 0c6b b33c 216f 153c
00000040: 0f54 c33b 171f debc 7481 873d c4d4 e43c
00000050: 1f28 86bb f4bc 823d c8c0 3c3c 58a0 8a3c
00000060: e628 aa3c 8462 fc3c 5014 3f3d 1e77 15bd
00000070: 8655 12bd 7f85 83bd 4ac4 353d ff69 57bc
00000080: e874 56bc 409e 763d 9558 093d 58d7 fd3c
00000090: 42a8 b73d 7d04 24bd ac0d 11bc 8d8b 983c
000000a0: 3cc2 063d 90de 8fbd 0ee9 d4bd e5b0 453d
000000b0: 8f17 053c f313 16bd 722e dd3d 84e7 fcbc
000000c0: 2e74 03bd 120a 613d 269f d3bc 6ab3 c4bc
000000d0: 6707 e1bc b57d 423d 8026 16bd d0bc 72bd
000000e0: 6010 bfbc 1819 873c 65ee 24bc a6e3 923c
000000f0: f544 a63a 781d 373d 9d93 873d 018b d83d
00000100: 74eb cfbd 14e7 87bb d75d 983d 45cc bebb
00000110: 3b9f b33d 1eca 90bd e5d9 82bd db0d 08bc
00000120: 6836 243c ea2c c13d db64 f93c 4eca d93d
00000130: 7dde f0bc 85f7 953c d9de 2d3b 1987 723d
00000140: ad9e fc3c 3813 a2bd f5c7 3f3d f2a8 97bd
00000150: 6285 1ebd 768f 9c3d c94f c53c 9870 0f3d
00000160: fb85 a93b a4e5 ba3d 7565 d53d 844a bd3c
00000170: 6f0f 7ebd f006 89bd 9474 693c a138 413d
00000180: 9985 cebd 1848 1d3d a86d ddbc 0e53 38bc
00000190: c07c 55bc add7 08bd 5fd5 003d dd63 9b3d
000001a0: 0011 9fbd 5569 28bd 8275 14bc 5303 b7ba
000001b0: 8225 67bd cecd 0bbe 2188 8ebd 616d b4bd
000001c0: 68e4 963d f82d 233d a86a 34bd a8eb 95bd
000001d0: c22a 05bc 2254 f13c f1ba 8d3d f2f4 a7bc
000001e0: 1c6b 29bc 10e3 c93d 3408 45bd a75c 733d
000001f0: 78e8 2e3d df69 0b3e af45 243d 0e67 673d
00000200: 2a02 0a3b 3937 c8bc 365f 953d 0669 783d
00000210: 003b 67be cf02 c13d dba3 ffbd 5c19 0ebe
00000220: 4537 d43c 3d38 debd 780f 793c 0344 6bbc
00000230: 6a6d 9fbd d196 82bd ad05 063d fd7a febd
00000240: 412b 57bd f905 c4bd 372f bbbb aafe 1f3d
00000250: 6a0e a3bd 3a1c 9a3d 8e3e 56bd e321 92bd
00000260: 7ac6 8e3d 9ca4 843c 17c9 c5bd 539b ff3d
00000270: d9d6 50be f2a1 193d 1c67 aebc f639 a8bd
00000280: 6329 a2bd 5eb5 4ebd 753c 3abe 5c66 823d
00000290: 0b30 383d 686c 78bd 13d4 86bd f555 7d3c
000002a0: fcec 863d 9512 123d 4641 a1bd ec4f f4bc
000002b0: c901 02be 64ab 193d 2a65 26bd 2847 c9bd
000002c0: 4abf e3ba 257b 0bbd 9175 913c 57a0 9ebd
000002d0: aaaa 8fbd 5122 683b 0552 1fbe 6046 e9bc
000002e0: 4730 eabd 367b c3bd 54fd 22bd fcfa 523d
000002f0: a483 573d 16d5 13bd 9a4d 643d 4e73 78bc
00000300: 9a90 953d 92ae bb3d 6994 a0bd 25e7 813d
00000310: eeeb 7ebd 516f 9ebd bee1 28bd 44e4 8f3d
00000320: 9171 a43c 3cd7 4c3d 7e49 acbd db0d 31bd
00000330: 21ae 813c 340c 19bb 7899 0fbe d20c 9e3c
00000340: bf84 4fbd da38 d2bb 0085 f13d 9f8f c7bc
00000350: 213f aabc f0a4 e2bd 9561 b43c 1e0c eabd
00000360: cc49 533d fb08 afbd 3f53 ab3d 81e3 423d
00000370: d010 70bd 570a 663c c6e7 96bd e2cd 923c
00000380: c844 10bd b2c0 093d 959e 17be 41da 17bd
00000390: fb5e 95bd 9624 993d b24d 86bc eeb9 0fbd
000003a0: e66f a23c 7537 043d 0ca0 1b3d 2821 95bd
000003b0: fa4b f9bc 6039 09bd 709a 15bd 4bfd 15be
000003c0: 2e15 aa3d 6c75 a73d bc82 f33c 02fb 95bc
000003d0: c1b7 3c3d 7636 8a3a e172 5fbd 35c0 203c
000003e0: f103 aabd 48e4 063d 8489 d9bd 2b6e 023d
000003f0: 1df9 c13d 011e 193c ab02 673b dadc 10be

conv3.lin_rel.bias f4 [128]
0.011653561 0.11197466 -0.07145854 0.027901823 0.072982855 0.06736104 -0.06310089 -0.058175657
-0.049242627 0.0062656947 0.0114188995 0.019800136 0.067740016 -0.12833221 0.06349163 0.044787537
0.030646373 -0.0150763765 0.00056879676 -0.020791408 -0.08133198 -0.028237611 0.0022979076 0.0366538
0.019928033 -0.08302071 -0.088451244 -0.030387139 0.08053543 -0.117163494 -0.106471814 0.017456697
-0.072102904 -0.0017383044 0.08360372 -0.02630414 -0.05980613 -0.033819612 0.012186553 -0.046722405
0.0610564 -0.020071765 -0.05626055 -0.030317202 0.104222044 0.024210881 0.012092104 0.022343287
-0.019155804 -0.014888824 0.010099413 0.115401745 -0.047371875 0.0006109357 -0.05663319 0.054905064
-0.08667684 -0.13054197 -0.02296587 -0.015042559 -0.012429852 -0.012230519 0.06263905 -0.0442233
-0.09631069 0.049941614 -0.07837625 -0.048246965 -0.09411517 -0.080308184 0.059204206 0.060869277
0.00084546104 0.043294027 0.0678168 -0.027765779 -0.03359494 0.08454031 0.017968379 -0.13797267
-0.02974106 0.054565597 0.09858035 -0.034068014 -0.0012877719 -0.07967258 0.0015104456 -0.09412491
-0.033554107 0.07877673 0.08852016 -0.10793949 0.08052922 -0.022855066 -0.10992169 0.046992585
0.10567966 -0.097872496 0.05468098 0.050432146 0.008764864 -0.03268049 0.030798517 -0.113147646
-0.049988784 0.07628878 -0.12881453 0.0330453 -0.116683036 0.0033613716 -0.05143073 -0.012077625
-0.01278023 0.0111246435 0.064257875 -0.11619264 -0.00045097538 -0.0075120376 0.07013986 0.0021965033
-0.009500518 0.0678429 -0.0974714 -0.014687455 -0.01034596 0.022973277 -0.062404685 -0.12896971
00000000: 94ee 3e3c f852 e53d db58 92bd 5d92 e43c
00000010: 0978 953d 96f4 893d 0a3b 81bd 9949 6ebd
00000020: a3b2 49bd 7550 cd3b 5616 3b3c e533 a23c
00000030: 47bb 8a3d 8569 03be e607 823d 2373 373d
00000040: 1a0e fb3c e802 77bc 4e1b 153a be52 aabc
00000050: 6291 a6bd 9052 e7bc 7e98 163b 4c22 163d
00000060: 1d40 a33c c306 aabd ed25 b5bd 73ee f8bc
00000070: c2ef a43d 6af3 efbd e50d dabd 5901 8f3c
00000080: b0aa 93bd d1d7 e3ba 6d38 ab3d c87b d7bc
00000090: 46f7 74bd 6f86 0abd 1caa 473c fe5f 3fbd
000000a0: 4716 7a3d 8b6d a4bc 7671 66bd c85b f8bc
000000b0: 5e72 d53d e655 c63c f61d 463c 4509 b73c
000000c0: a2ec 9cbc 41f0 73bc 0278 253c c057 ec3d
000000d0: 0309 42bd 3327 203a 34f8 67bd 22e4 603d
000000e0: a183 b1bd cbac 05be ec22 bcbc 1175 76bc
000000f0: 94a6 4bbc 8462 48bc e748 803d 7e23 35bd
00000100: 8a3e c5bd 948f 4c3d ba83 a0bd 9c9e 45bd
00000110: 74bf c0bd 9e78 a4bd 1c80 723d 1052 793d
00000120: eea1 5d3a 1455 313d 89e3 8a3d 0f75 e3bc
00000130: d99a 09bd 7823 ad3d 6c32 933c b548 0dbe
00000140: 86a3 f3bc 2d80 5f3d 7fe4 c93d e78a 0bbd
00000150: 74ca a8ba 612b a3bd 25fa c53a 90c4 c0bd
00000160: 0870 09bd b255 a13d 0f4a b53d 610f ddbd
00000170: 81ec a43d 8c3a bbbc 9f1e e1bd 4c7b 403d
00000180: 946e d83d 6071 c8bd 2af9 5f3d f091 4e3d
00000190: 819a 0f3c fadb 05bd 2c4d fc3c f4b9 e7bd
000001a0: 0ac1 4cbd 4b3d 9c3d f5e7 03be 825a 073d
000001b0: 84f7 eebd 754a 5c3b 07a9 52bd 3be1 45bc
000001c0: 2b64 51bc 2344 363c a299 833d 68f6 edbd
000001d0: e470 ecb9 8a27 f6bb 7da5 8f3d 36f3 0f3b
000001e0: 10a8 1bbc 38f1 8a3d 169f c7bd a7a3 70bc
000001f0: 1a82 29bc 7432 bc3c 0e9c 7fbd a310 04be
