model/p2p2068_p0.1_ob0.1_m10_topk_pool.pt (torch, 506671 bytes, 18 tensors)

conv1.lin_rel.weight f4 [128, 2]
000000 bd c0 0d 3e 96 b5 03 be ab e7 b6 be bc da a0 be
       0.13843055 -0.12862238 -0.35723624 -0.3141688
000010 74 c0 a2 be 26 cc c9 be 02 72 07 3f 72 9e 1c 3e
       -0.31787455 -0.39413565 0.5290834 0.15294817
000020 3e a7 26 3e 1e 69 14 bf 63 9c b8 be ab c1 0d be
       0.16274735 -0.57972896 -0.36056814 -0.1384341
000030 48 ab 40 be 6d 59 19 bf 00 a6 f5 3e 8f 96 03 3f
       -0.18815339 -0.5990208 0.4797821 0.5140161
000040 78 2d 8c 3e fb d8 33 3f 00 2f f6 be d1 48 c2 bd
       0.2737844 0.7025296 -0.48082733 -0.09486545
000050 4c 92 ae be 9d 4d 09 bf 89 74 0a 3f 29 52 b8 bd
       -0.3409599 -0.53634053 0.5408407 -0.09000046
000060 53 11 bb 3e 3a 54 14 3f cf 72 82 be 6b ce 1a bf
       0.36536655 0.5794102 -0.25478217 -0.6047122
000070 71 e9 c7 3b f1 c3 02 3f 01 42 fd 3e ee b9 37 3e
       0.0061008264 0.5108023 0.4946442 0.1794202
000080 07 4f d2 bd ca 0b 63 bd 1b 0d b1 3e 27 5a 85 be
       -0.102689795 -0.055431165 0.3458031 -0.26045343
000090 35 b0 9f be a1 39 46 be 33 1e 1e 3f fb 26 ff bd
       -0.31189123 -0.19357921 0.6176483 -0.12458607
0000a0 b3 34 8a 3e 81 61 8f be b2 7a ee 3e 4f cd 21 bf
       0.2699333 -0.28004077 0.46577984 -0.632039
0000b0 d3 58 f7 bd 47 e6 9d be c5 b5 5e 3e 91 a4 b7 bd
       -0.12077489 -0.3083975 0.21749027 -0.089669354
0000c0 17 e8 c3 3e 6b 10 c0 be 07 d7 10 3f 1c a0 1a bf
       0.38263008 -0.37512526 0.56578106 -0.6040056
0000d0 f3 5b 0c be d1 47 43 be c7 df a1 bd 02 a9 d2 3e
       -0.13706951 -0.19070365 -0.0790401 0.41144568
0000e0 04 05 94 be 7b 9e e6 3d 1e c1 bd 3d 7b 33 38 3f
       -0.28910077 0.112606965 0.0926535 0.7195355
0000f0 d0 ff e1 3e 06 de 66 be 91 ad 45 3e 19 80 58 be
       0.44140482 -0.22545633 0.19304492 -0.21142615
000100 43 91 0b 3e 8f de 06 3f 88 bf 7f 3e 0e d8 1c be
       0.13629632 0.5268335 0.24975407 -0.15316793
000110 d0 4d b0 3e 2e 80 33 3f 55 8f d9 be 36 ef cc bd
       0.34434366 0.7011746 -0.42492166 -0.10006563
000120 ef c9 be be 72 b2 1d 3e 1a 08 c1 bd c7 0d ab 3e
       -0.37263438 0.15400103 -0.094253734 0.3340895
000130 65 1a 06 3f cd f8 0d 3e 18 5b be be 69 7d 37 3d
       0.52384025 0.13864441 -0.37178874 0.044797335
000140 00 48 93 3e a4 e1 09 3f b8 4c c3 bd 92 3a 0e 3f
       0.2876587 0.53859925 -0.09536117 0.5555812
000150 fd 6f 8b 3d e5 69 2f bf 4c 01 14 3f b0 62 e0 3e
       0.068084694 -0.6852096 0.5781448 0.43825293
000160 5a 7f 6f be a2 f1 2c bf 57 50 db 3e 61 8e 6a 3e
       -0.23388425 -0.675562 0.42834732 0.22905876
000170 72 98 23 3f be a8 da 3e c4 d7 1a bf 84 63 d6 be
       0.6390449 0.42706865 -0.6048548 -0.418728
000180 4b 28 d0 bd 96 8e a5 be ba b9 11 bf d3 65 6d bd
       -0.10163935 -0.32335347 -0.5692402 -0.057958435
000190 c6 7b 4a be ad 47 67 be 36 c9 9c be 82 95 10 3f
       -0.19773778 -0.22585936 -0.30622262 0.5647813
0001a0 1e c3 95 3c 9a b2 76 be b0 89 82 be bc 93 3d 3f
       0.018281516 -0.24091569 -0.25495672 0.7405355
0001b0 9f 7f e9 be e6 1c 2d be a0 ba 1a 3f 0f dd 88 be
       -0.4560518 -0.16905555 0.6044102 -0.26731154
0001c0 bf 31 d1 bd 05 23 87 3e 75 2c 67 be 06 c5 e2 3e
       -0.102145664 0.26393905 -0.22575553 0.44290942
0001d0 f0 9e e4 3e 48 ad cb 3e c1 7d 4b 3e fb c4 d7 3a
       0.4465251 0.3978064 0.1987219 0.0016461903
0001e0 9a 92 d3 3e 6b ff 07 3f 2b 32 17 bf 05 33 f1 bc
       0.41322786 0.5312411 -0.59060925 -0.029443273
0001f0 34 c4 a8 be 4c 83 79 be 0c d5 ca 3e f1 54 2e bc
       -0.3296219 -0.24366492 0.39615667 -0.010640369
000200 42 5e 1a bf 49 d2 af 3e 93 8b b1 be 1b 2f 9f be
       -0.60300076 0.34340122 -0.346768 -0.31090626
000210 33 13 de 3a eb 3f 28 3f 5d 51 13 3f c4 12 8b be
       0.0016942978 0.6572253 0.57546026 -0.27162755
000220 2e b2 ab bd 3c c6 25 3f 50 40 c0 3d 46 47 cf bd
       -0.083835945 0.64755607 0.09387267 -0.10121016
000230 29 90 ae 3e 80 6a aa 3e f4 07 b5 3d 46 02 9d be
       0.3409436 0.33284378 0.088394076 -0.30665797
000240 a3 97 73 3e 42 b6 a0 bd 97 e9 1e bd 93 43 0d be
       0.23788314 -0.07847263 -0.038796987 -0.13795309
000250 50 72 2b 3f 71 ff 97 be 0a 40 ab 3e 0a 88 07 be
       0.669713 -0.29687074 0.33447295 -0.13235489
000260 de 32 9d 3e e6 62 b1 bb 8b 44 7b be a9 88 ad bb
       0.3070287 -0.005413401 -0.24537866 -0.005295832
000270 76 16 a2 bd 5a 55 ad 3e 81 38 0c 3f f5 29 00 3e
       -0.0791444 0.3385418 0.5477372 0.12516005
000280 97 c5 e8 be e1 a7 98 be 55 18 97 bc c2 f6 87 bd
       -0.4546325 -0.2981558 -0.01844422 -0.06638862
000290 07 d6 f8 3e 50 73 ef 3e b8 d9 1f 3f 1d 3e 0b 3f
       0.4860079 0.46767664 0.6244159 0.5439165
0002a0 76 c5 fc 3c 25 dd 3e be 6c e1 20 bf b5 3b 90 bd
       0.030855875 -0.18639047 -0.62843966 -0.07042638
0002b0 14 06 0b 3f dc 3d 47 3e 2a 5d ef 3c f5 cc 40 be
       0.5430615 0.19457191 0.029219229 -0.18828185
0002c0 82 fc 33 bf 83 3a 30 bf 24 af 23 3f 9e 8a 30 bf
       -0.7030717 -0.6883928 0.6393912 -0.68961513
0002d0 67 61 25 3d 60 98 c8 be f0 50 e4 be 4e 5d 2e 3f
       0.040376093 -0.39178753 -0.44593 0.6811112
0002e0 8d 2d 03 bf f8 4a 36 be b7 c5 00 bf 0a 74 c6 be
       -0.5124138 -0.17802036 -0.5030169 -0.38760406
0002f0 97 81 03 bf aa 3d e9 be e7 8c f2 be 2a 22 18 bf
       -0.51369613 -0.45554858 -0.47373125 -0.5942713
000300 02 47 1c bf c5 36 15 3f ef 07 83 be 88 03 f3 3e
       -0.6104585 0.58286697 -0.2559199 0.47463632
000310 db cd f2 be 9e c1 86 3c 55 b9 1c bf ce 81 a8 3e
       -0.4742268 0.016449746 -0.61220294 0.32911533
000320 6b 92 a5 3e 33 fe 99 3d cd f9 20 3e 5e 66 fb 3e
       0.3233827 0.07519188 0.15720291 0.49101537
000330 1f 0c dd bd 67 2a 0b bf 7e e7 5a bc cc 0b e2 be
       -0.107933275 -0.54361576 -0.013360856 -0.44149625
000340 61 22 11 3e 04 26 90 be 10 1f 88 3d 1d c4 dd 3e
       0.14173271 -0.28154004 0.0664655 0.43313685
000350 b8 f4 a2 be e0 d4 15 bd ca 0e 26 3e 60 d7 15 3e
       -0.3182733 -0.036579967 0.16216579 0.1463294
000360 06 74 07 bf c2 d2 4c 3e 32 4d df be ab 7a 23 be
       -0.5291141 0.20002273 -0.43613583 -0.15964763
000370 be 65 05 3f 53 50 0b bf fe c1 81 3e 5c 2d 08 3e
       0.5210837 -0.5441944 0.25343317 0.13298553
000380 11 ac ec be df 3e f3 be bb 7a c8 3c 1e ec 62 be
       -0.46225026 -0.47508904 0.024472585 -0.22160384
000390 09 20 d6 3e 39 64 28 3f c9 19 13 3b a4 14 02 bf
       0.41821316 0.6577793 0.002244579 -0.50812745
0003a0 bc d8 b8 bd fa e2 96 be af 86 27 3e fe fc 36 bf
       -0.09025714 -0.29470044 0.16359971 -0.71479785
0003b0 5e fb d3 3e 3d eb aa be 71 d3 b7 be d9 e2 82 be
       0.41402715 -0.33382598 -0.35903504 -0.25563696
0003c0 58 aa 1b 3f c5 40 c9 3b 71 c5 2c be 46 b1 1c bf
       0.608068 0.0061417543 -0.16872193 -0.61208
0003d0 a8 bd db be 3e d9 7b be e4 1f a1 3c 83 dd 19 3f
       -0.42918134 -0.2459459 0.019668527 0.60103625
0003e0 06 ef d0 3e b4 43 26 3e a0 03 b4 be fa 30 94 3e
       0.4080736 0.16236764 -0.35159016 0.28943616
0003f0 9c 1a af 3e 23 79 13 bf 4e 93 19 3f 6a 1e 21 bf
       0.3419999 -0.57606715 0.59990394 -0.62937033

conv1.lin_rel.bias f4 [128]
000000 a6 a7 c9 3e 1f 5d b6 3c 8f 84 af 3e ed fc 27 3f
       0.39385718 0.0222612 0.34280822 0.6562031
000010 06 db 1e bf 07 61 f6 be 3f 65 16 3f 43 c0 e5 3c
       -0.62052953 -0.481209 0.5874824 0.02804578
000020 76 51 2b 3f d7 e2 7a 3d b3 34 db 3c 28 ae 69 be
       0.66921175 0.061251488 0.026758527 -0.22820342
000030 f4 0b 59 3e 54 93 14 bf 50 f8 94 3e 88 04 f3 be
       0.21195966 -0.58037305 0.29095697 -0.47464395
000040 d4 33 02 3f 76 00 ec be a1 aa f7 be 19 30 17 3f
       0.50860333 -0.46094102 -0.48372367 0.59057766
000050 ab 16 ef be 08 e4 0a 3f 20 ea c0 bd fb 81 a0 be
       -0.46696982 0.542542 -0.09419656 -0.31349167
000060 a8 b0 21 bf cc 60 eb be fa 03 87 3e c4 ac 02 bf
       -0.6316018 -0.45972288 0.2637022 -0.5104487
000070 2e cd 27 3e 5e 34 a6 bc 14 0f dd bd b5 83 6d be
       0.16386864 -0.020288642 -0.107938915 -0.23194773
000080 03 c9 87 bd 1d ab e3 be 7d 7b 1c bf 90 c7 1e bf
       -0.06630137 -0.44466487 -0.6112593 -0.6202326
000090 b0 bf 9a 3c e0 84 05 bf 75 74 a0 3e 6d 90 0e 3e
       0.018890232 -0.52155876 0.3133885 0.13922282
0000a0 76 98 01 bf a5 1f 2c bf ff ef ce be e3 17 01 be
       -0.5062326 -0.67235786 -0.40417477 -0.12606768
0000b0 ad f5 1d bf 81 1e 36 3f 45 2a 08 bf f1 74 e7 be
       -0.61702996 0.71140295 -0.531895 -0.45206407
0000c0 f4 25 9e 3e ed cb 17 3e 0e 0f 5f 3e e8 b2 62 3e
       0.3088833 0.14823885 0.21783087 0.2213856
0000d0 20 65 5b be 26 e9 89 3e 88 88 3e be 58 f1 c0 be
       -0.21425295 0.2693569 -0.1860677 -0.3768413
0000e0 4e eb e4 3e 24 ab 2e 3f 2e 6f 1a 3f f6 c1 7d 3e
       0.44710773 0.6822989 0.60325897 0.24781021
0000f0 f9 96 f8 3d fd e9 b7 3e 30 37 c8 be 6f 38 9f be
       0.12138171 0.35920706 -0.39104605 -0.31097743
000100 50 a6 8c bd 26 e1 c1 be 1c e9 a1 be 9d 19 e6 be
       -0.06867659 -0.37867087 -0.3162316 -0.44941416
000110 b7 6d 65 be fd b4 98 3e cb b2 ff 3e 89 c9 72 3e
       -0.22405134 0.29825583 0.49941096 0.23709692
000120 2f 1b 95 be 0b 22 9f bd ab 84 18 bf d3 76 a6 be
       -0.29122302 -0.07770165 -0.59577435 -0.3251253
000130 d4 2e 18 bf 4c 44 33 3e 95 ce 0f bf d2 77 15 bf
       -0.59446454 0.17506522 -0.56174594 -0.58385956
000140 65 7c 02 bf 1c 37 25 bf d0 6a bc bd fe c7 ad 3e
       -0.5097106 -0.64537215 -0.0920006 0.33941644
000150 5b 94 04 bf ba 9e 9e 3e 8c ed b5 be ee d4 13 3f
       -0.5178887 0.30980474 -0.35532796 0.5774678
000160 fa fc a9 be 73 00 de 3e 04 e7 0d 3f 71 f0 93 3e
       -0.33200818 0.43359718 0.55430627 0.2889438
000170 78 22 b1 be 16 87 30 3f fa fb 89 3e dd cc 30 3f
       -0.3459661 0.68956125 0.26950055 0.69062597
000180 7a 47 a6 3e 16 21 fc be cc b9 23 bf d1 35 d3 3b
       0.32476407 -0.49243993 -0.6395538 0.0064456244
000190 47 0c 1c be f2 4e a3 be fc 70 d6 be 63 ae 19 be
       -0.15239058 -0.31896168 -0.41883075 -0.1500793
0001a0 9e 49 ed be e3 76 1f bf e1 48 05 3e 1a 07 5e 3e
       -0.46345228 -0.6229078 0.13016082 0.21682397
0001b0 9e 9a 1c bf e5 97 32 be 3c 5f 07 3d 60 f7 b4 be
       -0.6117343 -0.17440756 0.033049807 -0.35344982
0001c0 c3 19 00 bd b0 1b 26 3f 9e ad ec be 53 02 c1 bd
       -0.03127457 0.64886 -0.4622621 -0.094242714
0001d0 a8 d5 a8 be f3 7d 0f 3e dc 71 eb 3c d5 d8 9f 3e
       -0.32975507 0.1401289 0.028740816 0.31220117
0001e0 0a f5 90 be be c8 aa be ad cf 23 3c 2e 4a ec be
       -0.2831195 -0.3335628 0.009998244 -0.46150345
0001f0 53 83 0b be 47 c9 3b 3f e1 9f f7 3e 33 f5 68 3e
       -0.13624315 0.73354 0.48364165 0.22749786

conv1.lin_root.weight f4 [128, 2]
000000 f9 65 60 be 9e 02 b4 3d 8c 7a 06 3f ad 3e 3c be
       -0.219139 0.08789562 0.5253074 -0.18383284
000010 f9 09 25 be 00 b8 5b be 27 79 6a 3e 77 92 c3 3e
       -0.16117086 -0.21456909 0.22897778 0.3819768
000020 6f 62 a4 3e 51 51 39 be bb 42 15 bf 99 9c d3 be
       0.3210635 -0.18097426 -0.5830495 -0.41330412
000030 8d 1e f4 be 2c 0d 02 bf f6 a3 1d bf 8f c0 08 3f
       -0.47679558 -0.5080135 -0.6157831 0.5341882
000040 54 b2 ea 3d ed b2 20 bd f2 e4 e7 3e 57 c1 09 3f
       0.11459795 -0.039233137 0.4529186 0.5381064
000050 91 c5 23 bf f4 50 8f be bd 84 3e 3e 5b 9f fc 3e
       -0.6397334 -0.2799145 0.18605323 0.4934033
000060 c9 03 dd bd bd 64 11 3f ef c3 a4 3e a4 8b 06 3f
       -0.107917376 0.5679434 0.32180735 0.52556825
000070 70 55 b3 3e 13 ea 47 3e 26 3d da be 7f 8c 06 bf
       0.3502612 0.19522886 -0.42624778 -0.5255813
000080 58 ac 98 3e 62 23 6b 3e ee f4 04 bf f1 d3 ad be
       0.29818988 0.22962716 -0.51936233 -0.3395076
000090 81 03 54 be 01 d0 18 3f fe 3c 17 bf d4 7e b3 be
       -0.20704462 0.5969239 -0.5907744 -0.350577
0000a0 74 47 ba 3e 49 96 d2 be 8f 76 a3 3e 04 71 ab be
       0.3638264 -0.41130283 0.3192639 -0.33484662
0000b0 ee 0b 7d be 9d ae cd 3e 93 f0 0d 3f f8 1a 91 3e
       -0.24711582 0.40172282 0.5544521 0.28340888
0000c0 16 f0 3c 3e 17 5a 69 3e b3 f7 4d bf c1 3e 12 bf
       0.1845096 0.22788273 -0.80456084 -0.57127005
0000d0 40 fe 01 3f 4a 34 5f 3e 2a cb 2e 3e cd d3 f1 3e
       0.5077858 0.2179729 0.17069688 0.47231904
0000e0 80 88 cd 3e e9 e2 c7 be d4 76 ef be d4 9b 97 3e
       0.40143204 -0.39040306 -0.46770346 0.29611075
0000f0 d5 dd ed bd b1 cb e2 be a2 47 02 3f 96 c7 23 bf
       -0.11614577 -0.4429603 0.50890553 -0.6397642
000100 7f 79 ba be d9 20 9c be 63 f8 85 3e 8e 91 36 be
       -0.3642082 -0.3049381 0.26166067 -0.17828962
000110 ba f2 14 bf 97 fd 9e bd 46 11 90 3e 34 7d 8b be
       -0.5818287 -0.07763212 0.2813818 -0.2724396
000120 54 69 a0 3e fa ef 52 3f 90 d0 19 bd 2c 7c ad 3e
       0.3133036 0.82397425 -0.037552416 0.33883798
000130 4c 15 27 3e 38 72 c9 3d a0 e8 9c be dd e0 46 3f
       0.16316718 0.098362386 -0.3064623 0.77686864
000140 bc 86 9f 3e 86 9c 7f 3e 81 7d d8 3e 06 73 0a 3f
       0.31157482 0.24962053 0.42283252 0.5408176
000150 64 f7 b0 be 2d 45 fa bd 67 ed 04 3e 81 32 d8 bc
       -0.34563744 -0.122202255 0.12981187 -0.02639127
000160 3e 80 e9 3d 4f 6b 0f 3f bd 47 11 3f 97 3a a5 be
       0.114014134 0.56023115 0.5675009 -0.32271263
000170 74 bd 59 bc 33 9b c5 be 19 3d 32 3f c1 6c c3 3e
       -0.013289798 -0.3859497 0.6962448 0.3816891
000180 61 55 0f bf ad fd f3 3e 10 28 ce bd c3 c9 22 bf
       -0.5598965 0.47654477 -0.10066235 -0.63589114
000190 5e 62 09 3d a9 05 df 3e 5c 00 1d bf a2 af 43 3f
       0.033541076 0.43559006 -0.61328673 0.7643987
0001a0 30 e9 c2 3e cf 5f 03 be e5 96 a4 bd c2 f0 b8 be
       0.38068533 -0.12829517 -0.08036593 -0.36121184
0001b0 ba f0 28 3e 81 7f 2c 3f 51 72 36 be c0 84 cb be
       0.1649808 0.67382056 -0.17817046 -0.39749718
0001c0 e7 67 0b 3f 4c ba 21 bf b6 8e fe 3e fc 5f 11 3f
       0.5445542 -0.6317489 0.49718255 0.56787086
0001d0 09 fc 20 be 12 60 a9 3d 74 4c d0 3e 81 a5 ba be
       -0.15721144 0.08270277 0.4068333 -0.36454394
0001e0 b8 28 5c 3d 04 a6 94 3d 7b cc f1 3a fb 0b f2 3a
       0.05374977 0.072582275 0.0018447781 0.0018466705
0001f0 69 be 24 bd ba d2 9a 3e c6 33 38 be d0 17 ff 3c
       -0.04022065 0.30238897 -0.179885 0.031139284
000200 d6 41 9e 3d 7a f9 dc 3e cc a8 d5 3e cd 0e 18 3e
       0.07727401 0.43159086 0.41730344 0.14849396
000210 3f a9 9c 3e 8a 98 8b 3e 2b 96 a4 3d c4 4b 63 3d
       0.30597875 0.27264816 0.08036455 0.055492178
000220 06 d7 1e ba b9 b7 cc 3e 7e 53 54 3c c2 0b c4 be
       -0.00060592627 0.3998392 0.012959359 -0.3829022
000230 aa 83 34 bf 63 22 2a 3f 1b 43 ee be 65 b8 9f 3e
       -0.70513403 0.6645872 -0.46535572 0.3119537
000240 d0 f0 64 3e f5 f3 55 3e 33 36 90 be cb 24 43 3f
       0.22357488 0.20893843 -0.2816635 0.76228017
000250 2b a8 c1 be 87 7c 97 be 0a aa 94 3e a1 d0 25 bd
       -0.37823614 -0.29587194 0.2903598 -0.040482167
000260 f5 b1 f0 be 74 19 c1 3d 5e 0c ae be 84 37 46 3e
       -0.4701077 0.09428683 -0.3399381 0.19357115
000270 6a 8e 18 bf 52 a0 d8 3e b7 79 b0 3d 40 4a 01 be
       -0.59592307 0.42309815 0.08616965 -0.1262598
000280 65 00 fb be ef 5d 1d 3f fe c3 bd be a2 30 c2 3e
       -0.49023739 0.61471456 -0.37063593 0.3792773
000290 fd ad 9b be 44 8e 23 3f 56 3d 00 3e ff ee 1a 3f
       -0.3040618 0.63888955 0.12523398 0.6052093
0002a0 f5 1d c7 bd 68 d4 40 3e 3e 45 f4 3e a5 40 00 3e
       -0.09722511 0.18831027 0.47709078 0.1252466
0002b0 bd 44 f0 be b6 00 a1 3e c5 c4 1e bf 59 10 2b bf
       -0.46927443 0.31445855 -0.62018996 -0.6682182
0002c0 e7 ad 8b be 2c 91 88 be 06 a0 e1 3d 48 8a c0 3d
       -0.27281114 -0.26673257 0.1101685 0.09401375
0002d0 45 d4 3f 3e 28 05 c7 3e 12 c7 0c 3f 0e b4 cd be
       0.18733318 0.3887112 0.5499126 -0.40176433
0002e0 a0 1d 8c 3e 4e 28 20 3e e5 fa 19 bd 90 6e 78 3e
       0.27366352 0.15640375 -0.037592787 0.24260926
0002f0 24 28 8b be 92 fa d9 bc 21 a6 b9 3b af b8 ee be
       -0.27179062 -0.026608739 0.005665556 -0.46625277
000300 93 1e 14 3f 86 c3 66 be 23 3c 06 3f 0f 1d a4 be
       0.5785915 -0.22535524 0.5243551 -0.3205342
000310 52 15 3a be 20 43 da be c5 82 fc 3e d3 6f f7 3e
       -0.18172196 -0.42629337 0.4931852 0.48327503
000320 ba 59 84 be f1 d8 38 be 56 49 72 bd 62 ef bb be
       -0.25849706 -0.18051507 -0.05915197 -0.36706072
000330 d3 d7 01 bf 22 65 be 3e 3f ef 99 3e f4 7e 42 3e
       -0.50719947 0.37186533 0.30065343 0.18993741
000340 a6 7b 08 3f ab 6e ca 3c 17 d2 cb be 75 1a c5 be
       0.5331367 0.024710974 -0.39808723 -0.38496748
000350 4e 3f 24 3e e0 e6 1f be 7c d0 43 bf 99 43 88 3e
       0.16039774 -0.15615416 -0.76489997 0.26614073
000360 19 40 79 3e 75 c8 fa be c3 4d 7a 3e e8 fe 36 be
       0.24340858 -0.48981062 0.24443726 -0.17870677
000370 cb 80 ac 3d 5b 79 b9 be 63 93 80 3e 09 21 27 be
       0.08423003 -0.362254 0.25112447 -0.16321196
000380 83 76 e6 3d c3 8f 89 3e a6 d7 2f 3e 2d 2e 03 bf
       0.11253073 0.26867494 0.17172107 -0.51242334
000390 3d 29 06 bf 68 55 12 3e 58 20 74 3e ce de 0e bf
       -0.52406675 0.14290392 0.23840463 -0.5580872
0003a0 74 ee 1f be 00 d1 81 bd e7 c8 17 be 51 49 e5 3d
       -0.15618306 -0.06338692 -0.14822732 0.111956246
0003b0 29 80 9b 3e 10 05 aa bd c7 b0 fe 3e eb 6e a4 be
       0.30371216 -0.08301747 0.49744245 -0.32115874
0003c0 32 58 78 be 86 c2 80 bd c2 5c 47 3e 13 5e 2d bf
       -0.24252394 -0.062871024 0.19468978 -0.6772167
0003d0 3a 4b 07 bf 98 dc 87 be 6c a8 02 3f 8e 68 6a be
       -0.5284916 -0.26535487 0.5103824 -0.22891447
0003e0 10 75 07 bf 84 83 9c 3e b0 ad 26 3f 27 f8 02 3f
       -0.52913 0.30569088 0.65108776 0.511599
0003f0 38 e8 4b 3e ff 53 f8 3d d4 35 b2 be 91 36 c6 be
       0.19912803 0.12125396 -0.34806693 -0.38713506

pool1.weight f4 [1, 128]
000000 90 82 21 3d ae 5b 53 bd 20 c3 b3 3c e2 9f 85 3c
       0.039431155 -0.051601104 0.021943629 0.01631159
000010 7e a5 45 3b b0 38 d4 3a 08 67 58 38 25 f9 35 3c
       0.0030158455 0.0016191211 5.159437e-05 0.011106764
000020 92 2e 57 3d cd b8 1d 3c 2d df 1c bc 31 01 2b bc
       0.052534647 0.0096265795 -0.009574694 -0.010437296
000030 da 6d 96 3d ea 88 b3 bc 5c 35 4c bd b6 19 57 3d
       0.07345171 -0.021915872 -0.049855575 0.052514754
000040 f9 d3 e4 bd 3e 28 43 bd a4 79 e3 b2 5e 69 2e bd
       -0.11173243 -0.0476458 -2.6481594e-08 -0.042580955
000050 a2 48 9f bc 32 23 b6 bd 25 a3 02 bb d2 29 2f bc
       -0.019443814 -0.08893432 -0.0019933667 -0.010691123
000060 73 11 90 3d 44 eb a3 bd 6e ca 2d bd 8c a1 c8 3d
       0.07034578 -0.08003858 -0.04242938 0.097964376
000070 3c 9b e2 bc 24 25 68 3d 41 e4 27 3c 3c fb 4b bc
       -0.027661912 0.056676045 0.010247291 -0.012450036
000080 59 15 ca 3d 54 cf 93 bc eb c8 b4 3d f7 33 8d bc
       0.09867353 -0.018043198 0.088273846 -0.017236693
000090 38 bd 6c bc 0a 92 d2 3d 00 0c a9 bc 9f b8 91 bd
       -0.01444941 0.10281761 -0.020635605 -0.07115292
0000a0 ac 18 de bc ad cd 8c 3d 09 b4 c2 3c c2 06 3f bd
       -0.027111374 0.06875167 0.023767488 -0.046637304
0000b0 2e 29 24 3b 74 d7 fe bc 0a 2f 5f bc 1d d8 d6 3c
       0.002504896 -0.031108595 -0.013622055 0.026226098
0000c0 0d aa b5 bd a5 62 ca 3c f1 03 a1 bd ad bb c9 bb
       -0.08870325 0.02470524 -0.0786208 -0.006156406
0000d0 a5 29 07 3c 9b a3 bd 3d ea ad 9f bd c8 f0 58 bd
       0.008249675 0.09259721 -0.07796843 -0.052964002
0000e0 d5 bc 5b 3b cb fa 15 3d 6a 5d 6a 3d 04 61 a4 3b
       0.00335293 0.036616128 0.057217993 0.005016448
0000f0 7c 84 89 3d 3a 59 52 bd ce d7 c9 38 fd fc 07 3d
       0.067147225 -0.051354624 9.6246236e-05 0.033200253
000100 f6 3b 0d bc fe 3d 39 3b bf d2 f9 3c bb 42 87 bd
       -0.008620253 0.002826571 0.030496 -0.06604525
000110 0e 27 a0 bb 17 6e 93 3c 63 a0 00 3d e2 fc 1b be
       -0.004887468 0.01799683 0.031402957 -0.15233186
000120 aa 9b a4 bd 80 4d cf bd 94 12 8e 3d 8a d5 4a 3b
       -0.08037503 -0.10122204 0.06937137 0.0030950033
000130 ca da 86 3c 3c f2 b4 bc 9b 1a 27 3e ff e8 bd 3c
       0.016461749 -0.022088163 0.16318743 0.02318239
000140 5f 38 bb 3c 2b 7a 7e 3b 81 5e 22 bd f0 f4 bb bc
       0.022854028 0.0038830142 -0.039640907 -0.022943944
000150 91 c6 ac 3c c8 12 a2 bd 1c d8 ae bc 69 c5 98 b8
       0.021090778 -0.079137385 -0.021343283 -7.284695e-05
000160 02 ce 89 36 fa 28 85 bd 0a 3b 44 bd 49 c3 92 3d
       4.1069006e-06 -0.06501956 -0.047907867 0.07166154
000170 c2 88 9e 37 72 6f 94 bd d8 6e 7f 36 8d d1 12 bd
       1.889875e-05 -0.07247819 3.806248e-06 -0.035844374
000180 1e 89 cc bc 80 34 ed bb 3d 4b a5 b9 26 47 f0 3b
       -0.024967726 -0.0072389245 -0.0003152731 0.0073327003
000190 87 2a 8b 3c 2c 55 8c 3d 17 64 9e b7 1c 60 65 bc
       0.016988052 0.06852183 -1.8881676e-05 -0.013999965
0001a0 fc 42 c0 3c cd be e0 3d 53 ea 2a 3d 75 1b 77 bd
       0.02346944 0.10973892 0.041727375 -0.06032892
0001b0 2b 05 7d 3b 99 00 7a ba 35 7d b4 bd 1e 96 41 3c
       0.0038607817 -0.0009536832 -0.08812944 0.011815576
0001c0 0f 8f 8e 3a 9e 4a 57 bd 48 f2 84 3d 87 22 2d bc
       0.0010876375 -0.052561395 0.06491524 -0.010567314
0001d0 37 2a 7b bb 82 21 e1 b9 45 7e b4 bc 82 c6 75 bd
       -0.0038324723 -0.0004294031 -0.022032866 -0.060003765
0001e0 0b 1d 99 bd 27 7c 0a b2 d8 ce 83 39 1a 20 44 bc
       -0.07476243 -8.060886e-09 0.00025140378 -0.011970544
0001f0 04 8c af bc 12 00 bc bd 13 73 fe bd a1 8c 1c bd
       -0.02142907 -0.09179701 -0.124242924 -0.03822005

conv2.lin_rel.weight f4 [128, 128]
000000 d5 18 9b bd 38 dc 54 bd 0f 76 a5 3c 7d 62 c0 3d
       -0.07573096 -0.05196783 0.020197896 0.09393785
000010 dd 40 85 3c 03 3f ae bd 2c ca 8d bd 79 5f c0 3d
       0.01626628 -0.08508112 -0.06923327 0.0939321
000020 45 37 27 bd 08 c4 9a bd df 31 db bc 9c 67 f6 3c
       -0.040824194 -0.07556921 -0.026757179 0.030078702
000030 0d ba 61 3d 6c 7d db 3c df 2c 64 bd 90 54 18 3d
       0.055109072 0.026793204 -0.055706855 0.03719002
000040 6e 8c b9 3c b5 0e e5 bc 97 ac 55 3d fa 64 63 b9
       0.02264997 -0.027961114 0.052166548 -0.00021686024
000050 c1 ed b7 3d 93 75 13 3d 58 05 c0 bc 60 8e 07 3c
       0.08980895 0.0360008 -0.023440048 0.008273691
000060 f0 a6 a6 bd 16 d9 9e bd 9c 72 c7 3c 5e a8 af 3d
       -0.081373096 -0.077562496 0.024346642 0.08577035
000070 79 11 5f bd 33 1d 05 3d 49 3c b9 3d b4 e5 32 bd
       -0.054460023 0.03249855 0.090447016 -0.043676093
000080 ca e3 0a 3d 12 e8 ee 3c 58 76 7b 3d d7 77 ea bc
       0.033908643 0.029163394 0.06139216 -0.028621597
000090 f2 82 4c bd 97 c2 fc bc 6a 3d 5f 3c ab 10 9a 3d
       -0.049929567 -0.030854506 0.013625482 0.075227104
0000a0 d3 7c 56 bc cd 5f a1 bd 5c f1 ab 3d 58 ca 0c bc
       -0.013091284 -0.07879601 0.08395645 -0.008593164
0000b0 0c 3b c1 3c 82 ca 4f bd bf b8 6f bd 30 c1 70 bd
       0.023587726 -0.050730236 -0.058525797 -0.058777988
0000c0 d9 a2 b9 3b 97 46 4c 3d 43 bc 9f 3b b3 6a 56 bd
       0.005665165 0.049872007 0.0048747375 -0.05234785
0000d0 fe 88 8b 3d 01 7e 43 bc 90 c3 96 3d bb 10 72 3d
       0.068132386 -0.011931897 0.07361519 0.059097987
0000e0 21 d0 6c 3c 97 61 93 bc 84 cb ad bc a3 67 80 bd
       0.014453919 -0.01799087 -0.021215208 -0.06269767
0000f0 74 f8 fc 3c 89 e0 6e 3d bc 64 ed bc e6 e6 43 3d
       0.03088019 0.058319602 -0.028978698 0.047827624
000100 8c 1b 7b 3d 28 48 98 bd 24 4c 67 bd dc fb 4f bd
       0.061305568 -0.07435638 -0.056469098 -0.0507773
000110 24 7f ae 3d 93 ed aa 3d 3d 48 62 3d 89 75 58 3d
       0.08520344 0.08346095 0.055244673 0.052846465
000120 8e b3 e7 bc 57 73 85 3c e6 ff 7d bd c4 a1 11 bb
       -0.02828386 0.01629035 -0.062011622 -0.0022221664
000130 dd 28 5a bd e9 cb 9a 3b 4e 31 82 3d ce d9 58 3b
       -0.053261627 0.004724015 0.063570604 0.0033088806
000140 84 8c fc 3c a7 6c b4 3d fd 52 a5 3d 98 e6 c1 3d
       0.030828722 0.08809786 0.080724694 0.094678104
000150 50 c5 88 3d 53 a1 80 3d da 95 45 3d ef a9 14 bd
       0.066782594 0.0628077 0.048238613 -0.036294874
000160 3f 77 39 bd 08 8c 83 3d 42 11 ee bc 03 96 9f bd
       -0.045279738 0.06423193 -0.029060964 -0.07792284
000170 7f 19 90 3c dc b0 82 bd b1 6d 54 3d 13 7c 5f 3c
       0.017590282 -0.063813895 0.051862422 0.013640421
000180 45 65 c2 3c f1 1b 07 3d 4e d8 77 3d 23 77 4f bd
       0.02372993 0.03298563 0.06050902 -0.050650727
000190 f6 d3 80 bd a3 a7 ae 3c 9f 27 a4 bb de 18 d2 3d
       -0.06290428 0.02132017 -0.005009606 0.10258649
0001a0 03 83 d1 ba a6 9d 81 bd 00 c0 56 bd 84 d3 85 bd
       -0.0015984479 -0.06328897 -0.0524292 -0.06534484
0001b0 d3 30 7a bc ad 28 f3 3c 29 00 ab 3c 2c 67 c7 3d
       -0.01527043 0.029682482 0.0208741 0.09736475
0001c0 7f 1c 70 bc 51 be 6f 3d 63 13 85 3d 24 45 d2 3c
       -0.0146552315 0.05853111 0.06497838 0.025667734
0001d0 d3 19 6d bd 33 6d 1e 3d ec 5a 27 bc 2a fa a4 3d
       -0.057885956 0.03867836 -0.010214549 0.080555275
0001e0 3c 12 a5 bd 57 8d 77 3c bc f3 06 bd dd 57 ac bd
       -0.080601186 0.015109382 -0.032947287 -0.08415196
0001f0 0e b8 b5 3d c5 9c 81 3d f5 f5 4a 3d fa ef 16 3d
       0.08872996 0.063287295 0.04955097 0.036849953
000200 ce 30 85 3d a5 23 96 3c ff cd 2d bd 79 d9 a2 ba
       0.065034494 0.018327544 -0.04243278 -0.0012424431
000210 93 68 50 3c 32 39 1e bc d9 cb 9c 3d 63 29 34 3c
       0.012720245 -0.009657191 0.07656068 0.0109961955
000220 75 c3 70 3d 60 93 9c bd 43 a4 b1 bd ac 60 84 3d
       0.058780152 -0.07645297 -0.086739086 0.06463751
000230 8d d1 bb bc dc 08 1e 3d d1 af 05 bd b9 ab d1 3d
       -0.02292707 0.038582668 -0.032638375 0.102378316
000240 7e 11 00 3b 5f 60 b1 bd 78 2e 50 3b 05 71 c4 3c
       0.0019541676 -0.086609595 0.0031765979 0.023979673
000250 d3 af f0 3c b0 d1 a7 3a f6 da b2 3c 8a bb 32 bc
       0.029380715 0.0012803581 0.021832924 -0.010908971
000260 3f 93 4a bd f9 7a 16 bd 54 a6 5a 3d 90 c5 4f bc
       -0.04945683 -0.03673837 0.05338128 -0.01268138
000270 5c 15 71 bb 28 01 de 3c ba c5 3d bd 16 b8 24 3d
       -0.0036786413 0.02710016 -0.046331145 0.04021462
000280 0d 93 d8 bc db 2d b3 3d 7b 26 a9 bc 26 0d 7a bd
       -0.026437307 0.087489806 -0.020648232 -0.061047696
000290 80 b8 27 bd a2 e7 18 bd d5 fb 74 bc 23 a7 ea bd
       -0.040947437 -0.037330277 -0.01495262 -0.1145766
0002a0 1d 12 74 3d bf f2 e9 3d 5a 20 2e 3d 40 05 b5 3c
       0.059587587 0.11423253 0.04251132 0.02209723
0002b0 8c 99 c7 3c a3 e2 ca 3d 3a 9a 9c 37 9d 26 45 3d
       0.024365209 0.09906509 1.8668467e-05 0.048132528
0002c0 aa 78 b2 38 93 63 a9 3b 75 df bb bd 38 27 64 bd
       8.510177e-05 0.005169341 -0.091734804 -0.055701464
0002d0 fa 2f 21 bd 85 ad 77 3d 67 b8 4a bd c4 fd 95 3d
       -0.039352395 0.060468215 -0.049492266 0.073237926
0002e0 d8 8f d4 bc a0 4b 65 bd e7 9d 80 3d 99 5b 00 bd
       -0.025947496 -0.055980325 0.062801175 -0.031337354
0002f0 7b ed 2d 3c 8e 35 a0 3d f5 e4 2f 3d 66 fc f8 bc
       0.010615702 0.07822715 0.04294296 -0.03039379
000300 77 c9 90 bd ee 47 f3 3c 9b 52 c4 3d af ff 32 bd
       -0.07069676 0.029697385 0.09586068 -0.04370087
000310 73 20 cb 3d 35 66 95 3d 48 d6 aa bc 8c b4 aa bd
       0.099182986 0.07294885 -0.02085413 -0.08335218
000320 1b e2 e6 3b 26 6c e9 3c ef 04 e8 3d cc d8 11 3d
       0.007045997 0.028493952 0.11329066 0.035607144
000330 1e bf a5 3d c7 a7 8a bd eb 2f a1 bd 8b b6 f5 3c
       0.08093093 -0.06770282 -0.07870468 0.02999427
000340 d3 16 71 3d e3 88 75 3d df b2 80 3d 8c f3 d4 3c
       0.058859657 0.059945 0.06284117 0.025995038
000350 0d 99 23 bc df e9 86 3d a1 a3 59 3d a1 22 58 bd
       -0.009985221 0.06587576 0.053134564 -0.0527674
000360 88 dd 66 bd 13 33 0f bd 74 9f 12 bd 0c ab 77 bd
       -0.056363612 -0.034960818 -0.035796598 -0.060465857
000370 0a 1b 7c bd 6a bc ee bc 9b 19 9c bd fe 22 54 3d
       -0.061549224 -0.029142577 -0.07622071 0.051791184
000380 5c 98 40 3c d5 78 25 3d 5a b0 a1 bc 40 97 e2 bb
       0.011755075 0.040398438 -0.019737411 -0.006915003
000390 f7 ff a5 3d 0d 4c 48 bd 0c a6 ad 3d 1a cc 8b 3d
       0.08105462 -0.048900653 0.084789366 0.06826039
0003a0 fe eb cb 3d f5 d4 75 3d 5e 5a 93 3c 1b 0f d9 39
       0.09957121 0.060017545 0.017987426 0.0004140072
0003b0 a2 16 2a 3d ec dd a9 3a b6 bc e2 bc 66 f3 52 3d
       0.04152549 0.0012959815 -0.027677875 0.051501654
0003c0 f5 b0 1b bd e0 f0 8c 3d c2 0e cf bc 9f e9 ba 3d
       -0.038010556 0.06881881 -0.025275592 0.09126591
0003d0 54 4a 71 3c 7e 79 b3 bd c1 33 81 bd d9 f8 ac 3c
       0.014727194 -0.08763407 -0.063086994 0.021114754
0003e0 69 89 dd 3c 0c 4d 08 bd bf 96 6c bd ea 26 95 bb
       0.027043061 -0.033276603 -0.05776095 -0.004551758
0003f0 77 28 cc bc 5a 89 71 3d b0 f7 a1 3d 30 41 a2 3c
       -0.024921639 0.05896888 0.07908571 0.019806474

conv2.lin_rel.bias f4 [128]
000000 13 00 8f bd f7 8a cd 3d b0 08 de bc fa 30 c5 bd
       -0.06982436 0.10036271 -0.027103752 -0.09628482
000010 8b 07 d2 3d e7 5f eb 3d c3 a3 a3 bd 9b 36 77 3d
       0.10255345 0.11492901 -0.079902194 0.06035481
000020 af d4 ef 3d 9d 46 82 b9 da d0 1a bd 9f 46 87 bd
       0.11710488 -0.00024848143 -0.037796833 -0.06605267
000030 0f 37 bb bd 15 bf 26 bc a4 a6 a2 bd ac ae f8 3d
       -0.09141361 -0.010177393 -0.079419404 0.12142691
000040 61 16 7d bd 61 c0 3a 3d 63 54 4e bd 86 96 3d bd
       -0.06178892 0.045593623 -0.050373446 -0.04628613
000050 93 cb b1 3d c1 67 43 bd 6e 9b e5 3d dc 1d 6c bd
       0.08681407 -0.04770637 0.112112865 -0.057645664
000060 2e 15 ff ba 1d 7a d5 3d 19 9c 31 3c 7a 7f 82 3d
       -0.0019461268 0.10423682 0.010840439 0.063719705
000070 58 8a 57 3c c5 79 a4 3c d5 88 c8 3d f3 56 a6 3c
       0.013155542 0.020077595 0.09791724 0.020305132
000080 52 7b a5 bc 0c 3d 01 3e 01 1d 47 3c 5d e3 81 3d
       -0.020200405 0.12620944 0.012152911 0.06342194
000090 30 44 09 3d ce b9 4a 3c 31 14 87 3d 7e a3 65 3d
       0.033512294 0.012373401 0.06595648 0.05606412
0000a0 17 1b 4b 3d a3 8f c9 3c da 17 90 bd 9f 7c aa 3d
       0.04958638 0.024604624 -0.07035799 0.08324551
0000b0 cc 86 99 3d 4e 87 90 bd 22 4a 79 3d 76 51 a3 bd
       0.074964136 -0.07057057 0.060861714 -0.07974522
0000c0 07 ae 6b bc 08 88 36 bd 61 af a7 bd 2b 1a 78 3d
       -0.014384753 -0.044563323 -0.08187748 0.06057183
0000d0 a5 b3 08 bc 80 17 04 3d ba 9b e8 3c aa 50 f6 3d
       -0.008343612 0.032248974 0.028394569 0.12027104
0000e0 1c 2b a3 3d fa aa 47 bd ed c0 10 bd 7b 08 b0 bd
       0.07967207 -0.04874704 -0.03534024 -0.085953675
0000f0 a3 5f ce bc f0 3b 84 bc a4 ba a4 bd 25 f0 13 bd
       -0.025192088 -0.016141862 -0.080434114 -0.03611769
000100 b1 3e 55 bd 4d ae 8e bc 13 63 19 bc 51 1f e7 3c
       -0.05206174 -0.017417097 -0.009362 0.028213175
000110 1d 70 cb bc 74 bd 9a 3d c8 de b9 bd 5f bd b1 3c
       -0.024833733 0.075556666 -0.09075695 0.021696744
000120 cc 1b d8 3d ec 7d 55 bc d6 98 9c bd 03 34 18 bd
       0.10552177 -0.01303051 -0.07646339 -0.037158977
000130 ff ea 5e bc a3 8c 8c 3c ed 07 4c bd 3f c1 87 3d
       -0.013605832 0.017156905 -0.049812246 0.06628656
000140 1b 84 67 bd 31 d4 44 3d ab 07 77 3d 84 63 dd 3d
       -0.05652247 0.048053924 0.060310047 0.10809997
000150 22 ec be 3d 87 3c 06 3e 8a a6 64 3d 82 61 aa 3d
       0.093223825 0.13109027 0.055822887 0.083193794
000160 8a 15 36 bb 45 fa cc 3d f7 0f b3 bd 62 91 3f 3d
       -0.0027783834 0.100086726 -0.087432794 0.046769507
000170 83 c8 c7 3d f4 63 e8 3d 20 52 05 bd 05 1f fa 3d
       0.097550415 0.113471895 -0.032549024 0.12212948
000180 61 fc c3 bc c9 1d 68 3c 5c 8b 2c 3d af 94 29 b9
       -0.023924055 0.014167258 0.04212509 -0.00016172485
000190 18 03 5c bd 19 75 84 bd 60 2f 74 bd 6a f3 18 3d
       -0.053713888 -0.06467647 -0.059615493 0.037341513
0001a0 ce fd 05 bc 63 e1 44 bc df 49 f8 3d de 96 13 bd
       -0.0081781875 -0.012016627 0.12123465 -0.03603255
0001b0 08 a9 ee bc a7 0d ae 3d fe 71 d9 3d e5 87 a0 3d
       -0.029133335 0.08498698 0.106174454 0.0783842
0001c0 06 95 4a bd ba d7 c4 3d 3b 67 5c 3c d2 98 47 3d
       -0.049458526 0.09611459 0.013452346 0.048729725
0001d0 81 f1 21 bb b0 95 75 bd fe da 69 3d 2e dc b8 bc
       -0.0024710598 -0.059957206 0.057093613 -0.022565927
0001e0 64 96 8e bd 74 cd 86 bd bd 67 37 3d 83 58 8a 3d
       -0.069622785 -0.06582156 0.044776667 0.067551635
0001f0 38 5b 9f bc f4 63 15 3e 71 56 1d 3d 32 34 0f bd
       -0.019452676 0.1458891 0.038412515 -0.034961887

conv2.lin_root.weight f4 [128, 128]
000000 f1 5f 00 3c 9f d2 75 3a 79 9b 9c bd 59 e0 14 bd
       0.007835374 0.0009377393 -0.076468416 -0.036346767
000010 a0 20 a0 bd c2 19 b1 3d 9b 96 32 3c 3a 01 61 3d
       -0.07818723 0.08647491 0.010900165 0.05493281
000020 46 85 f1 bc ca d9 b3 bc e3 93 0f bd 34 d8 37 3c
       -0.029482495 -0.021954436 -0.035053145 0.01122098
000030 cb 2b 34 bc 40 83 32 bc 1a 20 be bd 58 36 42 3d
       -0.010996769 -0.01089555 -0.09283467 0.047415107
000040 ae 60 ba 3c 77 f3 af 3d f9 68 e1 3c da 16 b4 bd
       0.022751179 0.08591359 0.027515875 -0.08793421
000050 94 25 81 bc db e2 38 bd 51 ad 14 bd 62 53 35 bd
       -0.015764989 -0.04513822 -0.0362981 -0.044268973
000060 a5 93 d0 3c 02 4d 9a bd 24 2b 1b 3d 84 0b b2 3c
       0.025461027 -0.07534219 0.03788294 0.021734007
000070 50 1a 61 bd d8 d4 30 bd 90 dd ad bc db b0 86 bd
       -0.054956734 -0.043171734 -0.021223813 -0.06576701
000080 8b c0 b7 bc d8 e3 88 bd c5 09 29 3b 97 24 fd 3c
       -0.022430679 -0.06684083 0.0025793177 0.030901236
000090 72 51 8a bd 48 60 af 3b 71 c8 8f 3d ae c9 a2 bd
       -0.06753816 0.005352054 0.07020653 -0.079486236
0000a0 4c 80 21 bd 85 0d b9 bd 4b d5 3f bd 80 b4 6f 3d
       -0.039428994 -0.09035782 -0.04683427 0.058521748
0000b0 05 ad 9b 3d ee 55 de bc b1 fa 76 bc ce 64 48 3d
       0.0760136 -0.027140584 -0.015074418 0.04892426
0000c0 d1 ac a0 bd f6 9d ed 3c ee 10 a2 3c ad 85 4e 3d
       -0.07845462 0.029005986 0.019783463 0.050420452
0000d0 e5 11 97 bd dd ed 86 bd da 8d cd 3c 09 3e 4c bd
       -0.0737646 -0.065883376 0.025092054 -0.04986385
0000e0 71 d4 b9 3c 14 ca 9a 3d aa 32 bf bd d4 c7 28 3d
       0.022684308 0.075580746 -0.09335835 0.041206196
0000f0 89 7a 99 3d 4c 7d 4b bd a8 1b ae 3c 98 26 41 bc
       0.07494075 -0.04968004 0.021253422 -0.011788987
000100 bd e2 c1 3c 85 25 b9 3c 6d 9d 2b 3d 9b 2f 2c bd
       0.023667688 0.022600899 0.04189818 -0.042037588
000110 2d 95 7e bd 4b 8c 95 bd 2d 04 ad 3d 48 8c c4 3c
       -0.062153984 -0.073021494 0.08448062 0.023992673
000120 ad db 22 3d 8f eb 3e bd 63 0d 2a 3d 9c 3c 55 bd
       0.03976028 -0.046611365 0.041516673 -0.052059755
000130 15 f7 94 bd f4 94 15 bd 16 81 d4 bc 55 06 96 bd
       -0.0727369 -0.036519006 -0.02594046 -0.073254265
000140 5a 85 40 bd 6e d0 8f bd 15 12 3f 3c e9 74 c3 bd
       -0.047002174 -0.07022177 0.011662026 -0.09543783
000150 44 30 f3 3c cd a8 52 3d a7 8d fe bc ee 82 60 bd
       0.0296861 0.051430512 -0.031073404 -0.054812364
000160 04 21 ac bd e2 12 84 3b c9 75 76 3c 95 d1 b0 bd
       -0.08404735 0.0040305713 0.015042731 -0.086337246
000170 3f df 9b 3d 95 d3 9d 3d 20 8e 3a 3c e4 dc 8f bb
       0.0761094 0.07706372 0.011386424 -0.004390346
000180 c0 94 1f bd 83 e9 3f bd c5 5f 93 bc 27 c7 8e 3d
       -0.03896022 -0.046853554 -0.017990002 0.06971579
000190 f4 0d ca bd c8 5f 26 bc 26 e1 78 b9 64 5b 03 3d
       -0.098659426 -0.010154672 -0.00023734997 0.03206958
0001a0 cf dc 83 bd de e9 45 bd 71 5f 0f bb e9 13 1f bd
       -0.064386 -0.048318736 -0.0021876956 -0.038837347
0001b0 ba 1e a1 bc 08 05 41 3d f6 6c 44 bd d7 c6 01 be
       -0.019667972 0.04712394 -0.047955476 -0.12673508
0001c0 09 cf 27 3b 66 e3 44 3d 3b 2a 83 3c e1 df 89 3d
       0.002560558 0.048068427 0.016011348 0.06732155
0001d0 b0 11 87 3d d5 48 52 3c 02 a3 d6 3b 6e 09 ab bc
       0.065951705 0.012834747 0.0065501938 -0.02087852
0001e0 2e 61 62 3d 4b cc 92 3c 96 b1 e5 bc cc 8d 59 3d
       0.05526846 0.01791968 -0.028038781 0.053113744
0001f0 40 ac a4 3c 46 d3 47 3d 27 e4 29 3c 88 a2 d0 bd
       0.020101666 0.04878547 0.010369337 -0.101872504
000200 9e b5 78 3b c2 24 63 3d ec c8 1b 3d af 8f 9e 3d
       0.003795005 0.055454977 0.03803341 0.07742249
000210 a1 b2 3e bd b5 21 5b bd 28 49 8f 3d 92 5c 9f bc
       -0.046557073 -0.053498942 0.06996375 -0.01945332
000220 ad 01 b0 bd d5 14 a5 3d 08 12 a0 bc 54 29 09 3d
       -0.0859407 0.08060614 -0.019539848 0.03348668
000230 92 0b 14 bc c3 52 81 bd 1c c5 aa 3d 51 b5 93 bd
       -0.009035962 -0.06314614 0.08338377 -0.07212318
000240 be 83 93 bd 83 07 ef bc 43 db 9e 3d 50 2d d9 bb
       -0.07202862 -0.029178387 0.077566646 -0.006627716
000250 10 41 70 bd 92 ff 62 3d 7c 09 99 3d fc 63 8c 3d
       -0.0586558 0.055419512 0.07472512 0.06855008
000260 8b 2c 1c bd 58 bb 31 bd 93 58 18 bc d6 b2 45 3d
       -0.038128417 -0.043391556 -0.0092984615 0.048266254
000270 a6 f3 a0 bd e1 a8 f8 3b 5b 5d 9b 3d 69 a2 c8 3d
       -0.07858972 0.0075884913 0.075861655 0.09796602
000280 5c a4 a7 bd 09 e5 5b 3d 6f 1a 14 bd 11 2f 6c 3d
       -0.08185646 0.05368522 -0.03615802 0.057662074
000290 be bb 8e 3c 58 89 60 bd 1f e5 f8 bb b4 fe 47 3d
       0.017423507 -0.05481848 -0.0075956727 0.04882689
0002a0 cd b6 b5 bd 56 81 cb bd bb ae b1 bd 9b 6e eb bc
       -0.08872757 -0.09936778 -0.08675905 -0.028739264
0002b0 fd 5a b1 3d 3e 3a b3 3d b8 b3 9a 3d de f2 6c bd
       0.08659933 0.08751343 0.0755381 -0.057848804
0002c0 4d 90 5d bd e0 17 f6 bb 46 e7 73 bd de da 3b bb
       -0.054092694 -0.0075101703 -0.05954673 -0.002866439
0002d0 f3 d9 08 bd f5 d3 e5 3c 46 95 aa 3d 89 68 3d 3d
       -0.033410978 0.02805517 0.08329253 0.04624227
0002e0 49 3b a9 bd fd af a8 3c 0a 5b 6d 3c 2e c5 2f 3d
       -0.08263261 0.02059173 0.014487037 0.042912655
0002f0 e0 aa 8b 3c 73 71 f7 3b a7 f6 5a 3b aa 9c 1d bd
       0.017049253 0.007551366 0.0033411176 -0.038479485
000300 d6 b0 4f bd 2f 13 b5 bc 30 b3 bf 3a 7f 3d 9f 3c
       -0.050705753 -0.022103874 0.0014625546 0.019438503
000310 7c a0 1a 3d 2a 01 8b bd 5b 66 bc bc 8e 57 91 3d
       0.037750706 -0.067873314 -0.022998026 0.07096778
000320 c1 24 a7 b9 a6 6c 6c bd 91 94 12 bd ca ca 6f bc
       -0.00031880106 -0.057720803 -0.035786215 -0.014635751
000330 cd 60 2a 3d ff a3 71 3d 31 c4 52 bd 62 f3 aa bc
       0.041596223 0.05899429 -0.051456634 -0.020868007
000340 5f fa 3c bd 9a 20 ee 3c 17 66 e4 3c 96 81 1d bd
       -0.04613721 0.02906828 0.027880711 -0.03845366
000350 d1 85 38 bd 8b b2 a4 bd 6c d0 37 3d fa 88 68 3d
       -0.045049492 -0.08041867 0.0448765 0.056771256
000360 d3 f8 e5 3b e7 c0 61 3d eb 6c 67 bd 74 77 d9 bc
       0.0070181875 0.055115607 -0.056500357 -0.026546218
000370 1b c9 50 bd 24 69 cb 3c 3d 05 86 3d 43 95 dc ba
       -0.05097304 0.024830408 0.06543968 -0.0016829151
000380 b9 27 a2 bc 15 4b 3a bd 82 a9 82 bd c8 e0 17 bd
       -0.019794332 -0.04548176 -0.06379987 -0.037079602
000390 ca b0 a2 bd 86 eb b8 bd ce 27 18 bd b5 e2 d9 b9
       -0.07943876 -0.090292975 -0.037147336 -0.00041558375
0003a0 92 30 15 3d 45 8b 35 bd 65 dd 29 3d c9 b3 d4 3d
       0.036423273 -0.04432227 0.041470904 0.10385854
0003b0 3e 12 b2 3c 71 19 3c 3d 39 f4 fc 3c 71 a3 cf bd
       0.021737214 0.0459227 0.030878173 -0.10138596
0003c0 ed 5c d5 bc 13 1d ac 3d a8 ed bc 3d 61 6a 9d 3d
       -0.026045287 0.08403983 0.09225017 0.07686306
0003d0 be df 9f 3d 02 44 9c 38 56 39 eb bc dc ee a7 bc
       0.07806347 7.451327e-05 -0.028713863 -0.02049964
0003e0 f4 ee a5 bd 23 e4 95 bd 43 2c b9 bb fd 76 c5 bc
       -0.08102217 -0.07318904 -0.0056510284 -0.02410459
0003f0 55 36 4d 3d e6 9c 83 3d e8 4d 60 3d 54 6b 28 3d
       0.050100643 0.064264104 0.054761797 0.04111798

pool2.weight f4 [1, 128]
000000 c9 b9 f7 bc 00 41 31 bd 17 95 a9 bd af 5e 77 3c
       -0.030239956 -0.04327488 -0.0828039 0.015098258
000010 af 73 5d bd d6 eb a9 bd 59 37 45 ba 2e bc ba 3c
       -0.054065403 -0.08296935 -0.0007523201 0.02279481
000020 2a e6 30 bd 40 00 d1 3b 43 04 23 b9 6c f2 8d bd
       -0.04318825 0.0063782036 -0.00015546479 -0.06931004
000030 89 08 8c ba ab 3b 17 3d 7a f2 8b b2 6d a1 c8 bd
       -0.0010683696 0.03692214 -1.6291995e-08 -0.097964145
000040 09 85 0a bd a6 5a 39 bd 81 ef 87 3c 2d c0 9a bd
       -0.03381828 -0.045252465 0.016593697 -0.07556186
000050 06 d9 22 bd af 86 79 3d 14 4a e0 bd c9 22 27 bd
       -0.03975775 0.06091946 -0.10951629 -0.040804658
000060 e0 6e 18 3d f5 6d 7a bd 15 87 7e 3c 5a f0 96 bc
       0.037215114 -0.06114002 0.015535136 -0.018425155
000070 87 ee 73 3d fb 90 4b 3d 23 7d c1 bd 64 af 85 bd
       0.05955365 0.04969881 -0.09447696 -0.06527594
000080 3b c6 70 bd d6 4d 59 bd 83 dd 9b bd 8a 22 98 3c
       -0.058782797 -0.053052746 -0.076106094 0.018571157
000090 6f e6 86 bd 15 20 66 bd 16 8a 71 bd ab 11 9c bd
       -0.065869205 -0.05618294 -0.05896958 -0.076205574
0000a0 0c 5d 04 3b 30 6c 8f bd 26 7e 93 bb 13 69 70 bd
       0.0020197062 -0.07003057 -0.004501122 -0.058693957
0000b0 2f d8 18 bc 55 31 e8 bb 11 1d 23 bd 27 c8 75 bd
       -0.009328886 -0.007085959 -0.03982264 -0.060005333
0000c0 fb f2 99 3b 54 ac 5d 3d c9 36 96 bb a4 62 57 bd
       0.004698155 0.054119423 -0.0045841676 -0.052584305
0000d0 be 66 7f 3d c6 b1 e8 3c 12 8d 84 3b 64 13 02 be
       0.062353842 0.028405081 0.004045137 -0.1270271
0000e0 b5 72 0f bd d1 79 6c bd 4c d0 7f 3d 68 7f b1 3c
       -0.035021503 -0.05773336 0.062454507 0.021667197
0000f0 0c 9a b8 3c 5f 6c 7c 3d ff 5b fd bc 5f a4 97 bd
       0.022534393 0.06162679 -0.030927656 -0.07404398
000100 37 e4 87 3a 66 77 ab bd 7d c6 90 3c a6 e3 d1 39
       0.0010367696 -0.08372383 0.017672772 0.00040033198
000110 24 b0 a0 bc 26 02 82 bd 81 2c 26 bd 7c 37 66 3b
       -0.01961524 -0.06348066 -0.040569786 0.0035128286
000120 ff 6b 7d bd ac d8 d3 3c c6 96 91 bd 2a af b0 bb
       -0.06187057 0.025860153 -0.07108836 -0.005391975
000130 aa 88 3c 3d d8 0b 20 bd bc 06 88 bc f2 1f 0b 3c
       0.04602877 -0.039073795 -0.016604774 0.008491503
000140 77 42 aa bc a6 67 f8 3c 8f 07 bd bd af 8a dd bc
       -0.020783646 0.03032286 -0.09229957 -0.027043669
000150 d1 37 7a bd 12 1a 9c bd bc 35 8d bc 96 9c c4 bd
       -0.061088387 -0.0762216 -0.017237537 -0.09600179
000160 9c 28 7f bd f5 f1 72 bd 3a a5 da ba 9a b5 21 3d
       -0.062294587 -0.05931278 -0.0016681321 0.03947983
000170 0c 25 70 bd c1 2c de bd 18 7f c6 3c 78 98 8c bd
       -0.05862908 -0.1084838 0.024230525 -0.068650186
000180 db 2e 8a bc 54 a0 82 bc c0 f4 63 bd be f8 da 3c
       -0.016868046 -0.015945591 -0.055653334 0.026729938
000190 de eb 4f bd a0 dd e7 ba db 9a c9 3c f1 57 11 3d
       -0.05076205 -0.0017689951 0.024609974 0.035484258
0001a0 44 41 9e bc fc 13 1c bd 7d e0 c0 bd a5 77 9e bd
       -0.01931823 -0.038104996 -0.09417818 -0.07737664
0001b0 f4 59 48 3d 59 1d b6 bc 4c b7 30 bd 5b 01 b8 bd
       0.04891391 -0.02223079 -0.043143556 -0.089846335
0001c0 71 ed 6c bd 1b f4 9d bd ec 6b 54 bd 14 6e 4a 3d
       -0.05784363 -0.07712575 -0.051860735 0.049421385
0001d0 72 88 31 3c 91 a0 7a bd 2d 26 69 bd 97 a8 4b 3d
       0.010835754 -0.061188284 -0.056921173 0.049721327
0001e0 89 8f b7 3c 8c ff 3d b9 6b 70 66 bd f3 fd 33 bc
       0.02240731 -0.00018119643 -0.056259554 -0.010985839
0001f0 53 38 5f bd c7 fb 5f bd 6e f4 d2 bd 71 6a 0e 3c
       -0.054497074 -0.054683473 -0.103005275 0.00869237

conv3.lin_rel.weight f4 [128, 128]
000000 41 7f d6 bc 3b f0 9f 3c 88 fc 18 3d 32 0f 8b 3d
       -0.026183726 0.01952373 0.037350208 0.06790008
000010 49 33 f7 bd 55 41 a5 bd d3 ba 38 bb f7 6b fd 3c
       -0.12070329 -0.08069102 -0.0028187528 0.03093527
000020 6a a3 b4 bd 5f 9e 5a bd a6 44 43 bd 54 8d c0 bc
       -0.08820231 -0.05337369 -0.04767289 -0.02350489
000030 c8 e6 52 bd da 3f 37 3d cd ce e7 3c b2 d0 a1 bd
       -0.05148962 0.044738628 0.028296852 -0.079011336
000040 8d c3 21 bd 07 a6 8d bd 52 92 e5 3c 3e 57 8c bc
       -0.039493132 -0.06916433 0.028023873 -0.017131444
000050 14 f6 01 be dd 0b c7 3d 06 49 19 bd ec fc c5 bd
       -0.12691528 0.097190596 -0.037423156 -0.09667382
000060 fc 6c 83 bd 88 a1 ed bd 5b a6 1b bd 5c e8 ae 3d
       -0.064172715 -0.11603075 -0.038000446 0.08540413
000070 80 63 26 bc af 6c 86 3d d6 81 37 3c d6 9a 68 bd
       -0.010155559 0.065636985 0.011200389 -0.056788288
000080 73 3e 0e bc 13 cb b3 bd 47 3b 8b 3d 62 54 27 3c
       -0.008681881 -0.08778968 0.06798416 0.0102129895
000090 79 80 06 bc b6 29 6d 3d 42 14 7c bd ff 10 ca 3c
       -0.008209341 0.057901107 -0.061542757 0.024666307
0000a0 ff 21 8e bd a7 2b 15 bb aa ce c9 3c 75 b7 0c bd
       -0.06940078 -0.0022761615 0.024634678 -0.034354646
0000b0 7f 70 5e bd fa 16 cd 3b 61 3d 75 3a 25 58 32 3d
       -0.054306503 0.0062588425 0.00093551545 0.043541092
0000c0 64 29 9e bd c1 ea 48 3c 9d 58 5a bd 17 78 5c bd
       -0.077227384 0.012263001 -0.053307164 -0.053825464
0000d0 a9 9b 93 3d bc 6c ff bc bd a1 0a ba ab 3f b3 bd
       0.07207424 -0.031179778 -0.0005288383 -0.08752378
0000e0 4d cf 4b 3d af a7 98 bd 31 2b 66 bc 8d 10 85 bd
       0.049758244 -0.07453858 -0.014048384 -0.064972974
0000f0 d7 4a 62 bd ae ca a7 3c e7 d8 86 3d d4 a1 5f bd
       -0.055247154 0.020482387 0.065843396 -0.05459769
000100 52 09 80 bb b0 e7 5e 3d 5d 71 a7 bd e2 33 af 3c
       -0.003907361 0.054420173 -0.08175919 0.021387044
000110 fc 29 70 bd f3 8d 07 3d 4e 56 47 bd 46 81 8f bd
       -0.05863379 0.033094358 -0.04866629 -0.07007079
000120 2b 04 44 bc aa 06 79 bd dd b7 6e bb fc d2 2b 39
       -0.011963884 -0.06079737 -0.003642551 0.00016386429
000130 63 52 0a 3d e5 22 65 3d 41 e0 9f bc 3a a1 72 bd
       0.033769976 0.05594148 -0.019516112 -0.05923579
000140 cc 87 60 bd c0 cf 0c 3d 86 54 df 3c 95 4e ed 3c
       -0.054817006 0.034377813 0.027261984 0.028968135
000150 9b 49 4f 3d 92 e3 29 bd 06 1c e9 bc af bd 9a bd
       0.050607305 -0.041476794 -0.028455745 -0.075557105
000160 7c f9 ac bd 54 81 8e 3d b3 22 b3 bd e1 32 77 3c
       -0.08446023 0.06958261 -0.08746853 0.015087814
000170 76 41 24 bd 38 da 18 3d cd 5f c0 bc d5 43 bc bc
       -0.04010149 0.037317485 -0.023483181 -0.022981564
000180 8f 9a 3a 3d c7 6b 12 3d 6a 04 8d bd eb 81 99 3d
       0.045557555 0.035747316 -0.068856075 0.07495483
000190 38 8a 1b bd 34 14 28 bd 55 1f 01 3d bf 4b cc bd
       -0.037973613 -0.041034892 0.03152402 -0.09975385
0001a0 85 c5 9c ba 35 64 8f bd 9d 81 68 bd 08 0b e2 3c
       -0.0011960721 -0.07001535 -0.056764234 0.02759315
0001b0 ef f1 25 bd d3 65 ce 3d 8f 71 a0 bd 8d 95 2c 3a
       -0.04051393 0.10078015 -0.078341596 0.0006583564
0001c0 40 4b c5 bd 9e 4f b5 bd 06 80 fb bb f8 28 0a bd
       -0.096334934 -0.088530764 -0.0076751737 -0.033730477
0001d0 8a ea 22 bd 63 a9 ef bc 1e c2 87 bd f6 c1 59 3d
       -0.039774455 -0.029255575 -0.06628822 0.05316349
0001e0 f7 7b 25 bd eb a3 68 bd aa 20 36 3b 95 88 bb bd
       -0.040401425 -0.05679695 0.0027790465 -0.0915691
0001f0 87 b7 58 3a 69 f7 ba bd 20 14 2d bd 09 97 85 bd
       0.0008267094 -0.09129221 -0.04225552 -0.06522948
000200 bf af b7 3c 36 07 b2 3c 66 df ac bd a9 68 b3 bd
       0.02242267 0.021731954 -0.08441047 -0.08760197
000210 ee 04 91 bd 42 cb ac bc 23 67 c7 bd c9 71 12 bd
       -0.070810184 -0.021093015 -0.09736469 -0.035753045
000220 13 5e 35 bd 2f 63 8d bd 48 f0 2f 3c 6b c0 c4 bc
       -0.04427917 -0.069036834 0.01073844 -0.024017533
000230 56 86 b1 3c b8 cf 7b bb 8b 4c 89 3d c1 87 a9 ba
       0.021670502 -0.003842337 0.067040525 -0.0012934135
000240 e0 41 b4 3c ea 72 7e bd 75 72 39 3d b9 1c c7 bd
       0.022004068 -0.06212131 0.04527517 -0.09722275
000250 95 e4 0b bd f8 09 42 bb a3 c7 2a 3d e6 64 05 3c
       -0.03415354 -0.0029607993 0.041694295 0.008141732
000260 b5 8e d7 3d 1d 24 c5 3c b5 d6 40 3d 38 1f 6b 3d
       0.10525266 0.024065072 0.04707976 0.05740282
000270 0d 2b 19 3d e5 42 78 bd e8 b3 87 3c 36 db 5b bc
       0.037394572 -0.06061067 0.016565278 -0.013418963
000280 06 fa 84 3d 3c 2d 80 3d 4f a9 0f 3d 81 bd 91 bd
       0.06493001 0.06258628 0.035073575 -0.07116223
000290 fd a5 d6 bb 77 20 07 3d 58 b8 2c 3d d7 f2 03 bb
       -0.006550549 0.032989945 0.04216799 -0.0020133757
0002a0 91 f6 76 3d 2e e9 98 bd 35 52 2b bd 06 a4 73 3c
       0.060293738 -0.074663505 -0.041826446 0.014870649
0002b0 ec fa 5e 3b 21 ff d8 3b be e7 a7 3c e3 f6 0b bc
       0.0034024073 0.0066222106 0.020496245 -0.008542749
0002c0 1f 5c c3 bd 74 e0 b2 3d 7d 03 09 bc f2 84 13 3d
       -0.09539055 0.08734217 -0.008362648 0.03601546
0002d0 b1 d7 8f 3d 21 ea 54 3d b7 90 af bd 39 d4 8f bc
       0.07023562 0.051981095 -0.08572524 -0.01755725
0002e0 8a cc 0f 3d e1 0e 00 bd d6 28 db 3b ce 6a a5 3d
       0.035107173 -0.03126419 0.0066882176 0.08077012
0002f0 3b 1f fa 3c c3 a6 1e 3d 8d 76 43 bd ba c9 e9 bd
       0.03053247 0.038733255 -0.04772048 -0.114154294
000300 f4 a2 fd bd a1 40 6f bd a0 c9 3c 3d 7c b9 91 3c
       -0.123845965 -0.058411244 0.046090722 0.017788641
000310 72 e8 8c 3d 5b cf cf 3c dc e6 4d 3c 38 71 9f bd
       0.06880273 0.02536743 0.012567248 -0.07785267
000320 39 83 89 bd 17 18 ce 3d cf 75 e1 bc af dc 57 3d
       -0.06714482 0.100631885 -0.027521996 0.052700695
000330 76 c5 ce 3c 7a 86 d2 3c 05 b9 d7 bd 83 70 4b 3c
       0.025240641 0.025698889 -0.105333365 0.012416962
000340 90 95 0e 3c 1d 12 4e 3d b4 a6 03 3b b7 79 8e bd
       0.008702651 0.050310243 0.0020088376 -0.06956809
000350 2b 5a 3f bd 98 c9 57 3c de 11 a2 bb 25 bf d5 bd
       -0.04671685 0.013170622 -0.0049459776 -0.104368486
000360 33 ef 44 bd d2 f5 df bc 6a d2 b7 3b 5f b8 73 3d
       -0.04807968 -0.027338896 0.0056098 0.059502
000370 f9 ff e7 3c a4 f2 e4 3b f1 4b ac bc df 1b c4 bc
       0.0283203 0.006986933 -0.021032305 -0.023939071
000380 36 e7 71 3c 7d 4c 9f 3d 19 81 ac bd d9 6a 39 bd
       0.014764598 0.07778261 -0.08423061 -0.045267913
000390 e5 90 77 3d 6a 62 2a bd c9 44 a8 3c 7c 6c b4 3c
       0.060440917 -0.04159776 0.020540612 0.022024386
0003a0 3a 5c f0 3c 44 13 03 bb ea 32 a3 3c c6 ac 9b 3d
       0.029340852 -0.0020000497 0.019921739 0.07601313
0003b0 3f 13 45 bc 17 5a b9 3d 03 1d 2f 3d 87 bd c3 bd
       -0.012028514 0.090503864 0.042752277 -0.09557634
0003c0 4c 46 7a 3b 55 47 56 bc b6 4f 63 bd 74 c6 46 3d
       0.0038188873 -0.01307853 -0.05549594 0.048529103
0003d0 73 46 6b bc cc b8 3d bd 08 e2 2b 3c 39 62 ba 3b
       -0.014360058 -0.046318814 0.010490902 0.0056879786
0003e0 16 7e 77 bd 4c 2d ce 3c af e7 6f bd 9c 92 a1 bd
       -0.06042298 0.025168084 -0.05857056 -0.07889292
0003f0 f9 fe ad bc 39 d9 a0 3b af d9 ef 3c 31 b0 9a 3d
       -0.021239744 0.0049087075 0.029278604 0.07553137
